CubeTest/results/Test2/MoveToGoal/checkpoint.pt (torch, 439199 bytes, 36 tensors)

network_body._body_endoder.seq_layers.0.weight f4 [128, 6]
0.513695 -0.13406292 -0.09486807 0.3763758 0.05496282 0.45241565 -0.45064425 -0.17639834
0.16904934 0.4066577 0.11128424 0.3631694 -0.37550396 0.41943538 0.053893045 0.39908978
-0.084678754 -0.19266963 0.3742836 0.02192956 0.09499607 -0.75543046 0.32580206 -0.33376855
0.32062474 -0.8160059 0.1331534 0.061696615 0.68661493 -0.34890336 -0.29067397 -0.21741006
-0.21969807 -0.34727973 -0.24330921 -0.22883208 -0.30731216 0.15130435 0.3087566 -0.17117125
-0.036242142 0.33184406 0.9721253 -0.22461076 -0.009092287 0.2564173 0.29116383 -0.41820833
-0.4679717 -0.20681076 0.48736575 0.29801384 -0.40373203 0.0052014347 0.47228056 -0.15353534
-0.24155825 0.35727978 -0.031231584 -0.040607095 0.61283046 -0.46656024 0.35680765 -0.5782417
-0.06502796 -0.30246583 -0.09381722 0.17211165 0.039473955 0.30473003 -0.16807997 0.20108512
1.0437266 -0.08895687 0.1265555 -0.05458105 -0.37429363 -0.052253794 -0.05039129 0.45186314
-0.4739409 -0.26911327 -0.02375932 -0.29281354 0.14425367 -0.4746036 0.55262357 -0.3573963
0.677567 0.1016061 -0.16829632 -0.02182669 -0.029579297 0.06673272 -0.5284074 -0.44174805
-0.1457857 0.49740052 -0.65057313 -0.07113162 -0.2608393 0.3417853 0.45163316 0.10097208
-0.035030685 0.042718917 -0.3729666 -0.118609846 -0.43077576 -0.28376287 -0.1051664 -0.3399648
0.01799987 0.18520246 -0.6249815 0.14558466 0.16645162 -0.2964428 -0.10051567 -0.37209156
-0.7628623 -0.6084455 -0.21982078 0.086817175 -0.64774674 -0.41981116 -0.61808497 0.036132894
0.051792122 0.44611156 0.1370311 0.18507533 0.2837851 -0.53707236 -0.8087617 0.5081515
-0.7331348 0.67774415 -0.33610687 0.17229937 0.25529322 0.3669877 -0.56039006 -0.035121515
0.22249942 -0.47617722 -0.066831306 0.17348766 -0.4289274 0.57356656 0.47894526 -0.048151653
0.17577043 -0.27088696 0.05168487 -0.60622925 0.45580003 -0.34031177 -0.49503624 0.09275321
0.12082859 -0.93229747 -0.43783697 0.13085836 -0.2152524 0.122542225 0.8725569 -0.025700277
-0.23394549 -0.32556197 -0.41641492 0.014411101 -0.2393126 0.17063262 -1.0751798 -0.027184876
0.06762184 -0.08064701 -0.3117305 -0.46779954 -0.3718785 0.4030401 -0.064315796 0.67231226
0.42897218 -0.907179 -0.60073674 0.09666286 -0.049842104 0.057423145 -0.42596683 -0.48918107
-0.33824795 -0.16305901 -0.321003 0.22126977 -0.37982845 0.40167016 0.7443398 -0.09645061
-0.5594085 -0.10646544 -0.07969705 -0.47721383 -0.12878077 -0.75297254 -1.4316175 0.15136784
-0.08992325 0.056712463 0.21074477 -0.16930142 0.077048324 0.4728495 -0.14314015 -0.23790032
-0.2981641 -0.14827307 -0.11739413 -0.4340755 -0.47059947 0.23638475 -0.54867494 -0.16155216
-0.07266421 0.14080817 0.54657555 -0.40665764 0.26251003 0.66429126 -0.3023243 -0.044320144
-0.056866635 -0.30279607 0.81269354 0.17103982 -0.6790533 0.06863878 -0.13042115 0.2238567
0.0061313463 0.34034103 -0.2377196 -0.5298662 0.107346304 0.050273202 0.30072227 0.1146737
-0.026811905 -0.024530388 -0.2929295 -0.1528216 0.3548802 -0.47405365 -0.8474101 -0.6318587
00000000: 8481 033f ca47 09be 314a c2bd 54b4 c03e
00000010: b220 613d 06a3 e73e d8ba e6be c4a1 34be
00000020: 451b 2d3e 7035 d03e fee8 e33d 57f1 b93e
00000030: 0e42 c0be 3cc0 d63e f4be 5c3d 7f55 cc3e
00000040: 0e6c adbd 304b 45be 1aa2 bf3e 9fa5 b33c
00000050: 4d8d c23d e463 41bf 87cf a63e b6e3 aabe
00000060: ed28 a43e c3e5 50bf 5d59 083e 97b5 7c3d
00000070: ffc5 2f3f 76a3 b2be 38d3 94be bea0 5ebe
00000080: 88f8 60be a6ce b1be 0d26 79be f552 6abe
00000090: 0558 9dbe 87ef 1a3e 5815 9e3e 8447 2fbe
000000a0: a472 14bd 77e7 a93e 34dd 783f 5d00 66be
000000b0: d1f7 14bc 2149 833e 6d13 953e 671f d6be
000000c0: fd99 efbe 33c6 53be 0188 f93e 4595 983e
000000d0: f7b5 cebe cc70 aa3b c2ce f13e 5e38 1dbe
000000e0: 0c5b 77be 60ed b63e 61d9 ffbc a053 26bd
000000f0: 75e2 1c3f fce0 eebe 7eaf b63e a607 14bf
00000100: 612d 85bd cddc 9abe 3e23 c0bd 093e 303e
00000110: 71af 213d 9305 9c3e 281d 2cbe 42e9 4d3e
00000120: d598 853f 052f b6bd c497 013e 6190 5fbd
00000130: 6aa3 bfbe 1308 56bd 1967 4ebd 9b5a e73e
00000140: 62a8 f2be 37c9 89be e8a2 c2bc a8eb 95be
00000150: 3cb7 133e 3eff f2be bd78 0d3f a6fc b6be
00000160: 0875 2d3f dc16 d03d df55 2cbe e3cd b2bc
00000170: 4850 f2bc 2aab 883d b545 07bf cd2c e2be
00000180: d948 15be 48ab fe3e f68b 26bf 74ad 91bd
00000190: bb8c 85be 7cfe ae3e 763c e73e 73ca ce3d
000001a0: 567c 0fbd 08fa 2e3d 7af5 bebe b8e9 f2bd
000001b0: a48e dcbe 5e49 91be 7b61 d7bd de0f aebe
000001c0: 7774 933c b7a5 3d3e cafe 1fbf 2514 153e
000001d0: 4b72 2a3e 5ac7 97be 29db cdbd c982 bebe
000001e0: f24a 43bf 16c3 1bbf b318 61be 34cd b13d
000001f0: bbd2 25bf 7df1 d6be d13a 1ebf 1600 143d
00000200: fa23 543d bc68 e43e e151 0c3e 6384 3d3e
00000210: 484c 913e 937d 09bf 020b 4fbf 3716 023f
00000220: b9ae 3bbf a480 2d3f 3316 acbe 3f6f 303e
00000230: cbb5 823e d0e5 bb3e b975 0fbf 94db 0fbd
00000240: e3d6 633e 80cd f3be dade 88bd c0a6 313e
00000250: 5f9c dbbe 42d5 123f 5038 f53e ab3a 45bd
00000260: 2afd 333e b2b1 8abe 84b3 533d d731 1bbf
00000270: 9f5e e93e 583d aebe 6475 fdbe 65f5 bd3d
00000280: fb74 f73d 0cab 6ebf 2b2c e0be bcff 053e
00000290: 206b 5cbe 6bf7 fa3d e45f 5f3f 6389 d2bc
000002a0: 688f 6fbe 0fb0 a6be 5634 d5be 8a1c 6c3c
000002b0: 5d0e 75be 51ba 2e3e 7e9f 89bf d1b2 debc
000002c0: 527d 8a3d 422a a5bd 249b 9fbe 6c83 efbe
000002d0: dc66 bebe 465b ce3e 00b8 83bd a81c 2c3f
000002e0: 3ea2 db3e e23c 68bf e2c9 19bf 2df7 c53d
000002f0: 3c27 4cbd 8834 6b3d 5318 dabe f175 fabe
00000300: d62e adbe f1f8 26be 815a a4be 8b94 623e
00000310: e078 c2be b6a7 cd3e 0e8d 3e3f e687 c5bd
00000320: 6535 0fbf 8d0a dabd 3538 a3bd 5f55 f4be
00000330: 1bdf 03be cfc2 40bf 3e3f b7bf 2c00 1b3e
00000340: ae29 b8bd 544b 683d 7acd 573e 5a5d 2dbe
00000350: 83cb 9d3d 5419 f23e 5593 12be 249c 73be
00000360: f7a8 98be e5d4 17be 556c f0bd 253f debe
00000370: 6af2 f0be d80e 723e f675 0cbf ee6d 25be
00000380: f9d0 94bd 0430 103e 60ec 0b3f 6e35 d0be
00000390: b767 863e fe0e 2a3f 40ca 9abe 0a89 35bd
000003a0: fdec 68bd 1608 9bbe af0c 503f 1025 2f3e
000003b0: 70d6 2dbf 7d92 8c3d 1f8d 05be b13a 653e
000003c0: 76e9 c83b 2e41 ae3e c46c 73be 50a5 07bf
000003d0: 61d8 db3d 46eb 4d3d 45f8 993e 0bda ea3d
000003e0: a4a4 dbbc f4f3 c8bc dbfa 95be 447d 1cbe
000003f0: dcb2 b53e 29b7 f2be deef 58bf 7ec1 21bf

network_body._body_endoder.seq_layers.0.bias f4 [128]
0.029381702 0.007303382 -0.007900966 0.016856275 -0.005566353 0.0033477584 0.028803367 0.013437375
0.019677406 0.017567609 0.043414973 0.026973454 0.02945413 0.024099423 -0.016295714 -0.026257534
-0.018382238 0.0019278447 -0.026379395 0.006970348 -0.013573103 0.0013486268 0.0033738369 -0.0042455625
0.03757642 0.037966162 0.028059736 -0.030652922 0.035191745 0.026328892 -0.02670493 -0.013754772
0.021776803 -0.02758284 0.0027629978 0.025253057 -0.02386356 -0.024754304 -0.0012562905 0.035724632
-0.028871274 -0.0051226993 0.02964804 -0.00294052 -0.034686424 0.031939004 -0.018135002 -0.017566822
-0.011125868 -0.024947096 -0.009394967 0.034987226 0.02888165 -0.006582836 -0.014169679 0.00608134
0.029537583 0.026359005 0.032338977 0.018088099 -0.043909315 0.023467584 -0.019496825 0.008969102
0.026043512 0.032171275 0.029366208 0.024038592 0.011240706 -0.015561269 0.040817127 -0.02367224
-0.011371225 -0.023407552 -0.0002081117 0.031544928 -0.009935827 0.029332481 0.02494881 0.020490283
-0.0008239842 0.0069283876 -0.0137122 0.014166584 -0.01937014 -0.028466737 0.02710319 0.02683258
-0.022988383 0.013815388 -0.0006694531 -0.013668956 0.017633077 -0.02607245 -0.03548216 -0.021047251
-0.014120531 0.031997725 0.028620943 0.005014611 0.029447604 0.021534374 -0.024403011 0.03007858
0.032062076 -0.03088724 0.02367553 -0.029791018 0.028877174 0.035607103 -0.0069349427 0.0071396395
0.029141353 0.028059896 -0.0049305526 -0.008773677 0.004187519 -0.019036224 -0.0119499015 0.02958291
-0.009231061 0.027964966 -0.02318245 -0.013536454 -0.00035788547 -0.016868573 0.020166578 0.011916117
00000000: e5b1 f03c 3551 ef3b 0e73 01bc 2c16 8a3c
00000010: f465 b6bb 1166 5b3b 0af5 eb3c 7028 5c3c
00000020: 8332 a13c f2e9 8f3c e6d3 313d 6ff7 dc3c
00000030: ca49 f13c 276c c53c 977e 85bc 0a1a d7bc
00000040: 5996 96bc bcaf fc3a 9a19 d8bc 8467 e43b
00000050: b861 5ebc 68c4 b03a 971b 5d3b 5c1e 8bbb
00000060: bbe9 193d 6882 1b3d 88dd e53c d61b fbbc
00000070: 3825 103d b0af d73c 4cc4 dabc b25b 61bc
00000080: 4465 b23c 68f5 e1bc 6913 353b 80df ce3c
00000090: 837d c3bc 8ac9 cabc 1daa a4ba fe53 123d
000000a0: 7383 ecbc 51dc a7bb 72e0 f23c bdb5 40bb
000000b0: 5a13 0ebd 79d2 023d db8f 94bc 4ce8 8fbc
000000c0: 4649 36bc da5d ccbc 59ed 19bc c44e 0f3d
000000d0: 3699 ec3c d5b4 d7bb f127 68bc fa45 c73b
000000e0: cdf8 f13c d7ee d73c e075 043d 7e2d 943c
000000f0: 41da 33bd 173f c03c ceb7 9fbc 24f3 123c
00000100: 3459 d53c 07c6 033d 6791 f03c 95ec c43c
00000110: f02a 383c b1f4 7ebc dc2f 273d 49ec c1bc
00000120: 604e 3abc 32c1 bfbc 8f38 5ab9 4135 013d
00000130: e1c9 22bc ac4a f03c 7261 cc3c 3ddb a73c
00000140: a500 58ba 8707 e33b 23a9 60bc f61a 683c
00000150: 21ae 9ebc 1333 e9bc 8207 de3c 00d0 db3c
00000160: 2252 bcbc f059 623c 3d7e 2fba c2f3 5fbc
00000170: 3e73 903c e495 d5bc be55 11bd 496b acbc
00000180: cd59 67bc 0c10 033d 7876 ea3c 9b51 a43b
00000190: 1a3c f13c db68 b03c d3e8 c7bc 5b67 f63c
000001a0: 8653 033d 3d07 fdbc 2ff3 c13c 4b0c f4bc
000001b0: d38f ec3c c1d8 113d 843e e3bb a3f3 e93b
000001c0: d9b9 ee3c dedd e53c 7990 a1bb 78bf 0fbc
000001d0: 7537 893b dbf1 9bbc 85c9 43bc dc57 f23c
000001e0: e03d 17bc c916 e53c 1fe9 bdbc 01c8 5dbc
000001f0: 93a2 bbb9 f62f 8abc 6134 a53c d13b 433c

network_body._body_endoder.seq_layers.2.weight f4 [128, 128]
0.040115286 -0.018418193 0.0314704 -0.05170891 -0.0956084 -0.044117294 0.020411037 0.121683344
0.09738436 0.0033053965 -0.10599736 0.04068723 0.03483414 0.075426884 -0.15647955 -0.07285895
0.042309355 0.009404763 -0.034024168 0.02150117 0.016812187 -0.017336324 0.009112395 0.07865265
0.08108358 -0.0589352 -0.02938641 -0.00040313613 0.04507612 0.07718019 -0.15177467 -0.11882823
0.08224838 -0.13960749 -0.1003388 0.22466096 0.06504079 0.0855659 -0.014326385 0.062406924
0.017758295 0.0012286109 -0.049448803 -0.13917115 -0.11436774 0.10217178 -0.23865424 -0.0912872
0.04434102 0.060400784 -0.050521985 0.13859715 0.020771304 0.042148758 -0.05228718 -0.12520334
0.0039114365 0.08400085 -0.09672316 -0.052644145 -0.011469356 -0.14286903 -0.050408646 0.049029727
0.14627674 0.060861394 0.03243671 -0.19450773 -0.010210997 -0.06717331 0.119891256 -0.022097945
-0.049287025 -0.038997713 0.15393324 -0.05340952 0.015327206 0.008361383 0.12763172 -0.15412377
0.011222429 -0.1163879 0.11401397 -0.102691814 -0.041508287 0.085151486 -0.029715221 0.071664065
-0.008393146 -0.06600453 -0.29873377 -0.04738117 0.090388745 -0.09124577 -0.05639035 -0.047337763
-0.12046473 0.05061171 0.04967733 -0.13286783 -0.2152868 -0.1256826 -0.016499097 0.07469137
0.04969262 -0.020873757 0.022974232 0.06839966 0.1412121 0.1283982 0.12087681 0.06856705
-0.07145874 -0.015364892 -0.0019373451 0.053131316 -0.0921994 -0.11188441 0.105357744 0.21106867
-0.048353177 0.077555306 0.106957816 -0.08527395 0.073194765 0.00711036 -0.052314293 0.032262992
-0.07707269 -6.9661895e-05 -0.0715195 -0.16089733 -0.20074843 -0.096400805 0.066382594 -0.07022605
0.07106638 0.016495889 0.109340616 -0.112451024 -0.07881111 0.033226214 0.09740378 0.03641663
-0.023856904 -0.09086902 -0.052874517 0.009869919 -0.09710756 -0.13191351 -0.19205284 0.11264549
0.07610709 -0.17830597 -0.037466787 0.007178407 -0.0065722726 0.11186191 0.18972538 0.0211964
-0.033233624 -0.15810412 0.058902215 -0.023420697 0.15664396 -0.050890904 0.019874137 0.087603316
-0.05165004 0.14093947 -0.1581041 0.06857285 -0.028884295 -0.16241398 -0.07365874 0.015006819
0.25585973 -0.04501577 0.05719204 0.017074684 -0.06138957 -0.088237345 0.05338246 -0.005300804
-0.0575911 -0.15298069 -0.0076987823 -0.040837772 0.18528265 0.09610126 0.08511484 0.08978635
-0.16050215 0.041229095 -0.013130544 -0.20945974 0.046103176 -0.05886668 -0.03527972 0.014658892
0.010626773 -0.11917249 -0.21317288 0.00435775 -0.1250661 0.15089068 -0.08306119 0.14793456
0.039523914 0.018585395 -0.026283706 0.20544526 0.031604078 0.068266355 0.120382175 -0.057789028
0.27270204 -0.039076366 -0.016059576 0.094317116 0.05383569 -0.07562235 -0.0055997544 -0.008930491
0.17497012 -0.10082556 0.02038222 0.034059245 -0.17160372 0.101351306 -0.015782673 0.049391553
-0.051119737 0.18799011 -0.070014164 -0.16223942 0.1083041 0.022269115 -0.043182496 -0.0010091834
0.04441032 -0.06410395 -0.0007038046 -0.014657604 -0.044627998 0.1523428 -0.1435407 0.13341856
0.03947239 -0.13241808 0.09540165 0.07552328 -0.010089622 -0.15000762 -0.012265476 0.050281994
00000000: ed4f 243d c0e1 96bc 1be7 003d b9cc 53bd
00000010: 56ce c3bd 56b4 34bd 0c35 a73c 1e35 f93d
00000020: 7471 c73d 5a9f 583b 2515 d9bd a7a7 263d
00000030: 3eae 0e3d 6979 9a3d 2d3c 20be 1337 95bd
00000040: 934c 2d3d 6f16 1a3c ed5c 0bbd 3923 b03c
00000050: b6b9 893c e804 8ebc 284c 153c a414 a13d
00000060: 260f a63d 0966 71bd c5bb f0bc 045c d3b9
00000070: bda1 383d a610 9e3d d26a 1bbe 375c f3bd
00000080: d771 a83d 44f5 0ebe 6e7e cdbd 860d 663e
00000090: 1b34 853d 2d3d af3d 37b9 6abc 679e 7f3d
000000a0: d879 913c 5709 a13a d48a 4abd e282 0ebe
000000b0: a239 eabd 703f d13d c761 74be c9f4 babd
000000c0: ee9e 353d d066 773d 24f0 4ebd 69ec 0d3e
000000d0: 9528 aa3c 2da4 2c3d 152b 56bd 4e35 00be
000000e0: 822b 803b a308 ac3d cb16 c6bd 63a1 57bd
000000f0: f7e9 3bbc 424c 12be 4c79 4ebd 65d3 483d
00000100: 92c9 153e cc49 793d 5bdc 043d 092d 47be
00000110: 074c 27bc 2992 89bd 8c89 f53d c006 b5bc
00000120: 31e1 49bd 11bc 1fbd ada0 1d3e f1c3 5abd
00000130: f61e 7b3c 2ffe 083c e4b1 023e 9fd2 1dbe
00000140: 47de 373c c85c eebd 2880 e93d 1650 d2bd
00000150: 9804 2abd e763 ae3d 566d f3bc 9cc4 923d
00000160: 6883 09bc 622d 87bd a2f3 98be c212 42bd
00000170: bc1d b93d 10df babd 91f9 66bd 3ee5 41bd
00000180: 36b6 f6bd 394e 4f3d 757a 4b3d 810e 08be
00000190: 2574 5cbe f1b2 00be 1d29 87bc caf7 983d
000001a0: 7d8a 4b3d 71ff aabc 7534 bc3c 1f15 8c3d
000001b0: e899 103e d17a 033e 438e f73d e26c 8c3d
000001c0: f658 92bd 07bd 7bbc 84ee fdba 39a0 593d
000001d0: 0ad3 bcbd a723 e5bd cdc5 d73d 6322 583e
000001e0: fb0d 46bd 51d5 9e3d b30c db3d 1ca4 aebd
000001f0: 23e7 953d 06fe e83b 8347 56bd 3326 043d
00000200: 49d8 9dbd 7217 92b8 d178 92bd 45c2 24be
00000210: ff90 4dbe c96d c5bd 99f3 873d add2 8fbd
00000220: 408b 913d 6322 873c f9ed df3d b94c e6bd
00000230: b867 a1bd 3618 083d a27b c73d 9b29 153d
00000240: 8e6f c3bc 8919 babd f392 58bd 71b5 213c
00000250: 54e0 c6bd 5614 07be 80a9 44be aeb2 e63d
00000260: 09de 9b3d d795 36be c676 19bd d838 eb3b
00000270: 385c d7bb db17 e53d 5f47 423e 13a4 ad3c
00000280: fb1f 08bd 0ce6 21be 7343 713d c3dc bfbc
00000290: 4667 203e fb72 50bd 16cf a23c 5e69 b33d
000002a0: fe8e 53bd 7052 103e 0be6 21be ec6f 8c3d
000002b0: c29e ecbc da4f 26be 65da 96bd 29df 753c
000002c0: 0c00 833e 7562 38bd 3342 6a3d 35e0 8b3c
000002d0: a173 7bbd c8b5 b4bd 91a7 5a3d 5eb2 adbb
000002e0: a5e4 6bbd f8a6 1cbe 1146 fcbb 8245 27bd
000002f0: bcba 3d3e bdd0 c43d b050 ae3d e8e1 b73d
00000300: ad5a 24be d7df 283d 7e21 57bc 9d7c 56be
00000310: afd6 3c3d 301e 71bd 7881 10bd d92b 703c
00000320: eb1b 2e3c b510 f4bd fe49 5abe 75cb 8e3b
00000330: 5411 00be 1683 1a3e fc1b aabd 287c 173e
00000340: d4e3 213d 6640 983c ed50 d7bc 3e60 523e
00000350: 4773 013d 3bcf 8b3d ee8a f63d 30b4 6cbd
00000360: 9a9f 8b3e 8a0e 20bd 5f8f 83bc 5529 c13d
00000370: d082 5c3d e4df 9abd 257e b7bb 3251 12bc
00000380: 5e2b 333e a27d cebd 9df8 a63c b581 0b3d
00000390: e3b8 2fbe 4691 cf3d aa4a 81bc cc4e 4a3d
000003a0: ee62 51bd 7b80 403e 9663 8fbd 1722 26be
000003b0: 8ace dd3d b86d b63c 21e0 30bd 9346 84ba
000003c0: 99e7 353d ef48 83bd 877f 38ba 7226 70bc
000003d0: d9cb 36bd c0ff 1b3e 55fc 12be e09e 083e
000003e0: cdad 213d 9b98 07be f161 c33d f3ab 9a3d
000003f0: f14e 25bc 999b 19be 23f5 48bc 7ef4 4d3d

network_body._body_endoder.seq_layers.2.bias f4 [128]
0.0204997 -0.012854528 -0.023383504 0.018370915 0.022177476 0.024017505 0.030914014 -0.01565981
0.030743798 -0.01586426 0.02086736 0.008428257 0.02845695 0.029815948 -0.014320729 -0.021714477
0.019541843 -0.018919857 -0.0058647036 -0.019962518 0.029379942 0.029359521 0.0004599706 -0.013812948
0.018530736 -0.009374373 0.018606246 0.02920622 -0.007069626 0.029910382 0.031946953 0.026233992
0.027029749 -0.0018326703 0.026492696 -0.012069829 -0.019684676 0.028293202 0.015465187 0.0038523828
-0.021846365 0.028519846 0.029705195 0.019791158 0.028127892 -0.01363965 -0.012009073 0.019582875
-0.007411314 -0.023231573 0.0036213752 0.030649671 0.023798075 0.023335822 -0.009073092 -0.02019344
-0.01705821 0.022098636 -0.00858761 -0.008989996 -0.019001205 0.026093103 -0.008503213 -0.0076241265
-0.0075540324 0.027404154 -0.0060636825 -0.016563337 0.025592308 -0.014370687 -0.0077674305 0.027464299
0.0277965 0.020010414 0.026305744 -0.00029332357 -0.011339791 0.029296327 -0.017097294 0.02825132
-0.0048118653 0.0022819361 -0.016589828 0.027044171 0.030758912 0.026011785 -0.02351806 -0.006638453
-0.0093373675 -0.013035368 0.029831976 0.0038216445 -0.002059695 0.03024938 -0.013062576 0.02941584
-0.02288956 0.029688662 0.011245523 0.026876215 0.022939786 -0.019854013 0.017627507 -0.019239808
0.028642923 -0.010672428 0.031556252 -0.014476249 0.028798975 -0.022868361 -0.022967225 -0.020331996
0.031319153 0.021185488 0.012778334 0.029319623 0.0024920115 -0.023767563 -0.021564962 0.0054241233
-0.023042127 0.027435884 0.007627288 -0.026773365 0.01187546 -0.013301256 -0.02632108 0.026289102
00000000: fdee a73c cc9b 52bc c38e bfbc 9a7e 963c
00000010: 8aad b53c 5cc0 c43c 633f fd3c 0049 80bc
00000020: 6bda fb3c c4f5 81bc 07f2 aa3c ac16 0a3c
00000030: 8d1e e93c 9340 f43c 7ea1 6abc 8fe2 b1bc
00000040: 3716 a03c d1fd 9abc b32c c0bb 6f88 a3bc
00000050: 34ae f03c 6183 f03c 3528 f139 b44f 62bc
00000060: c5cd 973c f896 19bc 206c 983c e241 ef3c
00000070: 52a8 e7bb 9e06 f53c cfda 023d abe8 d63c
00000080: 7e6d dd3c 3636 f0ba 3607 d93c 88c0 45bc
00000090: c241 a1bc 25c7 e73c b261 7d3c 4278 7c3b
000000a0: 26f7 b2bc 74a2 e93c 4f58 f33c 1121 a23c
000000b0: 776c e63c d778 5fbc b4c1 44bc 446c a03c
000000c0: 9cda f2bb 2450 bebc 9854 6d3b 0515 fb3c
000000d0: 2ef4 c23c c42a bf3c 4ea7 14bc b76c a5bc
000000e0: a9bd 8bbc 3308 b53c 0cb3 0cbc c74a 13bc
000000f0: 6aa8 9bbc 34c1 d53c 0f51 0bbc cfd3 f9bb
00000100: d187 f7bb ad7e e03c dbb1 c6bb d6af 87bc
00000110: f6a6 d13c 0873 6bbc ee85 febb cffc e03c
00000120: 7cb5 e33c e1ec a33c 257f d73c 39c9 99b9
00000130: 88ca 39bc dafe ef3c a00f 8cbc 506f e73c
00000140: daac 9dbb 898c 153b 64e7 87bc bd8b dd3c
00000150: 1dfa fb3c ab16 d53c f2a8 c0bc 6187 d9bb
00000160: c2fb 18bc 4c92 55bc 3062 f43c 8e74 7a3b
00000170: f3fb 06bb 8ccd f73c 6a04 56bc 7df9 f03c
00000180: e382 bbbc a335 f33c 243f 383c 822b dc3c
00000190: 38ec bb3c e2a4 a2bc 9067 903c cd9c 9dbc
000001a0: 90a4 ea3c 68db 2ebc 2141 013d ca2d 6dbc
000001b0: d4eb eb3c 6e56 bbbc c325 bcbc 498f a6bc
000001c0: 8348 003d 308d ad3c 385c 513c b52f f03c
000001d0: 0451 233b 31b4 c2bc 01a9 b0bc d8bc b13b
000001e0: d8c2 bcbc 38c1 e03c 54ee f93b d153 dbbc
000001f0: 4a91 423c 83ed 59bc 4e9f d7bc 3e5c d73c

action_model._continuous_distribution.log_sigma f4 [1, 2]
-0.19180326 -0.18405858
00000000: 1368 44be da79 3cbe

action_model._continuous_distribution.mu.weight f4 [2, 128]
0.016581839 -0.010452591 -0.013951831 0.010921819 0.016577223 0.0017407619 0.059811883 -0.016358413
0.053339038 -0.036676846 0.024100702 0.009751808 0.05254229 0.02994236 -0.024225455 -0.029024549
0.021810161 -0.00018349967 -0.040468033 0.0015019899 0.042242136 0.056040283 -0.041689098 -0.023010345
0.0020648525 -0.06704482 0.0044366014 0.03847823 -0.094705924 0.06033819 0.07029724 0.021594519
0.015282159 0.036611274 0.04455354 -0.036551535 -0.018283395 0.045613967 0.045283657 0.023514766
-0.008321373 0.051564354 0.055309683 0.049554642 0.03001792 -0.020585826 -0.052092664 0.013371497
-0.0014994465 -0.01922517 -0.06532995 -0.008707829 0.020329759 0.04079629 -0.022224326 -0.02136148
-0.04531647 0.00327041 -0.03486702 -0.026300646 -0.04054213 0.012592975 -0.04643287 -0.039185397
-0.04377252 0.04851932 -0.013831478 -0.044496223 0.04091125 -0.04812118 -0.037606794 0.032471508
0.054264687 0.012380554 0.062012825 -0.043680433 -0.018493598 0.037764635 -0.031697087 0.04290312
-0.061683044 -0.012984095 -0.011802445 0.018966377 0.0630394 0.034217965 -0.042933993 -0.052281436
-0.0047109616 -0.026409384 0.030271724 -0.032420598 -0.025555607 0.05214989 -0.037837856 0.027152132
-0.030618606 0.04497077 0.007294014 0.02655354 0.020407235 -0.012860315 -0.016969595 -0.044898614
0.0409982 -0.030784456 0.055692747 -0.029247697 0.058465563 -0.033785015 -0.023019932 -0.014473317
0.030802347 0.012106292 0.02799406 0.044596758 -0.036842607 -0.015646646 -0.04263938 0.013308179
-0.026542196 0.03925658 -0.08214377 -0.034680802 0.007524402 -0.030704526 -0.02935934 0.03098447
0.042476 -0.04094831 -0.021551833 0.04475153 -0.0005716273 0.048930284 0.005978276 -0.043421987
0.06633218 -0.01964672 0.044373583 0.022998901 0.024569806 0.028493559 0.016339839 -0.027991997
0.021317597 -0.0098028425 -0.047122743 -0.034333345 0.061836455 0.06647777 0.011155972 -0.036815528
0.054756876 -0.035160966 0.039765183 0.04085734 0.032792766 0.009316951 0.0046384824 0.06330413
0.041002415 -0.01238303 0.008662747 -0.032202225 -0.026031692 0.008702971 -0.010695624 0.009523206
-0.028804831 0.027285116 -0.021440782 -0.009922716 0.037292533 -0.052438445 -0.039832756 0.037592974
-0.0328906 0.0031880704 0.08001584 0.096916564 0.046697024 0.0012158327 -0.029588487 -0.0016895555
-0.018156065 0.03927467 -0.023376891 -0.039832573 -0.016669545 0.02575844 -0.0053933566 -0.011448855
-0.02297586 -0.004345998 -0.01844587 -0.033718843 0.022460572 -0.035124477 -0.008598574 -0.009732081
0.057708625 0.04421394 0.010363731 0.012324 -0.03891717 0.013592057 -0.00078971544 0.04166851
-0.03728947 0.04214618 -0.00914143 0.06551227 0.034546796 0.04033449 -0.051837996 -0.002449582
-0.036167573 -0.05665536 0.030948993 0.022305338 -0.03401701 0.038076926 -0.0034433934 0.0631273
-0.03082715 0.017166782 0.04657784 0.048279855 0.036301374 -0.035905268 0.029566186 -0.031865105
0.052621238 -0.03490055 0.0302696 -0.024728652 0.0028997008 -0.024481587 -0.035600465 -0.04441417
0.030296065 0.058276083 0.020956358 0.031195026 -0.02223879 -0.04695539 -0.038341038 0.010995454
-0.030010376 0.016220374 0.017175792 -0.00873921 -0.023070877 -0.06204934 -0.025271846 0.02300691
00000000: a3d6 873c 5841 2bbc 3896 64bc 6ef1 323c
00000010: f5cc 873c 472a e43a 4efd 743d 1402 86bc
00000020: 097a 5a3d 763a 16bd d66e c53c 0cc6 1f3c
00000030: 9636 573d ae49 f53c 7674 c6bc e4c4 edbc
00000040: 39ab b23c d169 40b9 cfc1 25bd 6bde c43a
00000050: 1706 2d3d 7f8a 653d 30c2 2abd 3180 bcbc
00000060: 7a52 073b cb4e 89bd e960 913b 599b 1d3d
00000070: 2ef5 c1bd 2e25 773d 00f8 8f3d fde6 b03c
00000080: 0562 7a3c b4f5 153d c67d 363d 10b7 15bd
00000090: 0fc7 95bc b6d5 3a3d 5b7b 393d 0aa2 c03c
000000a0: 5e56 08bc 2535 533d 688c 623d cff9 4a3d
000000b0: 24e8 f53c 9ba3 a8bc 1e5f 55bd 2014 5b3c
000000c0: 1389 c4ba 1b7e 9dbc b5cb 85bd 48ab 0ebc
000000d0: 988a a63c 031a 273d ca0f b6bc 45fe aebc
000000e0: c39d 39bd 6054 563b b8d0 0ebd 7474 d7bc
000000f0: 810f 26bd c452 4e3c 6530 3ebd de80 20bd
00000100: d04a 33bd 32bc 463d 6c9d 62bc ac41 36bd
00000110: 8e92 273d b71a 45bd 9509 1abd d800 053d
00000120: a644 5e3d cfd7 4a3c 2901 7e3d 41ea 32bd
00000130: e37f 97bc 17af 1a3d ced4 01bd 2fbb 2f3d
00000140: 5ca7 7cbd 3ebb 54bc 0b5f 41bc 605f 9b3c
00000150: cd1a 813d 2328 0c3d 8edb 2fbd 0f25 56bd
00000160: 695e 9abb 7e58 d8bc 68fc f73c 76cb 04bd
00000170: fe59 d1bc 209b 553d defb 1abd 266e de3c
00000180: dfd3 fabc 4533 383d a002 ef3b cf86 d93c
00000190: 132d a73c 12b4 52bc d203 8bbc 9ce7 37bd
000001a0: bbed 273d af2f fcbc 141e 643d de98 efbc
000001b0: 9679 6f3d 2862 0abd 4c94 bcbc 7e21 6dbc
000001c0: 3455 fc3c 7859 463c cd53 e53c 17ab 363d
000001d0: 46e8 16bd 652d 80bc a1a6 2ebd 8c0a 5a3c
000001e0: 056f d9bc 82cb 203d fe3a a8bd 750d 0ebd
000001f0: 428f f63b 0f88 fbbc 0083 f0bc 25d3 fd3c
00000200: 50fb 2d3d 6ab9 27bd 788d b0bc 614d 373d
00000210: 42d9 15ba 1f6b 483d 6ae5 c33b 41db 31bd
00000220: 2ad9 873d 28f2 a0bc 13c1 353d 3168 bc3c
00000230: 9e46 c93c 536b e93c 20db 853c 794f e5bc
00000240: 3ea2 ae3c 1a9c 20bc c703 41bd 1fa1 0cbd
00000250: 3948 7d3d 7f25 883d 8ac7 363c e1cb 16bd
00000260: bf48 603d f204 10bd d1e0 223d 075a 273d
00000270: b551 063d 20a6 183c 69fe 973b 99a5 813d
00000280: 26f2 273d 31e2 4abc 32ee 0d3c 7be6 03bd
00000290: 6a40 d5bc e896 0e3c b33c 2fbc 3907 1c3c
000002a0: 1cf8 ebbc 0985 df3c 94a4 afbc e392 22bc
000002b0: 0ec0 183d b2c9 56bd ac27 23bd 17fb 193d
000002c0: 4bb8 06bd f2ee 503b 58df a33d 317c c63d
000002d0: 6145 3f3d 935c 9f3a 8e63 f2bc 1374 ddba
000002e0: 07bc 94bc 7ade 203d e580 bfbc 7b27 23bd
000002f0: 928e 88bc 5d03 d33c c1ba b0bb fa93 3bbc
00000300: df37 bcbc e068 8ebb cb1b 97bc c51c 0abd
00000310: 3cff b73c afde 0fbd 09e1 0cbc 4e73 1fbc
00000320: e15f 6c3d ad19 353d a3cc 293c 9aea 493c
00000330: 9c67 1fbd 38b1 5e3c e804 4fba 99ac 2a3d
00000340: d8bc 18bd 79a1 2c3d f0c5 15bc 4c2b 863d
00000350: f180 0d3d c735 253d 1454 54bd 2b89 20bb
00000360: 7324 14bd 730f 68bd be88 fd3c afb9 b63c
00000370: 6c55 0bbd 8df6 1b3d 8eaa 61bb e348 813d
00000380: 3889 fcbc 5aa1 8c3c 68c8 3e3d 19c1 453d
00000390: c0b0 143d 6711 13bd c934 f23c fc84 02bd
000003a0: 5e89 573d e1f3 0ebd f4f7 f73c be93 cabc
000003b0: e808 3e3b 9c8d c8bc cbd1 11bd a2eb 35bd
000003c0: 742f f83c e7b2 6e3d abac ab3c b68c ff3c
000003d0: 1f2e b6bc 4c54 40bd 7e0b 1dbd 4726 343c
000003e0: 52d8 f5bc 97e0 843c 3fb4 8c3c e72e 0fbc
000003f0: 23ff bcbc 7327 7ebd e706 cfbc fd78 bc3c

action_model._continuous_distribution.mu.bias f4 [2]
0.029457103 0.025243478
00000000: 0650 f13c 69cb ce3c

exp_avg f4 [128, 6]
-0.0012823506 0.00027625868 -0.0012890571 -0.006496692 0.0 -0.006496692 -0.001072491 0.00022984199
-0.0010562016 -0.00530873 0.0 -0.00530873 -0.00024377542 5.2877676e-05 -0.00024518295 -0.0012471884
0.0 -0.0012471884 -5.3885575e-05 1.15354305e-05 -5.3921318e-05 -0.00028376983 0.0 -0.00028376983
0.00039569105 -8.498933e-05 0.00039152312 0.0017093741 0.0 0.0017093741 -1.3324638e-05 2.5433292e-06
-1.339022e-05 -1.742299e-05 0.0 -1.742299e-05 -0.0006958439 0.00014980424 -0.00069130614 -0.0034875837
0.0 -0.0034875837 0.0002813825 -6.1901366e-05 0.0002648871 0.0011942793 0.0 0.0011942793
-0.0005693545 0.00012261177 -0.0005685639 -0.002853023 0.0 -0.002853023 -0.0005912388 0.00012749799
-0.0006034032 -0.0029439998 0.0 -0.0029439998 5.537489e-05 -1.3268166e-05 5.2932588e-05 6.6095105e-05
0.0 6.6095105e-05 -0.0010277757 0.00022106929 -0.0010264558 -0.0052011968 0.0 -0.0052011968
-0.00032065067 6.6816974e-05 -0.00033009172 -0.0013918187 0.0 -0.0013918187 -2.2004597e-05 4.4800368e-06
-2.1790906e-05 -2.8109778e-05 0.0 -2.8109778e-05 0.00046717693 -9.942788e-05 0.00046833142 0.0019523401
0.0 0.0019523401 8.795537e-05 -1.915376e-05 8.823248e-05 0.0004974234 0.0 0.0004974234
-6.0121474e-05 1.4442575e-05 -6.457934e-05 -0.0003807889 0.0 -0.0003807889 0.00021091786 -4.572759e-05
0.0002060635 0.000963771 0.0 0.000963771 0.00015095568 -3.3584365e-05 0.00015244079 0.00092369836
0.0 0.00092369836 -3.924086e-05 8.227567e-06 -3.910209e-05 -0.0001428371 0.0 -0.0001428371
6.808249e-06 -2.4887436e-06 6.8277354e-06 0.00017504072 0.0 0.00017504072 -0.00061344425 0.00013059202
-0.00060576823 -0.0030704984 0.0 -0.0030704984 -0.0003502481 7.687428e-05 -0.00036856357 -0.0017804034
0.0 -0.0017804034 -0.00043101827 9.1792164e-05 -0.00041417874 -0.0021044025 0.0 -0.0021044025
-0.0007949823 0.00017106344 -0.0007991094 -0.0040202993 0.0 -0.0040202993 -7.1370255e-06 1.4998022e-06
-7.5671965e-06 -0.00010057145 0.0 -0.00010057145 -7.215008e-05 1.5624442e-05 -7.245235e-05 -0.00036531643
0.0 -0.00036531643 0.00015513223 -3.4318506e-05 0.00015642839 0.0009591219 0.0 0.0009591219
-0.00033455432 7.359779e-05 -0.0003385975 -0.0019157224 0.0 -0.0019157224 -6.987288e-05 1.3738762e-05
-7.068995e-05 -0.0001297606 0.0 -0.0001297606 6.5795626e-05 -1.4577753e-05 6.586227e-05 0.0004453462
0.0 0.0004453462 -2.2499162e-06 -6.2183227e-07 -2.2717534e-06 0.00018426236 0.0 0.00018426236
-0.0009413932 0.0002019188 -0.000937674 -0.0048119156 0.0 -0.0048119156 5.4533306e-05 -1.1366533e-05
5.455079e-05 0.00021455757 0.0 0.00021455757 -1.4112797e-05 1.2451634e-06 -1.256816e-05 3.1105854e-05
0.0 3.1105854e-05 -0.0007858711 0.00016849782 -0.00078406377 -0.0038365778 0.0 -0.0038365778
0.00014983455 -3.257652e-05 0.00014965267 0.00087266054 0.0 0.00087266054 7.588569e-05 -1.6926362e-05
7.56133e-05 0.00055801444 0.0 0.00055801444 6.189198e-05 -1.33327985e-05 6.197966e-05 0.0003425874
0.0 0.0003425874 -0.00027993412 6.126423e-05 -0.00031405606 -0.0015472331 0.0 -0.0015472331
1.9364277e-05 -4.2607685e-06 1.9389603e-05 0.0001559953 0.0 0.0001559953 0.00047137862 -0.00010074262
0.00046779503 0.0022046794 0.0 0.0022046794 -5.1399187e-05 1.1133823e-05 -5.196497e-05 -0.0002742974
00000000: 8c14 a8ba d0d6 9039 94f5 a8ba 34e2 d4bb
00000010: 0000 0000 34e2 d4bb d492 8cba bd01 7139
00000020: 3f70 8aba dbf4 adbb 0000 0000 dbf4 adbb
00000030: f79d 7fb9 f9c8 5d38 e68b 80b9 b378 a3ba
00000040: 0000 0000 b378 a3ba 3203 62b8 4c88 4137
00000050: 9329 62b8 f1c6 94b9 0000 0000 f1c6 94b9
00000060: c174 cf39 4d3c b2b8 5845 cd39 140d e03a
00000070: 0000 0000 140d e03a e28c 5fb7 10ae 2a36
00000080: 8fa6 60b7 9627 92b7 0000 0000 9627 92b7
00000090: 4b69 36ba c514 1d39 c538 35ba f28f 64bb
000000a0: 0000 0000 f28f 64bb 8586 9339 0bd1 81b8
000000b0: 8be0 8a39 5d89 9c3a 0000 0000 5d89 9c3a
000000c0: bc40 15ba 5991 0039 ad0b 15ba c8f9 3abb
000000d0: 0000 0000 c8f9 3abb 5dfd 1aba fbb0 0539
000000e0: b42d 1eba 1ff0 40bb 0000 0000 1ff0 40bb
000000f0: 5642 6838 579a 5eb7 ef03 5e38 8a9c 8a38
00000100: 0000 0000 8a9c 8a38 6eb6 86ba d6ce 6739
00000110: 248a 86ba cd6e aabb 0000 0000 cd6e aabb
00000120: 011d a8b9 1720 8c38 2910 adb9 b06d b6ba
00000130: 0000 0000 b06d b6ba 8396 b8b7 3953 9636
00000140: 9dcb b6b7 4acd ebb7 0000 0000 4acd ebb7
00000150: 6def f439 f083 d0b8 618a f539 aae5 ff3a
00000160: 0000 0000 aae5 ff3a ae74 b838 63ac a0b7
00000170: 7409 b938 8565 023a 0000 0000 8565 023a
00000180: f12a 7cb8 634e 7237 c56e 87b8 9fa4 c7b9
00000190: 0000 0000 9fa4 c7b9 d529 5d39 a0cb 3fb8
000001a0: c012 5839 94a5 7c3a 0000 0000 94a5 7c3a
000001b0: db49 1e39 f0dc 0cb8 83d8 1f39 5924 723a
000001c0: 0000 0000 5924 723a 8d96 24b8 2209 0a37
000001d0: 8d01 24b8 8bc6 15b9 0000 0000 8bc6 15b9
000001e0: 6a72 e436 4a04 27b6 cd19 e536 238b 3739
000001f0: 0000 0000 238b 3739 8ccf 20ba 87ef 0839
00000200: 6bcc 1eba 6a3a 49bb 0000 0000 6a3a 49bb
00000210: 81a1 b7b9 9137 a138 c43b c1b9 6d5c e9ba
00000220: 0000 0000 6d5c e9ba 4bfa e1b9 8b80 c038
00000230: 2126 d9b9 04ea 09bb 0000 0000 04ea 09bb
00000240: 5c66 50ba 7e5f 3339 537b 51ba b7bc 83bb
00000250: 0000 0000 b7bc 83bb 957a efb6 d04c c935
00000260: b9e9 fdb6 e3e9 d2b8 0000 0000 e3e9 d2b8
00000270: 474f 97b8 3c11 8337 8ff1 97b8 f187 bfb9
00000280: 0000 0000 f187 bfb9 feaa 2239 37f1 0fb8
00000290: ed06 2439 956d 7b3a 0000 0000 956d 7b3a
000002a0: 1f67 afb9 8358 9a38 ca85 b1b9 fa18 fbba
000002b0: 0000 0000 fa18 fbba b888 92b8 897f 6637
000002c0: 613f 94b8 5910 08b9 0000 0000 5910 08b9
000002d0: c2fb 8938 f992 74b7 891f 8a38 5b7d e939
000002e0: 0000 0000 5b7d e939 44fd 16b6 fdeb 26b5
000002f0: 6d74 18b6 8d36 4139 0000 0000 8d36 4139
00000300: d4c7 76ba 2aba 5339 3dce 75ba 46ad 9dbb
00000310: 0000 0000 46ad 9dbb b1ba 6438 e3b2 3eb7
00000320: 77cd 6438 dcfa 6039 0000 0000 dcfa 6039
00000330: 00c6 6cb7 7d1f a735 d6db 52b7 a877 0238
00000340: 0000 0000 a877 0238 eb02 4eba caae 3039
00000350: a189 4dba 186f 7bbb 0000 0000 186f 7bbb
00000360: e81c 1d39 c6a2 08b8 15ec 1c39 42c3 643a
00000370: 0000 0000 42c3 643a d224 9f38 16fd 8db7
00000380: 9592 9e38 b747 123a 0000 0000 b747 123a
00000390: 01cc 8138 efaf 5fb7 14fb 8138 4d9d b339
000003a0: 0000 0000 4d9d b339 1fc4 92b9 fc7a 8038
000003b0: e4a7 a4b9 87cc caba 0000 0000 87cc caba
000003c0: 7870 a237 b9f7 8eb6 dba6 a237 ab92 2339
000003d0: 0000 0000 ab92 2339 5e23 f739 c845 d3b8
000003e0: 6342 f539 627c 103b 0000 0000 627c 103b
000003f0: 7595 57b8 68cb 3a37 f6f4 59b8 93cf 8fb9

exp_avg_sq f4 [128, 6]
1.8283572e-05 5.6535043e-07 1.818199e-05 0.00021585062 0.0 0.00021585062 6.559123e-06 1.9287042e-07
6.5803333e-06 7.408758e-05 0.0 7.408758e-05 3.1441812e-07 8.6686365e-09 3.0308576e-07 3.5305325e-06
0.0 3.5305325e-06 1.5759895e-08 5.711122e-10 1.5717756e-08 2.4298635e-07 0.0 2.4298635e-07
1.3429312e-06 3.287308e-08 1.340464e-06 1.078404e-05 0.0 1.078404e-05 3.1796057e-09 4.134552e-11
2.9456362e-09 7.625838e-09 0.0 7.625838e-09 3.599537e-06 1.0894665e-07 3.6166907e-06 4.1961186e-05
0.0 4.1961186e-05 6.853257e-07 1.3201943e-08 6.711715e-07 3.869992e-06 0.0 3.869992e-06
2.4740891e-06 7.516578e-08 2.4721194e-06 2.9094517e-05 0.0 2.9094517e-05 4.698781e-06 1.3616466e-07
4.6296077e-06 5.0923754e-05 0.0 5.0923754e-05 3.2135836e-07 3.8729784e-09 3.1594135e-07 7.882584e-07
0.0 7.882584e-07 8.791402e-06 2.7207182e-07 8.771723e-06 0.0001055924 0.0 0.0001055924
3.248161e-06 8.1473516e-08 3.1710385e-06 2.6038239e-05 0.0 2.6038239e-05 6.0670424e-09 9.688406e-11
6.1300396e-09 1.7636149e-08 0.0 1.7636149e-08 1.9027467e-06 4.2315516e-08 1.9050183e-06 1.3522214e-05
0.0 1.3522214e-05 5.87384e-08 2.2715196e-09 5.8749535e-08 9.92139e-07 0.0 9.92139e-07
1.1556774e-07 4.362115e-09 9.2561805e-08 1.8971963e-06 0.0 1.8971963e-06 2.904998e-07 6.799128e-09
2.898249e-07 2.3006828e-06 0.0 2.3006828e-06 1.5396115e-07 6.821225e-09 1.4642984e-07 3.2799317e-06
0.0 3.2799317e-06 1.7675907e-08 3.8666925e-10 1.7015624e-08 1.1192468e-07 0.0 1.1192468e-07
7.3278232e-09 7.650822e-11 1.5616258e-09 7.967386e-08 0.0 7.967386e-08 1.4809164e-06 4.4925315e-08
1.4758097e-06 1.7996894e-05 0.0 1.7996894e-05 2.9132354e-06 8.035402e-08 2.839273e-06 2.9896975e-05
0.0 2.9896975e-05 7.431246e-07 1.9480373e-08 7.274511e-07 7.1184463e-06 0.0 7.1184463e-06
6.1464293e-06 1.8756153e-07 6.116499e-06 7.205812e-05 0.0 7.205812e-05 5.42247e-09 7.1853745e-11
5.3808678e-09 3.201304e-08 0.0 3.201304e-08 6.4541425e-08 1.9228241e-09 6.5787766e-08 7.2489127e-07
0.0 7.2489127e-07 2.7492018e-07 1.24540165e-08 2.7003188e-07 5.7148623e-06 0.0 5.7148623e-06
3.810089e-07 1.4290909e-08 3.793288e-07 7.01694e-06 0.0 7.01694e-06 8.8061434e-08 1.4632034e-09
7.999226e-08 2.9598635e-07 0.0 2.9598635e-07 2.1631864e-08 1.1065262e-09 2.1304126e-08 6.032492e-07
0.0 6.032492e-07 1.523056e-08 1.2797424e-10 6.392137e-09 1.2305789e-07 0.0 1.2305789e-07
5.559976e-06 1.8427558e-07 5.551511e-06 7.457658e-05 0.0 7.457658e-05 6.368612e-08 1.2999666e-09
5.6426543e-08 3.890728e-07 0.0 3.890728e-07 1.9962648e-08 8.7105884e-10 7.927838e-09 4.6428576e-07
0.0 4.6428576e-07 5.5309074e-06 1.6227904e-07 5.5258206e-06 6.0412283e-05 0.0 6.0412283e-05
1.2729376e-07 5.5364344e-09 1.2787416e-07 2.5643712e-06 0.0 2.5643712e-06 2.6579702e-08 1.5982372e-09
2.1141128e-08 9.493092e-07 0.0 9.493092e-07 2.9427314e-08 9.2737296e-10 2.8748858e-08 3.9976854e-07
0.0 3.9976854e-07 4.7575277e-06 1.3392993e-07 4.542791e-06 4.9610768e-05 0.0 4.9610768e-05
2.1613704e-09 1.4885557e-10 2.0316828e-09 9.0250325e-08 0.0 9.0250325e-08 1.8448023e-06 4.9247806e-08
1.8375143e-06 1.754308e-05 0.0 1.754308e-05 2.2567031e-08 7.6125056e-10 2.2222705e-08 3.1213398e-07
00000000: ac5f 9937 96c2 1735 8785 9837 f655 6239
00000010: 0000 0000 f655 6239 7016 dc36 d117 4f34
00000020: a2cc dc36 775f 9b38 0000 0000 775f 9b38
00000030: 4ccd a834 11ed 1432 cab7 a234 16ee 6c36
00000040: 0000 0000 16ee 6c36 6060 8732 73fc 1c30
00000050: b603 8732 ca73 8234 0000 0000 ca73 8234
00000060: c43e b435 5530 0d33 fee9 b335 19ed 3437
00000070: 0000 0000 19ed 3437 3780 5a31 ebd6 352e
00000080: 2e6c 4a31 ca02 0332 0000 0000 ca02 0332
00000090: 938f 7136 0ef6 e933 46b6 7236 7bff 2f38
000000a0: 0000 0000 7bff 2f38 39f7 3735 c2ce 6232
000000b0: 8e2a 3435 fada 8136 0000 0000 fada 8136
000000c0: 8708 2636 d36a a133 b0e6 2536 0010 f437
000000d0: 0000 0000 0010 f437 39aa 9d36 a834 1234
000000e0: 0758 9b36 f796 5538 0000 0000 f796 5538
000000f0: 2887 ac34 1413 8531 a69e a934 b498 5335
00000100: 0000 0000 b498 5335 c97e 1337 4411 9234
00000110: 432a 1337 7d71 dd38 0000 0000 7d71 dd38
00000120: fbfa 5936 8af6 ae33 07ce 5436 b16c da37
00000130: 0000 0000 b16c da37 4576 d031 e10c d52e
00000140: 66a0 d231 4d7e 9732 0000 0000 4d7e 9732
00000150: e161 ff35 67be 3533 eeaf ff35 78dd 6237
00000160: 0000 0000 78dd 6237 8e47 7c33 ff18 1c31
00000170: cc53 7c33 a329 8535 0000 0000 a329 8535
00000180: 092e f833 92e1 9531 64c6 c633 2ba3 fe35
00000190: 0000 0000 2ba3 fe35 fdf5 9b34 c39d e931
000001a0: 3b99 9b34 6e65 1a36 0000 0000 6e65 1a36
000001b0: 8550 2534 2160 ea31 543a 1d34 cc1c 5c36
000001c0: 0000 0000 cc1c 5c36 bbd5 9732 dc92 d42f
000001d0: c129 9232 3e5b f033 0000 0000 3e5b f033
000001e0: 37c8 fb31 4d3e a82e d3a0 d630 2b19 ab33
000001f0: 0000 0000 2b19 ab33 e6c3 c635 e8f3 4033
00000200: 6f14 c635 09f8 9637 0000 0000 09f8 9637
00000210: 0181 4336 178f ac33 578a 3e36 44cb fa37
00000220: 0000 0000 44cb fa37 227b 4735 cb55 a732
00000230: 0f46 4335 fdda ee36 0000 0000 fdda ee36
00000240: 6d3d ce36 8564 4934 543c cd36 e91d 9738
00000250: 0000 0000 e91d 9738 8d50 ba31 1002 9e2e
00000260: 9de2 b831 b67e 0933 0000 0000 b67e 0933
00000270: 069a 8a33 ae22 0431 3547 8d33 2696 4235
00000280: 0000 0000 2696 4235 be98 9334 58f5 5532
00000290: e6f8 9034 4bc2 bf36 0000 0000 4bc2 bf36
000002a0: 778d cc34 1584 7532 8ea6 cb34 0e73 eb36
000002b0: 0000 0000 0e73 eb36 491c bd33 e519 c930
000002c0: 36c8 ab33 0ee8 9e34 0000 0000 0ee8 9e34
000002d0: f9d0 b932 6e14 9830 4500 b732 f8ee 2135
000002e0: 0000 0000 f8ee 2135 5bd4 8232 8cb5 0c2f
000002f0: d5a1 db31 e521 0434 0000 0000 e521 0434
00000300: d58f ba36 49dd 4534 1e47 ba36 ff65 9c38
00000310: 0000 0000 ff65 9c38 d1c3 8833 82aa b230
00000320: a459 7233 c2e1 d034 0000 0000 c2e1 d034
00000330: 547a ab32 516f 6f30 0033 0832 f342 f934
00000340: 0000 0000 f342 f934 2296 b936 ec3e 2e34
00000350: 706a b936 3263 7d38 0000 0000 3263 7d38
00000360: 3eae 0834 fe3a be31 c84d 0934 9017 2c36
00000370: 0000 0000 9017 2c36 6251 e432 f9a8 db30
00000380: d599 b532 08d4 7e35 0000 0000 08d4 7e35
00000390: 59c7 fc32 12ea 7e30 68f3 f632 c59f d634
000003a0: 0000 0000 c59f d634 daa2 9f36 61ce 0f34
000003b0: 476e 9836 2815 5038 0000 0000 2815 5038
000003c0: 3b87 1431 1eab 232f be9d 0b31 a4cf c133
000003d0: 0000 0000 a4cf c133 ed9a f735 8984 5333
000003e0: 83a0 f635 7a29 9337 0000 0000 7a29 9337
000003f0: 6dd9 c132 3f40 5130 3fe4 be32 5e93 a734

exp_avg f4 [128]
-0.0032483463 -0.0026543648 -0.00062359415 -0.00014188491 0.000854687 -8.711498e-06 -0.0017437915 0.0005971396
-0.0014265114 -0.0014719999 3.304754e-05 -0.0026005988 -0.0006959094 -1.4054884e-05 0.00097617024 0.0002487117
-0.00019039444 0.00048188548 0.0004618492 -7.141854e-05 8.752037e-05 -0.0015352494 -0.0008902019 -0.0010522013
-0.00201015 -5.028573e-05 -0.00018265819 0.00047956096 -0.0009578612 -6.488031e-05 0.00022267312 9.2131166e-05
-0.0024059576 0.00010727877 1.555292e-05 -0.0019182889 0.0004363302 0.00027900725 0.00017129368 -0.00077361666
7.799764e-05 0.0011023398 -0.0001371487 2.5039912e-05 0.00096727686 -0.0009104876 -8.146116e-07 0.00038814827
0.00010817877 -0.00044388688 0.0011821461 -0.0007388662 -0.003624284 8.3977524e-05 0.00020752389 0.000120247874
-0.002439654 -0.0025356961 -0.0005757371 -0.00037783294 -3.6935117e-07 -0.0001311409 5.591579e-05 0.00054853735
-0.0028238073 -0.0029543166 -0.004307046 -0.0009061948 -0.0012314402 0.000271042 -0.00010706116 -0.00061643106
3.2412238e-06 0.00033344427 6.05091e-05 -0.001490024 9.955906e-06 -0.003552932 -0.003345085 -6.0801885e-05
-1.576816e-06 -0.00082752906 -0.0006062895 -0.0007737467 0.0006839667 9.529879e-05 0.0007506107 -0.0016854748
0.00048441417 -0.00016753489 0.00065204257 0.00015746424 -0.0038471138 0.0008842177 0.00046636228 0.00041118392
0.0014547729 -0.0028187018 -0.0031651868 -0.0009269159 -0.00027122124 -0.001212484 0.00061407516 -0.0027658
-0.002672317 0.0011765616 -0.0016245424 0.0003300299 -0.0027233807 -0.0011822515 -0.0011998289 4.7234826e-05
-0.0023013894 0.00035608918 -0.00010902653 0.0003114645 1.7037986e-05 -0.00014708993 -0.00087902707 -0.0014277538
0.00048786297 -0.0027938392 5.4263463e-05 0.0001995672 -3.0385032e-05 -9.2883165e-05 -3.6294965e-05 0.00055421644
00000000: 35e2 54bb daf4 2dbb b278 23ba f1c6 14b9
00000010: 130d 603a 9927 12b7 ef8f e4ba 5c89 1c3a
00000020: c8f9 baba 1ff0 c0ba 879c 0a38 cf6e 2abb
00000030: b06d 36ba 44cd 6bb7 ade5 7f3a 8565 8239
00000040: 9ea4 47b9 93a5 fc39 5a24 f239 89c6 95b8
00000050: 248b b738 6c3a c9ba 705c 69ba 04ea 89ba
00000060: b9bc 03bb e4e9 52b8 ef87 3fb9 956d fb39
00000070: fa18 7bba 5a10 88b8 5c7d 6939 8b36 c138
00000080: 45ad 1dbb dafa e038 a477 8237 186f fbba
00000090: 40c3 e439 b847 9239 4c9d 3339 89cc 4aba
000000a0: aa92 a338 637c 903a 93cf 0fb9 cd0c d237
000000b0: da90 7d3a caad 6eba afab 5ab5 6180 cb39
000000c0: 09de e238 7db9 e8b9 3ef2 9a3a 79b0 41ba
000000d0: 6585 6dbb 171d b038 c59a 5939 962d fc38
000000e0: 9ae2 1fbb ec2d 26bb 10ed 16ba e117 c6b9
000000f0: 3d4b c6b4 de82 09b9 1f87 6a38 b8cb 0f3a
00000100: a00f 39bb 359d 41bb 1f22 8dbb b48d 6dba
00000110: 4768 a1ba a41a 8e39 0686 e0b8 fd97 21ba
00000120: cd83 5936 22d2 ae39 27cb 7d38 e94c c3ba
00000130: 4a08 2737 4fd8 68bb 3739 5bbb 8705 7fb8
00000140: fca2 d3b5 89ee 58ba 66ef 1eba 43d5 4aba
00000150: 3a4c 333a 26db c738 a2c4 443a 26eb dcba
00000160: f8f8 fd39 4eac 2fb9 d6ed 2a3a fc1c 2539
00000170: dc1f 7cbb d8ca 673a 1682 f439 2c94 d739
00000180: 14ae be3a f8b9 38bb 066f 4fbb 46fc 72ba
00000190: b332 8eb9 36ec 9eba e3f9 203a 6d42 35bb
000001a0: 0a22 2fbb db36 9a3a 99ee d4ba dd07 ad39
000001b0: bf7a 32bb c7f5 9aba 9443 9dba 021e 4638
000001c0: e8d2 16bb 7bb1 ba39 2ca5 e4b8 0f4c a339
000001d0: ccec 8e37 273c 1ab9 826e 66ba 7823 bbba
000001e0: dcc7 ff39 d818 37bb f398 6338 ea42 5139
000001f0: 5ce3 feb7 45ca c2b8 6c3b 18b8 d648 113a

exp_avg_sq f4 [128]
5.3962656e-05 1.8521892e-05 8.826331e-07 6.0746586e-08 2.6960101e-06 1.9064597e-09 1.04902965e-05 9.674977e-07
7.27363e-06 1.2730938e-05 1.9706461e-07 2.63981e-05 6.5095605e-06 4.409037e-09 3.3805536e-06 2.4803472e-07
4.7429896e-07 5.751706e-07 8.199829e-07 2.798117e-08 1.9918463e-08 4.499224e-06 7.4742447e-06 1.7796116e-06
1.801453e-05 8.003262e-09 1.8122283e-07 1.4287156e-06 1.754235e-06 7.399658e-08 1.5081231e-07 3.076447e-08
1.8644145e-05 9.72682e-08 1.16071426e-07 1.5103071e-05 6.410928e-07 2.373273e-07 9.994213e-08 1.2402689e-05
2.256258e-08 4.3857694e-06 7.8033494e-08 7.2478334e-09 4.469313e-06 5.3233703e-06 5.513017e-09 4.6721067e-07
2.9451805e-08 8.696527e-07 3.9649467e-06 7.994411e-06 5.6125482e-05 1.3772048e-07 1.5846753e-07 3.7298403e-08
2.4734141e-05 3.6081783e-05 4.923109e-07 1.0803993e-06 5.368371e-10 7.084441e-08 2.6565335e-08 1.2706994e-06
3.74493e-05 3.348026e-05 8.849388e-05 2.0058928e-06 4.6101013e-06 1.3812448e-06 4.0588123e-08 1.1969391e-06
1.8133379e-09 4.1971555e-07 1.2093375e-07 6.579997e-06 2.4677826e-08 5.506336e-05 3.5664478e-05 2.0789473e-08
9.5753245e-09 3.3573945e-06 9.57762e-07 1.7013717e-06 3.7374903e-06 5.784374e-08 1.1059041e-06 4.9836985e-06
7.507541e-07 8.867611e-08 3.2729793e-06 9.4371764e-08 7.038054e-05 3.8437547e-06 5.5519206e-07 1.1295442e-06
1.073572e-05 4.7861726e-05 4.9957504e-05 2.3690177e-06 3.0866838e-07 5.09002e-06 2.0252319e-06 2.7278662e-05
4.864372e-05 8.414812e-06 1.3629322e-05 4.785508e-07 3.6498186e-05 1.01659525e-05 6.0317275e-06 3.4922756e-09
2.078716e-05 1.9857579e-07 3.77912e-08 3.3483911e-07 2.6350482e-09 1.4931348e-07 3.401093e-06 5.8813994e-06
1.1880945e-06 3.7259768e-05 8.832063e-09 9.8759415e-08 1.2709068e-08 2.8357425e-07 2.9206193e-08 8.6101886e-07
00000000: f655 6238 765f 9b37 16ee 6c35 ca73 8233
00000010: 1aed 3436 cb02 0331 7bff 2f37 f8da 8135
00000020: 0210 f436 f696 5537 b598 5334 7d71 dd37
00000030: b36c da36 4d7e 9731 78dd 6236 a229 8534
00000040: 27a3 fe34 6c65 1a35 cc1c 5c35 3e5b f032
00000050: 2a19 ab32 0af8 9636 46cb fa36 fdda ee35
00000060: e91d 9737 b87e 0932 2796 4234 4bc2 bf35
00000070: 0e73 eb35 0de8 9e33 f9ee 2134 e421 0433
00000080: ff65 9c37 c2e1 d033 f142 f933 3263 7d37
00000090: 9017 2c35 08d4 7e34 c49f d633 2515 5037
000000a0: a3cf c132 7929 9336 5e93 a733 9e08 f931
000000b0: 1bf7 9536 679f b236 036d bd31 f2d4 fa34
000000c0: 34fd fc32 1472 6935 a20a 8536 bc1f 0637
000000d0: 4768 6b38 51e0 1334 3927 2a34 0732 2033
000000e0: 2a7c cf37 8556 1738 5927 0435 3d02 9135
000000f0: 8d90 1330 2023 9833 ca31 e432 e68c aa35
00000100: e112 1d38 286d 0c38 ca95 b938 fa9c 0636
00000110: 78b0 9a36 3663 b935 1d53 2e33 84a6 a035
00000120: 2839 f930 4455 e134 04da 0134 bec9 dc36
00000130: 1dfb d332 d5f3 6638 7196 1538 8994 b232
00000140: b980 2432 994f 6136 748c 8035 b05a e435
00000150: 98d1 7a36 dd6f 7833 936e 9435 a539 a736
00000160: 6e87 4935 356e be33 5ba5 5b36 6da9 ca33
00000170: 4499 9338 9af9 8036 8208 1535 d89a 9735
00000180: 911d 3437 23bf 4838 7689 5138 6afb 1e36
00000190: 0fb7 a534 f0ca aa36 38e9 0736 7bd4 e437
000001a0: cc06 4c38 582d 0d37 7ea9 6437 c375 0035
000001b0: a115 1938 6f8e 2a37 2564 ca36 c3fc 6f31
000001c0: 1660 ae37 1938 5534 dd4f 2233 f0c3 b334
000001d0: 4214 3531 fa52 2034 553e 6436 d658 c536
000001e0: 9e76 9f35 5f47 1c38 d3bb 1732 9015 d433
000001f0: 1257 5a32 263e 9834 19e1 fa32 c420 6735
