CubeTest/results/Test2/MoveToGoal/MoveToGoal-500044.onnx (onnx, 72461 bytes, 7 tensors)

action_model._continuous_distribution.log_sigma f4 [1, 2]
0	0xbdb113b8	-0.08646339
1	0xbe080d41	-0.13286306

action_model._continuous_distribution.mu.bias f4 [2]
0	0xbc45b920	-0.012068063
1	0x3c93439b	0.017976573

action_model._continuous_distribution.mu.weight f4 [2, 128]
0	0xbd91e241	-0.07123233
1	0x3d387458	0.04503283
2	0x3cb57cfb	0.022154322
3	0xbd4137c5	-0.047172327
4	0xbd1fa724	-0.038977757
5	0x3cd24858	0.025669262
6	0xbd1d98ac	-0.038475677
7	0xbc970043	-0.018432742
8	0x3d1c4966	0.038155936
9	0x3b3fefb6	0.0029287166
10	0x3d3c317b	0.045945626
11	0x3d6347c1	0.05548835
12	0xbda46027	-0.08026152
13	0xbd208c1f	-0.03919613
14	0xbd81286b	-0.06306537
15	0xbc95c906	-0.018284332
16	0xbc0a39a2	-0.008436592
17	0x3d29ca83	0.041452896
18	0x3c473137	0.01215773
19	0x3d740ac3	0.059580576
20	0x39e0b5a1	0.00042859933
21	0x3c81456a	0.01578017
22	0xb960eeb7	-0.00021451233
23	0x3db6e634	0.089306265
24	0x3ca37cba	0.019956935
25	0x3d59bce7	0.053158667
26	0xbda420e5	-0.08014087
27	0xbd2b20cd	-0.04177933
28	0x3c9bdc9f	0.019026099
29	0x3d07ef43	0.033187162
30	0x3c9a11e0	0.018807352
31	0x3d0280e2	0.031861193
32	0x3cb2adf5	0.021811465
33	0xbbf7910e	-0.0075551337
34	0x3d2ab12a	0.041672863
35	0x3bfd41b2	0.0077287788
36	0xbc88265f	-0.01661986
37	0x3c9e0920	0.01929146
38	0xbc195587	-0.00935877
39	0xbcf348d2	-0.02969781
40	0x3d056abe	0.0325725
41	0xbdb2eaa3	-0.0873616
42	0x3d03c5ba	0.03217099
43	0x3d1a8c03	0.03773118
44	0x3d8818cb	0.06645354
45	0x3d210c8b	0.039318603
46	0xbca5926a	-0.020211417
47	0xbd77352e	-0.06035345
48	0x3cd49f41	0.025954844
49	0x3b8c8460	0.0042882413
50	0x3d396e60	0.045271277
51	0xbd523b7a	-0.051326253
52	0x3d4a6097	0.04940852
53	0x3c713e5e	0.014724342
54	0x3d8a1f34	0.06744233
55	0x3d014a40	0.03156495
56	0xbd0def1c	-0.03465186
57	0xbbe1fa36	-0.0068962825
58	0x3d121e03	0.035673153
59	0x3d133e58	0.035948128
60	0xbcf732c1	-0.030175569
61	0x3d58ba34	0.052911952
62	0xbb1b2156	-0.0023670993
63	0xbd57e1ac	-0.05270545
64	0x3c130419	0.008973145
65	0x3ca0eb64	0.019643493
66	0xbd289379	-0.041156266
67	0x3cde8047	0.027160777
68	0xbd9c0a8b	-0.076191984
69	0xbd3ebc05	-0.04656603
70	0x3d405693	0.046957564
71	0x3cea6a66	0.028615188
72	0xbd8f040e	-0.06983195
73	0xbc9a38b6	-0.01882587
74	0xbd8e42d6	-0.06946342
75	0x3cd9c903	0.026585108
76	0xbcd74e76	-0.02628253
77	0xbc4cb6d1	-0.012494759
78	0x3d227d38	0.0396702
79	0xbd886778	-0.0666036
80	0xbc4a21b6	-0.012337139
81	0xbd3793ee	-0.04481881
82	0x3ddfdf89	0.10931308
83	0x3d8b1d71	0.06792725
84	0x3d3e2792	0.046424456
85	0x3d09a08a	0.033600368
86	0xbd2b5d68	-0.041837126
87	0x3c5e5e56	0.013572296
88	0x3c833013	0.016014135
89	0x3c0b4fef	0.008502944
90	0x3d558255	0.052126247
91	0xbba46b84	-0.0050176997
92	0x3c74888a	0.014925132
93	0x3cea830e	0.028626945
94	0x3c8cfae8	0.017209485
95	0xbcbe389c	-0.023220353
96	0xbc88270c	-0.016620182
97	0xbb210d8a	-0.002457472
98	0x3d84d972	0.06486787
99	0x3c4a5650	0.01234968
100	0xbdc2c46f	-0.09510123
101	0x3c57e6cb	0.013177584
102	0xbd2a451d	-0.041569818
103	0xbd39aa2b	-0.0453283
104	0x3c8ba1aa	0.01704486
105	0x3d8dba2b	0.06920274
106	0x3b93d3ba	0.0045113238
107	0x3c078082	0.008270385
108	0x3d81a673	0.06330576
109	0xbccda117	-0.025101228
110	0x3ca40be8	0.020025209
111	0x3c663b29	0.014052191
112	0x3d20567f	0.03914499
113	0xbca897d0	-0.020580202
114	0xbd08eb0b	-0.03342728
115	0x3bc34c15	0.0059599974
116	0x3d902b0d	0.07039461
117	0xbc943941	-0.018093707
118	0x3c1a69c4	0.009424631
119	0xbcebd2a1	-0.02878696
120	0xbced7c02	-0.028989796
121	0x3cf0cb6f	0.02939388
122	0xbc69a36d	-0.014260155
123	0x3d7b6827	0.061378624
124	0x3c2104f1	0.009827838
125	0xbda50f94	-0.08059612
126	0xbd092b99	-0.033488844
127	0x3cdd4fd9	0.027015613
128	0x3d1e5db6	0.03866359
129	0xbc92edc5	-0.017935643
130	0x3c01b049	0.007915565
131	0x3d7a5c01	0.061122898
132	0xbda56444	-0.08075765
133	0xbd6f34f7	-0.05840012
134	0xbda622c7	-0.08112102
135	0xbd3174f6	-0.043324433
136	0xbcbb864a	-0.022891182
137	0xbc045e58	-0.008079134
138	0xbd273b67	-0.040828135
139	0xbd9af9cc	-0.07567176
140	0xbc691dad	-0.014228267
141	0x3bf588c0	0.0074931085
142	0xb99843c4	-0.00029042189
143	0xbd5f8d22	-0.054577954
144	0xbd8bed62	-0.068323866
145	0xbd89fd0b	-0.06737717
146	0xbdb87c44	-0.09008077
147	0xbc1ad19a	-0.009449387
148	0xbd930c88	-0.071801245
149	0xbd1ce2b0	-0.038302124
150	0xbd64601b	-0.055755716
151	0x3d88a4d9	0.06672067
152	0xbda39d28	-0.079889596
153	0xbba470b6	-0.005018319
154	0x3d84a934	0.064775854
155	0x3d3fbcfe	0.046811096
156	0x3d3191d7	0.043351974
157	0xbda56df9	-0.08077616
158	0x3d020b95	0.031749327
159	0xbcc798ba	-0.024364818
160	0xbcf1f53a	-0.029535878
161	0x3d6b3f52	0.057433434
162	0xbc8922e4	-0.01674027
163	0xbe0d8a79	-0.13822354
164	0xbd844ffb	-0.064605676
165	0x3c43ea24	0.011957679
166	0x3d4303fb	0.047611218
167	0xbdcf9712	-0.10136236
168	0xbbfe40c6	-0.0077591864
169	0x3cbf73de	0.02337068
170	0xbc3d7a20	-0.011564761
171	0x3d5b44fb	0.05353258
172	0xbc3676eb	-0.011136751
173	0xbc17581e	-0.009237317
174	0xbd7eb0cb	-0.06218032
175	0xbb1fcc16	-0.002438312
176	0xbd38d668	-0.04512635
177	0xbda6b12e	-0.08139263
178	0x3c6c9827	0.014440573
179	0xbd7b265d	-0.061315883
180	0x3d82d93b	0.0638909
181	0xbd339665	-0.0438446
182	0x3d18dba6	0.037318848
183	0xbd795c3b	-0.060878973
184	0xbc9a34b6	-0.018823963
185	0xbc095722	-0.0083825905
186	0x3c2b6f09	0.010463485
187	0xbcf4d91b	-0.02988868
188	0xbd21f7a6	-0.039542817
189	0x3d63ed35	0.05564614
190	0x3ce60b5b	0.028081587
191	0xbd06e29e	-0.032930963
192	0xbd93622f	-0.071964614
193	0xbcb80208	-0.022461906
194	0xbd3b1b4a	-0.04568032
195	0xbd0a7b86	-0.033809207
196	0xbbbd7bc4	-0.0057825763
197	0x3d30510c	0.043046042
198	0x3d9fdda1	0.07805944
199	0xbd012fa2	-0.031539567
200	0x3d0d9dba	0.034574248
201	0x3d76aafd	0.06022166
202	0xbd00fa51	-0.03148872
203	0xbd0c6884	-0.03427936
204	0xbdaed3d6	-0.08536498
205	0x390a9413	0.00013215868
206	0xbd9888a7	-0.07447939
207	0xbccfab18	-0.025350139
208	0xbd9ed1a4	-0.077548295
209	0x3c20632b	0.0097892685
210	0x3cf5129e	0.029916104
211	0x3bff9155	0.0077993074
212	0xbd2e8c23	-0.042614114
213	0xbc9380b4	-0.018005706
214	0xbd6a48b4	-0.05719824
215	0xbb9658e5	-0.004588234
216	0x3d3b2e5e	0.045698516
217	0x3d8c6cdd	0.068567015
218	0x3da104b8	0.07862228
219	0xbc67777a	-0.0141276065
220	0xbd03e460	-0.032200217
221	0xbae82ff8	-0.0017714491
222	0x3dd01caf	0.10161721
223	0x3be5e2e0	0.007015571
224	0xbc802e39	-0.01564704
225	0x3d4c8bdd	0.04993807
226	0x3d40d9bd	0.04708265
227	0xbd010aa8	-0.031504303
228	0x3da40f08	0.080106795
229	0xbda1cd0c	-0.07900438
230	0x3bc45d52	0.00599257
231	0xbd9a258f	-0.07526695
232	0x3d40efe8	0.047103792
233	0x3d86bd54	0.0657908
234	0xbd52afec	-0.051437303
235	0xbdafafec	-0.08578476
236	0x3dcd88c0	0.100358486
237	0x3da969e2	0.08272149
238	0xbcdb189e	-0.026745137
239	0x3c847f42	0.016173963
240	0x3cd444c6	0.0259117
241	0x3db7d9ad	0.08977065
242	0x3d1e1279	0.038591836
243	0xbb791948	-0.0038009454
244	0x3c1b9321	0.0094955275
245	0xbced0112	-0.028931174
246	0xbdcc0c7e	-0.0996332
247	0xbc6f4173	-0.014603007
248	0xbd49d857	-0.049278583
249	0xbd526106	-0.05136206
250	0xbd52b1b6	-0.05143901
251	0x3b618464	0.0034411186
252	0xbb69a8d8	-0.0035653617
253	0x3d4af08c	0.04954581
254	0x3c7b69a5	0.015345012
255	0xbd14b667	-0.036306765

network_body._body_endoder.seq_layers.0.bias f4 [128]
0	0x398eaf06	0.00027214753
1	0xbc621154	-0.013798077
2	0x3d12fab4	0.03588362
3	0x3bb20325	0.0054325038
4	0x3c44fef0	0.012023672
5	0x3ca051ba	0.01957022
6	0x3b2a96e4	0.002602988
7	0x3ce54a64	0.027989574
8	0x3cbdfc5d	0.023191625
9	0x3ca7e3a2	0.020494286
10	0x3c9d1723	0.019176072
11	0x3cba3b16	0.022733252
12	0x3b71e990	0.0036912896
13	0x3c711aed	0.014715892
14	0x3d2d2653	0.042272877
15	0xbc33ff6b	-0.010986189
16	0x3d59d9d6	0.05318626
17	0x3cae509a	0.021278668
18	0x3ccedc1d	0.025251443
19	0xbc24c10d	-0.0100557925
20	0xbc1116fb	-0.008855577
21	0xbc3cb13a	-0.0115168635
22	0x3c57ac70	0.013163671
23	0x3d2269c1	0.039651636
24	0xbd0228f8	-0.031777352
25	0xbd08509d	-0.033280004
26	0x3d1e6248	0.038667947
27	0x3b57a42e	0.0032904255
28	0x3d48a6cf	0.048987206
29	0x3ccfc5fb	0.02536296
30	0x3cc975a8	0.024592236
31	0x3dbbabd3	0.09163632
32	0xbb971a99	-0.004611325
33	0x3c5b4bf6	0.01338481
34	0xbce6e244	-0.028184064
35	0x3cccaa5b	0.024983576
36	0xbc93c00d	-0.018035913
37	0x3adcec21	0.001685504
38	0x3d338cf4	0.043835595
39	0x3cb2bb77	0.021817906
40	0x3c16292d	0.0091650905
41	0xbc80dffb	-0.015731802
42	0x3ca9d875	0.020733098
43	0xbae30cf2	-0.0017322584
44	0xbcbfda97	-0.023419661
45	0x3d5cb7e5	0.053886313
46	0x3cbd1762	0.023082439
47	0xbbd459a8	-0.0064804144
48	0x3b81be0b	0.0039594225
49	0x3cdbce06	0.026831638
50	0xba594c13	-0.0008289229
51	0x3a090ae9	0.0005227761
52	0x3c938d5f	0.018011747
53	0x3c00171a	0.007818008
54	0x3b7c5484	0.0038502524
55	0x3a5980ab	0.0008297066
56	0x398782b9	0.00025846603
57	0xbcc0fb4f	-0.023557333
58	0x3c6fe96b	0.0146430535
59	0x3ce8301e	0.028343257
60	0x3d730158	0.059327453
61	0xbc8ca5a6	-0.017168831
62	0x3d1d5f73	0.038421106
63	0xbc77c955	-0.015123685
64	0x3bef8ab4	0.007310236
65	0xbc5677c9	-0.013090082
66	0xbc9b6656	-0.018969696
67	0x3ce65589	0.028116958
68	0x3d1ea7a8	0.03873411
69	0xbd226ec0	-0.0396564
70	0xbd367fbd	-0.044555414
71	0xbcd4af52	-0.025962505
72	0x3ac92d2f	0.0015348549
73	0xbc1cb3cd	-0.009564352
74	0x3c04a589	0.008096107
75	0xbaf2e5c6	-0.0018531613
76	0xbc0cd515	-0.008595725
77	0xbb85afe6	-0.0040798066
78	0x3d1bd98b	0.038049262
79	0xbac14ca8	-0.0014747577
80	0x3ceba5c9	0.028765576
81	0x3c0dc8e1	0.00865385
82	0xbcb7ec88	-0.022451654
83	0x3cb84d87	0.022497905
84	0xbb2915ae	-0.0025800276
85	0x3d89d3be	0.0672984
86	0x3d6794df	0.05653846
87	0x3c267a09	0.010160931
88	0x3c99e2f4	0.018784977
89	0xbc410225	-0.011780296
90	0x3d2ab5f9	0.04167745
91	0x3c690ef0	0.014224753
92	0x3d5b2187	0.05349877
93	0x3d727d7c	0.059201702
94	0x3cc06edc	0.023490362
95	0x3bc258c3	0.0059309914
96	0x3a6926e3	0.0008894039
97	0x3d2c13f3	0.042011213
98	0x3c8ea30c	0.017411731
99	0x3c19294d	0.009348226
100	0x3ca5132b	0.020150742
101	0xbbaa936c	-0.0052055623
102	0xbb8ed750	-0.0043591633
103	0x3d321c3a	0.04348395
104	0xbc050224	-0.008118186
105	0xbbc3cefb	-0.0059756017
106	0x3b5b8971	0.003349867
107	0x3b35584b	0.0027671035
108	0xbc273330	-0.010205075
109	0x3d2738c3	0.040825617
110	0x3c57fa9b	0.013182308
111	0x3c64b4c8	0.013959117
112	0x3cb9e4c3	0.02269209
113	0xbc6e6178	-0.014549606
114	0xbcda5741	-0.026652934
115	0x3c206df4	0.00979184
116	0x3d005069	0.031326685
117	0xbd1f0f5d	-0.03883301
118	0xbbd6fa0b	-0.006560569
119	0x3caa349d	0.020777041
120	0x3d2a965a	0.041647293
121	0x3ce36f37	0.027762992
122	0x3c7f0225	0.015564476
123	0xbb80b410	-0.003927715
124	0x3d234d24	0.03986849
125	0xbbd9316d	-0.0066282065
126	0x3d47508a	0.048660792
127	0xbc188907	-0.009310014

network_body._body_endoder.seq_layers.0.weight f4 [128, 6]
0	0xbe69e549	-0.22841372
1	0x3f10dc39	0.56586033
2	0xbf0ca64e	-0.5494126
3	0xbf60f699	-0.8787628
4	0x3e9c89af	0.30573794
5	0x3e31a98e	0.17349836
6	0xbf403378	-0.75078535
7	0x3f14893d	0.5802191
8	0xbe0865b7	-0.13320051
9	0xbf41de04	-0.75729394
10	0xbe7b76b9	-0.24557008
11	0xbe871173	-0.263805
12	0xbe125c6c	-0.14293069
13	0xbf1848e7	-0.5948624
14	0xbe9af731	-0.30266717
15	0x3e9d9461	0.30777267
16	0x3e87f463	0.2655364
17	0x3de7201a	0.1128542
18	0xbe3fed33	-0.18742828
19	0x3bb50ee1	0.0055254553
20	0xbe5fbdab	-0.21849696
21	0xbe85ef8e	-0.26159328
22	0xbe3493c0	-0.17634487
23	0x3e6b0113	0.22949629
24	0x3de727f7	0.112869196
25	0xbeb3d4c2	-0.3512326
26	0x3f078a05	0.52944976
27	0xbea00d5e	-0.31260198
28	0xbf2693e9	-0.65069443
29	0xbacd145a	-0.0015646324
30	0x3d942eaa	0.07235463
31	0xbeab1657	-0.3341548
32	0xbe4d4a3f	-0.20047854
33	0xbf063ee8	-0.5243974
34	0x3f0ec507	0.5576939
35	0xbe88faff	-0.26753995
36	0x3f6b588e	0.91932
37	0x3f0da3ef	0.5532827
38	0xbe0261e1	-0.1273265
39	0x3dba5f08	0.09100157
40	0x3e0bfbb8	0.13670242
41	0xbe3ca9b6	-0.18424115
42	0xbf10b0b2	-0.56519616
43	0x3e5027c1	0.20327665
44	0xbe685e02	-0.22692111
45	0x3e3ef971	0.18649842
46	0x3ee4915e	0.44642156
47	0xbe1af0ab	-0.1513087
48	0x3d7e1681	0.06203318
49	0x3f226e3b	0.6344945
50	0xbe46ad91	-0.19402148
51	0xbea924af	-0.330358
52	0x3e2e93cd	0.17048569
53	0xbea58a11	-0.323319
54	0x3a3fb373	0.0007312812
55	0xbdc2d66d	-0.09513555
56	0xbe2a7203	-0.16645055
57	0xbe4fdeeb	-0.2029988
58	0x3e372d76	0.17888436
59	0x3ef64787	0.48101446
60	0x3e985386	0.29751223
61	0x3ea13829	0.3148816
62	0x3ed38b48	0.413172
63	0x3f97da4b	1.1863493
64	0xbe5657b1	-0.20931889
65	0xbd1f1f3c	-0.038848147
66	0x3d793ac2	0.06084705
67	0xbe2401b8	-0.1601628
68	0x3f96790d	1.1755692
69	0xbb802dd0	-0.0039117113
70	0xbd96ff42	-0.07372905
71	0xbe9ba746	-0.30401057
72	0xbeabd082	-0.33557516
73	0xbe1edf7c	-0.1551494
74	0xbe86fd3a	-0.26365072
75	0xbd435835	-0.047691543
76	0x3ea2dd8d	0.31809655
77	0x3e37dc5c	0.17955154
78	0xbe7c3578	-0.24629772
79	0xbf02b8d1	-0.5106326
80	0x3f09d8cf	0.5384645
81	0x3e50db2f	0.20396112
82	0x3cfcf379	0.030877816
83	0xbf1f0ed4	-0.62132
84	0x3f2d937d	0.67803174
85	0xbbf135e1	-0.007361159
86	0x3ed2f778	0.4120443
87	0xbd8b071a	-0.06788464
88	0xbd8b93db	-0.068153106
89	0x3e825e09	0.25462368
90	0x3ddac7f1	0.10682667
91	0xbf159391	-0.58428293
92	0xbec2e12e	-0.38062423
93	0xbec8a129	-0.39185455
94	0x3d27ea3a	0.04099486
95	0x3db0baae	0.08629356
96	0x3eb8b376	0.36074418
97	0xbde61182	-0.11233808
98	0xbe9aae62	-0.3021117
99	0x3ec07645	0.37590232
100	0xbe2245fc	-0.1584701
101	0x3e7fe388	0.2498914
102	0xbe34cad5	-0.176555
103	0xbe8de0eb	-0.2771066
104	0xbf2ccb6f	-0.67497915
105	0x3e9c2e02	0.3050385
106	0x3dacfdff	0.084468834
107	0x3e50c65e	0.20388171
108	0x3e4ea4b9	0.20180024
109	0x3e8c4dc1	0.27403072
110	0xbf827257	-1.0191144
111	0xbefeb845	-0.49749961
112	0x3adba23f	0.0016756727
113	0xbe5ddb63	-0.2166572
114	0xbf5eb579	-0.86995655
115	0xbef591ae	-0.47962707
116	0x3e801cf5	0.25022092
117	0x3cc1e78d	0.023669982
118	0x3e0aac89	0.1354238
119	0x3ee9f324	0.45693314
120	0xbdbbf199	-0.091769405
121	0x3d4b0332	0.049563594
122	0xbe053df3	-0.13011913
123	0xbde65832	-0.11247291
124	0xbdf5d8a6	-0.12004213
125	0x3f066878	0.52503157
126	0xbeadbed8	-0.33934665
127	0x3f0d98aa	0.5531107
128	0x3ea7fb24	0.32808793
129	0xbe98f4d2	-0.29874283
130	0xbec25435	-0.3795487
131	0xbf59bde5	-0.8505538
132	0xbd4b488f	-0.049629744
133	0x3cef0e50	0.02918163
134	0xbe9ef759	-0.31048086
135	0xbdb00496	-0.08594625
136	0xbf223283	-0.63358325
137	0xbf21d577	-0.63216347
138	0xbe99a667	-0.30009767
139	0xbe50407f	-0.20337103
140	0xbefba5f6	-0.49150056
141	0xbcfdc989	-0.030979889
142	0x3f2201c3	0.6328394
143	0x3e1e6b45	0.15470608
144	0x3b39b187	0.0028334574
145	0x3edf5798	0.43621516
146	0xbe48d6b0	-0.19613147
147	0xbf47fb9f	-0.7811832
148	0xbea5c799	-0.32378843
149	0x3f0386d8	0.5137763
150	0xbf7c30f2	-0.98512185
151	0x3edd7e5c	0.43260467
152	0x3e83c587	0.2573664
153	0x3f46665a	0.77499926
154	0x3e274e96	0.16338572
155	0xbe9c4c05	-0.30526748
156	0xbf2c001a	-0.67187655
157	0x3e0628ab	0.13101451
158	0xbec18868	-0.37799382
159	0xbe60c6f2	-0.21950892
160	0x3ebc9d80	0.36838913
161	0x3e7b9143	0.24567132
162	0x3e0e2556	0.1388143
163	0xbe9dd651	-0.30827573
164	0x3e52176e	0.2051675
165	0xbf3e59b4	-0.74355626
166	0xbdd148e0	-0.10218978
167	0x3f36b532	0.7137023
168	0x3cbe3e6a	0.02322312
169	0xbeb302ff	-0.34963223
170	0xbf741c5e	-0.95355785
171	0x3e031d79	0.12804212
172	0x3e9889dc	0.29792678
173	0x3f6f70a3	0.93531245
174	0xbea35d18	-0.31906962
175	0xbeece3d3	-0.46267566
176	0xbe5f1123	-0.21783881
177	0x3f11cc03	0.5695192
178	0x3f109e02	0.564911
179	0xbd353c22	-0.0442468
180	0x3e79dfe1	0.2440181
181	0x3e38a76c	0.18032616
182	0xbe15ac92	-0.14616612
183	0x3e3cc886	0.18435869
184	0x3f2684ba	0.65046275
185	0xbe4aed65	-0.19817121
186	0x3d5caf7d	0.053878296
187	0xbd9e4cf9	-0.07729525
188	0x3e4b3d90	0.19847703
189	0x3eecb6b3	0.46233138
190	0x3f4470d3	0.76734656
191	0x3ec030cb	0.37537226
192	0x3f1fcfe0	0.6242657
193	0x3e46dbe4	0.19419819
194	0xbe8b331e	-0.27187437
195	0xbef2e46c	-0.47439897
196	0x3ee4623c	0.44606197
197	0x3e83b5d1	0.25724652
198	0xbdc37eba	-0.095456555
199	0x3c08d961	0.008352608
200	0x3e909c26	0.28244132
201	0x3e991b0f	0.29903457
202	0x3f06f8e0	0.52723503
203	0xbdcf9662	-0.10136105
204	0xbd3eb12f	-0.046555694
205	0x3e1492df	0.14509152
206	0x3c51e734	0.012811471
207	0xbed4fe21	-0.41600135
208	0x3d4f4d15	0.05061062
209	0xbe5ece9f	-0.21758507
210	0x3e0d4506	0.13795862
211	0xbed0e662	-0.40800768
212	0x3b84c12a	0.0040513473
213	0x3f47a47f	0.77985376
214	0x3f239f4d	0.6391495
215	0xbe74bd4b	-0.23900335
216	0x3edb29e9	0.42805412
217	0xbdaca6cf	-0.08430254
218	0xbd98cd26	-0.07461004
219	0xbf0920b4	-0.53565526
220	0x3e152271	0.1456392
221	0x3e1c6c88	0.15275776
222	0x3e3e2560	0.18568945
223	0x3da4dc9c	0.080498904
224	0x3f36bb4f	0.7137956
225	0xbd9cc347	-0.07654434
226	0xbe1b8f7b	-0.15191452
227	0xbd9c6a3f	-0.07637452
228	0x3ec1a6a6	0.37822455
229	0x3e866282	0.2624703
230	0x3dbee1e3	0.09320428
231	0xbd4c08d3	-0.049813103
232	0x3e3598c4	0.17734057
233	0x3f6cbd54	0.9247639
234	0xbecb512b	-0.39710364
235	0xbc9c7a65	-0.019101331
236	0xbf3efff6	-0.74609315
237	0xbed07d4f	-0.40720603
238	0x3cbe8a55	0.023259321
239	0x3f7bc8e9	0.9835344
240	0xbcd732f8	-0.026269421
241	0x3caf800e	0.021423366
242	0x3e191c01	0.14952089
243	0xbf5d9a15	-0.86563236
244	0xbfa2d7fc	-1.2722163
245	0xbee50b14	-0.44735014
246	0xbe90aeda	-0.282584
247	0xbea1a71c	-0.31572807
248	0xbf9f8ac1	-1.2464219
249	0xbe6cead8	-0.23136461
250	0xbf205ff1	-0.62646395
251	0x3ecd215b	0.4006451
252	0xbe9ed355	-0.3102061
253	0xbeaa99bf	-0.33320424
254	0xbf134ebc	-0.57542014
255	0x3ea50e85	0.3223764

network_body._body_endoder.seq_layers.2.bias f4 [128]
0	0x3d2a7a35	0.041620452
1	0xbc3d5f12	-0.011558311
2	0xbc4fb01a	-0.012676263
3	0x3d1f3256	0.038866363
4	0x3caaaea3	0.020835226
5	0xbc4362bf	-0.011925398
6	0xbc653c52	-0.013991432
7	0xbb0d6d40	-0.002158001
8	0x3b5ec807	0.0033993737
9	0xbc8e742e	-0.017389383
10	0x3b304567	0.0026896836
11	0xbbb170da	-0.0054150643
12	0x3cd2fdec	0.025755845
13	0x3c94ced6	0.018165033
14	0x3cc250d0	0.023720175
15	0xbc070611	-0.008241192
16	0xbc602e1e	-0.01368287
17	0xbb0e376a	-0.002170051
18	0xb87f1996	-6.0820566e-05
19	0x3b5e5735	0.003392649
20	0xba4c71e7	-0.0007798955
21	0x3bf7c824	0.0075617004
22	0x3c58bc6e	0.013228519
23	0x3c3bd4ee	0.011464341
24	0x3bae18ba	0.005313006
25	0xbbca28e9	-0.0061694277
26	0x3d196fea	0.037460245
27	0x3cffb2aa	0.031213123
28	0x3c7631b8	0.015026502
29	0x3c0d2c41	0.008616508
30	0x3a14b717	0.00056730345
31	0xbc320031	-0.010864303
32	0xbc3f422f	-0.011673494
33	0x3ccb0f47	0.024787558
34	0xbc165af3	-0.009176957
35	0x3cdb7e86	0.02679373
36	0x3b5498a4	0.0032439614
37	0xbb5cae30	-0.003367316
38	0x3d1fee76	0.039045773
39	0x3cae761d	0.021296555
40	0xbbc84e3f	-0.0061128433
41	0x3d015186	0.031571887
42	0xba8a7ae4	-0.0010565189
43	0x3cb873cd	0.022516156
44	0x3cb65a75	0.02225993
45	0xba9beef5	-0.0011896776
46	0x3c067f01	0.008208991
47	0x3c969ae3	0.018384403
48	0xbc78dfb1	-0.015190051
49	0xba3ac7fc	-0.0007125137
50	0xbbf53fd4	-0.0074844155
51	0x3cd18283	0.025574928
52	0x3cd98309	0.02655174
53	0x3910cce6	0.00013809241
54	0x3b15ffd2	0.0022888076
55	0xbc1cf345	-0.009579484
56	0x3cdfc28a	0.027314443
57	0xbc562b7a	-0.013071889
58	0xbc226623	-0.009912047
59	0xbc784231	-0.0151525
60	0x3bbc1d46	0.0057407944
61	0x3c18299b	0.009287263
62	0x3c8fcbff	0.017553328
63	0x3c6c6f01	0.014430762
64	0xbb4e6faf	-0.0031499674
65	0xbc979b2a	-0.018506605
66	0x3c267a0b	0.010160933
67	0xbc07308f	-0.008251323
68	0x3d0f8b2f	0.035044845
69	0x3ceb23de	0.028703626
70	0x3ced34a0	0.028955758
71	0xbc30ae6c	-0.010783773
72	0x3d36618a	0.044526614
73	0x3d066d72	0.03281922
74	0x3c100b84	0.008791808
75	0xbb653e19	-0.003497964
76	0x3c5f9b31	0.01364784
77	0x3c43a2f1	0.011940704
78	0xbbc3cc1c	-0.0059752595
79	0x3c573d40	0.013137162
80	0x3b94a752	0.0045365477
81	0x3d01ae13	0.03166015
82	0x3c8b685a	0.017017532
83	0x3ae85257	0.0017724734
84	0xbc188de2	-0.009311171
85	0xbc158e44	-0.009128157
86	0x3cb2b7cb	0.021816155
87	0xbc7385f0	-0.014863476
88	0x3cb58bfe	0.02216148
89	0x3d4e1197	0.050309744
90	0x3cf03761	0.029323282
91	0xbbd96f22	-0.0066355625
92	0xbc007f5a	-0.007842863
93	0xbbdfa12a	-0.006824632
94	0x3d05af34	0.03263779
95	0x3c64fe84	0.013976697
96	0x3ba53fc5	0.0050430023
97	0x3c945efa	0.018111695
98	0x3cd326c7	0.025775326
99	0xbcaa8f5e	-0.020820316
100	0x3d446dca	0.047956266
101	0xbafa5f78	-0.0019101938
102	0x3cfecd6d	0.031103814
103	0x3c13f32c	0.009030145
104	0x3c6195e1	0.013768644
105	0x3d0a7eb4	0.03381224
106	0xbc906938	-0.017628297
107	0x3bd790ce	0.0065785414
108	0x3cc93030	0.02455911
109	0x3d0da64f	0.034582432
110	0xbc8412a6	-0.016122174
111	0xbbc8b5c3	-0.0061251833
112	0xbb992fe5	-0.004674899
113	0x3cf38043	0.029724246
114	0x3ce8eb49	0.028432505
115	0xbbd09114	-0.006364951
116	0x3bc6a5a3	0.006062226
117	0x3b95a5ec	0.0045668986
118	0x3bcae85b	0.0061922497
119	0xbac13bca	-0.001474255
120	0xba539bfc	-0.0008072255
121	0x3b822b32	0.0039724344
122	0xbaaab277	-0.0013023157
123	0x3cda07cb	0.026615044
124	0xbbcdd953	-0.0062820106
125	0x3d1e0ab9	0.038584445
126	0x3c7f3598	0.015576743
127	0xbc3eb4b7	-0.011639765

network_body._body_endoder.seq_layers.2.weight f4 [128, 128]
0	0xbe0b7f8d	-0.13622876
1	0xbe26ad95	-0.16277154
2	0x3d047253	0.03233559
3	0x3cf09e0c	0.029372238
4	0xbd93c4a4	-0.072152406
5	0x3d1313a5	0.035907406
6	0xbd8fb495	-0.07016865
7	0xbdc9bb70	-0.09850204
8	0xbc8ed8f2	-0.017437432
9	0x3e3c9f7f	0.18420218
10	0x3e0a84bb	0.13527195
11	0xbbcd8c3c	-0.0062728208
12	0xbd838f6b	-0.06423839
13	0x3d2635df	0.04057872
14	0x3dc83634	0.097759634
15	0x3dbc03b0	0.09180391
16	0x3e4d0a69	0.20023502
17	0xbd7fa60d	-0.062414218
18	0x3cfd9eb9	0.030959474
19	0x3c0c694e	0.0085700285
20	0x3c1e6587	0.009667761
21	0x3d783a24	0.060602322
22	0xbe208eea	-0.15679517
23	0x3e4f43e6	0.20240745
24	0xbde402b0	-0.11133325
25	0xbd1821a0	-0.037141442
26	0x3c7fa717	0.015603802
27	0xbdb114c9	-0.086465426
28	0x3d9659f7	0.07341378
29	0xbb7f9b8a	-0.003900262
30	0x3d09d7a3	0.033652913
31	0x3e0e8ea3	0.13921599
32	0xbe6f7222	-0.23383382
33	0x3d2556b1	0.04036588
34	0xbe310d65	-0.17290266
35	0x3d7c939a	0.0616642
36	0xbe399567	-0.18123399
37	0x3dc521ca	0.096255854
38	0x3daf7069	0.085663624
39	0x3dd83b0f	0.105581395
40	0xbb8a10d1	-0.0042134305
41	0x3cdad507	0.026712907
42	0x3ce2b5a3	0.027674502
43	0xbe058370	-0.1303842
44	0xbdc99175	-0.09842197
45	0x3dca91be	0.09891079
46	0xbcf5bcd3	-0.029997265
47	0xbd39dce1	-0.045376662
48	0xbdc754d6	-0.09732978
49	0xbdbf4bd5	-0.09340636
50	0x3dc18f34	0.09451142
51	0x3e06e746	0.13174161
52	0x3e4c2845	0.19937237
53	0x3e5ca2e7	0.21546517
54	0x3d61f2e3	0.055163275
55	0x3db0e786	0.086379096
56	0xbe3e8fa1	-0.18609478
57	0xbc96a9a0	-0.01839143
58	0x3d4e88bf	0.05042338
59	0xbdb67ad3	-0.089101456
60	0x3cbcf7ed	0.023067439
61	0xbd868c0f	-0.06569683
62	0xbe1e21dc	-0.15442604
63	0x3c5b9c12	0.013403909
64	0xbd954732	-0.0728897
65	0xbd6ede68	-0.058317572
66	0xbce35a74	-0.027753092
67	0x3e369cd8	0.17833269
68	0xbe0eb8db	-0.13937704
69	0xbe180479	-0.14845456
70	0x3de6e6c2	0.11274482
71	0xbdf5de9a	-0.120053485
72	0x3e0ca170	0.13733459
73	0x3de2e3ad	0.11078582
74	0xbe28932d	-0.16462393
75	0x3d97bf7f	0.07409572
76	0xbdc04071	-0.09387291
77	0xbddbedbd	-0.10738704
78	0xbe5964bd	-0.21229835
79	0xbde93d44	-0.113886386
80	0x3e1a0ca5	0.15043886
81	0x3e4f9337	0.20271002
82	0x3d482887	0.048866775
83	0xbe7b9d63	-0.24571757
84	0xbd533e4b	-0.05157308
85	0x3d82ecbd	0.063928105
86	0xbdd68fb2	-0.104766265
87	0x3c86d5d2	0.01645938
88	0xbd1292c0	-0.035784483
89	0x3ba0c6e0	0.0049065202
90	0x3e1772f5	0.14789946
91	0x3d0ce3f7	0.03439709
92	0x3da5a8a2	0.08088805
93	0x3e1cdf0f	0.15319465
94	0x3dfc56d0	0.12321246
95	0x3b3a5b5d	0.0028435804
96	0xbdac29d6	-0.08406417
97	0xbe7eb3c0	-0.24873257
98	0x3d985186	0.07437424
99	0x3df83cde	0.121209845
100	0xbe505387	-0.20344363
101	0xbd237f3e	-0.03991627
102	0xbd2aae52	-0.04167015
103	0x3cbd3e20	0.023100913
104	0xbdcd0132	-0.100099936
105	0x3d6fe48b	0.058567565
106	0xbdd69e72	-0.1047944
107	0xbe1f5e7d	-0.15563388
108	0x3e2a2f75	0.16619666
109	0x3e3adfe5	0.18249471
110	0x3d9373ff	0.07199859
111	0x3ccf1b16	0.02528147
112	0x3c5ec93f	0.0135977855
113	0xbd8fadff	-0.07015609
114	0xbe478205	-0.19483192
115	0x3d69406e	0.05694621
116	0xbdd34e44	-0.10317662
117	0x3db794d5	0.08963934
118	0xbc067020	-0.008205444
119	0xbe0617d9	-0.13095035
120	0x3e558ee1	0.20855285
121	0xbd723b63	-0.059138667
122	0xbd3eeffd	-0.04661559
123	0xbc350f53	-0.011051017
124	0xbddf4d8b	-0.10903462
125	0x3dc349ad	0.09535537
126	0xbdad18e4	-0.08452013
127	0x3d7a19f2	0.0610599
128	0xbb6cd220	-0.0036135986
129	0xbdb396ba	-0.08768983
130	0x3c0eaf5c	0.008708801
131	0xbe24a1a6	-0.16077289
132	0x3db5d999	0.08879394
133	0x3dd8dc7d	0.1058893
134	0xbdcedad7	-0.10100334
135	0x3b3b138f	0.0028545593
136	0xbce79cc3	-0.028272992
137	0xbc3765e0	-0.0111937225
138	0x3d9379b9	0.07200951
139	0xbcb3f790	-0.021968633
140	0xbd5c402a	-0.05377213
141	0x3dd0ed57	0.10201519
142	0xbd02f746	-0.0319741
143	0x3e3e3cd7	0.18577896
144	0x3e0158b1	0.1263149
145	0x3e213b92	0.1574538
146	0x3dadc93a	0.084856465
147	0xbc9417b6	-0.018077713
148	0xbdfa6a9c	-0.122273654
149	0x3e5e3359	0.21699275
150	0x3d04c1a8	0.032411247
151	0x3d85645f	0.06513285
152	0x3d06e47d	0.032932747
153	0xbd888c98	-0.06667441
154	0xbe421c2e	-0.18956062
155	0x3e197e4a	0.14989582
156	0x3deba744	0.11506513
157	0x3cc6c79f	0.024265109
158	0x3ac9d97a	0.0015399896
159	0xbcfd594d	-0.030926371
160	0xbd932c98	-0.0718624
161	0x3da25e2d	0.07928119
162	0x3e1c6132	0.15271452
163	0xbd868781	-0.06568814
164	0xbca35c51	-0.01994148
165	0xbd726eaa	-0.05918757
166	0xbc89fec1	-0.016845109
167	0xbd9084bd	-0.07056568
168	0xbd2eae0e	-0.04264646
169	0xbe0803d4	-0.1328271
170	0x3ce2341c	0.027612738
171	0x3d91ff93	0.07128825
172	0xbd07e397	-0.03317603
173	0xbd9bc24d	-0.07605419
174	0xbe60464a	-0.21901813
175	0x3e257924	0.16159493
176	0x3cb32e58	0.021872684
177	0xbde0ed3d	-0.109827496
178	0x3d8e5405	0.06949619
179	0x3dd3f491	0.10349382
180	0x3cfee4c7	0.031114949
181	0xbd23193f	-0.039819
182	0x3cb83cd4	0.022489943
183	0x3e6f7da8	0.23387778
184	0x3dbae3d3	0.09125485
185	0xbdfcabd0	-0.12337458
186	0x3d0f3f32	0.034972377
187	0xbc5bcd6c	-0.013415676
188	0x3be095c9	0.0068537933
189	0xbce2b731	-0.027675243
190	0xbe26953f	-0.1626787
191	0xbe8a41a9	-0.2700322
192	0x3dc4ca6d	0.09608922
193	0x3dcff705	0.10154537
194	0xbbc6eff8	-0.006071087
195	0xbdc39236	-0.09549372
196	0x3e2741ca	0.1633369
197	0xb7f83063	-2.9586436e-05
198	0x3e17e508	0.14833462
199	0x3d1e4cc5	0.038647432
200	0xbd31736e	-0.043322973
201	0xbe26608b	-0.16247766
202	0xbdab1a7a	-0.083546594
203	0xbdbcc17e	-0.09216593
204	0xbc598c4a	-0.013278076
205	0xbe76b530	-0.24092555
206	0x3db8275d	0.08991883
207	0x3dc2f9e1	0.09520317
208	0x3679b2fc	3.7208074e-06
209	0x3d115d6d	0.03548949
210	0xbcc7a33c	-0.024369828
211	0xbd9ea0f8	-0.07745546
212	0xbd2feaf3	-0.042948674
213	0x3d350b38	0.044200152
214	0x3df710fe	0.12063788
215	0x3d645277	0.055742707
216	0x3d1d887d	0.038460243
217	0xbc6dfdfd	-0.014525888
218	0xb90f19e6	-0.0001364719
219	0x3d833bcd	0.064078905
220	0xbd937cf1	-0.07201565
221	0x3d7d3b83	0.061824333
222	0x3cb873be	0.022516128
223	0x3d7be3de	0.061496608
224	0xbdf151a9	-0.117831536
225	0xbd2d0e08	-0.04224971
226	0xbc85c42f	-0.0163289
227	0xbe0cdca3	-0.13756041
228	0x3c864a23	0.016392773
229	0xbd7ae308	-0.06125167
230	0xbe8286c3	-0.2549344
231	0x3dd1ff55	0.10253779
232	0x3dc9cf4a	0.098539904
233	0xbd98146a	-0.07425769
234	0x3d270244	0.040773645
235	0xba2b46dc	-0.0006533691
236	0xbb24a1c2	-0.002512083
237	0x3d96f887	0.073716216
238	0xbdd69b9c	-0.10478899
239	0x3c0383a5	0.008026992
240	0x3c890f26	0.016730856
241	0x3b9799c7	0.004626486
242	0xbd4e8f3e	-0.050429575
243	0xbde2057c	-0.11036202
244	0x3d496e74	0.049177602
245	0xbe073d8f	-0.13207076
246	0xbdefe9c3	-0.117145084
247	0x3bc42ec2	0.0059870193
248	0x3e1376bd	0.14400764
249	0x3d87ab97	0.06624525
250	0x3bf0eda8	0.0073525496
251	0x3da4b8af	0.08043038
252	0xbdeb663b	-0.11494108
253	0x3ddee1e2	0.108829275
254	0x3d0c95a5	0.0343224
255	0x3db722ee	0.08942209
