CubeTest/results/Test2/MoveToGoal/MoveToGoal-500044.pt (torch, 439199 bytes, 36 tensors)

network_body._body_endoder.seq_layers.0.weight f4 [128, 6]
00000000: 49e5 69be 39dc 103f 4ea6 0cbf 99f6 60bf
00000010: af89 9c3e 8ea9 313e 7833 40bf 3d89 143f
00000020: b765 08be 04de 41bf b976 7bbe 7311 87be
00000030: 6c5c 12be e748 18bf 31f7 9abe 6194 9d3e
00000040: 63f4 873e 1a20 e73d 33ed 3fbe e10e b53b
00000050: abbd 5fbe 8eef 85be c093 34be 1301 6b3e
00000060: f727 e73d c2d4 b3be 058a 073f 5e0d a0be
00000070: e993 26bf 5a14 cdba aa2e 943d 5716 abbe
00000080: 3f4a 4dbe e83e 06bf 07c5 0e3f fffa 88be
00000090: 8e58 6b3f efa3 0d3f e161 02be 085f ba3d
000000a0: b8fb 0b3e b6a9 3cbe b2b0 10bf c127 503e
000000b0: 025e 68be 71f9 3e3e 5e91 e43e abf0 1abe
000000c0: 8116 7e3d 3b6e 223f 91ad 46be af24 a9be
000000d0: cd93 2e3e 118a a5be 73b3 3f3a 6dd6 c2bd
000000e0: 0372 2abe ebde 4fbe 762d 373e 8747 f63e
000000f0: 8653 983e 2938 a13e 488b d33e 4bda 973f
00000100: b157 56be 3c1f 1fbd c23a 793d b801 24be
00000110: 0d79 963f d02d 80bb 42ff 96bd 46a7 9bbe
00000120: 82d0 abbe 7cdf 1ebe 3afd 86be 3558 43bd
00000130: 8ddd a23e 5cdc 373e 7835 7cbe d1b8 02bf
00000140: cfd8 093f 2fdb 503e 79f3 fc3c d40e 1fbf
00000150: 7d93 2d3f e135 f1bb 78f7 d23e 1a07 8bbd
00000160: db93 8bbd 095e 823e f1c7 da3d 9193 15bf
00000170: 2ee1 c2be 29a1 c8be 3aea 273d aeba b03d
00000180: 76b3 b83e 8211 e6bd 62ae 9abe 4576 c03e
00000190: fc45 22be 88e3 7f3e d5ca 34be ebe0 8dbe
000001a0: 6fcb 2cbf 022e 9c3e fffd ac3d 5ec6 503e
000001b0: b9a4 4e3e c14d 8c3e 5772 82bf 45b8 febe
000001c0: 3fa2 db3a 63db 5dbe 79b5 5ebf ae91 f5be
000001d0: f51c 803e 8de7 c13c 89ac 0a3e 24f3 e93e
000001e0: 99f1 bbbd 3203 4b3d f33d 05be 3258 e6bd
000001f0: a6d8 f5bd 7868 063f d8be adbe aa98 0d3f
00000200: 24fb a73e d2f4 98be 3554 c2be e5bd 59bf
00000210: 8f48 4bbd 500e ef3c 59f7 9ebe 9604 b0bd
00000220: 8332 22bf 77d5 21bf 67a6 99be 7f40 50be
00000230: f6a5 fbbe 89c9 fdbc c301 223f 456b 1e3e
00000240: 87b1 393b 9857 df3e b0d6 48be 9ffb 47bf
00000250: 99c7 a5be d886 033f f230 7cbf 5c7e dd3e
00000260: 87c5 833e 5a66 463f 964e 273e 054c 9cbe
00000270: 1a00 2cbf ab28 063e 6888 c1be f2c6 60be
00000280: 809d bc3e 4391 7b3e 5625 0e3e 51d6 9dbe
00000290: 6e17 523e b459 3ebf e048 d1bd 32b5 363f
000002a0: 6a3e be3c ff02 b3be 5e1c 74bf 791d 033e
000002b0: dc89 983e a370 6f3f 185d a3be d3e3 ecbe
000002c0: 2311 5fbe 03cc 113f 029e 103f 223c 35bd
000002d0: e1df 793e 6ca7 383e 92ac 15be 86c8 3c3e
000002e0: ba84 263f 65ed 4abe 7daf 5c3d f94c 9ebd
000002f0: 903d 4b3e b3b6 ec3e d370 443f cb30 c03e
00000300: e0cf 1f3f e4db 463e 1e33 8bbe 6ce4 f2be
00000310: 3c62 e43e d1b5 833e ba7e c3bd 61d9 083c
00000320: 269c 903e 0f1b 993e e0f8 063f 6296 cfbd
00000330: 2fb1 3ebd df92 143e 34e7 513c 21fe d4be
00000340: 154d 4f3d 9fce 5ebe 0645 0d3e 62e6 d0be
00000350: 2ac1 843b 7fa4 473f 4d9f 233f 4bbd 74be
00000360: e929 db3e cfa6 acbd 26cd 98bd b420 09bf
00000370: 7122 153e 886c 1c3e 6025 3e3e 9cdc a43d
00000380: 4fbb 363f 47c3 9cbd 7b8f 1bbe 3f6a 9cbd
00000390: a6a6 c13e 8262 863e e3e1 be3d d308 4cbd
000003a0: c498 353e 54bd 6c3f 2b51 cbbe 657a 9cbc
000003b0: f6ff 3ebf 4f7d d0be 558a be3c e9c8 7b3f
000003c0: f832 d7bc 0e80 af3c 011c 193e 159a 5dbf
000003d0: fcd7 a2bf 140b e5be daae 90be 1ca7 a1be
000003e0: c18a 9fbf d8ea 6cbe f15f 20bf 5b21 cd3e
000003f0: 55d3 9ebe bf99 aabe bc4e 13bf 850e a53e
-0.22841372 0.56586033 -0.5494126 -0.8787628 0.30573794 0.17349836 -0.75078535 0.5802191
-0.13320051 -0.75729394 -0.24557008 -0.263805 -0.14293069 -0.5948624 -0.30266717 0.30777267
0.2655364 0.1128542 -0.18742828 0.0055254553 -0.21849696 -0.26159328 -0.17634487 0.22949629
0.112869196 -0.3512326 0.52944976 -0.31260198 -0.65069443 -0.0015646324 0.07235463 -0.3341548
-0.20047854 -0.5243974 0.5576939 -0.26753995 0.91932 0.5532827 -0.1273265 0.09100157
0.13670242 -0.18424115 -0.56519616 0.20327665 -0.22692111 0.18649842 0.44642156 -0.1513087
0.06203318 0.6344945 -0.19402148 -0.330358 0.17048569 -0.323319 0.0007312812 -0.09513555
-0.16645055 -0.2029988 0.17888436 0.48101446 0.29751223 0.3148816 0.413172 1.1863493
-0.20931889 -0.038848147 0.06084705 -0.1601628 1.1755692 -0.0039117113 -0.07372905 -0.30401057
-0.33557516 -0.1551494 -0.26365072 -0.047691543 0.31809655 0.17955154 -0.24629772 -0.5106326
0.5384645 0.20396112 0.030877816 -0.62132 0.67803174 -0.007361159 0.4120443 -0.06788464
-0.068153106 0.25462368 0.10682667 -0.58428293 -0.38062423 -0.39185455 0.04099486 0.08629356
0.36074418 -0.11233808 -0.3021117 0.37590232 -0.1584701 0.2498914 -0.176555 -0.2771066
-0.67497915 0.3050385 0.084468834 0.20388171 0.20180024 0.27403072 -1.0191144 -0.49749961
0.0016756727 -0.2166572 -0.86995655 -0.47962707 0.25022092 0.023669982 0.1354238 0.45693314
-0.091769405 0.049563594 -0.13011913 -0.11247291 -0.12004213 0.52503157 -0.33934665 0.5531107
0.32808793 -0.29874283 -0.3795487 -0.8505538 -0.049629744 0.02918163 -0.31048086 -0.08594625
-0.63358325 -0.63216347 -0.30009767 -0.20337103 -0.49150056 -0.030979889 0.6328394 0.15470608
0.0028334574 0.43621516 -0.19613147 -0.7811832 -0.32378843 0.5137763 -0.98512185 0.43260467
0.2573664 0.77499926 0.16338572 -0.30526748 -0.67187655 0.13101451 -0.37799382 -0.21950892
0.36838913 0.24567132 0.1388143 -0.30827573 0.2051675 -0.74355626 -0.10218978 0.7137023
0.02322312 -0.34963223 -0.95355785 0.12804212 0.29792678 0.93531245 -0.31906962 -0.46267566
-0.21783881 0.5695192 0.564911 -0.0442468 0.2440181 0.18032616 -0.14616612 0.18435869
0.65046275 -0.19817121 0.053878296 -0.07729525 0.19847703 0.46233138 0.76734656 0.37537226
0.6242657 0.19419819 -0.27187437 -0.47439897 0.44606197 0.25724652 -0.095456555 0.008352608
0.28244132 0.29903457 0.52723503 -0.10136105 -0.046555694 0.14509152 0.012811471 -0.41600135
0.05061062 -0.21758507 0.13795862 -0.40800768 0.0040513473 0.77985376 0.6391495 -0.23900335
0.42805412 -0.08430254 -0.07461004 -0.53565526 0.1456392 0.15275776 0.18568945 0.080498904
0.7137956 -0.07654434 -0.15191452 -0.07637452 0.37822455 0.2624703 0.09320428 -0.049813103
0.17734057 0.9247639 -0.39710364 -0.019101331 -0.74609315 -0.40720603 0.023259321 0.9835344
-0.026269421 0.021423366 0.14952089 -0.86563236 -1.2722163 -0.44735014 -0.282584 -0.31572807
-1.2464219 -0.23136461 -0.62646395 0.4006451 -0.3102061 -0.33320424 -0.57542014 0.3223764

network_body._body_endoder.seq_layers.0.bias f4 [128]
00000000: 06af 8e39 5411 62bc b4fa 123d 2503 b23b
00000010: f0fe 443c ba51 a03c e496 2a3b 644a e53c
00000020: 5dfc bd3c a2e3 a73c 2317 9d3c 163b ba3c
00000030: 90e9 713b ed1a 713c 5326 2d3d 6bff 33bc
00000040: d6d9 593d 9a50 ae3c 1ddc ce3c 0dc1 24bc
00000050: fb16 11bc 3ab1 3cbc 70ac 573c c169 223d
00000060: f828 02bd 9d50 08bd 4862 1e3d 2ea4 573b
00000070: cfa6 483d fbc5 cf3c a875 c93c d3ab bb3d
00000080: 991a 97bb f64b 5b3c 44e2 e6bc 5baa cc3c
00000090: 0dc0 93bc 21ec dc3a f48c 333d 77bb b23c
000000a0: 2d29 163c fbdf 80bc 75d8 a93c f20c e3ba
000000b0: 97da bfbc e5b7 5c3d 6217 bd3c a859 d4bb
000000c0: 0bbe 813b 06ce db3c 134c 59ba e90a 093a
000000d0: 5f8d 933c 1a17 003c 8454 7c3b ab80 593a
000000e0: b982 8739 4ffb c0bc 6be9 6f3c 1e30 e83c
000000f0: 5801 733d a6a5 8cbc 735f 1d3d 55c9 77bc
00000100: b48a ef3b c977 56bc 5666 9bbc 8955 e63c
00000110: a8a7 1e3d c06e 22bd bd7f 36bd 52af d4bc
00000120: 2f2d c93a cdb3 1cbc 89a5 043c c6e5 f2ba
00000130: 15d5 0cbc e6af 85bb 8bd9 1b3d a84c c1ba
00000140: c9a5 eb3c e1c8 0d3c 88ec b7bc 874d b83c
00000150: ae15 29bb bed3 893d df94 673d 097a 263c
00000160: f4e2 993c 2502 41bc f9b5 2a3d f00e 693c
00000170: 8721 5b3d 7c7d 723d dc6e c03c c358 c23b
00000180: e326 693a f313 2c3d 0ca3 8e3c 4d29 193c
00000190: 2b13 a53c 6c93 aabb 50d7 8ebb 3a1c 323d
000001a0: 2402 05bc fbce c3bb 7189 5b3b 4b58 353b
000001b0: 3033 27bc c338 273d 9bfa 573c c8b4 643c
000001c0: c3e4 b93c 7861 6ebc 4157 dabc f46d 203c
000001d0: 6950 003d 5d0f 1fbd 0bfa d6bb 9d34 aa3c
000001e0: 5a96 2a3d 376f e33c 2502 7f3c 10b4 80bb
000001f0: 244d 233d 6d31 d9bb 8a50 473d 0789 18bc
0.00027214753 -0.013798077 0.03588362 0.0054325038 0.012023672 0.01957022 0.002602988 0.027989574
0.023191625 0.020494286 0.019176072 0.022733252 0.0036912896 0.014715892 0.042272877 -0.010986189
0.05318626 0.021278668 0.025251443 -0.0100557925 -0.008855577 -0.0115168635 0.013163671 0.039651636
-0.031777352 -0.033280004 0.038667947 0.0032904255 0.048987206 0.02536296 0.024592236 0.09163632
-0.004611325 0.01338481 -0.028184064 0.024983576 -0.018035913 0.001685504 0.043835595 0.021817906
0.0091650905 -0.015731802 0.020733098 -0.0017322584 -0.023419661 0.053886313 0.023082439 -0.0064804144
0.0039594225 0.026831638 -0.0008289229 0.0005227761 0.018011747 0.007818008 0.0038502524 0.0008297066
0.00025846603 -0.023557333 0.0146430535 0.028343257 0.059327453 -0.017168831 0.038421106 -0.015123685
0.007310236 -0.013090082 -0.018969696 0.028116958 0.03873411 -0.0396564 -0.044555414 -0.025962505
0.0015348549 -0.009564352 0.008096107 -0.0018531613 -0.008595725 -0.0040798066 0.038049262 -0.0014747577
0.028765576 0.00865385 -0.022451654 0.022497905 -0.0025800276 0.0672984 0.05653846 0.010160931
0.018784977 -0.011780296 0.04167745 0.014224753 0.05349877 0.059201702 0.023490362 0.0059309914
0.0008894039 0.042011213 0.017411731 0.009348226 0.020150742 -0.0052055623 -0.0043591633 0.04348395
-0.008118186 -0.0059756017 0.003349867 0.0027671035 -0.010205075 0.040825617 0.013182308 0.013959117
0.02269209 -0.014549606 -0.026652934 0.00979184 0.031326685 -0.03883301 -0.006560569 0.020777041
0.041647293 0.027762992 0.015564476 -0.003927715 0.03986849 -0.0066282065 0.048660792 -0.009310014

network_body._body_endoder.seq_layers.2.weight f4 [128, 128]
00000000: 8d7f 0bbe 95ad 26be 5372 043d 0c9e f03c
00000010: a4c4 93bd a513 133d 95b4 8fbd 70bb c9bd
00000020: f2d8 8ebc 7f9f 3c3e bb84 0a3e 3c8c cdbb
00000030: 6b8f 83bd df35 263d 3436 c83d b003 bc3d
00000040: 690a 4d3e 0da6 7fbd b99e fd3c 4e69 0c3c
00000050: 8765 1e3c 243a 783d ea8e 20be e643 4f3e
00000060: b002 e4bd a021 18bd 17a7 7f3c c914 b1bd
00000070: f759 963d 8a9b 7fbb a3d7 093d a38e 0e3e
00000080: 2272 6fbe b156 253d 650d 31be 9a93 7c3d
00000090: 6795 39be ca21 c53d 6970 af3d 0f3b d83d
000000a0: d110 8abb 07d5 da3c a3b5 e23c 7083 05be
000000b0: 7591 c9bd be91 ca3d d3bc f5bc e1dc 39bd
000000c0: d654 c7bd d54b bfbd 348f c13d 46e7 063e
000000d0: 4528 4c3e e7a2 5c3e e3f2 613d 86e7 b03d
000000e0: a18f 3ebe a0a9 96bc bf88 4e3d d37a b6bd
000000f0: edf7 bc3c 0f8c 86bd dc21 1ebe 129c 5b3c
00000100: 3247 95bd 68de 6ebd 745a e3bc d89c 363e
00000110: dbb8 0ebe 7904 18be c2e6 e63d 9ade f5bd
00000120: 70a1 0c3e ade3 e23d 2d93 28be 7fbf 973d
00000130: 7140 c0bd bded dbbd bd64 59be 443d e9bd
00000140: a50c 1a3e 3793 4f3e 8728 483d 639d 7bbe
00000150: 4b3e 53bd bdec 823d b28f d6bd d2d5 863c
00000160: c092 12bd e0c6 a03b f572 173e f7e3 0c3d
00000170: a2a8 a53d 0fdf 1c3e d056 fc3d 5d5b 3a3b
00000180: d629 acbd c0b3 7ebe 8651 983d de3c f83d
00000190: 8753 50be 3e7f 23bd 52ae 2abd 203e bd3c
000001a0: 3201 cdbd 8be4 6f3d 729e d6bd 7d5e 1fbe
000001b0: 752f 2a3e e5df 3a3e ff73 933d 161b cf3c
000001c0: 3fc9 5e3c ffad 8fbd 0582 47be 6e40 693d
000001d0: 444e d3bd d594 b73d 2070 06bc d917 06be
000001e0: e18e 553e 633b 72bd fdef 3ebd 530f 35bc
000001f0: 8b4d dfbd ad49 c33d e418 adbd f219 7a3d
00000200: 20d2 6cbb ba96 b3bd 5caf 0e3c a6a1 24be
00000210: 99d9 b53d 7ddc d83d d7da cebd 8f13 3b3b
00000220: c39c e7bc e065 37bc b979 933d 90f7 b3bc
00000230: 2a40 5cbd 57ed d03d 46f7 02bd d73c 3e3e
00000240: b158 013e 923b 213e 3ac9 ad3d b617 94bc
00000250: 9c6a fabd 5933 5e3e a8c1 043d 5f64 853d
00000260: 7de4 063d 988c 88bd 2e1c 42be 4a7e 193e
00000270: 44a7 eb3d 9fc7 c63c 7ad9 c93a 4d59 fdbc
00000280: 982c 93bd 2d5e a23d 3261 1c3e 8187 86bd
00000290: 515c a3bc aa6e 72bd c1fe 89bc bd84 90bd
000002a0: 0eae 2ebd d403 08be 1c34 e23c 93ff 913d
000002b0: 97e3 07bd 4dc2 9bbd 4a46 60be 2479 253e
000002c0: 582e b33c 3ded e0bd 0554 8e3d 91f4 d33d
000002d0: c7e4 fe3c 3f19 23bd d43c b83c a87d 6f3e
000002e0: d3e3 ba3d d0ab fcbd 323f 0f3d 6ccd 5bbc
000002f0: c995 e03b 31b7 e2bc 3f95 26be a941 8abe
00000300: 6dca c43d 05f7 cf3d f8ef c6bb 3692 c3bd
00000310: ca41 273e 6330 f8b7 08e5 173e c54c 1e3d
00000320: 6e73 31bd 8b60 26be 7a1a abbd 7ec1 bcbd
00000330: 4a8c 59bc 30b5 76be 5d27 b83d e1f9 c23d
00000340: fcb2 7936 6d5d 113d 3ca3 c7bc f8a0 9ebd
00000350: f3ea 2fbd 380b 353d fe10 f73d 7752 643d
00000360: 7d88 1d3d fdfd 6dbc e619 0fb9 cd3b 833d
00000370: f17c 93bd 833b 7d3d be73 b83c dee3 7b3d
00000380: a951 f1bd 080e 2dbd 2fc4 85bc a3dc 0cbe
00000390: 234a 863c 08e3 7abd c386 82be 55ff d13d
000003a0: 4acf c93d 6a14 98bd 4402 273d dc46 2bba
000003b0: c2a1 24bb 87f8 963d 9c9b d6bd a583 033c
000003c0: 260f 893c c799 973b 3e8f 4ebd 7c05 e2bd
000003d0: 746e 493d 8f3d 07be c3e9 efbd c22e c43b
000003e0: bd76 133e 97ab 873d a8ed f03b afb8 a43d
000003f0: 3b66 ebbd e2e1 de3d a595 0c3d ee22 b73d
-0.13622876 -0.16277154 0.03233559 0.029372238 -0.072152406 0.035907406 -0.07016865 -0.09850204
-0.017437432 0.18420218 0.13527195 -0.0062728208 -0.06423839 0.04057872 0.097759634 0.09180391
0.20023502 -0.062414218 0.030959474 0.0085700285 0.009667761 0.060602322 -0.15679517 0.20240745
-0.11133325 -0.037141442 0.015603802 -0.086465426 0.07341378 -0.003900262 0.033652913 0.13921599
-0.23383382 0.04036588 -0.17290266 0.0616642 -0.18123399 0.096255854 0.085663624 0.105581395
-0.0042134305 0.026712907 0.027674502 -0.1303842 -0.09842197 0.09891079 -0.029997265 -0.045376662
-0.09732978 -0.09340636 0.09451142 0.13174161 0.19937237 0.21546517 0.055163275 0.086379096
-0.18609478 -0.01839143 0.05042338 -0.089101456 0.023067439 -0.06569683 -0.15442604 0.013403909
-0.0728897 -0.058317572 -0.027753092 0.17833269 -0.13937704 -0.14845456 0.11274482 -0.120053485
0.13733459 0.11078582 -0.16462393 0.07409572 -0.09387291 -0.10738704 -0.21229835 -0.113886386
0.15043886 0.20271002 0.048866775 -0.24571757 -0.05157308 0.063928105 -0.104766265 0.01645938
-0.035784483 0.0049065202 0.14789946 0.03439709 0.08088805 0.15319465 0.12321246 0.0028435804
-0.08406417 -0.24873257 0.07437424 0.121209845 -0.20344363 -0.03991627 -0.04167015 0.023100913
-0.100099936 0.058567565 -0.1047944 -0.15563388 0.16619666 0.18249471 0.07199859 0.02528147
0.0135977855 -0.07015609 -0.19483192 0.05694621 -0.10317662 0.08963934 -0.008205444 -0.13095035
0.20855285 -0.059138667 -0.04661559 -0.011051017 -0.10903462 0.09535537 -0.08452013 0.0610599
-0.0036135986 -0.08768983 0.008708801 -0.16077289 0.08879394 0.1058893 -0.10100334 0.0028545593
-0.028272992 -0.0111937225 0.07200951 -0.021968633 -0.05377213 0.10201519 -0.0319741 0.18577896
0.1263149 0.1574538 0.084856465 -0.018077713 -0.122273654 0.21699275 0.032411247 0.06513285
0.032932747 -0.06667441 -0.18956062 0.14989582 0.11506513 0.024265109 0.0015399896 -0.030926371
-0.0718624 0.07928119 0.15271452 -0.06568814 -0.01994148 -0.05918757 -0.016845109 -0.07056568
-0.04264646 -0.1328271 0.027612738 0.07128825 -0.03317603 -0.07605419 -0.21901813 0.16159493
0.021872684 -0.109827496 0.06949619 0.10349382 0.031114949 -0.039819 0.022489943 0.23387778
0.09125485 -0.12337458 0.034972377 -0.013415676 0.0068537933 -0.027675243 -0.1626787 -0.2700322
0.09608922 0.10154537 -0.006071087 -0.09549372 0.1633369 -2.9586436e-05 0.14833462 0.038647432
-0.043322973 -0.16247766 -0.083546594 -0.09216593 -0.013278076 -0.24092555 0.08991883 0.09520317
3.7208074e-06 0.03548949 -0.024369828 -0.07745546 -0.042948674 0.044200152 0.12063788 0.055742707
0.038460243 -0.014525888 -0.0001364719 0.064078905 -0.07201565 0.061824333 0.022516128 0.061496608
-0.117831536 -0.04224971 -0.0163289 -0.13756041 0.016392773 -0.06125167 -0.2549344 0.10253779
0.098539904 -0.07425769 0.040773645 -0.0006533691 -0.002512083 0.073716216 -0.10478899 0.008026992
0.016730856 0.004626486 -0.050429575 -0.11036202 0.049177602 -0.13207076 -0.117145084 0.0059870193
0.14400764 0.06624525 0.0073525496 0.08043038 -0.11494108 0.108829275 0.0343224 0.08942209

network_body._body_endoder.seq_layers.2.bias f4 [128]
00000000: 357a 2a3d 125f 3dbc 1ab0 4fbc 5632 1f3d
00000010: a3ae aa3c bf62 43bc 523c 65bc 406d 0dbb
00000020: 07c8 5e3b 2e74 8ebc 6745 303b da70 b1bb
00000030: ecfd d23c d6ce 943c d050 c23c 1106 07bc
00000040: 1e2e 60bc 6a37 0ebb 9619 7fb8 3557 5e3b
00000050: e771 4cba 24c8 f73b 6ebc 583c eed4 3b3c
00000060: ba18 ae3b e928 cabb ea6f 193d aab2 ff3c
00000070: b831 763c 412c 0d3c 17b7 143a 3100 32bc
00000080: 2f42 3fbc 470f cb3c f35a 16bc 867e db3c
00000090: a498 543b 30ae 5cbb 76ee 1f3d 1d76 ae3c
000000a0: 3f4e c8bb 8651 013d e47a 8aba cd73 b83c
000000b0: 755a b63c f5ee 9bba 017f 063c e39a 963c
000000c0: b1df 78bc fcc7 3aba d43f f5bb 8382 d13c
000000d0: 0983 d93c e6cc 1039 d2ff 153b 45f3 1cbc
000000e0: 8ac2 df3c 7a2b 56bc 2366 22bc 3142 78bc
000000f0: 461d bc3b 9b29 183c ffcb 8f3c 016f 6c3c
00000100: af6f 4ebb 2a9b 97bc 0b7a 263c 8f30 07bc
00000110: 2f8b 0f3d de23 eb3c a034 ed3c 6cae 30bc
00000120: 8a61 363d 726d 063d 840b 103c 193e 65bb
00000130: 319b 5f3c f1a2 433c 1ccc c3bb 403d 573c
00000140: 52a7 943b 13ae 013d 5a68 8b3c 5752 e83a
00000150: e28d 18bc 448e 15bc cbb7 b23c f085 73bc
00000160: fe8b b53c 9711 4e3d 6137 f03c 226f d9bb
00000170: 5a7f 00bc 2aa1 dfbb 34af 053d 84fe 643c
00000180: c53f a53b fa5e 943c c726 d33c 5e8f aabc
00000190: ca6d 443d 785f faba 6dcd fe3c 2cf3 133c
000001a0: e195 613c b47e 0a3d 3869 90bc ce90 d73b
000001b0: 3030 c93c 4fa6 0d3d a612 84bc c3b5 c8bb
000001c0: e52f 99bb 4380 f33c 49eb e83c 1491 d0bb
000001d0: a3a5 c63b eca5 953b 5be8 ca3b ca3b c1ba
000001e0: fc9b 53ba 322b 823b 77b2 aaba cb07 da3c
000001f0: 53d9 cdbb b90a 1e3d 9835 7f3c b7b4 3ebc
0.041620452 -0.011558311 -0.012676263 0.038866363 0.020835226 -0.011925398 -0.013991432 -0.002158001
0.0033993737 -0.017389383 0.0026896836 -0.0054150643 0.025755845 0.018165033 0.023720175 -0.008241192
-0.01368287 -0.002170051 -6.0820566e-05 0.003392649 -0.0007798955 0.0075617004 0.013228519 0.011464341
0.005313006 -0.0061694277 0.037460245 0.031213123 0.015026502 0.008616508 0.00056730345 -0.010864303
-0.011673494 0.024787558 -0.009176957 0.02679373 0.0032439614 -0.003367316 0.039045773 0.021296555
-0.0061128433 0.031571887 -0.0010565189 0.022516156 0.02225993 -0.0011896776 0.008208991 0.018384403
-0.015190051 -0.0007125137 -0.0074844155 0.025574928 0.02655174 0.00013809241 0.0022888076 -0.009579484
0.027314443 -0.013071889 -0.009912047 -0.0151525 0.0057407944 0.009287263 0.017553328 0.014430762
-0.0031499674 -0.018506605 0.010160933 -0.008251323 0.035044845 0.028703626 0.028955758 -0.010783773
0.044526614 0.03281922 0.008791808 -0.003497964 0.01364784 0.011940704 -0.0059752595 0.013137162
0.0045365477 0.03166015 0.017017532 0.0017724734 -0.009311171 -0.009128157 0.021816155 -0.014863476
0.02216148 0.050309744 0.029323282 -0.0066355625 -0.007842863 -0.006824632 0.03263779 0.013976697
0.0050430023 0.018111695 0.025775326 -0.020820316 0.047956266 -0.0019101938 0.031103814 0.009030145
0.013768644 0.03381224 -0.017628297 0.0065785414 0.02455911 0.034582432 -0.016122174 -0.0061251833
-0.004674899 0.029724246 0.028432505 -0.006364951 0.006062226 0.0045668986 0.0061922497 -0.001474255
-0.0008072255 0.0039724344 -0.0013023157 0.026615044 -0.0062820106 0.038584445 0.015576743 -0.011639765

action_model._continuous_distribution.log_sigma f4 [1, 2]
00000000: b813 b1bd 410d 08be
-0.08646339 -0.13286306

action_model._continuous_distribution.mu.weight f4 [2, 128]
00000000: 41e2 91bd 5874 383d fb7c b53c c537 41bd
00000010: 24a7 1fbd 5848 d23c ac98 1dbd 4300 97bc
00000020: 6649 1c3d b6ef 3f3b 7b31 3c3d c147 633d
00000030: 2760 a4bd 1f8c 20bd 6b28 81bd 06c9 95bc
00000040: a239 0abc 83ca 293d 3731 473c c30a 743d
00000050: a1b5 e039 6a45 813c b7ee 60b9 34e6 b63d
00000060: ba7c a33c e7bc 593d e520 a4bd cd20 2bbd
00000070: 9fdc 9b3c 43ef 073d e011 9a3c e280 023d
00000080: f5ad b23c 0e91 f7bb 2ab1 2a3d b241 fd3b
00000090: 5f26 88bc 2009 9e3c 8755 19bc d248 f3bc
000000a0: be6a 053d a3ea b2bd bac5 033d 038c 1a3d
000000b0: cb18 883d 8b0c 213d 6a92 a5bc 2e35 77bd
000000c0: 419f d43c 6084 8c3b 606e 393d 7a3b 52bd
000000d0: 9760 4a3d 5e3e 713c 341f 8a3d 404a 013d
000000e0: 1cef 0dbd 36fa e1bb 031e 123d 583e 133d
000000f0: c132 f7bc 34ba 583d 5621 1bbb ace1 57bd
00000100: 1904 133c 64eb a03c 7993 28bd 4780 de3c
00000110: 8b0a 9cbd 05bc 3ebd 9356 403d 666a ea3c
00000120: 0e04 8fbd b638 9abc d642 8ebd 03c9 d93c
00000130: 764e d7bc d1b6 4cbc 387d 223d 7867 88bd
00000140: b621 4abc ee93 37bd 89df df3d 711d 8b3d
00000150: 9227 3e3d 8aa0 093d 685d 2bbd 565e 5e3c
00000160: 1330 833c ef4f 0b3c 5582 553d 846b a4bb
00000170: 8a88 743c 0e83 ea3c e8fa 8c3c 9c38 bebc
00000180: 0c27 88bc 8a0d 21bb 72d9 843d 5056 4a3c
00000190: 6fc4 c2bd cbe6 573c 1d45 2abd 2baa 39bd
000001a0: aaa1 8b3c 2bba 8d3d bad3 933b 8280 073c
000001b0: 73a6 813d 17a1 cdbc e80b a43c 293b 663c
000001c0: 7f56 203d d097 a8bc 0beb 08bd 154c c33b
000001d0: 0d2b 903d 4139 94bc c469 1a3c a1d2 ebbc
000001e0: 027c edbc 6fcb f03c 6da3 69bc 2768 7b3d
000001f0: f104 213c 940f a5bd 992b 09bd d94f dd3c
00000200: b65d 1e3d c5ed 92bc 49b0 013c 015c 7a3d
00000210: 4464 a5bd f734 6fbd c722 a6bd f674 31bd
00000220: 4a86 bbbc 585e 04bc 673b 27bd ccf9 9abd
00000230: ad1d 69bc c088 f53b c443 98b9 228d 5fbd
00000240: 62ed 8bbd 0bfd 89bd 447c b8bd 9ad1 1abc
00000250: 880c 93bd b0e2 1cbd 1b60 64bd d9a4 883d
00000260: 289d a3bd b670 a4bb 34a9 843d febc 3f3d
00000270: d791 313d f96d a5bd 950b 023d ba98 c7bc
00000280: 3af5 f1bc 523f 6b3d e422 89bc 798a 0dbe
00000290: fb4f 84bd 24ea 433c fb03 433d 1297 cfbd
000002a0: c640 febb de73 bf3c 207a 3dbc fb44 5b3d
000002b0: eb76 36bc 1e58 17bc cbb0 7ebd 16cc 1fbb
000002c0: 68d6 38bd 2eb1 a6bd 2798 6c3c 5d26 7bbd
000002d0: 3bd9 823d 6596 33bd a6db 183d 3b5c 79bd
000002e0: b634 9abc 2257 09bc 096f 2b3c 1bd9 f4bc
000002f0: a6f7 21bd 35ed 633d 5b0b e63c 9ee2 06bd
00000300: 2f62 93bd 0802 b8bc 4a1b 3bbd 867b 0abd
00000310: c47b bdbb 0c51 303d a1dd 9f3d a22f 01bd
00000320: ba9d 0d3d fdaa 763d 51fa 00bd 8468 0cbd
00000330: d6d3 aebd 1394 0a39 a788 98bd 18ab cfbc
00000340: a4d1 9ebd 2b63 203c 9e12 f53c 5591 ff3b
00000350: 238c 2ebd b480 93bc b448 6abd e558 96bb
00000360: 5e2e 3b3d dd6c 8c3d b804 a13d 7a77 67bc
00000370: 60e4 03bd f82f e8ba af1c d03d e0e2 e53b
00000380: 392e 80bc dd8b 4c3d bdd9 403d a80a 01bd
00000390: 080f a43d 0ccd a1bd 525d c43b 8f25 9abd
000003a0: e8ef 403d 54bd 863d ecaf 52bd ecaf afbd
000003b0: c088 cd3d e269 a93d 9e18 dbbc 427f 843c
000003c0: c644 d43c add9 b73d 7912 1e3d 4819 79bb
000003d0: 2193 1b3c 1201 edbc 7e0c ccbd 7341 6fbc
000003e0: 57d8 49bd 0661 52bd b6b1 52bd 6484 613b
000003f0: d8a8 69bb 8cf0 4a3d a569 7b3c 67b6 14bd
-0.07123233 0.04503283 0.022154322 -0.047172327 -0.038977757 0.025669262 -0.038475677 -0.018432742
0.038155936 0.0029287166 0.045945626 0.05548835 -0.08026152 -0.03919613 -0.06306537 -0.018284332
-0.008436592 0.041452896 0.01215773 0.059580576 0.00042859933 0.01578017 -0.00021451233 0.089306265
0.019956935 0.053158667 -0.08014087 -0.04177933 0.019026099 0.033187162 0.018807352 0.031861193
0.021811465 -0.0075551337 0.041672863 0.0077287788 -0.01661986 0.01929146 -0.00935877 -0.02969781
0.0325725 -0.0873616 0.03217099 0.03773118 0.06645354 0.039318603 -0.020211417 -0.06035345
0.025954844 0.0042882413 0.045271277 -0.051326253 0.04940852 0.014724342 0.06744233 0.03156495
-0.03465186 -0.0068962825 0.035673153 0.035948128 -0.030175569 0.052911952 -0.0023670993 -0.05270545
0.008973145 0.019643493 -0.041156266 0.027160777 -0.076191984 -0.04656603 0.046957564 0.028615188
-0.06983195 -0.01882587 -0.06946342 0.026585108 -0.02628253 -0.012494759 0.0396702 -0.0666036
-0.012337139 -0.04481881 0.10931308 0.06792725 0.046424456 0.033600368 -0.041837126 0.013572296
0.016014135 0.008502944 0.052126247 -0.0050176997 0.014925132 0.028626945 0.017209485 -0.023220353
-0.016620182 -0.002457472 0.06486787 0.01234968 -0.09510123 0.013177584 -0.041569818 -0.0453283
0.01704486 0.06920274 0.0045113238 0.008270385 0.06330576 -0.025101228 0.020025209 0.014052191
0.03914499 -0.020580202 -0.03342728 0.0059599974 0.07039461 -0.018093707 0.009424631 -0.02878696
-0.028989796 0.02939388 -0.014260155 0.061378624 0.009827838 -0.08059612 -0.033488844 0.027015613
0.03866359 -0.017935643 0.007915565 0.061122898 -0.08075765 -0.05840012 -0.08112102 -0.043324433
-0.022891182 -0.008079134 -0.040828135 -0.07567176 -0.014228267 0.0074931085 -0.00029042189 -0.054577954
-0.068323866 -0.06737717 -0.09008077 -0.009449387 -0.071801245 -0.038302124 -0.055755716 0.06672067
-0.079889596 -0.005018319 0.064775854 0.046811096 0.043351974 -0.08077616 0.031749327 -0.024364818
-0.029535878 0.057433434 -0.01674027 -0.13822354 -0.064605676 0.011957679 0.047611218 -0.10136236
-0.0077591864 0.02337068 -0.011564761 0.05353258 -0.011136751 -0.009237317 -0.06218032 -0.002438312
-0.04512635 -0.08139263 0.014440573 -0.061315883 0.0638909 -0.0438446 0.037318848 -0.060878973
-0.018823963 -0.0083825905 0.010463485 -0.02988868 -0.039542817 0.05564614 0.028081587 -0.032930963
-0.071964614 -0.022461906 -0.04568032 -0.033809207 -0.0057825763 0.043046042 0.07805944 -0.031539567
0.034574248 0.06022166 -0.03148872 -0.03427936 -0.08536498 0.00013215868 -0.07447939 -0.025350139
-0.077548295 0.0097892685 0.029916104 0.0077993074 -0.042614114 -0.018005706 -0.05719824 -0.004588234
0.045698516 0.068567015 0.07862228 -0.0141276065 -0.032200217 -0.0017714491 0.10161721 0.007015571
-0.01564704 0.04993807 0.04708265 -0.031504303 0.080106795 -0.07900438 0.00599257 -0.07526695
0.047103792 0.0657908 -0.051437303 -0.08578476 0.100358486 0.08272149 -0.026745137 0.016173963
0.0259117 0.08977065 0.038591836 -0.0038009454 0.0094955275 -0.028931174 -0.0996332 -0.014603007
-0.049278583 -0.05136206 -0.05143901 0.0034411186 -0.0035653617 0.04954581 0.015345012 -0.036306765

action_model._continuous_distribution.mu.bias f4 [2]
00000000: 20b9 45bc 9b43 933c
-0.012068063 0.017976573

exp_avg f4 [128, 6]
00000000: dbb3 7938 ec37 7536 951e f4b7 f237 75b8
00000010: 0000 0000 f237 75b8 f30b 9336 fcef 4a34
00000020: 07a4 f0b5 05f0 4ab6 0000 0000 05f0 4ab6
00000030: 283f 1e3b e5a6 3c39 a8c0 05bb e3a6 3cbb
00000040: 0000 0000 e3a6 3cbb 2503 8739 0d4d 1d37
00000050: 32b5 8137 1a4d 1db9 0000 0000 1a4d 1db9
00000060: 41d4 06bb 58c4 1bb9 b81e 943a 57c4 1b3b
00000070: 0000 0000 57c4 1b3b 3564 a538 9227 e436
00000080: f394 c3b8 8a27 e4b8 0000 0000 8a27 e4b8
00000090: 17b6 2239 7607 5537 3330 23b9 7007 55b9
000000a0: 0000 0000 7007 55b9 8ca5 b939 647b 0eb7
000000b0: c604 e539 317b 0e39 0000 0000 317b 0e39
000000c0: a5e7 2639 f79d 5437 be60 20b9 f29d 54b9
000000d0: 0000 0000 f29d 54b9 4333 e13a f9fd 0839
000000e0: 0bc3 c5ba f6fd 08bb 0000 0000 f6fd 08bb
000000f0: 3e08 013b d3df 4439 332c 31bb cddf 44bb
00000100: 0000 0000 cddf 44bb b0d4 16bb f00f 2ab9
00000110: fff5 b93a ee0f 2a3b 0000 0000 ee0f 2a3b
00000120: 6fd7 903a 8483 7538 0d0a d6b9 8983 75ba
00000130: 0000 0000 8983 75ba 21b2 f5ba b673 17b9
00000140: 36d8 b83a b473 173b 0000 0000 b473 173b
00000150: 0370 f739 278c 7538 f1c8 a1ba 138c 75ba
00000160: 0000 0000 138c 75ba 112d 43b6 2aaf 0cb5
00000170: d395 9437 14af 0c37 0000 0000 14af 0c37
00000180: a803 3f3b 882b 7339 7c1e 3fbb 822b 73bb
00000190: 0000 0000 822b 73bb 8a05 223b 7334 3439
000001a0: 533f feba 7134 34bb 0000 0000 7134 34bb
000001b0: e3eb 2539 ac8b 4137 5ae3 12b9 aa8b 41b9
000001c0: 0000 0000 aa8b 41b9 2f46 b339 1952 b635
000001d0: 1f52 8d39 6a53 b6b7 0000 0000 6a53 b6b7
000001e0: 27ca 883a 01d2 a238 5594 5dba ffd1 a2ba
000001f0: 0000 0000 ffd1 a2ba e983 8d36 103b 1db4
00000200: 2c07 eb36 cd3a 1d36 0000 0000 cd3a 1d36
00000210: 0816 e638 7808 0c37 3482 ceb8 7608 0cb9
00000220: 0000 0000 7608 0cb9 d096 6a3a f592 7738
00000230: 3f07 27ba f692 77ba 0000 0000 f692 77ba
00000240: fe20 28b8 9b39 35b6 aad4 1438 9939 3538
00000250: 0000 0000 9939 3538 a15e 3ab8 606c 9cb7
00000260: 1a90 fa39 526c 9c39 0000 0000 526c 9c39
00000270: f438 213a 34d7 0d37 eca7 7139 6ed7 0db9
00000280: 0000 0000 6ed7 0db9 7ac3 2aba 66e8 15b8
00000290: f63b 0539 6de8 153a 0000 0000 6de8 153a
000002a0: 5b62 6b3b 0e48 8b39 49d9 53bb 0c48 8bbb
000002b0: 0000 0000 0c48 8bbb 1b3e 8e3a b50e 9938
000002c0: bd94 43ba b50e 99ba 0000 0000 b50e 99ba
000002d0: f227 1c38 dab4 8536 b251 6cb8 d3b4 85b8
000002e0: 0000 0000 d3b4 85b8 bdb8 103a 7fb0 4138
000002f0: 15aa 3aba 78b0 41ba 0000 0000 78b0 41ba
00000300: 0cd8 3839 275e 7237 1c73 35b9 1f5e 72b9
00000310: 0000 0000 1f5e 72b9 62f7 58ba e203 87b8
00000320: 0f9f 203a df03 873a 0000 0000 df03 873a
00000330: 21fc 12b7 0e23 6cb5 7f82 5537 0223 6c37
00000340: 0000 0000 0223 6c37 f9b8 fe3a e58f 1f39
00000350: a767 f3ba e08f 1fbb 0000 0000 e08f 1fbb
00000360: a172 c838 cc63 1037 2811 dfb8 c763 10b9
00000370: 0000 0000 c763 10b9 a080 f4ba 4669 06b9
00000380: 0153 783a 4969 063b 0000 0000 4969 063b
00000390: f750 f03a e770 2739 7305 0fbb e170 27bb
000003a0: 0000 0000 e170 27bb b5bd 373b 773c 4d39
000003b0: b657 11bb 733c 4dbb 0000 0000 733c 4dbb
000003c0: 16e9 a438 76fd c836 4f78 a1b8 73fd c8b8
000003d0: 0000 0000 73fd c8b8 bf2b ddb6 847a 1435
000003e0: 9d6d c336 917a 14b7 0000 0000 917a 14b7
000003f0: 3bc3 273b 4f85 3e39 c15d 01bb 4c85 3ebb
5.953373e-05 3.6540396e-06 -2.9101308e-05 -5.8464655e-05 0.0 -5.8464655e-05 4.3823325e-06 1.8900022e-07
-1.7929132e-06 -3.0240055e-06 0.0 -3.0240055e-06 0.002414653 0.0001799125 -0.0020409022 -0.0028785996
0.0 -0.0028785996 0.0002575155 9.375869e-06 1.5462374e-05 -0.0001500141 0.0 -0.0001500141
-0.002057329 -0.00014855096 0.0011300659 0.002376815 0.0 0.002376815 7.886478e-05 6.799536e-06
-9.3260685e-05 -0.00010879252 0.0 -0.00010879252 0.00015517358 1.26975265e-05 -0.00015562847 -0.00020316034
0.0 -0.00020316034 0.00035409292 -8.492589e-06 0.0004368184 0.00013588068 0.0 0.00013588068
0.00015917288 1.2672964e-05 -0.00015294828 -0.00020276735 0.0 -0.00020276735 0.0017181415 0.00013064583
-0.0015088035 -0.0020903326 0.0 -0.0020903326 0.001968875 0.00018775398 -0.0027034401 -0.0030040622
0.0 -0.0030040622 -0.0023014955 -0.000162184 0.0014187692 0.0025949436 0.0 0.0025949436
0.0011050532 5.8535035e-05 -0.0004082475 -0.00093656086 0.0 -0.00093656086 -0.0018745103 -0.00014443588
0.0014102522 0.0023109736 0.0 0.0023109736 0.00047194966 5.854308e-05 -0.001234321 -0.0009366881
0.0 -0.0009366881 -2.9083496e-06 -5.240896e-07 1.7712742e-05 8.385414e-06 0.0 8.385414e-06
0.0029146466 0.00023190503 -0.0029162457 -0.003710479 0.0 -0.003710479 0.002472254 0.00017185677
-0.0019397534 -0.0027497078 0.0 -0.0027497078 0.00015823501 1.1536216e-05 -0.0001400834 -0.00018457943
0.0 -0.00018457943 0.0003419383 1.358395e-06 0.000269548 -2.1734933e-05 0.0 -2.1734933e-05
0.0010436223 7.763878e-05 -0.0008452584 -0.0012422203 0.0 -0.0012422203 4.217484e-06 -1.4643251e-07
7.0043807e-06 2.342905e-06 0.0 2.342905e-06 0.00010971358 8.346622e-06 -9.847098e-05 -0.00013354592
0.0 -0.00013354592 0.00089488644 5.9026253e-05 -0.0006371624 -0.0009444201 0.0 -0.0009444201
-4.0085048e-05 -2.7004633e-06 3.548401e-05 4.3207405e-05 0.0 4.3207405e-05 -4.4433986e-05 -1.8647115e-05
0.0004779108 0.00029835344 0.0 0.00029835344 0.0006150149 8.454361e-06 0.00023046107 -0.00013527062
0.0 -0.00013527062 -0.00065141136 -3.5740806e-05 0.00012706206 0.0005718533 0.0 0.0005718533
0.0035916779 0.0002656583 -0.0032325557 -0.004250532 0.0 -0.004250532 0.0010852249 7.298348e-05
-0.00074608234 -0.0011677357 0.0 -0.0011677357 3.72305e-05 3.9847628e-06 -5.634287e-05 -6.375615e-05
0.0 -6.375615e-05 0.0005520692 4.617916e-05 -0.0007120681 -0.00073886616 0.0 -0.00073886616
0.00017628091 1.4446246e-05 -0.00017304387 -0.00023113981 0.0 -0.00023113981 -0.0008276609 -6.438025e-05
0.0006127217 0.0010300836 0.0 0.0010300836 -8.7609815e-06 -8.796786e-07 1.2726173e-05 1.4074847e-05
0.0 1.4074847e-05 0.0019433788 0.00015217027 -0.001857032 -0.002434723 0.0 -0.002434723
9.5580945e-05 8.606305e-06 -0.00010636664 -0.0001377008 0.0 -0.0001377008 -0.0018654056 -0.00012818453
0.0009472818 0.0020509532 0.0 0.0020509532 0.0018334676 0.0001596842 -0.0021823316 -0.0025549459
0.0 -0.0025549459 0.0028036658 0.00019572848 -0.0022177524 -0.0031316548 0.0 -0.0031316548
7.863545e-05 5.989971e-06 -7.6994875e-05 -9.583952e-05 0.0 -9.583952e-05 -6.591406e-06 5.531258e-07
5.8242135e-06 -8.850025e-06 0.0 -8.850025e-06 0.0025598544 0.00018169473 -0.001973972 -0.002907115

exp_avg_sq f4 [128, 6]
00000000: 0709 4133 dd1a 722f 65bc 7233 be1a 7233
00000010: 0000 0000 be1a 7233 e2f8 1032 ed8d 9b2d
00000020: 3b41 e531 3c92 9b31 0000 0000 3c92 9b31
00000030: d410 cf37 a5dc 0434 ca57 0038 a8dc 0438
00000040: 0000 0000 a8dc 0438 5cfa 2336 e761 4d32
00000050: ac05 4936 d361 4d36 0000 0000 d361 4d36
00000060: 96b0 7d38 273e a234 23a3 a338 163e a238
00000070: 0000 0000 163e a238 d1f4 b332 8bef e82e
00000080: add1 e332 7aef e832 0000 0000 7aef e832
00000090: e75c cd33 8284 0230 de3b 0034 9187 0234
000000a0: 0000 0000 9187 0234 93b2 c637 8e02 f533
000000b0: d2dd ee37 b402 f537 0000 0000 b402 f537
000000c0: a2ef d233 7ad2 0730 50c3 0334 7ed2 0734
000000d0: 0000 0000 7ed2 0734 d75f 4437 9cc7 7d33
000000e0: 7872 7537 60c7 7d37 0000 0000 60c7 7d37
000000f0: 7e02 0238 e6f8 2534 0405 2238 6af8 2538
00000100: 0000 0000 6af8 2538 23a9 7838 4fdd 9e34
00000110: 23f3 9d38 43dd 9e38 0000 0000 43dd 9e38
00000120: 4d70 a937 7472 d433 af9a ce37 6e72 d437
00000130: 0000 0000 6e72 d437 7447 f937 c883 1e34
00000140: 867f 1e38 bf83 1e38 0000 0000 bf83 1e38
00000150: 87fd 6637 95b5 9733 cd4a 9837 87b5 9737
00000160: 0000 0000 87b5 9737 05ac 3f32 166c 562e
00000170: 7036 8732 a964 5632 0000 0000 a964 5632
00000180: 068c a837 a503 df33 ecbf d437 c003 df37
00000190: 0000 0000 c003 df37 c734 b137 a39e e133
000001a0: d470 d737 999e e137 0000 0000 999e e137
000001b0: ccd7 8f33 60f6 b52f 9e83 b033 92f6 b533
000001c0: 0000 0000 92f6 b533 f8fc 7737 de5d 9b33
000001d0: e51d 9837 cf5d 9b37 0000 0000 cf5d 9b37
000001e0: 9213 bb36 ace3 ee32 1691 ea36 63e3 ee36
000001f0: 0000 0000 63e3 ee36 d881 0932 972b 0c2e
00000200: 37d3 1f32 7f2b 0c32 0000 0000 7f2b 0c32
00000210: 65b7 4833 da76 802f ceba 7633 b076 8033
00000220: 0000 0000 b076 8033 a3dd 5e36 6848 8c32
00000230: 1742 8636 6348 8c36 0000 0000 6348 8c36
00000240: 4144 e331 0c03 112e 276b 0232 360d 1132
00000250: 0000 0000 360d 1132 57bf df36 0ec4 0f33
00000260: b8bb 0e37 27c4 0f37 0000 0000 27c4 0f37
00000270: 9750 dd37 f181 0834 d02c 0438 f081 0838
00000280: 0000 0000 f081 0838 5b30 3237 3f71 6333
00000290: 46f2 6137 2f71 6337 0000 0000 2f71 6337
000002a0: 8fc9 f737 f3fa 2034 ffd3 1738 e9fa 2038
000002b0: 0000 0000 e9fa 2038 4947 0037 ebf1 2233
000002c0: 8930 1e37 e6f1 2237 0000 0000 e6f1 2237
000002d0: b5df ef32 5cbd 292f 0dfc 1b33 edbd 2933
000002e0: 0000 0000 edbd 2933 dc60 3135 21b6 7031
000002f0: eb82 6d35 abb6 7035 0000 0000 abb6 7035
00000300: 7e30 1034 8506 3a30 6f3c 3534 2808 3a34
00000310: 0000 0000 2808 3a34 870c e636 aa1d 1233
00000320: 5142 1237 901d 1237 0000 0000 901d 1237
00000330: 22ab 6330 fae4 882c c9df 8930 e9e5 8830
00000340: 0000 0000 e9e5 8830 bb62 5837 2714 8c33
00000350: 6aee 8637 1814 8c37 0000 0000 1814 8c37
00000360: fcb9 9333 d019 b82f fef7 b333 0a20 b833
00000370: 0000 0000 0a20 b833 0f51 5e38 76fe 8d34
00000380: be4f 8e38 5afe 8d38 0000 0000 5afe 8d38
00000390: 8f5f 4c37 6ae9 8533 ef43 8137 6ce9 8537
000003a0: 0000 0000 6ce9 8537 dc7f ed37 fdbd 1634
000003b0: 03f6 0f38 f3bd 1638 0000 0000 f3bd 1638
000003c0: 8d7e 6432 3bbc 932e 1d9f 8a32 bfbc 9332
000003d0: 0000 0000 bfbc 9332 c6c0 6b33 482e d32f
000003e0: 944e cf33 ef18 d333 0000 0000 ef18 d333
000003f0: 833b 0638 32ec 2a34 763a 2538 1dec 2a38
4.4944525e-08 2.2019316e-10 5.651636e-08 5.6369338e-08 0.0 5.6369338e-08 8.438493e-09 1.7684488e-11
6.672193e-09 4.5277186e-09 0.0 4.5277186e-09 2.468416e-05 1.2373728e-07 3.0599338e-05 3.1676755e-05
0.0 3.1676755e-05 2.443462e-06 1.1954831e-08 2.9954635e-06 3.0604322e-06 0.0 3.0604322e-06
6.048436e-05 3.0220073e-07 7.802832e-05 7.7363264e-05 0.0 7.7363264e-05 2.0949672e-08 1.059269e-10
2.6521628e-08 2.7117256e-08 0.0 2.7117256e-08 9.562955e-08 4.748203e-10 1.1942709e-07 1.2156512e-07
0.0 1.2156512e-07 2.3686594e-05 1.1409166e-07 2.8475104e-05 2.9207535e-05 0.0 2.9207535e-05
9.822476e-08 4.941182e-10 1.227138e-07 1.2649431e-07 0.0 1.2649431e-07 1.1704825e-05 5.9087697e-08
1.462979e-05 1.5126396e-05 0.0 1.5126396e-05 3.0996736e-05 1.5457371e-07 3.862848e-05 3.957042e-05
0.0 3.957042e-05 5.928533e-05 2.9590817e-07 7.531631e-05 7.57524e-05 0.0 7.57524e-05
2.0198664e-05 9.892838e-08 2.4629144e-05 2.5325655e-05 0.0 2.5325655e-05 2.9716386e-05 1.4762838e-07
3.77889e-05 3.7792834e-05 0.0 3.7792834e-05 1.3768097e-05 7.064515e-08 1.8154644e-05 1.8085133e-05
0.0 1.8085133e-05 1.1156776e-08 4.8753966e-11 1.5740824e-08 1.2479327e-08 0.0 1.2479327e-08
2.0092364e-05 1.03849096e-07 2.536174e-05 2.6585418e-05 0.0 2.6585418e-05 2.112462e-05 1.0506235e-07
2.5682537e-05 2.6895943e-05 0.0 2.6895943e-05 6.6982096e-08 3.3098768e-10 8.21958e-08 8.47332e-08
0.0 8.47332e-08 1.4781246e-05 7.234824e-08 1.8133733e-05 1.8521123e-05 0.0 1.8521123e-05
5.5753126e-06 2.781038e-08 6.9906337e-06 7.119424e-06 0.0 7.119424e-06 8.003973e-09 3.187103e-11
9.303043e-09 8.158962e-09 0.0 8.158962e-09 4.6732925e-08 2.3367513e-10 5.7446236e-08 5.9820536e-08
0.0 5.9820536e-08 3.3209587e-06 1.6331072e-08 4.001205e-06 4.180752e-06 0.0 4.180752e-06
6.614329e-09 3.297189e-11 7.5913595e-09 8.443115e-09 0.0 8.443115e-09 6.668193e-06 3.3473093e-08
8.507566e-06 8.5691345e-06 0.0 8.5691345e-06 2.638278e-05 1.271326e-07 3.1512987e-05 3.254594e-05
0.0 3.254594e-05 1.0620885e-05 5.2955553e-08 1.3467454e-05 1.3556607e-05 0.0 1.3556607e-05
2.9538553e-05 1.4992456e-07 3.6198642e-05 3.838065e-05 0.0 3.838065e-05 7.645992e-06 3.7938587e-08
9.428834e-06 9.712274e-06 0.0 9.712274e-06 2.7924992e-08 1.5437734e-10 3.631799e-08 3.9521115e-08
0.0 3.9521115e-08 6.607859e-07 3.5028125e-09 8.847989e-07 8.9672784e-07 0.0 8.9672784e-07
1.3428686e-07 6.767567e-10 1.6878924e-07 1.7325567e-07 0.0 1.7325567e-07 6.8559925e-06 3.4020253e-08
8.717719e-06 8.709161e-06 0.0 8.709161e-06 8.2825313e-10 3.890774e-12 1.0031665e-09 9.960647e-10
0.0 9.960647e-10 1.2897591e-05 6.522924e-08 1.6085065e-05 1.6698657e-05 0.0 1.6698657e-05
6.879051e-08 3.3487746e-10 8.3804466e-08 8.5739956e-08 0.0 8.5739956e-08 5.3004416e-05 2.644844e-07
6.785941e-05 6.7707806e-05 0.0 6.7707806e-05 1.21815965e-05 6.235753e-08 1.5409632e-05 1.5963531e-05
0.0 1.5963531e-05 2.831214e-05 1.4038956e-07 3.4322973e-05 3.593969e-05 0.0 3.593969e-05
1.3300121e-08 6.7182225e-11 1.613767e-08 1.7198884e-08 0.0 1.7198884e-08 5.4890528e-08 3.841356e-10
9.653482e-08 9.8299886e-08 0.0 9.8299886e-08 3.2003514e-05 1.5918411e-07 3.939351e-05 4.0751056e-05

exp_avg f4 [128]
00000000: ea37 f5b7 02f0 cab5 e3a6 bcba 204d 9db8
00000010: 58c4 9b3a 8a27 64b8 7107 d5b8 2b7b 8e38
00000020: f39d d4b8 f5fd 88ba cfdf c4ba ee0f aa3a
00000030: 8b83 f5b9 b273 973a 148c f5b9 15af 8c36
00000040: 822b f3ba 6e34 b4ba a88b c1b8 0a53 36b7
00000050: ffd1 22ba d93a 9d35 7508 8cb8 f492 f7b9
00000060: 9739 b537 486c 1c39 6dd7 8db8 68e8 9539
00000070: 0b48 0bbb b40e 19ba d3b4 05b8 77b0 c1b9
00000080: 205e f2b8 df03 073a 0123 ec36 df8f 9fba
00000090: c863 90b8 4769 863a e170 a7ba 723c cdba
000000a0: 73fd 48b8 997a 94b6 4b85 beba c8b9 8ab6
000000b0: 5818 e6b5 a3d7 37ba b1e1 72ba 1ddf 653a
000000c0: aa5a b1ba c013 5dba 0f19 29ba 02e3 c9b8
000000d0: 6b4a b1ba 2361 833a 9984 87b8 597f d439
000000e0: 7c3e 8e3a e91d 4b39 6239 1ab9 322e 6fb8
000000f0: cb77 07b9 5cb2 763a c75c 0b3a 2956 6439
00000100: 4d7f ca3a 04e6 7936 110e fdb7 45b6 47b9
00000110: 841a 9dba d59b b3b6 90fb 0fb7 4e83 3b39
00000120: ee9a 4fb9 a61b 4e3a e3f2 163b 3955 1fba
00000130: 7781 80b9 6c23 7539 3b7b 543a 38c8 c7b7
00000140: c42f 95ba 53fb 15b9 beb9 1639 a1a8 8f3a
00000150: 95e3 b5b8 f38f 86ba 0a6f 10b9 2208 59b8
00000160: 7a2a 85b8 c61c cfb9 9eb6 6839 2089 51b9
00000170: 8514 06bb dafd 4bba 41eb c3b7 478e b83a
00000180: 9f55 02b9 883b b8b9 0ad2 a3ba 877c 74ba
00000190: 158d a03a 3780 b73a 317a 7db9 3791 40ba
000001a0: 6e72 b939 6c8c 7d38 fa18 bdb7 9e90 bc39
000001b0: 887c 613a 7b7f 1cb8 ebbf 0cb9 2beb 0bb9
000001c0: 8ca6 b4b8 daa4 5b39 4c33 bd3a a88d 67ba
000001d0: e37e 1ab9 bc18 5d38 e62c 893a af75 bbb8
000001e0: 46ec bf39 d501 3f39 9467 22b7 a57b 943a
000001f0: 076d e4b9 d705 2eb9 a50e 33b8 5e68 75ba
-2.9232313e-05 -1.5120024e-06 -0.0014392998 -7.500709e-05 0.0011884077 -5.439626e-05 -0.000101580175 6.7940295e-05
-0.00010138368 -0.0010451662 -0.0015020313 0.0012974718 -0.0004682805 0.0011554866 -0.00046834408 4.1927074e-06
-0.0018552395 -0.0013748535 -9.22897e-05 -1.0867379e-05 -0.00062111014 1.1714538e-06 -6.6772955e-05 -0.00047221
2.1603699e-05 0.00014917657 -6.76353e-05 0.0002859265 -0.0021252658 -0.0005838678 -3.1878077e-05 -0.00036943305
-0.000115569914 0.0005150418 7.037423e-06 -0.0012173614 -6.885041e-05 0.0010254764 -0.0012774729 -0.0015658273
-4.791976e-05 -4.425016e-06 -0.0014535574 -4.1343483e-06 -1.714342e-06 -0.00070130284 -0.0009265198 0.0008768903
-0.0013531048 -0.0008433424 -0.00064505724 -9.6267104e-05 -0.0013526207 0.0010023456 -6.462e-05 0.00040530672
0.0010852362 0.00019370731 -0.00014707961 -5.7025063e-05 -0.0001291923 0.0009410733 0.0005316254 0.00021775872
0.0015449316 3.7237778e-06 -3.01665e-05 -0.0001904602 -0.0011986052 -5.352757e-06 -8.582036e-06 0.00017882625
-0.00019798774 0.00078623963 0.0023032955 -0.0006078068 -0.0002451052 0.00023378216 0.0008105521 -2.3815883e-05
-0.0011382033 -0.00014303373 0.00014374309 0.001096029 -8.673143e-05 -0.0010266289 -0.00013774275 -5.1744406e-05
-6.349846e-05 -0.00039503555 0.00022193274 -0.00019982876 -0.0020459008 -0.0007781662 -2.335536e-05 0.0014080488
-0.00012429662 -0.0003513957 -0.001249851 -0.00093264173 0.0012249077 0.0014000003 -0.0002417348 -0.00073458574
0.00035371206 6.045068e-05 -2.2542186e-05 0.00035965902 0.00086016254 -3.7312024e-05 -0.00013422935 -0.0001334368
-8.6140906e-05 0.0002094688 0.0014434843 -0.0008833059 -0.00014733853 5.271354e-05 0.0010465651 -8.938775e-05
0.00036606396 0.00018215862 -9.680069e-06 0.0011328353 -0.0004356878 -0.00016596109 -4.2690564e-05 -0.000936156

exp_avg_sq f4 [128]
00000000: bc1a 7232 3b92 9b30 a8dc 0437 d561 4d35
00000010: 173e a237 78ef e831 9087 0233 b202 f536
00000020: 7dd2 0733 5fc7 7d36 69f8 2537 40dd 9e37
00000030: 6d72 d436 bf83 1e37 89b5 9736 a664 5631
00000040: bf03 df36 9a9e e136 93f6 b532 d15d 9b36
00000050: 65e3 ee35 7f2b 0c31 b276 8032 6348 8c35
00000060: 360d 1131 26c4 0f36 f181 0837 2f71 6336
00000070: e9fa 2037 e3f1 2236 ecbd 2932 a7b6 7034
00000080: 2808 3a33 911d 1236 e7e5 882f 1914 8c36
00000090: 0820 b832 5afe 8d37 6be9 8536 f4bd 1637
000000a0: c0bc 9331 ee18 d332 1dec 2a37 2ba4 6e30
000000b0: d044 2d34 e659 6436 7551 f135 15df 6d37
000000c0: 20ec 8f36 bd35 6436 8440 6f35 93b0 b535
000000d0: 92cf 4337 f874 fd36 b10c 8a32 d72b 3237
000000e0: 0ff7 a036 8fff 5434 fc6b 5a36 96a6 3432
000000f0: d55c df33 14dc 9536 865d 2636 9067 d434
00000100: 39ce 8137 87df 8531 c442 3f32 ffea de33
00000110: 3244 8536 edbc 7830 a943 d830 74b9 d035
00000120: 6254 9c35 36f3 5537 7169 ba37 1e4f 8e35
00000130: 8741 0736 38f0 c536 3138 6937 38a3 8031
00000140: a32c e536 008f c536 6aa2 8c33 4d5b e936
00000150: a7a4 e632 045d 0336 8174 7335 fe4d 4d33
00000160: cec6 b532 9cd8 ab35 0a59 ee35 a9bd 2335
00000170: a1c6 2037 a4af a535 c128 3932 9f6b 3437
00000180: a2d0 8c33 7d01 4b34 fdfc 2b37 160b b936
00000190: 5b52 e536 8924 4437 073a 1d34 2126 1c37
000001a0: 315a 0c36 b173 0437 3234 9e32 5fc5 e936
000001b0: a9f3 9936 cd57 eb32 6661 3d33 50ea 4433
000001c0: 84f1 0233 3b93 2734 5d73 e536 a4fb cd36
000001d0: 3f73 9933 2c38 ff31 52d4 9e36 35b3 ee32
000001e0: f4e7 ca37 b03e 6836 ad99 3631 3628 0237
000001f0: c3a5 8c37 993e 8236 b5e1 b535 4830 9536
1.4092333e-08 1.1319296e-09 7.919189e-06 7.6510815e-07 1.9340818e-05 6.779313e-09 3.0391277e-08 7.3018828e-06
3.1623575e-08 3.7815987e-06 9.892604e-06 1.8938095e-05 6.3314133e-06 9.448208e-06 4.521284e-06 3.119831e-09
6.646354e-06 6.723986e-06 2.1183302e-08 4.6302816e-06 1.7798562e-06 2.0397406e-09 1.4955138e-08 1.045188e-06
2.1107787e-09 2.1422834e-06 8.136486e-06 3.3891517e-06 9.595163e-06 2.4280678e-06 9.880278e-09 2.241819e-07
4.3313918e-08 2.1772905e-06 2.490161e-10 4.174665e-06 2.1434985e-08 1.6926952e-05 3.9908823e-06 8.984924e-06
4.2997215e-09 2.457497e-08 1.0187764e-05 8.681719e-10 1.6136914e-07 3.4026975e-06 1.7979606e-06 1.4178241e-05
4.2892207e-06 3.4005927e-06 8.912832e-07 1.3536941e-06 1.16712345e-05 7.5536045e-06 1.6071086e-08 1.0619834e-05
4.797133e-06 1.983701e-07 3.2547387e-06 1.0515256e-08 1.0401133e-07 4.4661665e-06 2.4790365e-06 3.956343e-07
1.5474028e-05 3.8962216e-09 1.1132844e-08 1.0380426e-07 3.971648e-06 9.0490354e-10 1.5735299e-09 1.5551182e-06
1.1647464e-06 1.2752416e-05 2.2222028e-05 1.0602851e-06 2.015471e-06 5.8990227e-06 1.3900965e-05 3.743846e-09
6.829928e-06 5.887705e-06 6.548801e-08 6.95457e-06 2.68504e-08 1.9574663e-06 9.069409e-07 4.7801215e-08
2.116158e-08 1.2803534e-06 1.7758296e-06 6.0998224e-07 9.58299e-06 1.2344576e-06 1.0777684e-08 1.0753894e-05
6.557208e-08 1.890639e-07 1.0251298e-05 5.51472e-06 6.8343193e-06 1.1691017e-05 1.4642875e-07 9.307202e-06
2.0914124e-06 7.89475e-06 1.8417357e-08 6.966918e-06 4.588121e-06 2.7397528e-08 4.4093575e-08 4.5847912e-08
3.048764e-08 1.5606649e-07 6.838162e-06 6.138771e-06 7.145581e-08 7.4278628e-09 4.7334843e-06 2.778834e-08
2.4188288e-05 3.4607183e-06 2.657184e-09 7.757966e-06 1.676649e-05 3.8815892e-06 1.355124e-06 4.4461667e-06
