CubeTest/results/ppo/MoveToGoal/MoveToGoal-1024.onnx (onnx, 72461 bytes, 7 tensors)

action_model._continuous_distribution.log_sigma f4 [1, 2]
0	0x00000000	0.0
1	0x00000000	0.0

action_model._continuous_distribution.mu.bias f4 [2]
0	0x00000000	0.0
1	0x00000000	0.0

action_model._continuous_distribution.mu.weight f4 [2, 128]
0	0x3bc22f33	0.0059260367
1	0xbbbbf0bf	-0.0057354863
2	0xbb8d9f09	-0.004321937
3	0x3b9c1fac	0.004764518
4	0x3b93354b	0.004492437
5	0x3c1fd37e	0.0097550135
6	0xb9bcf6d2	-0.0003604205
7	0x3b1140f3	0.0022163957
8	0x3cd6f6cb	0.026240727
9	0xbc7419d7	-0.014898739
10	0x3bd13e5d	0.006385608
11	0xbc1cc386	-0.009568101
12	0xbc77f39b	-0.015133764
13	0x3b89f92f	0.004210613
14	0x3bde6d0b	0.0067879013
15	0xbc45556b	-0.012044291
16	0xbc270e0e	-0.010196222
17	0xbc79f6bd	-0.015256581
18	0x3c5651a7	0.013080991
19	0xbcdacd27	-0.026709152
20	0xbc261cc7	-0.010138697
21	0x3c0c53cb	0.0085649
22	0xbc38e375	-0.011284699
23	0x3bf0aab5	0.0073445686
24	0x3ce32aaf	0.027730314
25	0x3c209b20	0.00980261
26	0xbaea5d63	-0.0017880615
27	0xbc2c0180	-0.0104984045
28	0xbc024a5b	-0.007952298
29	0xbba3fbe1	-0.0050043915
30	0x3cc1e307	0.023667825
31	0x3be73512	0.007055887
32	0x3c46fd5c	0.0121453665
33	0x3ae77d65	0.0017661272
34	0xbc313ef9	-0.0108182365
35	0x3c4c12c3	0.012455645
36	0x3d0cd56e	0.03438323
37	0x3d25c000	0.04046631
38	0x3ad5d2c8	0.0016313428
39	0xb92b341c	-0.00016327243
40	0x3cc45cff	0.023970125
41	0xbb9749d4	-0.0046169553
42	0x3c1b04db	0.009461607
43	0xba0583a6	-0.00050931645
44	0x3c37cbfb	0.011218066
45	0xbbea1570	-0.007143669
46	0x3cdcc780	0.026950598
47	0x3c13cf2b	0.009021561
48	0x3b5f5efd	0.0034083717
49	0xbd1a9ae1	-0.03774536
50	0xbc60151a	-0.013676906
51	0xbca27161	-0.019829454
52	0xb924720f	-0.00015682749
53	0xbcaf142e	-0.021371927
54	0xbb0134e3	-0.001971536
55	0xbbf35cc0	-0.007426828
56	0x3aa564c7	0.0012618535
57	0x3ccaa4fc	0.024736874
58	0xbc60d232	-0.0137219895
59	0x3c4dd60b	0.012563239
60	0x3c878ddd	0.016547138
61	0xbca308b5	-0.019901613
62	0x3c15cd63	0.009143206
63	0xbb044e75	-0.0020188366
64	0xbc8c0e9b	-0.017096808
65	0x3c3f1ce7	0.011664606
66	0x3c2f620b	0.010704528
67	0xbbe38050	-0.0069427863
68	0xbbf25997	-0.007395934
69	0x3cb4e67e	0.022082563
70	0x3cfee4fd	0.03111505
71	0xbb99d3d9	-0.0046944437
72	0xbaa3238d	-0.0012446508
73	0xbc4191ab	-0.011814515
74	0x3cbd65ec	0.02311989
75	0xb9ac6547	-0.00032881854
76	0x3ccd7880	0.025081873
77	0x3bac453a	0.005257276
78	0x3b291ee9	0.0025805777
79	0x3b62111b	0.003449506
80	0xbcc12d4c	-0.02358117
81	0x3cb53e18	0.022124335
82	0xbbb5e4cb	-0.005550956
83	0xbbe2308a	-0.006902759
84	0x3b81a760	0.0039567202
85	0xbb937c33	-0.0045008897
86	0x3b2f6940	0.0026765615
87	0xbadd9f47	-0.001690843
88	0x3c8dd7b3	0.017314767
89	0x3c7e3fbb	0.015518124
90	0xbc4b6511	-0.012414233
91	0x3c827ff0	0.015930146
92	0xbb34a747	-0.0027565525
93	0x3cb87e04	0.022521026
94	0x3d43978a	0.04775194
95	0x3b55dc78	0.003263263
96	0xbbbcdf3d	-0.0057639168
97	0x3ca4621b	0.020066312
98	0xbcd8f308	-0.026483074
99	0x3bbc48fc	0.005746005
100	0xbb0f61ab	-0.0021878283
101	0xbbde0167	-0.0067750695
102	0xbbb5538e	-0.005533642
103	0x3bd41920	0.0064727217
104	0xbcac98b8	-0.021068916
105	0x3b0f52cb	0.0021869417
106	0x3cf2bef8	0.029632077
107	0xbac43b08	-0.0014971206
108	0x3d0a744e	0.033802323
109	0xbc1a6c0c	-0.009425174
110	0xbc9037dc	-0.01760476
111	0x3caec50b	0.021334192
112	0xbc041077	-0.008060566
113	0xbd09b617	-0.03362092
114	0xbc5b194b	-0.0133727295
115	0x3be81f43	0.007083805
116	0xbb6755b8	-0.0035298895
117	0xbb5419c0	-0.003236398
118	0xbcac222b	-0.021012386
119	0xbc603e57	-0.013686738
120	0xbc415453	-0.01179989
121	0xbc30347d	-0.010754702
122	0xbbfb693a	-0.007672456
123	0x3ca2eff7	0.019889815
124	0x3d023683	0.031790268
125	0xbb76b7d3	-0.003764619
126	0xbb324bc6	-0.002720581
127	0xbb411a84	-0.0029465267
128	0x3c250073	0.010070908
129	0x3c32da28	0.01091627
130	0xbc8f0c22	-0.01746184
131	0xbbf5418a	-0.0074846195
132	0xbab2505c	-0.0013604271
133	0x3c258339	0.010102087
134	0x3c246776	0.010034433
135	0x3cda3002	0.02663422
136	0xbc6b24e5	-0.014352058
137	0x3bd8b37b	0.0066131926
138	0xbc1a62f7	-0.009423009
139	0x3c8edc7b	0.017439118
140	0xbbde63a8	-0.0067867823
141	0x3ce69197	0.028145595
142	0x3c0c5617	0.008565447
143	0x3a73e38b	0.0009303621
144	0x3b2d497c	0.0026441505
145	0xbb72d09d	-0.0037050613
146	0x3d11cd9a	0.035596468
147	0x3c069bf7	0.008215896
148	0x3c042780	0.008066058
149	0xbc14f5c6	-0.0090918
150	0x3c06e0b4	0.008232284
151	0xbcbc9c55	-0.023023764
152	0xbbb375f3	-0.005476707
153	0x3c9e2583	0.019304996
154	0xbce88c43	-0.028387194
155	0x3cc79894	0.024364747
156	0x3c1f2221	0.009712727
157	0xbca3741d	-0.019952828
158	0x3ca2636c	0.019822799
159	0x3c5d2b00	0.0134990215
160	0x3bbb53dd	0.0057167844
161	0xbc534bbf	-0.012896477
162	0xbbe114d8	-0.00686894
163	0x3ba126f3	0.004917973
164	0x3bd54c5f	0.0065093483
165	0x3cea671b	0.028613618
166	0x3ccefd50	0.025267273
167	0xbca06643	-0.019580012
168	0x3b042c32	0.0020167944
169	0xbc66890a	-0.014070759
170	0xbcb3c97d	-0.021946663
171	0xbb6f80f2	-0.0036545363
172	0x3b671605	0.0035260927
173	0xbcd32a4f	-0.02577701
174	0xbcfef852	-0.031124268
175	0xbc66313a	-0.014049822
176	0xbc3437af	-0.010999604
177	0x3c1ecf07	0.009692914
178	0x3cb5a42b	0.022173008
179	0x3bec3c28	0.0072093196
180	0xbcc14f63	-0.023597425
181	0xbc11e15d	-0.008903828
182	0x39a09c5f	0.00030634084
183	0x3b23f8c7	0.002502011
184	0xbb981ed0	-0.004642345
185	0xbd17f55f	-0.03709924
186	0xbc03f5e3	-0.008054229
187	0xbcdd4043	-0.027008181
188	0x3c04734b	0.008084129
189	0xbc7f29e5	-0.015573953
190	0xbc9cc9e7	-0.019139243
191	0xbba01fbf	-0.004886597
192	0x3d184e16	0.037183844
193	0x3cf4f48a	0.029901762
194	0xbc1c4a10	-0.009539142
195	0xbc302cfb	-0.010752912
196	0x3c186bdd	0.00930306
197	0x3baf8ed7	0.005357604
198	0x3b9e273e	0.0048264554
199	0x3ac36252	0.0014906621
200	0x3ba5a932	0.00505557
201	0xbc232474	-0.009957422
202	0xbcf8fbf0	-0.03039357
203	0x3c67a6a7	0.014138854
204	0xbc821c8a	-0.01588275
205	0xbc33c31c	-0.010971811
206	0x3c9b08a3	0.018925017
207	0x3c30199e	0.010748295
208	0x3c60a2d2	0.013710694
209	0xbc9c45bd	-0.019076223
210	0xbc998651	-0.018740805
211	0xbc417979	-0.0118087465
212	0xbbab72c3	-0.0052321865
213	0xbcac99a8	-0.021069363
214	0x3cd90255	0.02649037
215	0xbbe23d2f	-0.0069042663
216	0xbb2e420e	-0.0026589665
217	0xbc09cd4f	-0.008410766
218	0xbb2d5457	-0.0026447976
219	0xbcd5de8b	-0.026107093
220	0x3c912495	0.017717639
221	0xbc8ce8bf	-0.017200826
222	0x3c340cc7	0.0109893745
223	0x3d2d87e8	0.04236594
224	0x3c6b4bbd	0.014361319
225	0xbb4f8b37	-0.0031668672
226	0x3cdb0f00	0.026740551
227	0x3bfc45d8	0.0076987557
228	0x3d1b0063	0.037842166
229	0x3cd41ef2	0.025893662
230	0x3cc3799f	0.023861704
231	0x3c665007	0.014057166
232	0x3cd915bb	0.02649962
233	0xbbcaa18c	-0.0061838087
234	0xbbd5a44b	-0.0065198294
235	0xbc37c7a1	-0.011217029
236	0x3caecc28	0.021337584
237	0xbac5ebda	-0.0015100196
238	0x3b80f903	0.0039359345
239	0xbc263f87	-0.010146982
240	0x3cce55d2	0.025187407
241	0xbc7faffd	-0.015605924
242	0x3c588fc5	0.013217871
243	0xbcd9bbd8	-0.026578829
244	0x3ce4c2a3	0.027924841
245	0x3c8b18bd	0.01697957
246	0x3c0b60c7	0.00850696
247	0xbccc7297	-0.024956984
248	0x3c197abf	0.009367644
249	0x3c810b3a	0.015752424
250	0x3c62cc2b	0.013842623
251	0x3c2d9e4a	0.010596821
252	0x3c9c45f7	0.01907633
253	0x3adbaab5	0.0016759249
254	0xbcdc64c8	-0.026903525
255	0x3cdae4af	0.026720373

network_body._body_endoder.seq_layers.0.bias f4 [128]
0	0x00000000	0.0
1	0x00000000	0.0
2	0x00000000	0.0
3	0x00000000	0.0
4	0x00000000	0.0
5	0x00000000	0.0
6	0x00000000	0.0
7	0x00000000	0.0
8	0x00000000	0.0
9	0x00000000	0.0
10	0x00000000	0.0
11	0x00000000	0.0
12	0x00000000	0.0
13	0x00000000	0.0
14	0x00000000	0.0
15	0x00000000	0.0
16	0x00000000	0.0
17	0x00000000	0.0
18	0x00000000	0.0
19	0x00000000	0.0
20	0x00000000	0.0
21	0x00000000	0.0
22	0x00000000	0.0
23	0x00000000	0.0
24	0x00000000	0.0
25	0x00000000	0.0
26	0x00000000	0.0
27	0x00000000	0.0
28	0x00000000	0.0
29	0x00000000	0.0
30	0x00000000	0.0
31	0x00000000	0.0
32	0x00000000	0.0
33	0x00000000	0.0
34	0x00000000	0.0
35	0x00000000	0.0
36	0x00000000	0.0
37	0x00000000	0.0
38	0x00000000	0.0
39	0x00000000	0.0
40	0x00000000	0.0
41	0x00000000	0.0
42	0x00000000	0.0
43	0x00000000	0.0
44	0x00000000	0.0
45	0x00000000	0.0
46	0x00000000	0.0
47	0x00000000	0.0
48	0x00000000	0.0
49	0x00000000	0.0
50	0x00000000	0.0
51	0x00000000	0.0
52	0x00000000	0.0
53	0x00000000	0.0
54	0x00000000	0.0
55	0x00000000	0.0
56	0x00000000	0.0
57	0x00000000	0.0
58	0x00000000	0.0
59	0x00000000	0.0
60	0x00000000	0.0
61	0x00000000	0.0
62	0x00000000	0.0
63	0x00000000	0.0
64	0x00000000	0.0
65	0x00000000	0.0
66	0x00000000	0.0
67	0x00000000	0.0
68	0x00000000	0.0
69	0x00000000	0.0
70	0x00000000	0.0
71	0x00000000	0.0
72	0x00000000	0.0
73	0x00000000	0.0
74	0x00000000	0.0
75	0x00000000	0.0
76	0x00000000	0.0
77	0x00000000	0.0
78	0x00000000	0.0
79	0x00000000	0.0
80	0x00000000	0.0
81	0x00000000	0.0
82	0x00000000	0.0
83	0x00000000	0.0
84	0x00000000	0.0
85	0x00000000	0.0
86	0x00000000	0.0
87	0x00000000	0.0
88	0x00000000	0.0
89	0x00000000	0.0
90	0x00000000	0.0
91	0x00000000	0.0
92	0x00000000	0.0
93	0x00000000	0.0
94	0x00000000	0.0
95	0x00000000	0.0
96	0x00000000	0.0
97	0x00000000	0.0
98	0x00000000	0.0
99	0x00000000	0.0
100	0x00000000	0.0
101	0x00000000	0.0
102	0x00000000	0.0
103	0x00000000	0.0
104	0x00000000	0.0
105	0x00000000	0.0
106	0x00000000	0.0
107	0x00000000	0.0
108	0x00000000	0.0
109	0x00000000	0.0
110	0x00000000	0.0
111	0x00000000	0.0
112	0x00000000	0.0
113	0x00000000	0.0
114	0x00000000	0.0
115	0x00000000	0.0
116	0x00000000	0.0
117	0x00000000	0.0
118	0x00000000	0.0
119	0x00000000	0.0
120	0x00000000	0.0
121	0x00000000	0.0
122	0x00000000	0.0
123	0x00000000	0.0
124	0x00000000	0.0
125	0x00000000	0.0
126	0x00000000	0.0
127	0x00000000	0.0

network_body._body_endoder.seq_layers.0.weight f4 [128, 6]
0	0xbf657146	-0.89625967
1	0xbe125bf8	-0.14292896
2	0xbec85f50	-0.39135218
3	0xbe961e16	-0.2931983
4	0xbe3ce55f	-0.18446873
5	0xbdcf7abe	-0.10130833
6	0x3efcc28a	0.49367172
7	0xbe832ff0	-0.2562251
8	0x3e304de3	0.17217211
9	0x3e9fb4fd	0.3119277
10	0x3e82a949	0.2551978
11	0xbeebf5ed	-0.46086064
12	0x3e6ef7ff	0.2333679
13	0xbef2ff95	-0.4746062
14	0x3f2c7ba2	0.6737615
15	0x3f887d15	1.0663172
16	0x3eec9749	0.4620917
17	0x3eb58ea4	0.3546039
18	0xbf302506	-0.68806493
19	0x3eebd3cc	0.46060026
20	0x3c617956	0.013761839
21	0xbec1ca13	-0.37849483
22	0xbf1d60af	-0.6147565
23	0xbe8c66c7	-0.27422163
24	0x3dd96805	0.10615543
25	0x3e96d5d6	0.2946002
26	0xbedb28ac	-0.42804468
27	0x3eb535c2	0.35392576
28	0x3d02871a	0.031867124
29	0xbd0c3e1d	-0.034238923
30	0x3f1321cb	0.5747344
31	0xbd446ad8	-0.047953457
32	0xbc9db018	-0.019249007
33	0xbdedf749	-0.116194315
34	0x3e759ea9	0.23986305
35	0xbeab1fd8	-0.33422732
36	0xbeccbdd2	-0.3998857
37	0xbe421897	-0.18954693
38	0x3ef84f13	0.4849783
39	0xbf11a8b5	-0.5689805
40	0x3de01b3e	0.10942696
41	0xbf107098	-0.56421804
42	0xbf0ae6e5	-0.5425857
43	0x3e62efb4	0.22161752
44	0xbba44030	-0.0050125346
45	0x3e706e59	0.23479594
46	0xbf3c91ea	-0.7366015
47	0xbf20c9d1	-0.6280795
48	0xbe5e799b	-0.21726076
49	0xbf257be0	-0.64642143
50	0x3ec87bba	0.39156896
51	0x3e9c6f46	0.30553645
52	0xbe97b96b	-0.2963365
53	0xbeab902d	-0.33508435
54	0x3e84afb0	0.2591529
55	0xbe45bcb8	-0.19310272
56	0xbef854a8	-0.48502088
57	0xbee6b1ff	-0.45057675
58	0xbf82733e	-1.0191419
59	0x3e99875d	0.29986086
60	0xbda67019	-0.0812685
61	0xbf1d9a03	-0.6156313
62	0xbf63b5f9	-0.88949543
63	0xbf16fefc	-0.58982825
64	0xbea32f29	-0.31871918
65	0xbf01df07	-0.5073094
66	0x3e4c7774	0.19967443
67	0x3eccdb2b	0.40010962
68	0xbee9b394	-0.4564482
69	0xbdf3717f	-0.11886882
70	0xbe12b50e	-0.1432688
71	0xbc3633c6	-0.011120742
72	0xbf295135	-0.6613954
73	0x3f0369cf	0.51333326
74	0xba13103a	-0.0005610023
75	0x3f84a449	1.0362636
76	0xbf0b41cc	-0.54397273
77	0xbf0edba1	-0.5580388
78	0x3f1963bb	0.599178
79	0xbe9404bb	-0.2890986
80	0x3ddbc02d	0.10730014
81	0xbe19c767	-0.15017472
82	0xbf0c2d09	-0.5475622
83	0x3d35d4f4	0.04439254
84	0xbf123285	-0.57108337
85	0xbdf2924d	-0.11844311
86	0x3e234cc3	0.15947251
87	0x3e6f20d4	0.23352367
88	0xbed36d12	-0.41294152
89	0x3f29e0cb	0.6635863
90	0x3cbfa12a	0.023392279
91	0xbe8e90dd	-0.27844897
92	0x3eca633b	0.39528832
93	0x3f183f3a	0.59471476
94	0xbef601ff	-0.48048398
95	0xbe940e01	-0.28916934
96	0xbea52a25	-0.32258716
97	0xbe682075	-0.22668631
98	0x3d8ef7c3	0.069808505
99	0x3de148b4	0.11000195
100	0xbc962f0f	-0.018332986
101	0x3e7c4aae	0.24637863
102	0xbedd6c7b	-0.43246827
103	0x3e03c5a1	0.12868358
104	0xbf1b6f08	-0.60716295
105	0xbeaee5d3	-0.34159717
106	0xbec4a579	-0.38407496
107	0xbe2207d9	-0.15823306
108	0x3ec1b814	0.37835753
109	0x3ead52fc	0.33852375
110	0xbd3249ec	-0.04352753
111	0xbd11e0e6	-0.03561487
112	0x3e9d843b	0.30764946
113	0xbebbff4e	-0.3671822
114	0x3eda84f0	0.42679548
115	0xbebdae4e	-0.37047046
116	0x3f3db2ce	0.7410096
117	0xbea2751a	-0.31729966
118	0xbeb1ae51	-0.34703305
119	0xbe6ecfae	-0.23321411
120	0x3a808b0d	0.0009807065
121	0x3e539f16	0.20666155
122	0x3eaa45b2	0.33256298
123	0x3e65e23b	0.22449581
124	0x3e4cba33	0.19992904
125	0xbf5eae15	-0.8698438
126	0x3e2bb2ac	0.16767377
127	0xbe458fb5	-0.19293101
128	0x3f6b3691	0.91880137
129	0x3ef6bf6d	0.4819292
130	0x3ecaf5e3	0.39640722
131	0xbd95f7fd	-0.07322691
132	0xbf2a64ab	-0.6655986
133	0x3e9fb0aa	0.3118947
134	0x3f138632	0.5762664
135	0xbed94bb9	-0.42440584
136	0x3f8e4c40	1.111702
137	0x3ebcf684	0.36906826
138	0x3eecd816	0.4625861
139	0x3efabddf	0.48972985
140	0x3f3514e8	0.70735025
141	0xbe35d3b0	-0.17756534
142	0x3ec4d256	0.38441724
143	0x3eadbd83	0.33933648
144	0xbe49c5c3	-0.19704346
145	0xbd5dd040	-0.05415368
146	0x3e60ca91	0.21952273
147	0x3c3e4614	0.011613388
148	0x3c0522a8	0.0081259385
149	0xbe903289	-0.28163555
150	0xbe97b2de	-0.29628652
151	0x3f4002e1	0.7500439
152	0x3e36cf50	0.17852521
153	0x3e49ae5a	0.19695416
154	0x3de47c2a	0.11156495
155	0x3d1c2f5c	0.038131103
156	0x3e9eae8e	0.3099255
157	0xbf9e3cb0	-1.236227
158	0x3f15689d	0.5836275
159	0x3eabf419	0.3358467
160	0xbe90b4de	-0.2826299
161	0x3ee25057	0.4420192
162	0xbf157f44	-0.58397317
163	0xbe8ce80a	-0.27520782
164	0x3ecd9b6f	0.4015765
165	0x3dd32237	0.1030926
166	0xbcbaa63a	-0.022784341
167	0x3eb0bea7	0.34520456
168	0xbe304294	-0.17212898
169	0x3cd25570	0.025675505
170	0xbe4b6592	-0.19862965
171	0xbf70fa22	-0.9413167
172	0xbe81e984	-0.2537347
173	0xbd3589fb	-0.04432104
174	0x3ea7311c	0.32654655
175	0x3e268aa1	0.1626382
176	0xbe7d3394	-0.24726707
177	0xbcb9a7c1	-0.022663
178	0xbe5eaf09	-0.21746458
179	0x3dc3e2ef	0.095647685
180	0x3edf4a40	0.43611336
181	0x3f0d0e94	0.5510037
182	0xbf851f5a	-1.0400193
183	0x3e43f65d	0.19136949
184	0xbf0a1598	-0.539392
185	0x3ec42c08	0.38314843
186	0xbee8af14	-0.45446074
187	0x3eca5c98	0.39523768
188	0x3d078b04	0.03309156
189	0xbd90cecc	-0.070706934
190	0x3f16c5ea	0.5889574
191	0x3d7d2c74	0.061809972
192	0xbf1b25cf	-0.60604566
193	0x3f6413f7	0.89092964
194	0x3f3acf8d	0.7297295
195	0x3ee88dac	0.45420587
196	0x3dfa209b	0.1221325
197	0xbdeb8dfe	-0.11501692
198	0xbc8f8049	-0.017517226
199	0xbdda8c53	-0.10671296
200	0x3e1ec8b0	0.15506244
201	0xbdf206f1	-0.1181773
202	0xbecdad86	-0.4017145
203	0x3f17bc03	0.5927126
204	0xbdac45a4	-0.084117204
205	0xbd885254	-0.06656328
206	0xbd49fd1e	-0.049313657
207	0x3c45b76d	0.012067658
208	0xbecf4957	-0.4048564
209	0x3eb79f8b	0.3586391
210	0x3eb99d93	0.36253032
211	0x3e34198a	0.17587867
212	0xbe8012e3	-0.2501441
213	0xbf13bc35	-0.57709056
214	0x3f4b0ea4	0.79319215
215	0x3de8444d	0.11341152
216	0x3d7a2fc6	0.061080717
217	0x3f97986e	1.1843393
218	0xbe9e1213	-0.30873165
219	0x3e48c731	0.19607235
220	0xbd164871	-0.03669018
221	0xbe90402c	-0.2817396
222	0x3f5103a2	0.8164617
223	0xbf1c4856	-0.61047876
224	0x3ec5004e	0.38476795
225	0x3e489395	0.19587548
226	0x3d204ac7	0.039133813
227	0xbeb6cb64	-0.3570205
228	0xbe9bef70	-0.30456114
229	0xbe9dde16	-0.308335
230	0x3f38ddfe	0.72213733
231	0xbf02fc0f	-0.5116586
232	0xbea6a832	-0.32550198
233	0xbf329330	-0.6975584
234	0xbe38446f	-0.17994855
235	0xbdcaf3f9	-0.09909815
236	0xbf4ebdf7	-0.80758613
237	0xbcc687ef	-0.02423474
238	0x3f13e514	0.5777142
239	0xbf3e04a0	-0.7422581
240	0x3ea0ec49	0.3143027
241	0x3be2b9ab	0.006919106
242	0x3f42be05	0.76071197
243	0x3eb6d574	0.35709727
244	0xbedfff73	-0.4374958
245	0xbc961361	-0.018319787
246	0xbef1f1ff	-0.4725494
247	0x3f0aeaa9	0.54264313
248	0x3de9858a	0.11402424
249	0x3f0cb0e6	0.54957426
250	0x3d850f35	0.06497041
251	0x3dbe79ae	0.09300552
252	0x3d90c8f6	0.0706958
253	0x3d8d49a1	0.06898809
254	0xbb43a2de	-0.0029851715
255	0xbc8a7048	-0.016899243

network_body._body_endoder.seq_layers.2.bias f4 [128]
0	0x00000000	0.0
1	0x00000000	0.0
2	0x00000000	0.0
3	0x00000000	0.0
4	0x00000000	0.0
5	0x00000000	0.0
6	0x00000000	0.0
7	0x00000000	0.0
8	0x00000000	0.0
9	0x00000000	0.0
10	0x00000000	0.0
11	0x00000000	0.0
12	0x00000000	0.0
13	0x00000000	0.0
14	0x00000000	0.0
15	0x00000000	0.0
16	0x00000000	0.0
17	0x00000000	0.0
18	0x00000000	0.0
19	0x00000000	0.0
20	0x00000000	0.0
21	0x00000000	0.0
22	0x00000000	0.0
23	0x00000000	0.0
24	0x00000000	0.0
25	0x00000000	0.0
26	0x00000000	0.0
27	0x00000000	0.0
28	0x00000000	0.0
29	0x00000000	0.0
30	0x00000000	0.0
31	0x00000000	0.0
32	0x00000000	0.0
33	0x00000000	0.0
34	0x00000000	0.0
35	0x00000000	0.0
36	0x00000000	0.0
37	0x00000000	0.0
38	0x00000000	0.0
39	0x00000000	0.0
40	0x00000000	0.0
41	0x00000000	0.0
42	0x00000000	0.0
43	0x00000000	0.0
44	0x00000000	0.0
45	0x00000000	0.0
46	0x00000000	0.0
47	0x00000000	0.0
48	0x00000000	0.0
49	0x00000000	0.0
50	0x00000000	0.0
51	0x00000000	0.0
52	0x00000000	0.0
53	0x00000000	0.0
54	0x00000000	0.0
55	0x00000000	0.0
56	0x00000000	0.0
57	0x00000000	0.0
58	0x00000000	0.0
59	0x00000000	0.0
60	0x00000000	0.0
61	0x00000000	0.0
62	0x00000000	0.0
63	0x00000000	0.0
64	0x00000000	0.0
65	0x00000000	0.0
66	0x00000000	0.0
67	0x00000000	0.0
68	0x00000000	0.0
69	0x00000000	0.0
70	0x00000000	0.0
71	0x00000000	0.0
72	0x00000000	0.0
73	0x00000000	0.0
74	0x00000000	0.0
75	0x00000000	0.0
76	0x00000000	0.0
77	0x00000000	0.0
78	0x00000000	0.0
79	0x00000000	0.0
80	0x00000000	0.0
81	0x00000000	0.0
82	0x00000000	0.0
83	0x00000000	0.0
84	0x00000000	0.0
85	0x00000000	0.0
86	0x00000000	0.0
87	0x00000000	0.0
88	0x00000000	0.0
89	0x00000000	0.0
90	0x00000000	0.0
91	0x00000000	0.0
92	0x00000000	0.0
93	0x00000000	0.0
94	0x00000000	0.0
95	0x00000000	0.0
96	0x00000000	0.0
97	0x00000000	0.0
98	0x00000000	0.0
99	0x00000000	0.0
100	0x00000000	0.0
101	0x00000000	0.0
102	0x00000000	0.0
103	0x00000000	0.0
104	0x00000000	0.0
105	0x00000000	0.0
106	0x00000000	0.0
107	0x00000000	0.0
108	0x00000000	0.0
109	0x00000000	0.0
110	0x00000000	0.0
111	0x00000000	0.0
112	0x00000000	0.0
113	0x00000000	0.0
114	0x00000000	0.0
115	0x00000000	0.0
116	0x00000000	0.0
117	0x00000000	0.0
118	0x00000000	0.0
119	0x00000000	0.0
120	0x00000000	0.0
121	0x00000000	0.0
122	0x00000000	0.0
123	0x00000000	0.0
124	0x00000000	0.0
125	0x00000000	0.0
126	0x00000000	0.0
127	0x00000000	0.0

network_body._body_endoder.seq_layers.2.weight f4 [128, 128]
0	0xbcd23e7b	-0.025664559
1	0xbdb90b18	-0.09035319
2	0xbc6bfd65	-0.014403676
3	0x3c8f8f52	0.017524395
4	0xbe22eba3	-0.15910201
5	0x3e15a5c8	0.14614022
6	0x3c92877f	0.017886875
7	0xbe205a0f	-0.15659355
8	0x3d9a9e64	0.07549742
9	0x3b9dd179	0.004816231
10	0xbd668e5b	-0.056288105
11	0x3d89b54b	0.06724032
12	0x3e275b1c	0.16343349
13	0x3c1c7d86	0.0095514115
14	0xbde2c298	-0.11072272
15	0xbd1d891a	-0.03846083
16	0xbcd396cc	-0.025828741
17	0x3cfcf2b7	0.030877454
18	0xbd109b34	-0.035304263
19	0xbdbeac5f	-0.09310221
20	0x3d78172e	0.06056898
21	0x3cd79434	0.026315786
22	0x3b9b8ea4	0.0047472287
23	0x3e03c41d	0.1286778
24	0x3d7cdf5b	0.061736446
25	0x3d953746	0.07285933
26	0xbdc344cf	-0.095346086
27	0xbbbab6c3	-0.0056980564
28	0x3d044b78	0.032298535
29	0x3cefcf42	0.029273633
30	0x3db93026	0.09042387
31	0xbd2c01f2	-0.041994043
32	0x3dfd8638	0.12379116
33	0xbe14e961	-0.14542152
34	0x3d92c93a	0.07167287
35	0xbe033555	-0.12813313
36	0xbad8384d	-0.0016496271
37	0x3e133c6b	0.14378516
38	0xbd480027	-0.04882827
39	0x3e269939	0.16269387
40	0x3db7543c	0.08951613
41	0x3e1f7710	0.15572762
42	0x3ca372a3	0.019952124
43	0x3dd3d70a	0.1034375
44	0xbdbb3709	-0.091413565
45	0xbde537b5	-0.11192266
46	0xbc862a03	-0.016377455
47	0xbe7f400c	-0.24926776
48	0x3d203d5e	0.039121024
49	0x3cd2f9a8	0.025753811
50	0x3d6aa23b	0.05728362
51	0x3c447ecd	0.011993122
52	0x3e183f57	0.14867912
53	0x3c9b87ad	0.018985594
54	0x3ce18fc6	0.027534377
55	0xbdd77039	-0.10519452
56	0x3e30f79f	0.1728196
57	0xbb9abcf8	-0.004722234
58	0xbdcbf610	-0.09959042
59	0x3d946cb3	0.07247295
60	0xbd39d1cd	-0.045366097
61	0xbdc8d20a	-0.09805687
62	0xbc19abb5	-0.009379317
63	0xbd7cb1ef	-0.06169313
64	0xbbd107d2	-0.006379106
65	0xbccf6617	-0.025317235
66	0x3d60e2c7	0.05490377
67	0x3b2e6702	0.002661169
68	0x3bdade5e	0.0066793403
69	0x3e059a05	0.13047035
70	0x3e053c0b	0.13011186
71	0x3df10938	0.117693365
72	0x3daa72a6	0.08322649
73	0x3dbb3330	0.091406226
74	0x3e084d39	0.13310708
75	0x3e4e2fc2	0.20135406
76	0x3e09d82f	0.13461374
77	0x3ca64458	0.02029626
78	0x3e57a468	0.2105881
79	0x3cffdd47	0.031233443
80	0xbcbe13a8	-0.023202732
81	0x3dfec663	0.12440183
82	0x3cae386e	0.021267142
83	0x3d9c37d4	0.07627836
84	0x3da267ba	0.079299405
85	0xbd0d9c49	-0.034572873
86	0xbce2eb4d	-0.02770009
87	0xbdb72bfc	-0.08943936
88	0xbde476bf	-0.111554615
89	0x3ddb403b	0.1070561
90	0xbd93f84f	-0.072250955
91	0xbdc5168a	-0.096234396
92	0x3d380007	0.0449219
93	0xbd711434	-0.058857158
94	0x3db396dc	0.087690085
95	0xbd91cd84	-0.07119277
96	0x3cd921b2	0.026505325
97	0xbaf977c7	-0.0019032889
98	0x3e24f214	0.1610797
99	0x3d2863c3	0.041110765
100	0xbdd65961	-0.104662664
101	0x3d352168	0.04422131
102	0xbd6567f8	-0.056007355
103	0xbdfc7210	-0.12326443
104	0xbd851203	-0.06497576
105	0x3d7817fa	0.06056974
106	0x3d6ec475	0.058292825
107	0xbdca8391	-0.098883756
108	0xbd15fb5d	-0.03661667
109	0xbd8b90ee	-0.068147525
110	0xbdf00ab9	-0.11720795
111	0x3d186502	0.037205704
112	0x3e25d42f	0.16194223
113	0x3da8359a	0.08213349
114	0x3d8a4554	0.067515045
115	0xbe43fcfa	-0.19139472
116	0x3d075121	0.033036355
117	0x3b9a967c	0.004717646
118	0xbd79660a	-0.060888328
119	0xbdb9b21c	-0.09067175
120	0x3d96f118	0.07370204
121	0x3d9a4b2a	0.07533868
122	0x3dcc9fce	0.09991418
123	0x3e92d530	0.28678274
124	0x3d31a291	0.043367926
125	0xbb43c4c6	-0.0029871925
126	0xbcf5456f	-0.029940335
127	0xbd5b1186	-0.05348351
128	0xbce11256	-0.027474564
129	0xbe6be025	-0.23034723
130	0x3e051ab9	0.12998475
131	0x3dd32504	0.103097945
132	0xbd358eb2	-0.044325538
133	0xbd390833	-0.045173835
134	0x3c09f794	0.008420844
135	0xbba99343	-0.0051750257
136	0xbca60176	-0.020264369
137	0x3bc117a0	0.005892709
138	0x3ba73590	0.0051028207
139	0x3daef27e	0.085423455
140	0xba0fae51	-0.0005480992
141	0xbde7519a	-0.11294861
142	0x3ccb084f	0.024784235
143	0x357b25cb	9.355978e-07
144	0xbaf06e16	-0.0018343355
145	0x3d17cbb4	0.0370595
146	0x3d392d7d	0.045209397
147	0xbddd486b	-0.10804828
148	0x3dded557	0.10880535
149	0x3cdf8da6	0.027289223
150	0xbe38b53c	-0.18037885
151	0x3d89ff83	0.06738188
152	0xbd9bf968	-0.0761593
153	0x3e0fe665	0.14052732
154	0xbd5deba7	-0.054179814
155	0xbb8fc6c5	-0.004387709
156	0xbdf31cf4	-0.11870757
157	0x3d3a6c88	0.04551366
158	0xbcb45ed4	-0.022017874
159	0x3d90d7da	0.070724204
160	0x3e47e1ad	0.19519682
161	0xbdf13822	-0.117782846
162	0xbd385c11	-0.045009676
163	0xbd9d1058	-0.07669133
164	0xbcebe2da	-0.028794695
165	0xbe0043fa	-0.12525931
166	0xbc5274e0	-0.012845248
167	0xbd6eaf7e	-0.05827283
168	0xbcd911bb	-0.026497712
169	0x3e0dd96e	0.13852474
170	0xbdc3175f	-0.09525942
171	0xbdcbae0e	-0.09945308
172	0x3e1d8f3f	0.15386675
173	0x3cda59a4	0.026654072
174	0x3d926e20	0.07149911
175	0x3de54382	0.11194517
176	0xbc9aec49	-0.018911498
177	0xbd8894d6	-0.06669013
178	0x3d3c477f	0.04596662
179	0x3de8fed6	0.11376731
180	0xbc98ec68	-0.018667415
181	0x3c7ac41a	0.015305543
182	0xbd5a369a	-0.05327473
183	0x3dc8fbfd	0.09813688
184	0xbd5fb6e7	-0.05461779
185	0xbd8034a2	-0.06260039
186	0xbdcc27bb	-0.099685155
187	0xbcb3f9d2	-0.02196971
188	0x3d8e6446	0.069527194
189	0x3d76aece	0.0602253
190	0x3dc39a7d	0.09550951
191	0xbd2fbce0	-0.042904735
192	0x3d8aba34	0.06773797
193	0x3dc166ad	0.09443412
194	0x3d0328e0	0.032021403
195	0xbd07a3af	-0.033115085
196	0xbd14ef68	-0.036361128
197	0x3dbaf676	0.0912904
198	0xbcd86e0c	-0.026419662
199	0xbe4f5316	-0.20246539
200	0x3e20424f	0.15650295
201	0xbe0f3a74	-0.13987142
202	0xbdd34896	-0.10316579
203	0xbe0c8993	-0.13724355
204	0x3d446b3f	0.04795384
205	0xbda9cce7	-0.08291035
206	0xbcccd626	-0.025004458
207	0x3e533544	0.20625788
208	0xbd522e58	-0.051313728
209	0xbd8cb7ed	-0.068710186
210	0x3e3c4daf	0.18389009
211	0x3d85fe0a	0.06542595
212	0x3b853b95	0.0040659406
213	0x3de39998	0.1111328
214	0x3bd54d22	0.006509439
215	0xbcd04c61	-0.025427045
216	0xbe6097c5	-0.21932895
217	0x3bd4c9ff	0.0064938064
218	0x3bee5828	0.0072736926
219	0x3da9c5c3	0.08289673
220	0x3e1dcd37	0.15410315
221	0x3d3bb672	0.04582829
222	0x3b87ea95	0.0041478374
223	0x3e088e69	0.13335575
224	0xbdb1f17c	-0.086886376
225	0x3e366bd5	0.17814572
226	0xbd034578	-0.032048672
227	0x3cfca094	0.030838288
228	0x3d253690	0.040335238
229	0xbdbb28c7	-0.09138637
230	0xbd654647	-0.055975225
231	0xbe660f33	-0.22466736
232	0xbcf6495a	-0.030064274
233	0xbd896f73	-0.067107104
234	0xbca15937	-0.019695861
235	0xbd40858f	-0.04700237
236	0xbddcc6d7	-0.10780113
237	0xbdc78000	-0.09741211
238	0xbbafa77e	-0.005360543
239	0xbd16f431	-0.036853973
240	0x39770d9e	0.00023560828
241	0xbc086a95	-0.008326192
242	0xbe27ab3b	-0.16373913
243	0x3d9a3a1c	0.07530615
244	0x3d1d8cb9	0.03846428
245	0xbdc1bd38	-0.09459919
246	0xbd1f65d6	-0.038915478
247	0x3c1d3156	0.009594282
248	0x3d21a712	0.03946597
249	0x3c8535a7	0.016260935
250	0x3d8647cd	0.06556664
251	0xbd772070	-0.06033367
252	0xbdb271b9	-0.08713097
253	0x3c8468e5	0.016163299
254	0x3bc76d79	0.006086048
255	0x3d81b119	0.06332607
