CubeTest/results/ppo/MoveToGoal/MoveToGoal-1088.pt (torch, 149519 bytes, 12 tensors)

network_body._body_endoder.seq_layers.0.weight f4 [128, 6]
000000 70 c2 77 bf a4 c3 a0 be 4b 7a c7 be 8e 38 5b 3f
       -0.96781063 -0.31399262 -0.3896049 0.8563317
000010 f4 bb eb 3e 51 be 3e be 7a 1c 63 bf d2 ba fa be
       0.46041834 -0.18627287 -0.88715327 -0.48970658
000020 18 68 de 3d a6 dd 8d 3e d3 eb 36 be 15 2a 05 be
       0.10859698 0.27708167 -0.17863397 -0.13004334
000030 1d 16 90 3e de d2 90 be f6 89 e7 be 51 60 5f 3f
       0.2814187 -0.2828588 -0.45222443 0.8725634
000040 aa 96 2d bf b5 65 0e bd 7d 31 1a 3f bf e9 b8 3e
       -0.6780802 -0.034764964 0.60231763 0.36115834
000050 46 36 33 be 1c 84 0d be 1b 3d 4e 3d 64 cf ac 3e
       -0.17501172 -0.13819927 0.050351243 0.33751976
000060 4d f2 20 3d e5 3d c2 be e8 2d 29 bf 38 65 b2 3e
       0.039293576 -0.37937847 -0.6608567 0.3484285
000070 a7 8e e3 bd c9 e6 3f 3c af 59 31 be 19 8b 87 3e
       -0.11111193 0.011712738 -0.17319368 0.2647331
000080 8b 4d d3 3e d0 17 26 3d 3b 63 b3 bd fb 36 3a 3e
       0.41270098 0.040550053 -0.08759161 0.18185036
000090 46 d6 9d be 8d a1 b0 3d c1 88 34 bf 16 2a 39 3e
       -0.3082754 0.08624563 -0.7052117 0.18082461
0000a0 a8 f0 eb 3e b4 e9 3c 3d ca 74 3a 3d 1f af c0 3e
       0.46082044 0.046121314 0.045521535 0.37633607
0000b0 80 1e 06 3f 6b 2e 1c be 40 14 fe bd 0d 9f 7d bf
       0.5239029 -0.15252082 -0.12406206 -0.9907082
0000c0 8c b9 5e 3d 64 37 9d bd d9 bb 85 be ff 55 e5 3e
       0.05437617 -0.076765805 -0.2611988 0.44792172
0000d0 69 64 c4 bd 44 6a b0 3e a6 42 df be aa 78 c7 3e
       -0.09589464 0.34456074 -0.43605536 0.38959247
0000e0 69 58 8c be 2f ed 3f 3f 7d 35 7f be b6 65 ab 3e
       -0.27411202 0.7497129 -0.24922748 0.33476037
0000f0 74 37 07 bf 61 27 b8 3d e6 59 cb 3e 73 8a d3 3e
       -0.5281899 0.08991886 0.39717025 0.41316566
000100 48 33 43 3f d9 b0 92 be 9f 89 bc 3e 64 4b f7 3e
       0.76250124 -0.2865055 0.36823747 0.48299706
000110 bc 84 40 3f e2 57 b9 3e 22 31 46 be 71 20 ec 3e
       0.75202537 0.36199862 -0.1935468 0.461185
000120 5d da 83 be 1d ff 1e 3a 80 a5 78 bc a8 2e 74 3e
       -0.25752535 0.00060652365 -0.015176177 0.23845923
000130 ab eb f1 bd 55 d2 5a be 13 cd 05 3f dd 93 05 3f
       -0.11812528 -0.21369298 0.52266043 0.52178746
000140 55 da 58 3d 6c 12 08 3f db aa 67 3f 7e 58 d9 bd
       0.052942593 0.5315311 0.9049508 -0.10612582
000150 08 d9 7f 3c dd 36 43 be 87 48 7b 3f 8b 19 55 3e
       0.015615709 -0.19063897 0.9815754 0.20810525
000160 45 0f b6 3e cb 0c 20 3f f9 77 23 bf 6e 9f 95 3e
       0.35558525 0.6251952 -0.6385494 0.29223198
000170 ba 12 0c 3f b1 8f bf 3d 59 38 ea 3d dc e8 4c be
       0.54716074 0.09353579 0.11436529 -0.20010704
000180 b4 6e 08 3e 0f 97 00 be 41 c3 32 be 0e 86 c4 be
       0.1332348 -0.12557624 -0.17457296 -0.38383526
000190 85 37 41 be 34 13 c8 3e 91 48 85 be e5 1e 2a bf
       -0.18868835 0.3907715 -0.26031926 -0.6645339
0001a0 66 91 cb 3e 59 ca 6e 3e 9f 13 d9 be da 4f b8 3e
       0.39759368 0.23319377 -0.42397782 0.35998422
0001b0 4c 85 79 3e 37 27 69 bc e4 28 0f bf da 31 84 be
       0.24367255 -0.014230541 -0.5592177 -0.25819284
0001c0 64 ac f3 3d db 6e 1e bf 68 90 90 3e 31 fd bd 3e
       0.11898115 -0.618879 0.28235173 0.37107232
0001d0 df 6a 45 be de 18 94 bc 61 f4 25 be 02 40 da be
       -0.1927905 -0.018078264 -0.16206504 -0.4262696
0001e0 b1 5c a3 be 58 ee b3 be d4 48 d1 be 84 56 9f be
       -0.31906655 -0.3514278 -0.40875876 -0.31120694
0001f0 dd f7 49 3e c9 43 dc bd 6c 02 52 3e 79 0f b9 3d
       0.19723459 -0.107551165 0.20508736 0.09036154
000200 05 ac 1a 3e 47 b7 49 3e 82 c4 d6 be a1 7c 20 bf
       0.15104683 0.19698821 -0.419468 -0.6269017
000210 90 c1 8e be b2 a9 3a 3e 0a ad 65 be a2 05 f4 bc
       -0.2788205 0.18228796 -0.2242929 -0.029787842
000220 83 9b 8e be 91 31 8b be b1 36 06 3f ca d0 fd 3e
       -0.2785302 -0.27186254 0.524272 0.49573356
000230 26 78 00 be fd d4 fc 3e d5 fe 82 be f7 63 fa bd
       -0.12545833 0.49381247 -0.25585046 -0.12226098
000240 68 79 9c bf e8 56 f6 bd 40 83 0c 3e 1c c4 f8 bd
       -1.222455 -0.12028295 0.13721943 -0.1214678
000250 4d 51 43 3f f0 17 fc 3d 0e 91 b8 3e 43 f6 8b 3e
       0.7629593 0.12309253 0.36048168 0.2733632
000260 2c 75 03 bf 45 b7 82 3e 2e 43 02 3f 03 74 f2 be
       -0.51350665 0.2553045 0.5088376 -0.47354135
000270 9a 3a 8e 3e be f2 69 3e a2 51 32 be c0 29 17 be
       0.27779084 0.22846505 -0.17413953 -0.1476202
000280 d6 85 ff be 73 a9 b2 be ef 9c 88 3d d2 7c 50 3d
       -0.49906796 -0.34894904 0.06670558 0.050900288
000290 e1 3b 58 3c bc 81 4c be 1c 0a 13 3f 5e d7 b2 bb
       0.01319787 -0.19971365 0.574373 -0.0054578027
0002a0 6a bf 16 be 35 61 d9 3e 45 79 3c 3e ee 2b 3a be
       -0.14721456 0.42456976 0.18405636 -0.1818082
0002b0 ac 9a 80 be 04 3e d2 be da 47 0d bf 27 11 7e 3f
       -0.25118005 -0.4106294 -0.5518776 0.9924492
0002c0 9a b1 a1 bd c4 34 fe be 5c 73 d8 bd bc 2b 11 be
       -0.07895203 -0.49649632 -0.10568878 -0.1417684
0002d0 43 19 df bc 34 cb a3 3e a1 cc 10 3f 3a 49 ac 3e
       -0.027233725 0.3199097 0.5656224 0.33649617
0002e0 99 75 f8 bd f5 c8 97 3e 56 c2 d8 bd be e6 99 3e
       -0.12131805 0.29645506 -0.10583942 0.30058855
0002f0 19 b8 4a bf 68 0e ae 3e 7d 25 aa 3e eb 5d 0d 3e
       -0.7918716 0.33995366 0.33231726 0.13805358
000300 07 cb bb 3c d5 51 31 3e 86 ed c0 3e 9e 82 a4 be
       0.02292396 0.17316373 0.37681216 -0.32130903
000310 14 f8 8f bd 43 9f b7 3e 69 b2 62 3e 85 62 3d bf
       -0.07029739 0.35863695 0.2213837 -0.73978454
000320 03 1d 08 bd b2 86 72 3e ec 1d 64 3d be 4a e1 bd
       -0.033230793 0.23684195 0.0556926 -0.11000584
000330 24 cb 74 3e d5 aa d6 3e bd fc 48 bf ee 84 b0 bc
       0.23905617 0.4192721 -0.7851065 -0.02154776
000340 aa b7 de 3c 68 2a 9f 3e b0 71 b8 3e 8e d7 76 3e
       0.027187187 0.3108704 0.36024237 0.24105665
000350 29 78 37 be ab a4 27 bf c5 eb 54 bd 50 c8 9e be
       -0.17916931 -0.6548564 -0.05198266 -0.310122
000360 01 27 b9 be e1 41 de bb 13 0b a6 be 24 05 01 bf
       -0.3616257 -0.0067827557 -0.32430324 -0.5039847
000370 14 7f 9b 3e d1 aa ae be b5 15 d7 3e b9 13 d9 3d
       0.3037039 -0.34114698 0.4200875 0.10599465
000380 ac 45 aa 3d 65 a7 23 be df 5a 1b be ec 88 2e 3f
       0.0831407 -0.15981825 -0.15171383 0.68177676
000390 77 ac cc 3e 8c 75 c9 bd b3 4c 40 be 21 42 91 3e
       0.3997533 -0.098368734 -0.18779258 0.28370765
0003a0 e5 84 c2 3e ba 54 04 3e 4a d6 5c be 6e c0 fb be
       0.37992015 0.12922946 -0.2156612 -0.4917025
0003b0 d7 16 9f 3e da e5 4b be b7 48 01 bf a5 d1 7e 3f
       0.31072113 -0.199119 -0.5050158 0.9953864
0003c0 a9 ed 4c 3e 18 52 9d 3e 02 7a cc 3e 5a 55 d4 3d
       0.20012535 0.30726695 0.39936835 0.10367842
0003d0 b4 28 ca 3e 3f f1 4f be a4 ed 1a be 0b 06 34 bd
       0.3948418 -0.20306872 -0.15129715 -0.043951076
0003e0 30 f5 55 bf a0 32 2f 3d a0 67 4a be 81 e2 c6 3e
       -0.8357725 0.04277289 -0.19766092 0.38844684
0003f0 9e 50 56 3e c9 89 71 3e 21 94 af be 1a 60 c8 3e
       0.2092919 0.23587717 -0.342927 0.3913582

network_body._body_endoder.seq_layers.0.bias f4 [128]
000000 00 00 00 00 00 00 00 00 00 00 00 00 00 00 00 00
       0.0 0.0 0.0 0.0
000010 00 00 00 00 00 00 00 00 00 00 00 00 00 00 00 00
       0.0 0.0 0.0 0.0
000020 00 00 00 00 00 00 00 00 00 00 00 00 00 00 00 00
       0.0 0.0 0.0 0.0
000030 00 00 00 00 00 00 00 00 00 00 00 00 00 00 00 00
       0.0 0.0 0.0 0.0
000040 00 00 00 00 00 00 00 00 00 00 00 00 00 00 00 00
       0.0 0.0 0.0 0.0
000050 00 00 00 00 00 00 00 00 00 00 00 00 00 00 00 00
       0.0 0.0 0.0 0.0
000060 00 00 00 00 00 00 00 00 00 00 00 00 00 00 00 00
       0.0 0.0 0.0 0.0
000070 00 00 00 00 00 00 00 00 00 00 00 00 00 00 00 00
       0.0 0.0 0.0 0.0
000080 00 00 00 00 00 00 00 00 00 00 00 00 00 00 00 00
       0.0 0.0 0.0 0.0
000090 00 00 00 00 00 00 00 00 00 00 00 00 00 00 00 00
       0.0 0.0 0.0 0.0
0000a0 00 00 00 00 00 00 00 00 00 00 00 00 00 00 00 00
       0.0 0.0 0.0 0.0
0000b0 00 00 00 00 00 00 00 00 00 00 00 00 00 00 00 00
       0.0 0.0 0.0 0.0
0000c0 00 00 00 00 00 00 00 00 00 00 00 00 00 00 00 00
       0.0 0.0 0.0 0.0
0000d0 00 00 00 00 00 00 00 00 00 00 00 00 00 00 00 00
       0.0 0.0 0.0 0.0
0000e0 00 00 00 00 00 00 00 00 00 00 00 00 00 00 00 00
       0.0 0.0 0.0 0.0
0000f0 00 00 00 00 00 00 00 00 00 00 00 00 00 00 00 00
       0.0 0.0 0.0 0.0
000100 00 00 00 00 00 00 00 00 00 00 00 00 00 00 00 00
       0.0 0.0 0.0 0.0
000110 00 00 00 00 00 00 00 00 00 00 00 00 00 00 00 00
       0.0 0.0 0.0 0.0
000120 00 00 00 00 00 00 00 00 00 00 00 00 00 00 00 00
       0.0 0.0 0.0 0.0
000130 00 00 00 00 00 00 00 00 00 00 00 00 00 00 00 00
       0.0 0.0 0.0 0.0
000140 00 00 00 00 00 00 00 00 00 00 00 00 00 00 00 00
       0.0 0.0 0.0 0.0
000150 00 00 00 00 00 00 00 00 00 00 00 00 00 00 00 00
       0.0 0.0 0.0 0.0
000160 00 00 00 00 00 00 00 00 00 00 00 00 00 00 00 00
       0.0 0.0 0.0 0.0
000170 00 00 00 00 00 00 00 00 00 00 00 00 00 00 00 00
       0.0 0.0 0.0 0.0
000180 00 00 00 00 00 00 00 00 00 00 00 00 00 00 00 00
       0.0 0.0 0.0 0.0
000190 00 00 00 00 00 00 00 00 00 00 00 00 00 00 00 00
       0.0 0.0 0.0 0.0
0001a0 00 00 00 00 00 00 00 00 00 00 00 00 00 00 00 00
       0.0 0.0 0.0 0.0
0001b0 00 00 00 00 00 00 00 00 00 00 00 00 00 00 00 00
       0.0 0.0 0.0 0.0
0001c0 00 00 00 00 00 00 00 00 00 00 00 00 00 00 00 00
       0.0 0.0 0.0 0.0
0001d0 00 00 00 00 00 00 00 00 00 00 00 00 00 00 00 00
       0.0 0.0 0.0 0.0
0001e0 00 00 00 00 00 00 00 00 00 00 00 00 00 00 00 00
       0.0 0.0 0.0 0.0
0001f0 00 00 00 00 00 00 00 00 00 00 00 00 00 00 00 00
       0.0 0.0 0.0 0.0

network_body._body_endoder.seq_layers.2.weight f4 [128, 128]
000000 a1 d3 30 bd b8 be 93 3a 0d 03 87 bd 4f 5a 94 3c
       -0.043170575 0.0011272049 -0.06592379 0.018109469
000010 46 45 4f bd 18 af 34 3d f7 25 9d 3b 0d 6b b6 3d
       -0.050603174 0.044112295 0.0047957855 0.08907137
000020 61 0e 9c bc 98 a9 ec 3b 16 ce 09 3e b1 3c b7 3c
       -0.019049825 0.0072223656 0.13457522 0.022367807
000030 a2 8f 89 bd 65 4e 13 3e e1 22 a7 3b f5 61 0b bd
       -0.06716849 0.14385374 0.0051005934 -0.034028966
000040 c0 b1 d3 3c c7 91 14 bd f1 f5 d1 bd 19 ee fb bd
       0.025841594 -0.036271837 -0.10251988 -0.12301273
000050 1d a7 72 bd 3e b9 b2 3c 1a ce 87 bd 38 64 89 3d
       -0.059241403 0.021816846 -0.06631108 0.06708568
000060 18 a7 f1 bd a3 8c 50 3e d8 3f 05 bd f0 8e 14 bc
       -0.11799449 0.20366149 -0.03253159 -0.009067282
000070 a4 cd 09 bd 84 3a d3 3a db 4a 83 3d 56 23 85 bd
       -0.03364338 0.0016115461 0.06410762 -0.065008804
000080 1f d6 52 bc 99 e6 10 bd 68 8b b1 bd 17 5b 00 be
       -0.012868433 -0.035376165 -0.08669168 -0.12534748
000090 09 be f2 3c d1 4d 14 bd cf 13 b1 bc 0f 9a 83 3c
       0.029631631 -0.036207024 -0.02161589 0.016064672
0000a0 49 35 02 ba 78 76 7d 3d 03 72 9a 3d 0a 7f be bd
       -0.00049670466 0.06188056 0.07541277 -0.093015745
0000b0 c4 a3 c8 3d 08 85 f2 bc 60 55 e5 3c 8f 78 09 3d
       0.09796861 -0.02960445 0.027994812 0.03356224
0000c0 79 00 a8 3c c0 6f 00 3d e8 54 74 bc 88 8d 86 3c
       0.020508038 0.031356573 -0.014912821 0.01642491
0000d0 5b f3 50 bc 14 90 49 bd f7 95 27 be 6f b9 92 bc
       -0.012753333 -0.04920967 -0.16365801 -0.017910687
0000e0 4c 1b 74 3d 51 05 d5 3d 18 4a 99 3d 61 d6 8d bd
       0.059596345 0.10401405 0.074848354 -0.06925655
0000f0 bc c0 68 bd 52 12 2e ba cc 56 9d bd d8 80 ad bd
       -0.05682443 -0.0006640303 -0.07682571 -0.084718406
000100 92 46 1f bd e4 1a 97 3d e0 ca 0d 3d 6a ce d1 bd
       -0.03888566 0.07378176 0.034617305 -0.102444485
000110 32 d0 b8 3d 24 4d 2a be a2 04 0b bc 0a 61 31 be
       0.09024085 -0.1663099 -0.008484991 -0.17322174
000120 87 5e 68 bc 00 21 de 3c 9c 9d 1d bd 5d 68 1f be
       -0.014182693 0.027115345 -0.038480386 -0.15567155
000130 d3 d5 2e 3e 59 12 8e bd f1 8a 09 bd 7f 42 60 bc
       0.17073755 -0.06937093 -0.03357977 -0.013687729
000140 94 30 c3 3d f7 23 fc 3d ae a6 ac 3d ed 6d c4 3c
       0.0953075 0.12311547 0.08430229 0.023978198
000150 1d c2 8a 3d f7 03 18 be 83 29 09 be a9 04 eb bb
       0.067753054 -0.14845262 -0.13394742 -0.0071721864
000160 4f 69 02 3e 5c 10 9c bd e5 69 13 3e f0 a4 ce 3b
       0.12735485 -0.07620308 0.14395864 0.006306283
000170 10 c2 f3 bd 47 c9 04 3d 2f ff 23 bd 17 d5 7f bd
       -0.11902249 0.032418516 -0.040038284 -0.062459078
000180 12 cb aa 3d 55 b0 8e bc 5b 7e fe bc 91 61 56 bc
       0.08339514 -0.017418066 -0.03106611 -0.013084785
000190 62 93 53 3d 1f 88 33 3d 2d dd 26 3d 25 79 92 bc
       0.051654227 0.043830987 0.040738273 -0.017880032
0001a0 35 98 86 bc e3 75 b7 3d a6 9e a7 3d df 37 da b8
       -0.01643 0.08958032 0.08184557 -0.00010405457
0001b0 ea db d7 3d 62 b7 08 3d 2c 33 f4 3c c4 72 60 bc
       0.10539992 0.033378012 0.029809557 -0.013699237
0001c0 e6 83 05 bc 1b 77 87 ba ed dc cd 3d f2 6f 0a bc
       -0.008149123 -0.0010335179 0.10051904 -0.008449541
0001d0 85 c1 da bc 1a a6 de 3c a0 75 13 3d 1d 48 08 bc
       -0.026703605 0.027178813 0.036000848 -0.008317974
0001e0 d4 e8 14 bc b4 51 01 3e 45 1f 11 3e a6 19 df 3c
       -0.009088714 0.12628824 0.14172085 0.02723391
0001f0 9d cc bb 3d 78 f9 a6 3d b4 bf 05 bd d3 0b 55 3d
       0.09169886 0.08153051 -0.032653525 0.05201323
000200 05 d3 d1 3d 3e f8 d3 3c 66 74 31 be 74 dd cc 3d
       0.10245327 0.025875207 -0.17329559 0.10003176
000210 f3 2a 43 3e 1c 4d 56 3c bd c7 8b 3c 93 3a b6 3d
       0.19059353 0.013079908 0.017063016 0.08897891
000220 f4 cb eb 3d f3 1f 93 3d e1 09 53 bc f1 77 99 3c
       0.1151351 0.07183828 -0.012880773 0.01873395
000230 5b 6a fb 3d 5a 48 c5 bd 51 68 df bc fe 7c 33 bd
       0.12276145 -0.096329406 -0.027271422 -0.043820374
000240 25 32 66 bc fb 0a 36 3d 53 36 a5 bd 0c 74 cb 3d
       -0.014050041 0.044444066 -0.08067002 0.099342436
000250 8a db 25 3e 07 16 26 bd 2a 9d af 3c 41 55 1f 3e
       0.16197029 -0.04054835 0.021437246 0.15559866
000260 47 04 4d bb c4 5e 54 bd f0 f6 8d 3d f6 1c c5 3c
       -0.0031283067 -0.051848188 0.06931865 0.024061661
000270 bf 56 ec bc 84 1f 0a 3d aa fe 94 bd b6 44 9d 3d
       -0.028849958 0.033721462 -0.07275136 0.07679121
000280 fc 06 08 be 3a 52 94 ba 1e 03 1f be 65 05 7e 3d
       -0.13283914 -0.0011316009 -0.15528533 0.062016863
000290 e5 6f e7 3d 31 21 a3 bd 16 f5 d3 bd 75 bc 2f be
       0.11300639 -0.07965315 -0.10349481 -0.17161734
0002a0 66 8d 06 be 1b 27 1a bd 10 fb a0 3d 51 da 40 be
       -0.13139877 -0.03763495 0.07860386 -0.18833281
0002b0 1b f5 c5 bd ee 0d a8 bd ab ff 25 3d 5e 16 32 be
       -0.09665891 -0.08205782 0.040527027 -0.17391345
0002c0 9a e6 88 3c 91 ef 97 bd d0 29 ce bb c0 7a 84 3d
       0.016711522 -0.074187405 -0.0062916055 0.06468725
0002d0 47 fb 01 3d 3f d0 7b bd 53 42 4f 3d d7 7d fd 3a
       0.031733777 -0.061477896 0.05060036 0.0019339871
0002e0 57 24 89 3d 8b f8 70 3c d3 08 57 3d bb 6b cb 3d
       0.066963844 0.014707695 0.05249865 0.09932657
0002f0 98 44 8f bd 0a 15 89 3b a6 64 66 bd db a5 b7 bd
       -0.06995505 0.0041834163 -0.05624833 -0.08967181
000300 e4 2f f0 bb a6 e5 2d 3d 80 e3 a6 3d 11 eb f2 3d
       -0.0073299278 0.042455338 0.08148861 0.118612416
000310 b4 af ea 3b 82 ca 98 bd 38 ad 1c bd 61 02 46 3e
       0.0071620587 -0.074605 -0.03825113 0.19336845
000320 46 59 e3 3c f5 e5 c0 3b 25 3f d4 bd a3 31 4c 3d
       0.02775253 0.005886788 -0.10363606 0.049852025
000330 45 cb 5a bd cb 3f ee 3d 5d a9 89 3d 91 93 58 3c
       -0.05341651 0.11633261 0.067217566 0.013218776
000340 e3 15 70 3e 6f 99 ce bc a2 1b f6 bc fa bf 44 3d
       0.23445849 -0.025219647 -0.030042473 0.048034646
000350 0b da 50 bd 40 53 0a 3e c7 cc 21 bd e0 31 08 be
       -0.050989192 0.1350832 -0.03950193 -0.13300276
000360 bb 66 fd 3c 38 83 b8 3c 8e d5 92 3d 20 c7 a7 bd
       0.030932775 0.022523507 0.071696386 -0.08192277
000370 7e 32 26 3e 99 21 19 3e ba 98 07 3e 0f da da 3d
       0.16230199 0.14954223 0.13241854 0.106861226
000380 2f b9 9a bd 61 fe a8 bd a2 16 f3 3d 7d 38 81 3d
       -0.07554852 -0.08251644 0.11869551 0.063096024
000390 52 7c 98 3d 58 59 bc 3d b8 d9 86 3c e9 16 c8 3b
       0.07445587 0.091967285 0.016461238 0.0061062467
0003a0 cb 9e 8a 3d f6 d6 49 3e 94 e3 0a 3e a4 9a 0a bd
       0.067685686 0.19710907 0.13563377 -0.033838883
0003b0 a8 99 5b bd 2a 2d a8 3c 63 88 b3 3d 53 38 40 3e
       -0.053613335 0.020529348 0.08766248 0.18771486
0003c0 c3 a4 84 bc 05 78 92 3c ee ea a6 bd 56 61 15 be
       -0.016191846 0.017879495 -0.08150278 -0.14587912
0003d0 3b f3 3c 3d 4b 01 aa 3d e3 99 16 3d c3 83 9c bd
       0.0461304 0.08301028 0.03676785 -0.07642319
0003e0 d9 48 4a bd b2 5d 93 bd 1d 02 3f bc 10 95 8c bd
       -0.04938588 -0.07195605 -0.011658219 -0.06864369
0003f0 a1 4b 1d bd 6f 36 97 3d 28 97 2d be 91 e5 12 bc
       -0.038402203 0.07383429 -0.16952193 -0.008965866

network_body._body_endoder.seq_layers.2.bias f4 [128]
000000 00 00 00 00 00 00 00 00 00 00 00 00 00 00 00 00
       0.0 0.0 0.0 0.0
000010 00 00 00 00 00 00 00 00 00 00 00 00 00 00 00 00
       0.0 0.0 0.0 0.0
000020 00 00 00 00 00 00 00 00 00 00 00 00 00 00 00 00
       0.0 0.0 0.0 0.0
000030 00 00 00 00 00 00 00 00 00 00 00 00 00 00 00 00
       0.0 0.0 0.0 0.0
000040 00 00 00 00 00 00 00 00 00 00 00 00 00 00 00 00
       0.0 0.0 0.0 0.0
000050 00 00 00 00 00 00 00 00 00 00 00 00 00 00 00 00
       0.0 0.0 0.0 0.0
000060 00 00 00 00 00 00 00 00 00 00 00 00 00 00 00 00
       0.0 0.0 0.0 0.0
000070 00 00 00 00 00 00 00 00 00 00 00 00 00 00 00 00
       0.0 0.0 0.0 0.0
000080 00 00 00 00 00 00 00 00 00 00 00 00 00 00 00 00
       0.0 0.0 0.0 0.0
000090 00 00 00 00 00 00 00 00 00 00 00 00 00 00 00 00
       0.0 0.0 0.0 0.0
0000a0 00 00 00 00 00 00 00 00 00 00 00 00 00 00 00 00
       0.0 0.0 0.0 0.0
0000b0 00 00 00 00 00 00 00 00 00 00 00 00 00 00 00 00
       0.0 0.0 0.0 0.0
0000c0 00 00 00 00 00 00 00 00 00 00 00 00 00 00 00 00
       0.0 0.0 0.0 0.0
0000d0 00 00 00 00 00 00 00 00 00 00 00 00 00 00 00 00
       0.0 0.0 0.0 0.0
0000e0 00 00 00 00 00 00 00 00 00 00 00 00 00 00 00 00
       0.0 0.0 0.0 0.0
0000f0 00 00 00 00 00 00 00 00 00 00 00 00 00 00 00 00
       0.0 0.0 0.0 0.0
000100 00 00 00 00 00 00 00 00 00 00 00 00 00 00 00 00
       0.0 0.0 0.0 0.0
000110 00 00 00 00 00 00 00 00 00 00 00 00 00 00 00 00
       0.0 0.0 0.0 0.0
000120 00 00 00 00 00 00 00 00 00 00 00 00 00 00 00 00
       0.0 0.0 0.0 0.0
000130 00 00 00 00 00 00 00 00 00 00 00 00 00 00 00 00
       0.0 0.0 0.0 0.0
000140 00 00 00 00 00 00 00 00 00 00 00 00 00 00 00 00
       0.0 0.0 0.0 0.0
000150 00 00 00 00 00 00 00 00 00 00 00 00 00 00 00 00
       0.0 0.0 0.0 0.0
000160 00 00 00 00 00 00 00 00 00 00 00 00 00 00 00 00
       0.0 0.0 0.0 0.0
000170 00 00 00 00 00 00 00 00 00 00 00 00 00 00 00 00
       0.0 0.0 0.0 0.0
000180 00 00 00 00 00 00 00 00 00 00 00 00 00 00 00 00
       0.0 0.0 0.0 0.0
000190 00 00 00 00 00 00 00 00 00 00 00 00 00 00 00 00
       0.0 0.0 0.0 0.0
0001a0 00 00 00 00 00 00 00 00 00 00 00 00 00 00 00 00
       0.0 0.0 0.0 0.0
0001b0 00 00 00 00 00 00 00 00 00 00 00 00 00 00 00 00
       0.0 0.0 0.0 0.0
0001c0 00 00 00 00 00 00 00 00 00 00 00 00 00 00 00 00
       0.0 0.0 0.0 0.0
0001d0 00 00 00 00 00 00 00 00 00 00 00 00 00 00 00 00
       0.0 0.0 0.0 0.0
0001e0 00 00 00 00 00 00 00 00 00 00 00 00 00 00 00 00
       0.0 0.0 0.0 0.0
0001f0 00 00 00 00 00 00 00 00 00 00 00 00 00 00 00 00
       0.0 0.0 0.0 0.0

action_model._continuous_distribution.log_sigma f4 [1, 2]
000000 00 00 00 00 00 00 00 00
       0.0 0.0

action_model._continuous_distribution.mu.weight f4 [2, 128]
000000 13 b4 a2 3c 53 dc f2 3c d6 3a 8c 3c 4b 0c 86 3b
       0.019861257 0.029646074 0.017117899 0.004090821
000010 03 f3 96 bc 51 b5 b8 3c d3 bf 33 bc a5 e9 82 3b
       -0.018426424 0.022547396 -0.010971027 0.0039951378
000020 6b 13 28 3c f2 eb 53 3c 1a bf 6c bc b3 85 aa 3c
       0.010258536 0.012934672 -0.014449859 0.020815706
000030 8f 69 76 bb 4c af 88 bc e7 de e4 3b 42 e5 04 bc
       -0.003759954 -0.01668515 0.00698458 -0.0081113
000040 bf 99 c8 3b cf ee ee bc 03 b0 d2 bb f8 1e 47 bb
       0.0061218436 -0.029166607 -0.0064296736 -0.003038345
000050 07 71 93 3c 91 2f 34 ba c2 a3 ee 3b 7b 16 00 3c
       0.017998232 -0.0006873543 0.007282705 0.00781786
000060 93 b6 9e 3c 94 61 b6 bb d7 a7 87 b9 57 b2 d5 3a
       0.019374168 -0.0055658314 -0.00025874257 0.001630376
000070 00 42 ef bc 8f cb 48 bc 6e 4f a7 ba 57 8f 50 bc
       -0.029206276 -0.012255563 -0.0012764761 -0.012729487
000080 2d b9 a3 3c be 48 38 3c 26 a0 8b 3b 5e 38 1d bb
       0.01998576 0.011247812 0.0042610345 -0.0023989896
000090 b0 66 cb bc e5 68 68 3b d0 fb 97 3c 2c 99 45 3b
       -0.024829239 0.0035462913 0.01855269 0.0030151112
0000a0 b1 a3 88 3b ed d9 75 3b 9d 3a a9 bb e4 f8 c3 3a
       0.004169904 0.0037513927 -0.005164458 0.0014951495
0000b0 91 d8 2e bb 4f 68 21 bb 13 cf f3 bc 4e b0 b9 3c
       -0.0026679377 -0.0024628823 -0.029761827 0.022667076
0000c0 3f eb 2d bd b7 b4 0a bd 45 8e 7e 3c da 57 fb 3b
       -0.042460676 -0.03386375 0.015536849 0.007670385
0000d0 b2 63 87 bb 57 d7 d7 3b 3b a3 b9 bc b5 65 fd 3a
       -0.0041317577 0.00658695 -0.022660842 0.0019332679
0000e0 cb 59 44 bc 57 d0 13 3b 5c 7b 08 3c 38 83 69 bb
       -0.011984299 0.00225546 0.008330192 -0.003563119
0000f0 6e 37 a0 bc a5 ac fe bc 11 ee b0 bc 63 f1 0a bc
       -0.019557681 -0.031088183 -0.021597894 -0.008480403
000100 93 4c 27 3c f1 9d 2e bc 78 0c 59 bb 63 c3 8e bb
       0.010211128 -0.010657773 -0.0033119004 -0.004356788
000110 6e 7f 96 3c 93 98 bf bb 3f 88 45 bd db c4 3c 3c
       0.01837131 -0.0058470457 -0.048225638 0.011521543
000120 47 6b d2 ba 38 32 1f bd bf a0 34 bc db ed 81 3c
       -0.00160537 -0.03886625 -0.011024653 0.015860489
000130 4b a5 15 3c 8a 58 ed bc 7b 9b 78 3c a9 d5 8b bc
       0.009133647 -0.028972883 0.015173788 -0.017069655
000140 f2 83 86 3c e8 ec 27 bd ab 70 43 3c d0 61 ad bc
       0.016420338 -0.040997416 0.011928718 -0.021164805
000150 7b a5 4e 3c 8b 75 11 3b 98 5f 46 3c f7 ce d8 3b
       0.012612696 0.0022195305 0.012107752 0.006616469
000160 27 63 15 3b 5e 6e 40 bb b9 21 42 bb d1 92 01 bd
       0.0022794695 -0.002936266 -0.002962215 -0.031634156
000170 73 c4 40 3c a2 c5 27 bc cf 0a cd 3c b5 13 a4 3c
       0.011765587 -0.01023999 0.025029568 0.020028928
000180 18 ea 01 bd 78 5a 92 bc a7 5c 0e bd cf 13 11 bd
       -0.03171739 -0.017865404 -0.03475633 -0.03541928
000190 ff a2 8e 3c d6 76 8e 3c 3c 2e bd bb ef d6 fa 3b
       0.017411707 0.01739065 -0.005773334 0.0076550166
0001a0 5f 03 0f 3c 0b b3 02 bd 7b 42 c5 bc a7 4b 9d 3c
       0.008728831 -0.03190903 -0.024079552 0.019201113
0001b0 35 d2 fe bc 08 33 7e 3b 7d b7 11 3d fb 66 b4 ba
       -0.031106094 0.0038787741 0.03557538 -0.0013763601
0001c0 60 86 e3 3c eb 3f 42 3c fb 15 0d 3d af 78 2b 3a
       0.027774036 0.01185606 0.03444479 0.00065411156
0001d0 52 45 ec b9 0a 65 f2 3c 5c 96 c6 3c d3 be e7 3c
       -0.00045065075 0.029589195 0.024241619 0.028289234
0001e0 2b 2c a4 3c 78 93 19 3c 7b f2 43 3b ca 3f 8b 3b
       0.020040592 0.009373538 0.0029899168 0.0042495476
0001f0 f3 17 bf 3b bb 59 ed 3a a8 21 16 3c 4f 5d ee bc
       0.0058317124 0.0018108407 0.009163298 -0.029097227
000200 93 7a 6e bc 46 4a 4c bc bd 02 d6 3c c9 0f 0f bc
       -0.014555591 -0.01246888 0.026124353 -0.008731791
000210 02 21 37 3c 3e 24 4c bc 95 82 6c 3c 6d fb f6 bc
       0.011177303 -0.012459813 0.01443543 -0.030149186
000220 55 61 c2 bb 5c 1b 86 3b 60 d8 b4 bc 7f bb cb bc
       -0.005932013 0.004092617 -0.022075832 -0.024869679
000230 25 c2 a0 3c b1 06 14 3b dd d9 55 bc 63 46 18 bb
       0.019623825 0.0022586996 -0.013052431 -0.0023235313
000240 53 4c 1e 3d 76 c1 4c bc 8a da c9 3b 83 7b f8 bc
       0.038647007 -0.012497297 0.006160085 -0.030332332
000250 95 94 20 ba 43 0f 9b 3b 1b 45 14 3c ec 2e c7 bb
       -0.0006125656 0.004732044 0.009049679 -0.0060785916
000260 96 64 b5 bc 3d 7f 37 bc 38 e3 ff 3b 2d 55 ae 3b
       -0.02214269 -0.01119977 0.007809069 0.0053202123
000270 22 52 48 3c c1 90 91 3b cf 5e 82 bc b6 1e 00 bb
       0.012226613 0.004442305 -0.015914349 -0.0019549555
000280 e5 fb cf bb bf 60 e7 bc 05 fb 66 39 cb 32 22 3c
       -0.006347167 -0.028244374 0.00022028021 0.009899805
000290 b8 c7 05 bc 84 cd 04 bc 66 6f 97 3c 19 20 31 bc
       -0.008165292 -0.008105639 0.018485736 -0.010810875
0002a0 db b8 93 3c ab 81 bf bc ef fc fc 3b 4b a8 9b 3c
       0.018032482 -0.02337726 0.0077205817 0.019001147
0002b0 97 3b bb 3c 35 d1 77 3c e5 a2 98 3c 62 be 50 bc
       0.022855563 0.015125562 0.018632362 -0.012740703
0002c0 47 87 03 3d 3a b6 d3 3c 34 53 81 3c cf 86 85 3b
       0.032111432 0.025843728 0.015786745 0.0040749083
0002d0 74 57 2c bd 07 89 75 3c 77 0b f4 39 85 4e 9b 3c
       -0.04207559 0.014986283 0.0004654785 0.01895834
0002e0 37 e5 fc bc c2 c5 7d 3b 63 7d c9 ba 09 15 bb bc
       -0.030871017 0.003872261 -0.0015372451 -0.022837179
0002f0 9d e3 a9 3b 0d e0 5d 3c 48 41 d5 3a 61 f8 91 3c
       0.0051846043 0.013542187 0.0016270066 0.017818632
000300 80 1c 47 bb 97 44 22 3c 50 c7 56 3c c5 99 d8 ba
       -0.0030381978 0.009904048 0.013109043 -0.0016525319
000310 77 b3 dd 3c eb 25 04 bc 3d 79 45 bd c4 bc a6 bc
       0.027063115 -0.008065681 -0.048211325 -0.020353682
000320 e3 eb 65 bc 25 ba c8 bc c8 51 0a 3d cf 7b 4f bc
       -0.014033291 -0.024502823 0.0337694 -0.012663796
000330 5b f7 f0 bb 91 22 29 bc 49 7a 89 bb a7 4e 23 bc
       -0.007353706 -0.010323183 -0.0041954857 -0.009967483
000340 1b d6 e2 bc f3 8d 4a 3a 7f c4 6c 3b 59 22 b6 3c
       -0.027689984 0.00077268406 0.0036127863 0.022233175
000350 69 00 ab bb 35 85 dc 3b 83 ea fc 3a 32 8d 09 3d
       -0.0052185548 0.0067297467 0.0019295964 0.03358192
000360 2e 2a 82 bb 07 05 46 ba c7 d9 06 3d de 50 c9 bc
       -0.0039723134 -0.000755385 0.032922532 -0.024574693
000370 67 65 30 bb 70 5f a9 bc e7 4b ea 3a 8f 46 06 3c
       -0.002691591 -0.020675391 0.0017875404 0.008195533
000380 2c 6c 27 3c 72 99 dd 3c 3b 4b 8a ba cb 6b 48 bc
       0.010218661 0.027050707 -0.0010550985 -0.012232731
000390 07 89 9a 3c 7b 28 01 3d ed 3c 06 bc 1b c1 e5 bc
       0.018864168 0.031532746 -0.008193237 -0.028046181
0003a0 35 43 2b bc 2c 94 0b 3d 69 4d a5 3c 10 d0 73 3c
       -0.010453035 0.034076855 0.020178514 0.014881149
0003b0 bf 3c e2 bb 9b eb 00 bc e0 c4 c4 3c 6d d1 64 bc
       -0.006904214 -0.007868673 0.024019659 -0.013965947
0003c0 ba 0b c4 3b 5a fd a7 39 6a 44 7e bc 6d 8b 87 3c
       0.005982843 0.00032041484 -0.015519241 0.016545976
0003d0 e5 ff 9f ba 08 c5 00 bc 43 b7 71 3c 4d f1 e5 bb
       -0.0012207 -0.007859476 0.014753166 -0.0070172907
0003e0 96 cc 99 39 af e7 b9 ba 4b ba 9e bc 03 9f 9f ba
       0.00029334862 -0.0014183427 -0.01937594 -0.0012178126
0003f0 fb a6 6a 3c 2d 2c a0 3a bf 28 84 3b 8b ac 02 bd
       0.014322038 0.0012220197 0.0040331776 -0.03190283

action_model._continuous_distribution.mu.bias f4 [2]
000000 00 00 00 00 00 00 00 00
       0.0 0.0

network_body._body_endoder.seq_layers.0.weight f4 [128, 6]
000000 21 de 2a bf b2 4b cb be 86 10 21 be 1c 91 1f bf
       -0.6674519 -0.39706188 -0.1572896 -0.62330794
000010 f9 35 18 be 76 db 05 be d7 b4 01 bf 3c f5 b0 3e
       -0.14864339 -0.13071999 -0.50666565 0.345621
000020 ec 41 10 3f 5d 78 d6 bd 7e 75 16 3f 8c 7e e6 3e
       0.5635059 -0.10472176 0.5877303 0.45018423
000030 ff ba 0d be b7 f0 01 3f 46 67 16 3e 92 30 f4 bd
       -0.13840865 0.50757927 0.14687833 -0.119233266
000040 e8 9e 0f 3f 08 8e 82 3e b5 d8 e7 3e 54 82 c3 bd
       0.56101847 0.25498986 0.45282522 -0.095463425
000050 8a a8 b4 3d 33 19 d8 be 1b a8 c7 bd 0f fb 29 3e
       0.08821209 -0.42206725 -0.097488604 0.16599678
000060 8c f6 4e 3e a6 fa 83 bd ea 53 02 bf 14 01 bc be
       0.20211238 -0.06444292 -0.5090929 -0.36719573
000070 5f 98 e9 be 28 4f 90 be cc fd b5 be 68 36 e9 bd
       -0.45624062 -0.2818539 -0.35545194 -0.1138733
000080 a3 80 4c be bf 05 c0 3d 27 5b 97 3e 95 aa 13 3d
       -0.19970946 0.09376096 0.2956173 0.03605135
000090 46 45 07 bf 0d b8 4a 3d 41 c0 47 be 2b ad 78 3d
       -0.5284008 0.04949193 -0.19506933 0.06071202
0000a0 b4 f4 ae be 32 f9 c0 bb 70 a9 14 be 82 68 b5 3c
       -0.3417107 -0.0058890814 -0.1451776 0.02214456
0000b0 fe 19 0a 3d af 60 35 bf a6 ff b9 3e 7d bc cd be
       0.033716194 -0.7085065 0.36327857 -0.40182868
0000c0 5e 0e 90 be 75 57 a1 bd e9 85 13 bf 8d be d8 be
       -0.2813596 -0.07878009 -0.57626206 -0.4233288
0000d0 0a f4 5c bf b3 08 33 3e 18 5a 05 be 0f fb 60 3e
       -0.86309874 0.17483787 -0.1302265 0.21970771
0000e0 25 ea a3 3c 07 eb 19 3f 08 97 a4 3d 56 f5 32 3e
       0.02000911 0.6012425 0.080366194 0.174764
0000f0 2d a0 c3 3e a8 ae 20 bf 41 06 03 3e e0 05 09 3f
       0.38208142 -0.62766504 0.12795354 0.5352459
000100 7f b8 d7 3e 3d 1c 38 3e 2f ab 06 3e aa 23 0e bf
       0.42132947 0.17979522 0.13151239 -0.5552317
000110 d5 81 1b 3f 93 74 83 3e cd a4 3f 3b 87 de 22 bf
       0.6074498 0.25674877 0.0029242516 -0.636208
000120 22 4b 83 bf 80 d1 f5 3d 33 40 ac be 5a 61 09 3f
       -1.0257304 0.120028496 -0.3364273 0.5366417
000130 f8 08 8b 3e e7 6b d5 be 98 5f 86 3e 9d 1b 44 3e
       0.2715528 -0.41683885 0.26244807 0.19151159
000140 99 49 4e 3e b9 c6 76 be 5e 54 78 bd 82 96 18 3f
       0.20145263 -0.24099244 -0.060627334 0.59604657
000150 a0 ce 99 3e 3a 34 09 bf ad 79 4c be 64 77 07 3e
       0.30040455 -0.53595316 -0.1996829 0.13229138
000160 3f e9 ab be 6c 01 0d 3f f9 dd 16 3e f1 87 03 bf
       -0.3357639 0.55080295 0.14733113 -0.51379305
000170 c2 bc 94 3e 5b 72 f3 3e 89 f5 24 be 3d 9a a0 be
       0.2905026 0.47548184 -0.16109289 -0.31367674
000180 7c b6 ba 3d e4 be 4f be dd 8d 46 3e 15 cd 3b bf
       0.091168374 -0.20287663 0.19390054 -0.73359805
000190 1a 55 0e bf 9d fb 98 3e 69 f1 ea 3e 1b 95 be 3e
       -0.55598605 0.29879466 0.45887306 0.37223133
0001a0 28 a3 9c bd 55 9f 89 3d 23 4e 63 be 59 3a d4 3e
       -0.07648307 0.06719843 -0.22197776 0.41450766
0001b0 58 51 27 be 99 a5 10 bf fc 0b c3 be 35 3f 9e be
       -0.16339624 -0.5650268 -0.3809508 -0.30907598
0001c0 a9 93 92 3d 9f c8 1c 3f 98 09 1f 3e 54 24 83 3e
       0.0715707 0.61243623 0.15531003 0.25613654
0001d0 bc 5e ad bc 3f e9 be be 97 8a 01 3f ad 1a cb bd
       -0.021163337 -0.37287328 0.50602096 -0.099171974
0001e0 2b 86 82 bf ed 4f a6 bd 71 74 9c 3c 13 07 78 be
       -1.0197195 -0.081207134 0.019098492 -0.24221449
0001f0 32 7d 55 bf c9 ad a8 3e db 9b df bd 59 de 94 3d
       -0.8339416 0.32945088 -0.10918399 0.07268972
000200 c0 58 99 bd 9b 19 a0 be a7 08 e5 be d0 42 48 3e
       -0.07487631 -0.31269535 -0.44733164 0.19556737
000210 ba cc 97 bd 97 b7 0d bf 35 d0 3f 3e 35 73 c2 bd
       -0.07412095 -0.5535826 0.18731768 -0.0949463
000220 b5 69 05 3d d5 a4 46 3f dc 91 45 3f 71 8e 3a 3f
       0.032571513 0.77595264 0.7717569 0.728736
000230 9b 9d 6f 3f 07 17 96 3c 0d 3b df 3e 04 0a 2a 3b
       0.9359986 0.018321527 0.4359974 0.0025945911
000240 9c ed 73 be 2b 6e f2 bd b0 bd 65 3e a3 70 30 be
       -0.2382111 -0.11837419 0.22435641 -0.17230467
000250 11 6c 1c bd 56 d7 a4 3e 81 b7 e7 3d 02 9d ac be
       -0.038188998 0.32195538 0.113142975 -0.33713537
000260 d2 18 4a be d7 d9 01 3f 98 f2 90 be c6 a8 06 bf
       -0.1973603 0.5072302 -0.28310084 -0.5260128
000270 d8 3e 86 3d 06 83 53 be 92 62 62 3e 08 85 27 bf
       0.06554955 -0.2065545 0.22107914 -0.65437365
000280 24 19 e1 be 20 b7 66 bf 61 6c db bb c7 c2 12 3e
       -0.43964493 -0.90123177 -0.0066962694 0.14332114
000290 23 04 97 be 98 29 14 3f 03 27 81 be 07 2c db be
       -0.29495344 0.5787597 -0.25225076 -0.42807028
0002a0 64 66 e0 3e ef e8 ef bd f9 44 4b 3e a8 da 64 3e
       0.43828118 -0.117143504 0.1985053 0.22349036
0002b0 90 a3 1a 3e e1 9a 18 3f 63 f4 7e 3e 1a 5c 1f 3e
       0.15101457 0.59611326 0.24897914 0.15562478
0002c0 0e c2 07 3e c5 76 a2 3e 18 5f 85 3c d3 8f e6 be
       0.1325762 0.3173124 0.016280696 -0.45031604
0002d0 5e 4d a0 3d 48 37 3f be e2 09 d5 be 6b fd a6 3e
       0.078272566 -0.18673432 -0.41609102 0.32615218
0002e0 ed bb 08 bf 49 8d 95 bd 23 f3 57 bd 78 1c 15 be
       -0.5341175 -0.07302339 -0.052722108 -0.14561641
0002f0 c1 79 70 be 40 7a f0 3d 54 21 33 bf 9d 28 05 3e
       -0.23483945 0.11742067 -0.6997273 0.13003774
000300 23 d1 94 3e 43 87 51 3d 57 fe 7a 3e 9f 38 8b 3e
       0.2906581 0.051154386 0.24511085 0.27191636
000310 42 4b 57 be 1e da 9a bd 0d 2f b1 3e 0b 20 e6 3e
       -0.21024802 -0.07561134 0.3460621 0.44946322
000320 6f e2 d3 3e c4 27 f2 3e f2 88 2e 3e 2a 3d 27 3f
       0.41383693 0.47295964 0.17044428 0.65327704
000330 93 0c b6 be c9 90 28 bd 6d d1 8f 3e ad 37 d4 bd
       -0.35556468 -0.041153703 0.28089467 -0.10362182
000340 b6 f8 97 be 5f 78 3c be 50 c6 30 3d be 49 b7 3e
       -0.2968194 -0.18405293 0.043157876 0.35798448
000350 89 bd 40 bf fb c5 33 be 9e 77 08 3f 8e 48 1c be
       -0.7528921 -0.17555992 0.5330752 -0.15262052
000360 91 2d 84 be 23 f8 4b bf 02 4b 23 3e b0 4a 73 be
       -0.25816014 -0.796755 0.15946582 -0.2375896
000370 44 04 c2 be fc b7 85 3d 77 d4 2e be 74 80 32 bd
       -0.3789388 0.06529233 -0.17073236 -0.043579534
000380 6b 37 0a be 25 c7 c7 3e 70 39 39 3f 0b f8 29 bd
       -0.13497703 0.39019123 0.7235327 -0.041496318
000390 d2 9c 02 3d 2d 73 bd bd 18 67 89 3e 9b d5 b5 bd
       0.031887837 -0.09250484 0.26836467 -0.08878633
0003a0 16 eb 6d 3e cc ad db bb 44 2e 96 3d 78 90 93 bd
       0.2323421 -0.006704068 0.07333043 -0.072052896
0003b0 37 98 09 be 22 4a c9 3d da d1 c5 3e df 86 ad be
       -0.13436972 0.09828593 0.38636667 -0.3389196
0003c0 b7 fb 22 bf c5 93 ba 3d a2 aa 7b be 5f 76 12 bf
       -0.63665336 0.09110216 -0.2457681 -0.5721187
0003d0 2b 5b 5b be 28 a3 11 bf 90 bd a3 bd a3 7f 3c 3e
       -0.21421497 -0.5688958 -0.079951406 0.18408065
0003e0 b6 48 70 bf f6 28 a9 bc 81 28 15 bf e9 42 b1 be
       -0.9386095 -0.020649415 -0.5826493 -0.3462136
0003f0 09 12 2b be fd ab cc be 28 b5 d6 be 56 75 26 3f
       -0.16706099 -0.39974967 -0.41935086 0.6502279

network_body._body_endoder.seq_layers.0.bias f4 [128]
000000 00 00 00 00 00 00 00 00 00 00 00 00 00 00 00 00
       0.0 0.0 0.0 0.0
000010 00 00 00 00 00 00 00 00 00 00 00 00 00 00 00 00
       0.0 0.0 0.0 0.0
000020 00 00 00 00 00 00 00 00 00 00 00 00 00 00 00 00
       0.0 0.0 0.0 0.0
000030 00 00 00 00 00 00 00 00 00 00 00 00 00 00 00 00
       0.0 0.0 0.0 0.0
000040 00 00 00 00 00 00 00 00 00 00 00 00 00 00 00 00
       0.0 0.0 0.0 0.0
000050 00 00 00 00 00 00 00 00 00 00 00 00 00 00 00 00
       0.0 0.0 0.0 0.0
000060 00 00 00 00 00 00 00 00 00 00 00 00 00 00 00 00
       0.0 0.0 0.0 0.0
000070 00 00 00 00 00 00 00 00 00 00 00 00 00 00 00 00
       0.0 0.0 0.0 0.0
000080 00 00 00 00 00 00 00 00 00 00 00 00 00 00 00 00
       0.0 0.0 0.0 0.0
000090 00 00 00 00 00 00 00 00 00 00 00 00 00 00 00 00
       0.0 0.0 0.0 0.0
0000a0 00 00 00 00 00 00 00 00 00 00 00 00 00 00 00 00
       0.0 0.0 0.0 0.0
0000b0 00 00 00 00 00 00 00 00 00 00 00 00 00 00 00 00
       0.0 0.0 0.0 0.0
0000c0 00 00 00 00 00 00 00 00 00 00 00 00 00 00 00 00
       0.0 0.0 0.0 0.0
0000d0 00 00 00 00 00 00 00 00 00 00 00 00 00 00 00 00
       0.0 0.0 0.0 0.0
0000e0 00 00 00 00 00 00 00 00 00 00 00 00 00 00 00 00
       0.0 0.0 0.0 0.0
0000f0 00 00 00 00 00 00 00 00 00 00 00 00 00 00 00 00
       0.0 0.0 0.0 0.0
000100 00 00 00 00 00 00 00 00 00 00 00 00 00 00 00 00
       0.0 0.0 0.0 0.0
000110 00 00 00 00 00 00 00 00 00 00 00 00 00 00 00 00
       0.0 0.0 0.0 0.0
000120 00 00 00 00 00 00 00 00 00 00 00 00 00 00 00 00
       0.0 0.0 0.0 0.0
000130 00 00 00 00 00 00 00 00 00 00 00 00 00 00 00 00
       0.0 0.0 0.0 0.0
000140 00 00 00 00 00 00 00 00 00 00 00 00 00 00 00 00
       0.0 0.0 0.0 0.0
000150 00 00 00 00 00 00 00 00 00 00 00 00 00 00 00 00
       0.0 0.0 0.0 0.0
000160 00 00 00 00 00 00 00 00 00 00 00 00 00 00 00 00
       0.0 0.0 0.0 0.0
000170 00 00 00 00 00 00 00 00 00 00 00 00 00 00 00 00
       0.0 0.0 0.0 0.0
000180 00 00 00 00 00 00 00 00 00 00 00 00 00 00 00 00
       0.0 0.0 0.0 0.0
000190 00 00 00 00 00 00 00 00 00 00 00 00 00 00 00 00
       0.0 0.0 0.0 0.0
0001a0 00 00 00 00 00 00 00 00 00 00 00 00 00 00 00 00
       0.0 0.0 0.0 0.0
0001b0 00 00 00 00 00 00 00 00 00 00 00 00 00 00 00 00
       0.0 0.0 0.0 0.0
0001c0 00 00 00 00 00 00 00 00 00 00 00 00 00 00 00 00
       0.0 0.0 0.0 0.0
0001d0 00 00 00 00 00 00 00 00 00 00 00 00 00 00 00 00
       0.0 0.0 0.0 0.0
0001e0 00 00 00 00 00 00 00 00 00 00 00 00 00 00 00 00
       0.0 0.0 0.0 0.0
0001f0 00 00 00 00 00 00 00 00 00 00 00 00 00 00 00 00
       0.0 0.0 0.0 0.0

network_body._body_endoder.seq_layers.2.weight f4 [128, 128]
000000 fd b0 7b bd 02 27 e2 3d f4 e1 a8 3d 1c 79 bf bc
       -0.061448086 0.110425964 0.08246222 -0.02337318
000010 f2 1c da 3d 6b 87 7e 3d 43 9b 26 3d d0 2d dd bd
       0.10650052 0.062140863 0.040675413 -0.10799754
000020 62 0f 58 bd 88 a3 68 bd 36 96 14 3c b1 1e b3 3d
       -0.052749045 -0.05679658 0.009069016 0.08746088
000030 ed 21 1a be 6b c1 3a be 31 4c dd bd 90 5c 81 bd
       -0.15052004 -0.18237846 -0.10805548 -0.06316483
000040 c8 54 b9 bc 4a 67 96 3d ad b2 4a 3d 1e 65 1a bd
       -0.022623435 0.073439196 0.049486805 -0.03769409
000050 f2 98 47 bd 5b 53 6f 3d 50 95 2b bc 9c 15 99 3d
       -0.048729844 0.058429103 -0.010472611 0.07474825
000060 4b be c4 3d 46 2b 61 3d 3f 38 0b bd 0d 56 36 3d
       0.09606608 0.05497291 -0.033989187 0.04451566
000070 9e aa 84 bc fc 71 38 bd 27 03 0b bd b2 9b d7 3b
       -0.016194638 -0.04503058 -0.033938553 0.0065798396
000080 22 35 3b 3d 6d 59 ad bd 26 52 05 3e c9 4b 0c bd
       0.04570497 -0.08464322 0.13019618 -0.03425196
000090 7b 25 18 bd d3 67 1c bd 49 b5 fa 3d be db 8d bd
       -0.03714512 -0.038184952 0.12241609 -0.06926678
0000a0 27 33 84 3d 39 65 2c 3d d6 a5 95 3d 38 f7 63 bc
       0.06455069 0.04208872 0.07307021 -0.013913922
0000b0 c9 24 a7 3d 0b c4 0a bd 09 7a eb 3d 61 be 52 be
       0.08161313 -0.033878367 0.11497886 -0.20580436
0000c0 d7 15 fe 3d 2b 60 65 3d d2 63 31 bd f9 8a 59 bc
       0.12406509 0.055999916 -0.043308087 -0.013277763
0000d0 f2 f7 49 bd 64 2b a6 3d a0 c5 ba bd d8 0a bb bd
       -0.049308725 0.08113745 -0.09119725 -0.09132928
0000e0 af 7e 2a bd d2 c4 62 bd aa 57 44 3d 6f ba 65 3d
       -0.04162472 -0.055363484 0.047935165 0.056086
0000f0 b1 19 35 be 35 24 c0 3b 35 4d 58 be 5d 99 c6 bc
       -0.17685582 0.005863691 -0.21123202 -0.024243051
000100 33 92 1a 3d e0 cb 4e bd 35 9c 48 bd 6b b8 3e 3d
       0.037737083 -0.0504874 -0.048977096 0.046562593
000110 02 62 22 be 84 d4 14 3d 79 bc 2b 3d 57 1e 32 3d
       -0.158577 0.036335483 0.04192779 0.043485966
000120 77 fc 63 bc c5 9c 7d bd ea fd 45 bc 69 7f 4c bd
       -0.013915173 -0.061917085 -0.012084464 -0.049926195
000130 ca 28 d3 3c d5 47 1f 3e 4b 74 3e bd 8c 80 a1 3d
       0.025776286 0.15554745 -0.046497624 0.078858465
000140 a5 f9 0a bc 4b 4a c6 bd 91 e9 b2 bc 2c 33 14 bd
       -0.008482371 -0.09682139 -0.021839889 -0.036181614
000150 9a 5f 31 3c 15 46 fc bb b5 3d 00 bd 03 c2 13 be
       0.010826016 -0.007698784 -0.03130885 -0.14429478
000160 91 3f 08 be 2e bf 68 3e c1 7e dc 3d 81 08 3e 3e
       -0.13305499 0.2272918 0.10766364 0.18557931
000170 a9 f8 65 bd f3 73 0c be 4b 07 cd bd 06 81 e0 bd
       -0.056145344 -0.13716106 -0.10011157 -0.10962109
000180 bd 6d 45 3d 64 ed 75 3d f3 70 11 bd 19 9d fd 3c
       0.048200358 0.060040846 -0.035508107 0.030958699
000190 4a 93 f6 3b 4f 4e 04 3d 83 6b 59 bd d9 e1 07 3e
       0.0075248824 0.032301243 -0.053081047 0.13269748
0001a0 9f 86 67 3d 4e b7 05 bd 2b 29 ce 3b 8a b4 e1 3d
       0.05652487 -0.032645516 0.0062915287 0.11020763
0001b0 86 63 d8 bd 79 d1 5b 3d e9 45 65 bd cf 11 aa 3d
       -0.105658576 0.053666566 -0.055974875 0.08304178
0001c0 51 ee cd 3d a4 e4 89 bd ec d9 e3 3c 87 e3 ba 3b
       0.10055221 -0.06733063 0.027813874 0.005703393
0001d0 c5 e6 96 bc 43 f3 de bd db 5f 58 bd de 5c b6 3d
       -0.018420586 -0.10886242 -0.05282579 0.08904432
0001e0 9d dd 4e bd 72 46 0a be 6f 45 c2 bb 90 9e 07 3e
       -0.050504316 -0.13503435 -0.0059286873 0.1324408
0001f0 a8 77 9b 3d 06 3b 8a 3c e0 ac 43 bc d4 45 74 bd
       0.07591182 0.016873848 -0.011943072 -0.059636906
000200 00 a3 9f bc 00 19 08 3e 79 be 66 bd d5 5a 0e 3e
       -0.019486904 0.13290787 -0.056333993 0.13901837
000210 fb 19 02 be 7c 69 36 3d 5b eb 26 be ad 5f 8b bb
       -0.12705223 0.04453419 -0.16300718 -0.004253349
000220 7f 3e 1d bd 8c 0b ab bd 8d da 9e bd cd f4 c9 bd
       -0.03838968 -0.08351812 -0.07756529 -0.09861145
000230 e5 b3 10 bd 8a 19 fc 3d e6 cb eb bd 74 15 1d bd
       -0.03532781 0.12309559 -0.115135 -0.038350537
000240 64 bd 98 3c 14 f8 2c 3e 43 88 59 3d 6e b1 9d 3c
       0.018644996 0.1689151 0.053108465 0.019249644
000250 ea 32 2f 3c 8d c4 18 bd 94 0f 06 bd f8 50 22 bd
       0.010693291 -0.03729682 -0.0327297 -0.039628
000260 a4 9d 52 3d fc 63 36 3d 22 7b 63 bd 2c 15 e6 bd
       0.05141987 0.044528946 -0.05553735 -0.11234507
000270 a0 51 8d bd 08 e3 e2 3d f6 21 ea 3d 01 0b f9 bc
       -0.06900334 0.11078459 0.11432259 -0.030400755
000280 b1 cf b0 bd 73 8d 3b 3c 33 4a 92 3d 01 73 91 bc
       -0.08633364 0.011447298 0.07143059 -0.017755033
000290 ce bc 3c bd 60 25 0d 3c 9c 33 af bc 57 e1 d9 bd
       -0.046078496 0.008614868 -0.021386914 -0.10638683
0002a0 02 cc 01 3e fe 3f 86 bd d9 c7 19 3e 4a 73 c1 3c
       0.12675479 -0.06555174 0.15017642 0.023614544
0002b0 c0 6c 1f be 86 80 cd bd 52 da b2 bd 56 42 34 3e
       -0.15568829 -0.100342795 -0.087330475 0.1760343
0002c0 6f ca 31 bd bc 95 f2 bc ba 96 d0 3d 3d c7 72 bc
       -0.043405946 -0.029612415 0.10184999 -0.01481801
0002d0 16 85 bf 3d a6 23 cd 3d ee b3 1d bd 43 f1 f4 bd
       0.09351556 0.10016565 -0.038501672 -0.119600795
0002e0 64 f1 00 be d0 38 bc bd 48 a5 d1 bb b3 53 f6 bb
       -0.12592083 -0.091905236 -0.006397877 -0.007517302
0002f0 cd 2b b1 bd fd 31 06 be e5 7c 96 bd 85 4d 9f 3d
       -0.086509325 -0.13105007 -0.073480405 0.077784576
000300 35 21 a6 bc cc 78 02 3e 88 56 30 3e 07 c9 6a bd
       -0.020279506 0.12741393 0.17220509 -0.05732062
000310 24 f4 1d bc f9 1f 49 3d a6 a5 8b 3d 21 51 8a bd
       -0.009640727 0.049102757 0.06818704 -0.06753755
000320 fe 6d 2d 3e a9 cf 13 be aa 49 17 3e 43 ef bc bc
       0.1693649 -0.14434685 0.14774194 -0.023063308
000330 73 68 c2 bb dd 06 ec bd 03 a5 01 bd be 0b 66 bd
       -0.0059328615 -0.115247466 -0.031651508 -0.056163542
000340 0c bc 02 be b8 c2 18 be b1 e2 05 3e a0 42 06 3e
       -0.12767047 -0.1491803 0.13074757 0.13111353
000350 1f 2d 5b bd 82 7b a4 bd 28 f3 a9 3d f7 87 38 3c
       -0.053509828 -0.0803137 0.082983315 0.011262885
000360 8c 90 c1 3d 03 40 fe 3c 3a db 75 3d e3 ba 8f 3d
       0.09451398 0.031036383 0.060023524 0.07018068
000370 db 16 3c 3d e6 27 0d bd c0 b8 be bd 69 2a 34 bd
       0.045920234 -0.03446188 -0.09312582 -0.043985758
000380 4f 0a c7 bc 9d cd 0e bc a6 28 e3 bc 85 2c a9 3c
       -0.024296908 -0.008716014 -0.027729344 0.020651111
000390 15 a4 8e bc 3a 97 da 3d 48 c7 03 be 39 c5 a8 3d
       -0.017412225 0.106733754 -0.12868989 0.08240742
0003a0 78 1f 94 bd bf fe 07 3e a0 e6 26 bc 68 85 f4 bc
       -0.07232565 0.13280772 -0.010186821 -0.02984877
0003b0 d0 c4 88 3b 48 e2 f3 bd 4c 3e f6 3c 14 d5 50 bd
       0.0041738525 -0.11908394 0.030059002 -0.050984457
0003c0 88 0f aa bc 7f 67 55 bd 9c 67 cb 3d 29 6f 3f be
       -0.020759359 -0.052100655 0.09931871 -0.18694748
0003d0 8a ee d0 3d 4a 5b b6 3d 5f 4c 31 be 12 4f a7 bd
       0.10201748 0.08904131 -0.1731429 -0.08169378
0003e0 cb de cc bb 16 48 80 3d db de 1d 3d d1 bc 9a 3c
       -0.006252145 0.06263749 0.03854261 0.018888863
0003f0 15 8b d2 3d e8 d0 e8 3d de b7 79 3d f5 38 9c bd
       0.10280434 0.11367971 0.060966365 -0.07628051

network_body._body_endoder.seq_layers.2.bias f4 [128]
000000 00 00 00 00 00 00 00 00 00 00 00 00 00 00 00 00
       0.0 0.0 0.0 0.0
000010 00 00 00 00 00 00 00 00 00 00 00 00 00 00 00 00
       0.0 0.0 0.0 0.0
000020 00 00 00 00 00 00 00 00 00 00 00 00 00 00 00 00
       0.0 0.0 0.0 0.0
000030 00 00 00 00 00 00 00 00 00 00 00 00 00 00 00 00
       0.0 0.0 0.0 0.0
000040 00 00 00 00 00 00 00 00 00 00 00 00 00 00 00 00
       0.0 0.0 0.0 0.0
000050 00 00 00 00 00 00 00 00 00 00 00 00 00 00 00 00
       0.0 0.0 0.0 0.0
000060 00 00 00 00 00 00 00 00 00 00 00 00 00 00 00 00
       0.0 0.0 0.0 0.0
000070 00 00 00 00 00 00 00 00 00 00 00 00 00 00 00 00
       0.0 0.0 0.0 0.0
000080 00 00 00 00 00 00 00 00 00 00 00 00 00 00 00 00
       0.0 0.0 0.0 0.0
000090 00 00 00 00 00 00 00 00 00 00 00 00 00 00 00 00
       0.0 0.0 0.0 0.0
0000a0 00 00 00 00 00 00 00 00 00 00 00 00 00 00 00 00
       0.0 0.0 0.0 0.0
0000b0 00 00 00 00 00 00 00 00 00 00 00 00 00 00 00 00
       0.0 0.0 0.0 0.0
0000c0 00 00 00 00 00 00 00 00 00 00 00 00 00 00 00 00
       0.0 0.0 0.0 0.0
0000d0 00 00 00 00 00 00 00 00 00 00 00 00 00 00 00 00
       0.0 0.0 0.0 0.0
0000e0 00 00 00 00 00 00 00 00 00 00 00 00 00 00 00 00
       0.0 0.0 0.0 0.0
0000f0 00 00 00 00 00 00 00 00 00 00 00 00 00 00 00 00
       0.0 0.0 0.0 0.0
000100 00 00 00 00 00 00 00 00 00 00 00 00 00 00 00 00
       0.0 0.0 0.0 0.0
000110 00 00 00 00 00 00 00 00 00 00 00 00 00 00 00 00
       0.0 0.0 0.0 0.0
000120 00 00 00 00 00 00 00 00 00 00 00 00 00 00 00 00
       0.0 0.0 0.0 0.0
000130 00 00 00 00 00 00 00 00 00 00 00 00 00 00 00 00
       0.0 0.0 0.0 0.0
000140 00 00 00 00 00 00 00 00 00 00 00 00 00 00 00 00
       0.0 0.0 0.0 0.0
000150 00 00 00 00 00 00 00 00 00 00 00 00 00 00 00 00
       0.0 0.0 0.0 0.0
000160 00 00 00 00 00 00 00 00 00 00 00 00 00 00 00 00
       0.0 0.0 0.0 0.0
000170 00 00 00 00 00 00 00 00 00 00 00 00 00 00 00 00
       0.0 0.0 0.0 0.0
000180 00 00 00 00 00 00 00 00 00 00 00 00 00 00 00 00
       0.0 0.0 0.0 0.0
000190 00 00 00 00 00 00 00 00 00 00 00 00 00 00 00 00
       0.0 0.0 0.0 0.0
0001a0 00 00 00 00 00 00 00 00 00 00 00 00 00 00 00 00
       0.0 0.0 0.0 0.0
0001b0 00 00 00 00 00 00 00 00 00 00 00 00 00 00 00 00
       0.0 0.0 0.0 0.0
0001c0 00 00 00 00 00 00 00 00 00 00 00 00 00 00 00 00
       0.0 0.0 0.0 0.0
0001d0 00 00 00 00 00 00 00 00 00 00 00 00 00 00 00 00
       0.0 0.0 0.0 0.0
0001e0 00 00 00 00 00 00 00 00 00 00 00 00 00 00 00 00
       0.0 0.0 0.0 0.0
0001f0 00 00 00 00 00 00 00 00 00 00 00 00 00 00 00 00
       0.0 0.0 0.0 0.0

value_heads.value_heads.extrinsic.weight f4 [1, 128]
000000 cf d1 88 3b b5 08 45 bd ec 19 d5 bd 8f 17 4d be
       0.0041754018 -0.048104007 -0.10405335 -0.20028518
000010 e5 da 80 3d c4 65 87 3d aa a3 52 be 8b 55 8e bd
       0.06291751 0.06611207 -0.20570245 -0.0694991
000020 c2 72 95 3d 9f 1b 55 ba 7f af f3 3d ba 77 a6 3c
       0.07297279 -0.0008129421 0.118987076 0.020320762
000030 ee c7 ce 3d 5a 09 d6 bd 3a f4 4d be 1c da 09 3d
       0.10096727 -0.104510024 -0.20112696 0.03365527
000040 28 3e 58 be fc 7c de bd c1 b1 2d 3e a7 32 12 bd
       -0.2111746 -0.10863683 0.16962339 -0.035692837
000050 f3 c2 90 bd 36 7d 3c bd cc be d9 bd 0c ac 17 3e
       -0.070684336 -0.046017848 -0.10632095 0.14811724
000060 bf 61 5b be 65 a3 9f 3d c5 c8 34 3e e7 9f 3a bc
       -0.21424006 0.07794837 0.17654712 -0.011390663
000070 4a 52 36 be 90 59 b3 3d fb 02 2a be d3 49 44 3e
       -0.17804828 0.08757317 -0.166027 0.19168787
000080 75 d0 c3 bd 5c 87 eb bd 7f d3 4a be 6c 50 43 be
       -0.095612444 -0.11500427 -0.19807242 -0.19073647
000090 0f 3c 69 3d ba 24 33 be 41 6d 21 be 85 e1 2a be
       0.056942042 -0.17494479 -0.15764333 -0.16687591
0000a0 ad 73 04 be 7a 44 ee bd 5b ea 87 bd 18 9d 57 be
       -0.12934752 -0.116341546 -0.06636497 -0.2105602
0000b0 88 f5 9d bc 57 24 f8 3c 67 c9 0d 3e d2 b4 2d bd
       -0.019282117 0.030290766 0.1384636 -0.04240877
0000c0 8a fa e5 3b 75 65 31 be 2c c3 3c be 17 f8 08 bd
       0.007018392 -0.17323859 -0.18433827 -0.033439722
0000d0 d8 d0 8d bd 2e ab 1c 3e bf ac 06 be 0d fc 16 be
       -0.069245994 0.15299675 -0.13151835 -0.14744587
0000e0 66 4d 52 be ad 18 59 3e 2c 99 9b 3d a8 ff 87 bd
       -0.20537338 0.2120082 0.075975746 -0.066405594
0000f0 01 14 17 3e 09 0c 17 be 61 de 3d 3e 94 84 1d be
       0.14753725 -0.14750685 0.18541862 -0.15382606
000100 2f 07 e0 3c 19 2e 8f 3d bc 20 4c 3c a2 e1 ef 3c
       0.027347175 0.06991214 0.012458976 0.029282395
000110 64 cf 08 be fd b3 3f 3b 6a f6 00 3e d0 55 ef 3d
       -0.13360363 0.0029251568 0.12594 0.11686289
000120 54 ac 43 3e 53 6f 4d be 7a 01 12 3e d7 47 af bd
       0.19108707 -0.20061998 0.14258376 -0.08558624
000130 ac 17 37 3d 81 92 f0 bd ca a7 47 be b5 12 b5 3d
       0.04470031 -0.117466934 -0.194976 0.08841459
000140 eb ea fa 3d 30 06 3d 3e 89 3b 2c 3e b2 fe 2e 3d
       0.12251838 0.18459392 0.16819586 0.042723365
000150 64 c3 52 be d6 be 03 be a7 4a da 3d 6b 1b 43 be
       -0.20582348 -0.12865767 0.1065877 -0.19053428
000160 04 3c 0d be 6b 37 d3 bd 94 44 82 3b 3a 1f 0f 3e
       -0.13792425 -0.103133045 0.0039754603 0.13976756
000170 4d fc 4a be 99 1f dd bc ba 1d 34 bc 8d 9c e7 3c
       -0.19822808 -0.026992606 -0.0109934155 0.028272891
000180 47 c5 5a 3e bf 6a 24 3e 0a e9 0a bd 8a f8 2e be
       0.21364318 0.16056345 -0.03391365 -0.17086998
000190 0c 50 fd bd 80 17 03 3c 1d 97 19 3e 27 29 fe 3d
       -0.12368783 0.008001208 0.14999051 0.12410193
0001a0 72 3e 90 bc 5f dd 8e bd 28 df de 3d 7f 62 15 3e
       -0.017607901 -0.06975817 0.108824074 0.14588355
0001b0 b0 d4 c5 3d 04 65 40 3e 1d 51 e9 3d b5 06 21 be
       0.096597075 0.18788534 0.11392424 -0.15725215
0001c0 51 00 f2 3d 0b 2a 81 3d f7 44 d7 3d 00 40 1f bd
       0.118164666 0.06306847 0.10511201 -0.038879395
0001d0 65 39 9a 3d 00 e4 cd 3d db 8e 21 3d ed 87 4f 3e
       0.075304784 0.10053253 0.03944288 0.20266695
0001e0 5f 1b de bd b5 1d c5 bd 9a 84 1e 3c 7c 0d 53 3e
       -0.10845064 -0.09624807 0.009675169 0.20610613
0001f0 a5 2a 08 3e 58 30 e5 bd 84 70 b1 3d 96 cd a4 3d
       0.13297518 -0.111908615 0.08664039 0.08047025
