CubeTest/results/ppo/MoveToGoal/MoveToGoal-500039.onnx (onnx, 72461 bytes, 7 tensors)

action_model._continuous_distribution.log_sigma f4 [1, 2]
00000000: ec72 27be 9f56 05be
-0.16352433 -0.13021325

action_model._continuous_distribution.mu.bias f4 [2]
00000000: 6224 f2bb 52d1 95bb
-0.007389591 -0.004572072

action_model._continuous_distribution.mu.weight f4 [2, 128]
00000000: 72b7 3d3d 87db 99bd f744 5dbd d1da e43c
00000010: 7dbf 473c 2c4d c03d 4930 a23c daf1 2c3d
00000020: a3f6 193d 592e 08bd 3a01 f33c 8f68 d03c
00000030: dbce 2ebd 2e65 96bc 4f36 dcbc 0a51 873d
00000040: a389 95bd 73c8 843b 4429 063d 6036 f33c
00000050: 7d00 93bd 3a8b 64bd 2fbc abbd 003e 923d
00000060: 071a e83b 60bc a63c e76f 303d ed3e 813d
00000070: 6f3d 89bc f998 9fbd 4982 89bd e2a1 e13c
00000080: 83e1 cd3d d3b3 c43c 5088 213c 4a4f 323d
00000090: c9a0 9b3d a067 d13d dd54 ba3d 925e 623d
000000a0: 1185 793d d8f7 673d 5074 8abb 59b5 983d
000000b0: bc16 1fbb 6ac3 b23d c3b7 7dbd d63f 71bd
000000c0: 31b3 9d3d 8f45 47bd 0449 5dbc c990 3c3c
000000d0: 49fc 0bbb c5e8 1c3d 910f 733b 0bbb ba3c
000000e0: 07a5 b03c ab39 90bc 2e5a 2fbd be15 363c
000000f0: 4440 2dbd d631 4a3d 2110 34bd 3ab0 983c
00000100: 1961 943c 0ac7 08bd 2a89 003d ee43 873d
00000110: 4cbe d93c 3cdd a5bc db60 cebd 21d7 08be
00000120: e92f 143d 3991 d1bc e200 b93c 0400 8cbd
00000130: 2acf 88bd 5052 34bd 0208 d3bc 7ef1 9ebc
00000140: c2e2 04bc 333c adbd a1ad 843d 5815 2cbd
00000150: 39b3 49bd 3274 763d cba5 283d 00ed 423b
00000160: b18e 933d 8156 43bd 79ae 40bd 7e5c 4b3d
00000170: dc1d e13c 1171 a33d 5f51 963d a017 7b3c
00000180: 0a2e c33d e338 ea3c 13f3 a5bd 65a3 443d
00000190: ebd5 27bd 793f d43c 87f4 7a3d 1bea 93bd
000001a0: b05a febc 12f3 a13b 8215 053d 2a26 d23c
000001b0: 9710 03be f130 383d 07d5 7a3d 7c41 2fbd
000001c0: 510b 14bd e51f 1c3b 09f1 6f3d 1953 e73b
000001d0: 7f00 b1bd 108b be3c 9c7c 8d3d 6d53 83bd
000001e0: ed44 9b3d a3ce 3a3d fb8a a1bd db27 563d
000001f0: 7db9 333d b92e 233b 9297 4fbd 4026 39bd
00000200: 2046 08bd ba90 aebc 1524 08bd b015 00bc
00000210: 8456 b33d f717 dd3c 2dab a7bc 42c8 863c
00000220: ad6c f3bb 1770 0d3d eb51 143d 85a4 8cbc
00000230: eac2 4f3d 3604 073c 3025 b4bc be2c 903d
00000240: b250 2bbd e3a0 cd3c bbad fcbb 38db 64bd
00000250: e2c7 853d 5e5e 4dbd 0cd3 8d3d 2b6c 733d
00000260: e0d5 cb3c 21ed 9a3d 8f31 04bd 73b6 013c
00000270: f0a8 e8bd 318a 20bc 09dd 94bd 611d 2abd
00000280: a457 9b3c 1f3c e63c 0b3b 95bc b4ea 64bc
00000290: ba1d 8e3d fa17 dc3b 319b 143d 0adf 723c
000002a0: d9cd d539 f123 e9bc 6d8a b9ba cdc7 843d
000002b0: 51d8 313d 6339 c9bc bb9f 8fbd 3864 323d
000002c0: a283 163d 672c d4bc 6b0e cf3d f137 1bbd
000002d0: 4a2b 86bd 5c40 a2bd 9e03 52bd 4cf3 953d
000002e0: 96cc adbc 9f52 b6bd 602b 2ebd b68f 04bd
000002f0: 4849 fc3c 0b7b 463d c9cd 993d a6b5 853d
00000300: 7a11 29bd 3bab abbc 1716 bd3c 27a0 d6bb
00000310: 1d4a 0d3b 487a 223c 5384 9e3c e91e 28bd
00000320: b5d8 7f3b bd8c b9bd 91ad 683d b010 2e3c
00000330: d8d1 56bd effa 2dbd 8362 76bc 8867 233d
00000340: bbe3 08bd 6090 83bb e614 173d 5337 13bd
00000350: 3198 693d d67b 20bd 8ad4 893b 831d a73d
00000360: e158 b4bc f249 4fbd 9a00 b53d 2d14 8e3c
00000370: 6c39 943b ca04 473d b415 12bd edb0 e13c
00000380: 8ef2 54bd 5bf0 aabb 9800 483d dc1d 84bd
00000390: a789 8cbd b1c4 24bd 94ab 423d fa9e 0b3d
000003a0: af39 403c 2cb9 563d 11d7 39bd cd48 6ebd
000003b0: 65c8 d73c 2624 153c 2bf9 8d3c c3ce 46bd
000003c0: ffd6 873d 8c67 d43d ec0f ce3b f26c 253b
000003d0: 19e6 563d 7195 33bd 4ff4 49bc 5b45 743d
000003e0: db28 51bd 046c 533a 1913 493c ab9c ceba
000003f0: f0ba a93c 393b c13c d72a 98b8 2d74 e13c
0.046317525 -0.07512575 -0.054020848 0.027936371 0.01219165 0.09389719 0.019798415 0.042222835
0.037588727 -0.033247326 0.02966367 0.025440482 -0.04267774 -0.018358793 -0.026881365 0.06607254
-0.07301643 0.0040522157 0.032754198 0.029689014 -0.071778275 -0.05579684 -0.083855025 0.07140732
0.007083181 0.020353496 0.04307547 0.0631083 -0.016752927 -0.07792849 -0.06714303 0.027543012
0.100527786 0.024011528 0.00985916 0.043532647 0.07599027 0.10224843 0.09098218 0.05526597
0.060917918 0.056632847 -0.0042252913 0.07456464 -0.0024275025 0.087286785 -0.061942827 -0.05889877
0.07700194 -0.04865032 -0.013506178 0.011509129 -0.002136009 0.038307924 0.0037088136 0.022794267
0.021563066 -0.017605623 -0.04281061 0.011113582 -0.042297617 0.049363934 -0.043960694 0.018638719
0.018112706 -0.033392943 0.03138081 0.066047534 0.026579998 -0.020247094 -0.100770675 -0.13363315
0.036178503 -0.025581943 0.022583429 -0.068359405 -0.066801384 -0.04402381 -0.025760654 -0.019402262
-0.008110704 -0.08458748 0.064784296 -0.042012542 -0.049243186 0.060169406 0.041173737 0.0029743314
0.072049506 -0.04768992 -0.04704139 0.049648754 0.027480058 0.0798055 0.07339739 0.015325457
0.09530266 0.028591579 -0.08103003 0.048007388 -0.040975492 0.025909172 0.061268356 -0.072223864
-0.031049103 0.0049423063 0.032491215 0.025652964 -0.12799297 0.04496855 0.061238315 -0.04278706
-0.036143605 0.0023822722 0.05857948 0.0070594666 -0.08642673 0.02325967 0.06908533 -0.064123966
0.07581506 0.04560722 -0.078878365 0.052284103 0.043878067 0.0024899675 -0.050681658 -0.045202494
-0.03327 -0.021309245 -0.033237536 -0.007817671 0.08756736 0.026988966 -0.020467365 0.016452912
-0.0074287266 0.034530725 0.036210936 -0.017168293 0.050722994 0.00824075 -0.021990389 0.07039784
-0.041825004 0.02510113 -0.00771114 -0.055873126 0.06532265 -0.050138824 0.069250196 0.05942933
0.024882257 0.0756476 -0.032273825 0.007917034 -0.11360347 -0.009798572 -0.072687216 -0.041531924
0.018962689 0.02810484 -0.01821663 -0.013971973 0.06939264 0.0067167254 0.036280815 0.0148236845
0.00040779894 -0.028459521 -0.0014155634 0.064834215 0.043419186 -0.024563497 -0.07012888 0.043552607
0.03674663 -0.025900079 0.10110172 -0.037895147 -0.065512255 -0.07922432 -0.05127298 0.07321796
-0.021215718 -0.089024775 -0.042521834 -0.032363616 0.030796662 0.048457187 0.075099535 0.06528787
-0.041276433 -0.020955672 0.023081822 -0.0065498534 0.0021559068 0.009916849 0.019350206 -0.041045103
0.003903908 -0.09060047 0.05680615 0.010624096 -0.052446216 -0.042475637 -0.015038135 0.039893657
-0.033420306 -0.0040150136 0.036885165 -0.035941433 0.057029907 -0.0391806 0.004206245 0.08159926
-0.022015037 -0.05060763 0.08838005 0.017343605 0.004523447 0.04858855 -0.03566523 0.027550185
-0.05198913 -0.005216641 0.04882869 -0.06451008 -0.068621926 -0.040226642 0.04752691 0.03408716
0.011732503 0.052422687 -0.04537112 -0.058174897 0.026340673 0.009102857 0.017330727 -0.048537027
0.06632804 0.103713125 0.006288519 0.0025241938 0.052465532 -0.04384369 -0.012326314 0.059636455
-0.051064353 0.0008065107 0.01227262 -0.0015763243 0.020719022 0.02358781 -7.255904e-05 0.027521217

network_body._body_endoder.seq_layers.0.bias f4 [128]
00000000: de1c 1fbb a5ee 963d 16bc 9e3c 48ca dc3d
00000010: e66c 453c 26bc 9a3c 5d1e 133d 2356 d53d
00000020: 78f6 eb3c a600 f23c 650b ab3c afc7 1b3d
00000030: 396c 0e3d 6e06 3f3d 6737 023d 3afb 9abd
00000040: 258f 683c 7bb1 bc3c e03f a73c 1205 11bc
00000050: bdab b43c 51a9 dbbc d029 e9bc d3a2 dd3c
00000060: 2b39 17bc a556 8bbd 6575 cabc 5834 e83c
00000070: 6262 b8bc 7916 853c 811a 5a3c a37a 3c3c
00000080: 7970 523c 4ef8 cfbc b7c5 8abd d96e 15bc
00000090: 7db8 c8bc bebe 2a3c 9e0b 03bb a20c 8a3c
000000a0: 9733 bc3a 579b 373d 736d 973b 17d4 e93b
000000b0: 54ac 41bc 8edb 8b3c 03f2 8e3c 4f1b 31ba
000000c0: ca18 4bb9 8e2d d7bc 0469 033d 8731 c1bb
000000d0: ce17 fe3c a99d 5c3c 86e8 4a3c 07f8 2b3c
000000e0: 78f1 173c 5d26 fe3d 6b6f 883c eed9 b43c
000000f0: 11a5 473c 8972 45bc e9d0 fe3c 8e4a 0fbd
00000100: af61 603c bd62 6a3c fc50 e43c cede 3dbb
00000110: d191 df3b 411e a73d 7d2d 203d 6ca9 4d3d
00000120: b515 4aba 2aef 2c3d 86ad c83c 48c7 0c3d
00000130: 9372 a23c 163b 8c3c 5946 ab3c 80ff 823c
00000140: ba3b a83d a5d1 72bc 98a5 023d 728a 723a
00000150: 2594 6a3c bed6 c43c dd04 513d 86f5 2cbd
00000160: 0430 483c 5121 503c bb1e 013d d6f1 093d
00000170: 166d 283c 1073 0a3d 3e0c a53d 634c 573b
00000180: 4a41 91bb 9658 753c f493 553d 5dbd 0d3d
00000190: 2a03 a03d cabb 60bb 5215 e8bb f175 033d
000001a0: 29ed 83bc 5989 6cbd 62f3 633a 67ab 51bb
000001b0: 8097 c1bc 082f 7bbc 9a06 153c 4d51 62bc
000001c0: 085b 93bd aaca 843d cc4f 453c 2fb1 8a3c
000001d0: 2c45 9b3d 935c 9b3c c5d9 053c 0e4d 373d
000001e0: 4413 b63c d8e7 203d 1434 2ebc 5fde 633c
000001f0: 764d 66bc 0943 ec3c fe7b e03c aa01 52bc
-0.002427868 0.073697366 0.019376796 0.107807696 0.012049889 0.018888544 0.03591763 0.1041682
0.028804049 0.029541325 0.020879457 0.03803223 0.034771178 0.04663699 0.031791117 -0.07567449
0.014194285 0.023033848 0.0204162 -0.0088513065 0.022054547 -0.026814135 -0.02846232 0.02705518
-0.0092299385 -0.068036355 -0.024714181 0.028345272 -0.02250785 0.016246067 0.013311983 0.011503848
0.012844198 -0.025386956 -0.06775992 -0.009120666 -0.024502033 0.010421453 -0.0019995938 0.016851727
0.0014358637 0.044825878 0.0046212017 0.007135879 -0.011820871 0.017072465 0.017449385 -0.00067560835
-0.00019368823 -0.02626684 0.032082573 -0.0058957967 0.03101721 0.0134653235 0.0123845395 0.010496146
0.009273879 0.12409661 0.01665469 0.022076573 0.012185351 -0.012051233 0.031105476 -0.03498321
0.013695165 0.014305768 0.027870648 -0.0028971913 0.0068228026 0.08160067 0.03910588 0.0502104
-0.0007708923 0.042220272 0.024496805 0.034369737 0.019830024 0.017118018 0.020907568 0.015990973
0.08214517 -0.014820491 0.031896204 0.00092521973 0.014317547 0.024028178 0.05103003 -0.042226337
0.012218479 0.012703256 0.031523447 0.0336779 0.010279914 0.03380114 0.08058976 0.0032851927
-0.004432832 0.014974734 0.052143052 0.03460442 0.078131035 -0.0034291619 -0.0070826197 0.0320949
-0.016104298 -0.057748172 0.00086956297 -0.0031993033 -0.023631811 -0.015331037 0.009095812 -0.013813329
-0.07195097 0.064839676 0.012042951 0.01693019 0.07581553 0.018965041 0.008169596 0.04475122
0.022225983 0.039283603 -0.010632534 0.013907998 -0.014056554 0.028840559 0.027402874 -0.01281778

network_body._body_endoder.seq_layers.0.weight f4 [128, 6]
00000000: 40ed ccbe 9988 db3e eb9f 67be c33a 6fbe
00000010: 355a 063e a4c4 c73e e65b 97bf 5ad3 bcbe
00000020: 8a4d 593f 4b28 f3bd d08e 56bf 6537 a0bf
00000030: c090 433d e117 ad3e c876 63be 5611 c23d
00000040: cefd 193f b4c4 4cbf e651 113f 53ab a33e
00000050: d501 d83e 884a 14bd 4251 ee3e 1e45 8c3d
00000060: 244c b5be 96eb 3f3e ddc6 093d c8b0 acbe
00000070: f47f adbe e155 96bf 217f c2be 0419 cc3d
00000080: c501 98be 80b7 633f ef07 b13c df6f 443e
00000090: 92e8 cb3d b026 01bd 9fbb 2e3f bc54 0f3e
000000a0: 590c 8e3e 63de f1be 8dd8 f43e e6cc 09be
000000b0: 4d5f 4ebf f282 843e 0244 c13e 2406 fe3e
000000c0: 44a4 67bf 4649 c0be 9658 bc3e 8046 833d
000000d0: 5346 083f 39c2 1cbd 166c 083e 2990 923e
000000e0: 81af d8be 7247 073f f3d3 9f3e f59b aa3e
000000f0: 3ec6 7d3e 71bb c43d 07fa 6a3e 5676 f53d
00000100: 2a2f d3be fa0f f0bc dd54 3dbe 16dd 133d
00000110: 34d0 8abd 9774 373f 17ec e63d 3614 bcbb
00000120: 8cd4 a93e 3473 52bf 1996 f93c 9d36 323e
00000130: ef72 3c3e 3a85 b63e 3221 7dbe bf99 7a3d
00000140: 3422 a53e 5547 23bf 9299 a3be 7e13 d2be
00000150: a639 753e 8fea 073f 9d37 05bf 64de b73e
00000160: 07d1 09bf c090 003f 3de9 743f bf5f ffbe
00000170: ebe0 a7be 519e 58be d01a 3dbf d3a0 8c3e
00000180: dbe0 ed3c be82 1fbf 651d 9dbd 426b 3ebe
00000190: b3cc 513d 9867 1c3f f541 d5be 6572 583d
000001a0: b4c1 97bd 97f1 b4be 1c9d 3d3e c59e bfbd
000001b0: e3a2 82be 8499 203f b2a0 3abf fe6f a03f
000001c0: 52dd c73e 41b1 01bf 1315 833e 1be0 aebe
000001d0: fa09 a83e f50c 693e b9fe b93e 6d4a 453f
000001e0: 44eb 24be 1b71 99be fd0a 9abe 5d2c 013f
000001f0: 5a34 db3e 7d42 20bf ea0e 2a3f 8f5a 49be
00000200: 3a0f a0be d7c6 5a3e 789a da3d b84a e8be
00000210: 40bb 403f 0c3f 57be 85f6 2bbf b383 9b3d
00000220: 41f0 37bf b170 bcbd 56c0 95bd 46ac 173e
00000230: f30b 11bf 4497 353e a194 f8bd 7cdc 44be
00000240: cbbe 0d3f 11b1 87be 3477 fc3d 5cab 41be
00000250: b373 babd d34e 97be 8aef c73e 6a71 b1bd
00000260: 0b75 21bf a6fb 54bf 8960 0a3f dd75 223f
00000270: 1310 1fbf c3f1 2f3f 5254 293f 24c6 d8be
00000280: 7f4c 97bd 9876 253f fb47 afbe d359 333e
00000290: 1261 31bf 4594 eabc a27f abbe 0e0e 163e
000002a0: 7e7f 863e e891 883f 26a8 b0be 743c 72bf
000002b0: 4f9a d13e eb8e c83e ec8f 703e b351 73be
000002c0: 4e2f 7f3e 80da 0dbf e225 6ebf 3e20 9d3f
000002d0: 4bc9 15bf d36f 9fbe e16e cf3d 5b04 e63e
000002e0: 9b99 ab3d 4442 de3d b6ac 293e 2d19 373d
000002f0: 1299 213e 6e57 bfbe 3f36 303e 2bd0 22bf
00000300: 7793 ef3d d7f4 68be 4470 1b3e a2a3 403f
00000310: 3789 863d 6c0c 183f 9731 79bd bd92 55bd
00000320: fc09 283d be09 d83e 7008 b9be b5b1 2cbf
00000330: 1d88 b53e a1ee 0fbe 022d 54be 641a 02bf
00000340: 5f9f 98be ffae 0a3e 8973 1dbe a871 bdbe
00000350: 5787 d2bd 190e 2d3e 5c4b 863f ac6a 65bd
00000360: 7f6e c43d 869e 2c3f c40f 4e3e 7fb8 1cbf
00000370: ae48 32be e225 f93e 6565 dc3c bc9c 2b3f
00000380: 0371 81bf 2d2c 6e3e 64aa 36bf a4b9 0bbf
00000390: 4d4d 64bf 2cb5 02be 3a92 0f3f 8105 413f
000003a0: d884 80bd 3392 1bbf 034b c9be 200f 8dbd
000003b0: 3f61 8d3d 0cd4 573e 5fae 4e3d f620 ddbd
000003c0: 156c 4a3e 7257 7dbf b9d9 103e c4b1 103d
000003d0: aa49 32bd 10da 3dbe 24c9 843e f0d9 023f
000003e0: 8485 51bf 57ba 16bf 923d fbbe b565 fcbe
000003f0: e6b9 dfbd 51a6 763c ab72 233f 42f4 fd3e
-0.40024757 0.42877653 -0.22619598 -0.2336226 0.13120349 0.39017212 -1.182492 -0.36879998
0.8488394 -0.1187292 -0.83811665 -1.2516905 0.047745466 0.3380728 -0.2221328 0.09475963
0.601529 -0.79987645 0.5676559 0.31966648 0.42188898 -0.03620389 0.4654637 0.068491206
-0.35409653 0.18742213 0.033636916 -0.33728623 -0.33886683 -1.1744958 -0.37987617 0.09965709
-0.2968885 0.88951874 0.021610228 0.191833 0.09956469 -0.031531036 0.6825504 0.13997167
0.27743796 -0.4723998 0.47821465 -0.13457069 -0.8061417 0.25881153 0.37747198 0.4961406
-0.90485024 -0.37555903 0.36786336 0.06409931 0.53232306 -0.038271163 0.13322482 0.2862561
-0.423214 0.5284339 0.31216392 0.3332211 0.24782655 0.09606064 0.2294694 0.119854614
-0.4124692 -0.029304493 -0.18489404 0.036099516 -0.06777993 0.71662277 0.11275499 -0.005739714
0.33169973 -0.82207036 0.03046708 0.17403646 0.18403219 0.3564852 -0.24719694 0.06118178
0.32252657 -0.6378072 -0.31953102 -0.41030496 0.23947772 0.53092283 -0.52037984 0.35911858
-0.53834575 0.5022087 0.95668393 -0.49877736 -0.32788786 -0.21154143 -0.7386904 0.2746645
0.029037884 -0.6230887 -0.07671622 -0.18595603 0.051220607 0.6109557 -0.41651884 0.05284347
-0.07409993 -0.35340568 0.18516964 -0.09356455 -0.25514898 0.62734246 -0.7290145 1.2534177
0.39036041 -0.50661093 0.25602016 -0.34155354 0.32820112 0.22758849 0.3632715 0.7706669
-0.16105372 -0.29969105 -0.30086508 0.5045832 0.4281338 -0.62601453 0.6642901 -0.19663452
-0.31261617 0.21364914 0.10673994 -0.45369506 0.7528572 -0.21020144 -0.67173034 0.07593479
-0.71850973 -0.09201182 -0.07312076 0.14811811 -0.5665886 0.17733485 -0.12137724 -0.19224733
0.5536925 -0.26502278 0.12327424 -0.18913025 -0.09104099 -0.29552326 0.3904994 -0.0866421
-0.6306922 -0.83196485 0.5405355 0.63461095 -0.621339 0.68728274 0.6614429 -0.4233867
-0.07387637 0.64634085 -0.34234604 0.17514734 -0.6928874 -0.028635154 -0.33495814 0.14653799
0.26269144 1.0669527 -0.34503287 -0.94623494 0.4093804 0.39171538 0.23492402 -0.23761635
0.24920389 -0.5541153 -0.93026555 1.2275465 -0.58510274 -0.31140003 0.1012857 0.44925198
0.08378907 0.10852483 0.1656979 0.044701744 0.15781048 -0.3737139 0.17208193 -0.6359889
0.116980486 -0.22749649 0.15179545 0.75249684 0.065691404 0.59393954 -0.06083831 -0.052141894
0.041025147 0.42194933 -0.3613925 -0.6745866 0.3545541 -0.14055873 -0.20720294 -0.5082152
-0.2980909 0.13543318 -0.15376104 -0.37000775 -0.1027972 0.16899909 1.0491748 -0.056009933
0.09591388 0.6742939 0.20123202 -0.6121902 -0.17410538 0.48661715 0.026903817 0.6703603
-1.0112613 0.23259039 -0.71353745 -0.5458014 -0.8918045 -0.12764424 0.560825 0.75399023
-0.06275338 -0.6076996 -0.39315042 -0.068876505 0.06903314 0.21076983 0.050459262 -0.107973024
0.19767793 -0.98961556 0.14145555 0.03532578 -0.043527283 -0.18540215 0.25934708 0.51113796
-0.81844354 -0.5887808 -0.49070412 -0.49296346 -0.10924129 0.015054301 0.63846844 0.49600416

network_body._body_endoder.seq_layers.2.bias f4 [128]
00000000: 49b0 b4ba 14ee c83c ede5 1d3d 17c0 163b
00000010: 8cec af3c 6d20 e83b 580d 9fbc d058 a03a
00000020: c48a 42bc c82f 433d 481d a4bb 37be b1bb
00000030: 7f63 153d ebe7 4c3c 8226 1f3c 2299 4f3c
00000040: bb72 be3c 995b e3bb fb78 a6bb bde2 693b
00000050: 48b2 323d 0c68 9d3c f376 2c3d 2443 993c
00000060: 5ba2 843c 6493 013c 1fac 1a3c e71d 3b3c
00000070: 4765 cf3c 55cc 253d 91c3 3a3d 0284 2c3c
00000080: ca07 c43c cff7 e0ba d3bb abbc f747 ed39
00000090: 291c 2b3c 2bb3 4c3c 3154 923c dc5b 1fbc
000000a0: 3004 363c b0ee 6ebc 054e 89bb e563 0f3c
000000b0: 6038 993c 6126 ca3b 9676 e43c 76b9 153c
000000c0: aa48 093c c3ac 673c 4519 803c cdfb d73b
000000d0: eb88 9b3c 3b9e 9e3c 4518 ba3b 8a72 843c
000000e0: 0cec 8ebc 494c 023d 0f57 b13c fd8e 893b
000000f0: bfdc 3f3c 1771 e53b c60c 073d 4a36 323c
00000100: ca56 823b a7ae 323c 1558 e3bb 3c39 a039
00000110: 9900 90bc 2803 75b9 3f9d 143d 56b0 083d
00000120: 4dba 77bb c1ab bb3c 27f2 023c 85ae 1b3d
00000130: 7dfc e93c 4979 703c 9240 e83b b25f be3b
00000140: 85f3 003c d5b7 263d a033 313c c6b9 1d3c
00000150: 161c cf3c fb83 273c 81b8 533b 1051 bc3b
00000160: 0529 2a3c 909a bd3c 04e8 153c ed94 4fbc
00000170: 9c91 76bc 32d1 a93c b98d 063c a293 a1bc
00000180: af20 833c 5223 8ebc b1ed 1e3d 347c e33c
00000190: 0ee0 ba3c d286 193c 4aa6 553b d8da 293d
000001a0: 3ff8 8b3a a641 883c 9825 933b 622f 973b
000001b0: 3631 253d 0c27 a0bb 961a f03b b56f b73c
000001c0: 7dfb 003d 71ee b03c aba9 0e3c 0967 40ba
000001d0: d655 fd3c 1d27 483b fc3e 6fbc 9215 453d
000001e0: 2879 913c 666b 77bb 6fac 253d 8d5b fc38
000001f0: 2d80 0bbc 955c c0bb 7af5 ba3c e37a df3c
-0.0013785447 0.024527587 0.038549352 0.0023002678 0.021475099 0.0070839436 -0.019415542 0.00122335
-0.011873905 0.04765299 -0.0050083734 -0.0054242867 0.03647184 0.012506465 0.009713771 0.012670787
0.023248067 -0.0069384095 -0.00508034 0.0035688125 0.043627053 0.019214652 0.042105626 0.018708773
0.016190698 0.007908676 0.009440451 0.0114207035 0.025316847 0.04047807 0.045596663 0.01052952
0.023929495 -0.0017163696 -0.020963585 0.0004525778 0.010443726 0.012493889 0.017862411 -0.009726491
0.011109397 -0.014583275 -0.004190209 0.008751844 0.01870364 0.006169126 0.027888577 0.009138456
0.008379141 0.014140311 0.01563705 0.0065912963 0.018986186 0.01936256 0.0056791627 0.016167898
-0.01744654 0.031811032 0.021647958 0.0041979537 0.011710345 0.0070020068 0.032971166 0.010877201
0.003977631 0.010905898 -0.0069379904 0.0003056022 -0.01757841 -0.00023366197 0.036282774 0.033371292
-0.0037800253 0.022909047 0.007992304 0.03800823 0.028562779 0.014677354 0.0070877755 0.0058097476
0.00787056 0.04070266 0.010815531 0.009626811 0.025281947 0.010224338 0.0032306018 0.005746968
0.010385756 0.02314499 0.009149555 -0.012669784 -0.015049364 0.020729635 0.0082125 -0.019723717
0.016006796 -0.017350826 0.0388009 0.027769186 0.022811916 0.009370523 0.0032600337 0.04146847
0.0010678841 0.016632866 0.0044905655 0.004613803 0.040330134 -0.0048874673 0.007327388 0.022392133
0.031489838 0.021598073 0.008707444 -0.0007339572 0.030924719 0.0030540891 -0.014602419 0.048116274
0.017757967 -0.0037753223 0.04044765 0.00012033349 -0.008514446 -0.0058704116 0.02282213 0.027280277

network_body._body_endoder.seq_layers.2.weight f4 [128, 128]
00000000: b534 113d cf04 65bd 11dc 6ebb 398e ce3d
00000010: 9d12 743d b55f 203d 2caf 8d3d 3b05 1dbd
00000020: 1e41 d8bd 251e 07bd d137 3e3e c37c 96bd
00000030: cdc9 8dbd 4967 e43a da36 1b3d 6058 45bd
00000040: 7c83 23be d8dc e7bd 0155 90bb 60aa 1ebd
00000050: df1a 42bd 35ee f9bd 91fb fbbd a8d0 18bd
00000060: f982 a4bd b9a9 f5bd c514 18be 3ce0 153d
00000070: 0e8c 96bd 91e0 f7bd ccdb 423d 86f0 d53b
00000080: cada c93d 34c9 4e3d 86c5 d53c 62ce 20bd
00000090: c909 673d a68d 43be 3884 e23d f2dd a8bd
000000a0: f839 21bb 8c8a 03be fa88 07bd 45d6 1fbe
000000b0: 962d 33be a4a2 d33c 542e a9bb 951a 043d
000000c0: 15ce f13c bcc1 c1bd 4624 3b3d 170a d1bd
000000d0: f2ab 5abc 3615 5fbc 99fe 94bc 56ec 97bb
000000e0: 13ca e5bd 5b51 333e a3e7 863d 9c18 323e
000000f0: 84bc 743d a249 88bc 0e1f b43b 82bd 89bd
00000100: 5669 1b3e b5ee 0dbe 61c2 193d 258e a9bd
00000110: 80dc 6c3d 7a76 d6bd 061a 3d3d 409e bbbd
00000120: bfe6 e8bd 2ac3 d5bd 56bf ab3c d2c0 8d3d
00000130: fdeb 67bd 1325 dabd fe0a 0bbe 1662 e8bc
00000140: 6bd4 1f3d dd3a 7c3c f712 0ebd 19d9 51bc
00000150: a4fc 19bd fe40 5fbe 8051 363e 9f04 48bd
00000160: 717c aabb bd1c 0cbc efc3 15bd 39f4 b33d
00000170: c866 983d e2c0 d63d 7fc3 e5bc bff6 8fbd
00000180: 5aec 27be a0d4 d2bd 5469 c03c 1d5b 1d3c
00000190: e830 c0bd 8cfa 48be 7883 7bbd d1e0 f83d
000001a0: 20d8 c1bd 9863 e0bc 409c a2bd c7ac 80bd
000001b0: c718 27be 8a0d 793d dd78 1bbe 0b92 403d
000001c0: 07d0 f7bd b614 adbd bbe5 e1bd 9ec6 69bb
000001d0: 1559 fbbd 89ea 3f3d 4644 c3bd 30a3 c13d
000001e0: ce5e 913e 2c58 c7bb 38d5 273c 7433 e43d
000001f0: bb73 74bd fcbb 11be 23a5 71bd 4ac1 c23d
00000200: 7345 c13d db69 e5bd 5233 47be 280f 053e
00000210: b80c 2f3c bcd6 1e3d 99e2 963d 6ad7 253d
00000220: 295b 253d 167b 443e 843b 323e 4a9b 703e
00000230: bbbd 013d 14bc a8bd aa8e c73d 3e63 aabd
00000240: f11c c43d ffd7 adbe 26c3 b2bc e74c 17bd
00000250: d14b 7bbd 126a 8ebe 4df8 1cbe 6e83 cfbd
00000260: b6fe a1bd c5c5 1f3c e69e 02bd bd3f 06be
00000270: 0a50 d0bd 57fa 0a3e 9cb2 313d e9b3 f93c
00000280: 741a 8d3e 6436 843d edc4 003d 7acc 76bc
00000290: e301 883d 6d80 dd3d 6f06 61be f9da 69bd
000002a0: 6ff0 05be 67cb b9bc 4b27 8ab9 32b4 e93c
000002b0: 0581 19bd 70f5 30bd 0d9b d6bd d2e7 a4bd
000002c0: f5e2 163c 6e54 be3d eb00 c93d 262a 923d
000002d0: 54c2 f83d a585 2b3e 9256 7cbb 739f 473e
000002e0: 7d6e aebd ead8 1c3e 38a8 2e3d 1a8a 0abe
000002f0: edc2 64bd 9ee1 b8bd 248e ea3c b578 233d
00000300: 6a25 513d 2e50 1d3e fdcf 2e3b 00f9 cdbd
00000310: 3a0b 96bd 499c d63d 3ddf fbbd 845a 76bd
00000320: ebf4 b13b 500d 523d 49c6 33be bea9 f5bd
00000330: c6d1 803c 2f8f bfbd 1e8c d13c cd1b f6bd
00000340: 23c4 823d 4021 1cbd eb04 8e3d 3f97 383e
00000350: f86e 423d 863b 30bc 77f3 abbc 0539 013d
00000360: ff8e 78bc 61b3 8d3e 8b09 be3c 797f 44bd
00000370: c5d6 b3bd e041 d13c 2f96 023b 8f19 13be
00000380: 5923 0ebe 9ba7 4e3c 4557 cc3d ff1c efbc
00000390: 5f81 72be 5ae1 7ebd 65a6 ec3d a593 20bc
000003a0: f7d9 b4bd 2aac c9bb fb4a 11be a7c9 e4bd
000003b0: 846f b8bd d2ad 9fbd 2370 8e3d 0dca a63b
000003c0: 9e95 3abe 9382 903c fdd0 4a3e 5008 813d
000003d0: 787f 1b3e 5f3a 873d da66 2b3d 7125 4abe
000003e0: d2c6 4fbe 3244 c83b aca4 58bd 7267 c3bd
000003f0: 73f5 9abd 6261 1b3e 1c90 babd 74e8 6e3e
0.035450656 -0.05591279 -0.0036447088 0.100857206 0.059588064 0.039153773 0.06918177 -0.038335066
-0.10559295 -0.032987732 0.1857598 -0.07348015 -0.06923256 0.0017425801 0.037894107 -0.048179984
-0.15968126 -0.113214195 -0.0044046645 -0.0387367 -0.047388908 -0.122036375 -0.12303842 -0.037308365
-0.080327936 -0.11995263 -0.14851673 0.0365908 -0.07350932 -0.121033795 0.047572896 0.006528917
0.09856184 0.05048485 0.026095163 -0.039259322 0.056405816 -0.19097003 0.11060375 -0.08245458
-0.0024601202 -0.1284582 -0.033089615 -0.15609081 -0.17497858 0.025834389 -0.0051629934 0.032251913
0.029517213 -0.0946078 0.04568889 -0.102070026 -0.013346659 -0.013615897 -0.018187808 -0.0046363277
-0.11220183 0.17511503 0.0658715 0.173922 0.059750095 -0.016636673 0.005496866 -0.06725599
0.15176901 -0.13860591 0.03753889 -0.08279065 0.057827473 -0.10471816 0.046167396 -0.09161043
-0.11372136 -0.10437615 0.02096526 0.06921543 -0.05662154 -0.106516026 -0.13578412 -0.028367084
0.039020937 0.0153948935 -0.034686055 -0.012808108 -0.037594453 -0.21802136 0.17804527 -0.048832532
-0.005202823 -0.008551774 -0.03656381 0.08786816 0.07441479 0.10486008 -0.028047321 -0.07029485
-0.16398755 -0.10294461 0.023487724 0.009604243 -0.09384328 -0.19626826 -0.061404675 0.12152255
-0.09465051 -0.02739124 -0.079399586 -0.06282955 -0.16318046 0.060803927 -0.15182824 0.047014277
-0.12100225 -0.08451216 -0.11030146 -0.0035671364 -0.122728504 0.04685453 -0.095345065 0.09454954
0.28392643 -0.006083509 0.010243706 0.111426264 -0.05968068 -0.14231867 -0.058995377 0.09509523
0.094370745 -0.11201831 -0.19453171 0.12994063 0.010684185 0.038779005 0.07367439 0.040488638
0.04037014 0.19187579 0.17405516 0.23496738 0.03167508 -0.08238998 0.09744008 -0.0831971
0.09575833 -0.33953854 -0.02182157 -0.036938574 -0.0613516 -0.278153 -0.15329094 -0.1013249
-0.079099104 0.009751742 -0.03188982 -0.13110252 -0.10171516 0.1357206 0.043383226 0.030481296
0.27559245 0.06455687 0.031437803 -0.015063399 0.06640985 0.10815511 -0.2197511 -0.057093594
-0.1308 -0.022679998 -0.00026350687 0.028528307 -0.03747656 -0.043202817 -0.10478792 -0.08052029
0.009209384 0.092934474 0.09814628 0.071369454 0.1214644 0.167502 -0.0038503748 0.19494419
-0.08517168 0.15317121 0.042640895 -0.13529244 -0.05584996 -0.09027408 0.028632231 0.039910037
0.05106107 0.15362617 0.0026674264 -0.100572586 -0.0732636 0.10479028 -0.12298439 -0.060144916
0.005430808 0.051282227 -0.17556109 -0.119952664 0.015725028 -0.09353482 0.025579508 -0.12017021
0.06385066 -0.038117647 0.06934532 0.18026446 0.04746911 -0.010756379 -0.020990117 0.03154852
-0.015170812 0.27675918 0.02319791 -0.04797313 -0.087811984 0.025544107 0.0019925942 -0.14365219
-0.13880672 0.012613202 0.09977583 -0.029188631 -0.23682164 -0.06222663 0.11555175 -0.009800826
-0.08830636 -0.0061545568 -0.14188759 -0.11171275 -0.09005645 -0.077968255 0.06954982 0.0050900043
-0.18221137 0.017640388 0.19806285 0.063004136 0.15185344 0.0660293 0.041846134 -0.19740845
-0.20290688 0.006111645 -0.05289142 -0.09541215 -0.07566347 0.15173867 -0.09109518 0.23330861
