CubeTest/results/ppo/MoveToGoal/MoveToGoal-2240.onnx (onnx, 72461 bytes, 7 tensors)

action_model._continuous_distribution.log_sigma f4 [1, 2]
0.0 0.0
00000000: 0000 0000 0000 0000

action_model._continuous_distribution.mu.bias f4 [2]
0.0 0.0
00000000: 0000 0000 0000 0000

action_model._continuous_distribution.mu.weight f4 [2, 128]
-0.007947578 -0.016825667 0.038430832 -0.0067123654 -0.001886826 0.02294548 0.026482347 -0.0005331598
0.006309524 0.011546266 -0.028132448 0.0060739922 -0.022180444 0.052544367 -0.015039061 0.00965939
0.0039300527 -0.0022482504 -0.0045050923 0.024387285 -0.027110323 0.0019193701 -0.008558051 -0.0006135359
-0.00018028068 0.013804996 0.00040000334 -0.022140708 0.008773306 -0.0060432116 0.014454749 -0.0050206096
0.0048565036 0.029678691 -0.012088074 -0.03322577 0.013246195 -0.019572994 0.0016871907 0.010991525
-0.010070321 -0.009157139 -0.0033338622 -0.015410624 0.0053057102 0.006899148 0.009699268 0.019035786
-0.025180912 0.026139412 -0.018449979 0.01997928 0.0029904917 -0.00885032 0.02092022 -0.03489831
-0.020617383 0.038414996 -0.003374276 -0.0011854828 -0.024417492 0.019773394 0.008618204 0.005894113
0.010357583 0.0034860994 -0.0027516063 -0.007250433 -0.017306522 -0.00415949 0.004346136 -0.0022518928
0.02193999 -0.011423344 -0.028201833 -0.011376647 0.010588813 -0.0030995307 -0.024243472 -0.033485286
0.0039487476 0.014052286 -0.012614292 0.00047360244 0.021050107 -0.0077346205 -0.010790954 -0.010733294
-0.0049634594 -0.005768125 0.014778688 -0.0053250086 0.013725047 -0.014421964 -0.013735815 0.0069747716
0.017232267 0.005238166 0.008096693 0.022891209 -0.031574637 -0.0031213798 -0.0007137416 0.013262841
-0.036449466 -0.00413849 -0.0079894615 0.016060853 -0.014667282 -0.006625529 -0.035185672 0.011285726
-0.021013422 0.01516432 0.0022818085 -0.005805251 -0.019817213 0.0176858 -0.027545571 -0.030904273
-0.0004442702 0.038783383 -0.036037825 -0.013046439 -0.0017832458 0.008411778 0.0064380504 -0.0009819127
0.0038113368 -0.022477932 0.0077873864 -0.0067554237 -0.02645171 -0.0035504445 -0.005249439 -0.01563988
-0.031365793 -0.008199555 -0.010289694 -0.007898018 -0.00043812013 -0.0029124948 -0.01685191 0.030152088
0.0126307 -0.004748536 0.01838625 0.018483054 -0.0005146361 0.0194827 -0.011960755 0.015787786
0.027972573 0.0035885915 0.0036865715 0.010554156 -0.018406332 0.012669581 0.030014176 0.031631608
-0.02500837 0.0007770107 0.034152716 -0.019075809 0.018051626 0.01663216 0.0195567 0.03488011
-0.031893898 0.013894093 -0.016863184 -0.012116246 -0.027013961 0.037657723 -0.0031637487 0.020686554
-0.021376235 -0.025448238 -0.00112187 0.010932135 -0.011928115 -0.0097939605 -0.0013972372 0.0043913038
0.0044436785 0.017389294 0.0058112494 0.0051631164 0.014494643 0.01964093 0.0288299 0.012842712
-0.0010827447 -0.02601083 -0.013055322 -0.012232588 -0.018428698 0.03115852 -0.009237013 0.0147226695
0.017488247 0.003662362 0.00014512148 0.029069414 -0.00079986436 0.0037491347 -0.028365115 -0.0026310585
-0.018706998 -0.01404655 0.0020305566 -0.0076302304 -0.0046587894 0.0008082578 0.016898368 -0.020577794
-0.0009121582 0.002156908 0.0007433113 -0.0070405244 -0.0021767595 -0.021521596 -0.00030391983 -0.0067126
-0.016919164 0.001834693 0.0028115103 0.011003545 -0.012882598 -0.015410463 -0.024773842 -0.015244841
0.017070549 0.01140921 0.011379671 -0.011826406 -0.017451262 0.00061705685 -0.0031095422 0.02878862
0.011931963 0.040956993 -0.00897489 0.0036506958 0.0008212221 -0.01316795 0.017245896 0.041160986
-0.0060662227 -0.03607678 0.00584637 0.0048538647 0.009504123 0.0066342093 -0.012238692 0.012461713
00000000: 8f36 02bc fbd5 89bc a669 1d3d 67f3 dbbb
00000010: 604f f7ba 29f8 bb3c 82f1 d83c c0c3 0bba
00000020: 20c0 ce3b 8d2c 3d3c 0576 e6bc 5708 c73b
00000030: c3b3 b5bc c338 573d 6566 76bc 6b42 1e3c
00000040: acc7 803b 6257 13bb 749f 93bb d8c7 c73c
00000050: 7816 debc 6093 fb3a 1137 0cbc b3d5 20ba
00000060: ba09 3db9 5a2e 623c 8ab7 d139 6e60 b5bc
00000070: eabd 0f3c 2206 c6bb 9dd3 6c3c ed83 a4bb
00000080: 4e23 9f3b ba20 f33c 0f0d 46bc bf17 08bd
00000090: 9206 593c 8b57 a0bc ba24 dd3a cc15 343c
000000a0: fdfd 24bc d307 16bc ed7c 5abb d87c 7cbc
000000b0: 86db ad3b 4012 e23b aee9 1e3c f0f0 9b3c
000000c0: 3348 cebc 5222 d63c 6924 97bc 96ab a33c
000000d0: 20fc 433b ef00 11bc e260 ab3c 88f1 0ebd
000000e0: c9e5 a8bc 0b59 1d3d f522 5dbb 3462 9bba
000000f0: 3107 c8bc d0fb a13c 5e33 0d3c 6723 c13b
00000100: dab2 293c 0b77 643b 4b54 34bb 0a95 edbb
00000110: 68c6 8dbc 554c 88bb 086a 8e3b 7e94 13bb
00000120: 7ebb b33c fa28 3bbc 8807 e7bc 1e65 3abc
00000130: b37c 2d3c 7f21 4bbb 3f9a c6bc de27 09bd
00000140: 7f64 813b 8f3b 663c 2dac 4ebc d84d f839
00000150: 4671 ac3c b372 fdbb 8bcc 30bc b3da 2fbc
00000160: 84a4 a2bb 8a02 bdbb 4f22 723c 697d aebb
00000170: 05df 603c 1a4a 6cbc 2f0c 61bc a08c e43b
00000180: af2a 8d3c eca4 ab3b fea7 043c 5886 bb3c
00000190: 6854 01bd 1090 4cbb 631a 3bba 634c 593c
000001a0: 094c 15bd 2c9c 87bb 3be6 02bc 0d92 833c
000001b0: 0a4f 70bc f71a d9bb da1e 10bd c4e7 383c
000001c0: 5724 acbc c573 783c 658a 153b fa39 bebb
000001d0: b557 a2bc d0e1 903c 40a7 e1bc f52a fdbc
000001e0: f0ec e8b9 53db 1e3d 669c 13bd bbc0 55bc
000001f0: cdbb e9ba 8ed1 093c 48f6 d23b 86b3 80ba
00000200: 9fc7 793b a423 b8bc 552d ff3b 9a5c ddbb
00000210: 42b1 d8bc 93ae 68bb 7c03 acbb 351f 80bc
00000220: 6b79 00bd 6d57 06bc 1b96 28bc b066 01bc
00000230: 7db3 e5b9 8edf 3ebb 040d 8abc 8301 f73c
00000240: fff0 4e3c 9b99 9bbb c39e 963c c669 973c
00000250: a5e8 06ba 2f9a 9f3c 0bf7 43bc 6355 813c
00000260: bd26 e53c 932e 6b3b 689a 713b 57eb 2c3c
00000270: e0c8 96bc 1394 4f3c 4ae0 f53c 2590 013d
00000280: 5ade ccbc 4eb0 4b3a b8e3 0b3d df44 9cbc
00000290: 01e1 933c 2b40 883c 5f35 a03c 72de 0e3d
000002a0: 2da3 02bd 0da4 633c a924 8abc 3883 46bc
000002b0: 624c ddbc fc3e 1a3d e556 4fbb d976 a93c
000002c0: 371d afbc d378 d0bc b60b 93ba b31c 333c
000002d0: 246e 43bc d976 20bc 8023 b7ba ede4 8f3b
000002e0: 479c 913b fe73 8e3c 4b6c be3b 5c2f a93b
000002f0: f07a 6d3c 04e6 a03c af2c ec3c 3d6a 523c
00000300: e2ea 8dba aa14 d5bc fde5 55bc 316b 48bc
00000310: c8f7 96bc 2740 ff3c d756 17bc 5a37 713c
00000320: 8343 8f3c 3d04 703b c02b 1839 fb22 ee3c
00000330: fdad 51ba 0bb4 753b f55d e8bc d66d 2cbb
00000340: 6b3f 99bc 8023 66bc 1613 053b 0307 fabb
00000350: c2a8 98bb 43e1 533a 726e 8a3c c392 a8bc
00000360: e71d 6fba e95a 0d3b c7da 423a 33b4 e6bb
00000370: f7a7 0ebb 0f4e b0bc 6e57 9fb9 5ff5 dbbb
00000380: 0f9a 8abc 157a f03a 5141 383b 3648 343c
00000390: 8811 53bc 2b7c 7cbc 83f2 cabc 7fc5 79bc
000003a0: 89d7 8b3c b2ed 3a3c cd71 3a3c 8bc3 41bc
000003b0: f3f5 8ebc fcc1 213a 76c9 4bbb 1dd6 eb3c
000003c0: 487e 433c 85c2 273d 6b0b 13bc 8340 6f3b
000003d0: 4847 573a 63be 57bc 4447 8d3c 6c98 283d
000003e0: 2ac7 c6bb 3fc5 13bd e892 bf3b 2b0d 9f3b
000003f0: 2eb7 1b3c c863 d93b cb84 48bc 362c 4c3c

network_body._body_endoder.seq_layers.0.bias f4 [128]
0.0 0.0 0.0 0.0 0.0 0.0 0.0 0.0
0.0 0.0 0.0 0.0 0.0 0.0 0.0 0.0
0.0 0.0 0.0 0.0 0.0 0.0 0.0 0.0
0.0 0.0 0.0 0.0 0.0 0.0 0.0 0.0
0.0 0.0 0.0 0.0 0.0 0.0 0.0 0.0
0.0 0.0 0.0 0.0 0.0 0.0 0.0 0.0
0.0 0.0 0.0 0.0 0.0 0.0 0.0 0.0
0.0 0.0 0.0 0.0 0.0 0.0 0.0 0.0
0.0 0.0 0.0 0.0 0.0 0.0 0.0 0.0
0.0 0.0 0.0 0.0 0.0 0.0 0.0 0.0
0.0 0.0 0.0 0.0 0.0 0.0 0.0 0.0
0.0 0.0 0.0 0.0 0.0 0.0 0.0 0.0
0.0 0.0 0.0 0.0 0.0 0.0 0.0 0.0
0.0 0.0 0.0 0.0 0.0 0.0 0.0 0.0
0.0 0.0 0.0 0.0 0.0 0.0 0.0 0.0
0.0 0.0 0.0 0.0 0.0 0.0 0.0 0.0
00000000: 0000 0000 0000 0000 0000 0000 0000 0000
00000010: 0000 0000 0000 0000 0000 0000 0000 0000
00000020: 0000 0000 0000 0000 0000 0000 0000 0000
00000030: 0000 0000 0000 0000 0000 0000 0000 0000
00000040: 0000 0000 0000 0000 0000 0000 0000 0000
00000050: 0000 0000 0000 0000 0000 0000 0000 0000
00000060: 0000 0000 0000 0000 0000 0000 0000 0000
00000070: 0000 0000 0000 0000 0000 0000 0000 0000
00000080: 0000 0000 0000 0000 0000 0000 0000 0000
00000090: 0000 0000 0000 0000 0000 0000 0000 0000
000000a0: 0000 0000 0000 0000 0000 0000 0000 0000
000000b0: 0000 0000 0000 0000 0000 0000 0000 0000
000000c0: 0000 0000 0000 0000 0000 0000 0000 0000
000000d0: 0000 0000 0000 0000 0000 0000 0000 0000
000000e0: 0000 0000 0000 0000 0000 0000 0000 0000
000000f0: 0000 0000 0000 0000 0000 0000 0000 0000
00000100: 0000 0000 0000 0000 0000 0000 0000 0000
00000110: 0000 0000 0000 0000 0000 0000 0000 0000
00000120: 0000 0000 0000 0000 0000 0000 0000 0000
00000130: 0000 0000 0000 0000 0000 0000 0000 0000
00000140: 0000 0000 0000 0000 0000 0000 0000 0000
00000150: 0000 0000 0000 0000 0000 0000 0000 0000
00000160: 0000 0000 0000 0000 0000 0000 0000 0000
00000170: 0000 0000 0000 0000 0000 0000 0000 0000
00000180: 0000 0000 0000 0000 0000 0000 0000 0000
00000190: 0000 0000 0000 0000 0000 0000 0000 0000
000001a0: 0000 0000 0000 0000 0000 0000 0000 0000
000001b0: 0000 0000 0000 0000 0000 0000 0000 0000
000001c0: 0000 0000 0000 0000 0000 0000 0000 0000
000001d0: 0000 0000 0000 0000 0000 0000 0000 0000
000001e0: 0000 0000 0000 0000 0000 0000 0000 0000
000001f0: 0000 0000 0000 0000 0000 0000 0000 0000

network_body._body_endoder.seq_layers.0.weight f4 [128, 6]
0.14907528 0.5698232 0.04881285 -0.33170918 0.92212325 -0.0427848 0.3162437 -0.64738613
0.10085418 0.017333878 0.31921038 0.5776935 -0.040583022 0.12824322 0.21485238 -0.09526952
-0.015847987 0.20942949 0.4962889 0.2930395 -0.30830988 0.32059 0.75685346 0.09810162
-0.5275204 0.29081443 -0.46959883 -0.3266369 0.36113223 0.20155928 -0.69223404 -0.2386544
-0.6022369 0.24426483 -0.4013129 -0.035559583 -0.35014892 0.62875867 -0.0024802936 -0.056822427
-0.49811357 0.13990173 0.08627101 -0.3409975 -0.19517165 0.36470252 0.04134643 0.20387222
0.38775492 0.73013866 -0.6010616 -0.4189618 0.56453156 0.42108014 0.26356837 -0.56140786
0.67761964 0.050700635 -0.08638063 0.41186163 -0.3019395 -0.974239 -0.44180912 0.11883661
0.22731899 0.28404084 0.37659875 0.33123198 -0.18598129 0.5304317 -0.7293017 0.5816782
0.69183224 -0.44225168 0.22842062 0.24315386 0.61304826 0.2876769 -0.14217007 -0.7287861
-0.36292315 0.053387366 -0.33652866 -0.17281026 0.749258 -0.20931497 0.16106425 -0.071099125
0.22546063 -0.27172858 0.27444643 -0.2270462 -0.23250681 -0.121035434 0.777431 -0.8381944
0.20284747 0.14492479 -0.13910833 0.3156316 -0.013088363 -0.34260058 -0.23176077 0.41716644
0.3312709 -0.28626662 0.49793398 -0.5028986 0.56539935 0.101326995 0.15657058 0.3870102
-0.2426794 0.35135964 0.04321502 0.45394874 0.21458349 -0.18350153 0.035378158 0.5876844
-0.777183 0.2578118 -0.2767054 0.3246774 -0.21278213 0.21642904 0.94012105 -0.43136215
0.2859453 -0.019650461 0.28817108 0.24673161 -0.2989336 0.058494985 -0.53032833 -0.2414463
-0.38679904 -0.19940665 1.0466353 -0.035417292 -0.10748881 -0.16987287 0.45525333 0.2670721
0.89665884 0.013722502 -0.71149415 0.06608737 0.6253331 -0.37839675 0.86255157 -0.03850742
0.5698559 0.5945411 -0.023988836 0.024563203 0.13759765 -0.2860283 0.6350811 0.5311199
-0.49063915 -0.3378069 0.7387891 -0.7098307 0.07201601 -0.59577984 -0.4099955 0.7939339
0.21872103 -0.64500487 0.13637826 0.39923733 -0.29076073 -0.34701404 0.27048293 0.13151535
0.1471352 0.15627861 0.44233432 0.55331385 -0.048111424 -0.19097857 0.16632931 0.74507046
0.90410024 -0.22030133 -1.0564029 -0.14547631 -0.7358914 -0.047242366 0.49429184 -0.42233565
-0.43256944 0.8120589 0.22896385 0.06944983 0.35603362 -0.007867776 0.035664644 -0.46029672
-0.25497773 -0.2557369 -0.1256108 0.2140426 -0.6386569 0.2408017 -0.37946457 -0.07453488
-0.55288696 0.47834834 -0.3362258 -0.02026003 -0.29834417 0.23694254 -0.26402748 -0.19235848
-0.21905002 -0.08880235 -0.072184786 -0.07041346 0.82119095 0.4837328 -0.21174903 -0.058121197
-0.32741785 0.40122223 -0.01770083 -0.69572854 -0.69220495 -0.044457328 -0.45929554 -0.32573637
-0.29263657 0.054660276 -0.6439053 -0.59581363 0.41988277 -0.18208353 -0.15180436 -0.03865996
-0.15142149 0.36958903 -0.40095073 -0.41993207 0.12838185 0.65241754 0.23262024 0.47737557
0.05020291 0.39147812 -0.20319332 0.019629821 0.28370667 -0.65384614 0.17064345 -0.09659167
00000000: 31a7 183e efdf 113f fcef 473d c9d5 a9be
00000010: 4510 6c3f 1d3f 2fbd b2ea a13e 19bb 25bf
00000020: a38c ce3d c7ff 8d3c 8b6f a33e b9e3 133f
00000030: 623a 26bd 3152 033e 4302 5c3e ab1c c3bd
00000040: a3d3 81bc af74 563e 9419 fe3e 4609 963e
00000050: cbda 9dbe 5f24 a43e 26c1 413f 81e9 c83d
00000060: 940b 07bf a1e5 943e 426f f0be f43c a7be
00000070: 53e6 b83e 8e65 4e3e 4036 31bf d261 74be
00000080: 332c 1abf 8f20 7a3e e278 cdbe eda6 11bd
00000090: b846 b3be 54f6 203f 6c8c 22bb a2be 68bd
000000a0: be08 ffbe 6642 0f3e dbae b03d 3997 aebe
000000b0: 14db 47be 4aba ba3e e05a 293d e1c3 503e
000000c0: d087 c63e 5eea 3a3f 2cdf 19bf 2982 d6be
000000d0: 2485 103f d197 d73e 6ff2 863e 6db8 0fbf
000000e0: 7b78 2d3f 78ab 4f3d 54e8 b0bd 87df d23e
000000f0: d097 9abe ba67 79bf ce34 e2be 9c60 f33d
00000100: 4fc6 683e cd6d 913e 8dd1 c03e 3d97 a93e
00000110: e171 3ebe 5fca 073f 84b3 3abf dde8 143f
00000120: eb1b 313f d06e e2be 18e7 693e 53fd 783e
00000130: bbf0 1c3f 634a 933e 0895 11be ba91 3abf
00000140: 10d1 b9be b6ac 5a3d 7c4d acbe 2cf5 30be
00000150: 5fcf 3f3f aa56 56be 07ee 243e 6b9c 91bd
00000160: 27df 663e 0220 8bbe 3e84 8c3e cd7e 68be
00000170: 4416 6ebe 6de1 f7bd b805 473f e893 56bf
00000180: 3fb7 4f3e 2a67 143e 6a72 0ebe 779a a13e
00000190: 9370 56bc 5869 afbe b252 6dbe d796 d53e
000001a0: 579c a93e 8a91 92be 34f1 fe3e f6bd 00bf
000001b0: 03be 103f 8784 cf3d 0a54 203e 3326 c63e
000001c0: f380 78be 69e5 b33e 3c02 313d f86b e83e
000001d0: c6bb 5b3e d3e7 3bbe b0e8 103d 7c72 163f
000001e0: 77f5 46bf e9ff 833e 55ac 8dbe 1e3c a63e
000001f0: 8fe3 59be 939f 5d3e c6ab 703f 80db dcbe
00000200: 6c67 923e 01fa a0bc 298b 933e 36a7 7c3e
00000210: d30d 99be 7098 6f3d 99c3 07bf b33d 77be
00000220: 860a c6be 4231 4cbe 25f8 853f b911 11bd
00000230: 1823 dcbd 27f3 2dbe f716 e93e adbd 883e
00000240: 6f8b 653f 58d4 603c 7b24 36bf d158 873d
00000250: d415 203f 38bd c1be 2ed0 5c3f f5b9 1dbd
00000260: 14e2 113f d833 183f 3c84 c4bc c538 c93c
00000270: 66e6 0c3e 4d72 92be ad94 223f 79f7 073f
00000280: 0e35 fbbe 07f5 acbe 4821 3d3f 77b7 35bf
00000290: 217d 933d 0785 18bf eeea d1be 413f 4b3f
000002a0: 68f8 5f3e 0a1f 25bf bea6 0b3e d668 cc3e
000002b0: 97de 94be d3ab b1be bd7c 8a3e f6ab 063e
000002c0: 9caa 163e 8007 203e a579 e23e faa5 0d3f
000002d0: 7c10 45bd e38f 43be 3b52 2a3e f0bc 3e3f
000002e0: 1d73 673f ac96 61be 3638 87bf bef7 14be
000002f0: 6163 3cbf 3681 41bd d213 fd3e 613c d8be
00000300: be79 ddbe 18e3 4f3f 8075 6a3e b63b 8e3d
00000310: 0a4a b63e d8e7 00bc 1715 123d 03ac ebbe
00000320: 718c 82be f2ef 82be 1ea0 00be fc2d 5b3e
00000330: 057f 23bf b994 763e 2e49 c2be bea5 98bd
00000340: 008a 0dbf 13ea f43e ca25 acbe 5df8 a5bc
00000350: 91c0 98be 11a1 723e 9c2e 87be 9ff9 44be
00000360: a64e 60be 02de b5bd 9ed5 93bd ef34 90bd
00000370: 9239 523f d3ab f73e bdd4 58be 7e10 6ebd
00000380: 50a3 a7be 006d cd3e 5501 91bc 441b 32bf
00000390: 5834 31bf e318 36bd c928 ebbe ebc6 a6be
000003a0: 76d4 95be 74e3 5f3d fad6 24bf 3e87 18bf
000003b0: e0fa d63e 1b74 3abe 9a72 1bbe e859 1ebd
000003c0: 3c0e 1bbe c63a bd3e 6a49 cdbe 5601 d7be
000003d0: 8876 033e d604 273f 0034 6e3e 926a f43e
000003e0: 91a1 4d3d d26f c83e e911 50be b8ce a03c
000003f0: 0042 913e 7662 27bf 28bd 2e3e dad1 c5bd

network_body._body_endoder.seq_layers.2.bias f4 [128]
0.0 0.0 0.0 0.0 0.0 0.0 0.0 0.0
0.0 0.0 0.0 0.0 0.0 0.0 0.0 0.0
0.0 0.0 0.0 0.0 0.0 0.0 0.0 0.0
0.0 0.0 0.0 0.0 0.0 0.0 0.0 0.0
0.0 0.0 0.0 0.0 0.0 0.0 0.0 0.0
0.0 0.0 0.0 0.0 0.0 0.0 0.0 0.0
0.0 0.0 0.0 0.0 0.0 0.0 0.0 0.0
0.0 0.0 0.0 0.0 0.0 0.0 0.0 0.0
0.0 0.0 0.0 0.0 0.0 0.0 0.0 0.0
0.0 0.0 0.0 0.0 0.0 0.0 0.0 0.0
0.0 0.0 0.0 0.0 0.0 0.0 0.0 0.0
0.0 0.0 0.0 0.0 0.0 0.0 0.0 0.0
0.0 0.0 0.0 0.0 0.0 0.0 0.0 0.0
0.0 0.0 0.0 0.0 0.0 0.0 0.0 0.0
0.0 0.0 0.0 0.0 0.0 0.0 0.0 0.0
0.0 0.0 0.0 0.0 0.0 0.0 0.0 0.0
00000000: 0000 0000 0000 0000 0000 0000 0000 0000
00000010: 0000 0000 0000 0000 0000 0000 0000 0000
00000020: 0000 0000 0000 0000 0000 0000 0000 0000
00000030: 0000 0000 0000 0000 0000 0000 0000 0000
00000040: 0000 0000 0000 0000 0000 0000 0000 0000
00000050: 0000 0000 0000 0000 0000 0000 0000 0000
00000060: 0000 0000 0000 0000 0000 0000 0000 0000
00000070: 0000 0000 0000 0000 0000 0000 0000 0000
00000080: 0000 0000 0000 0000 0000 0000 0000 0000
00000090: 0000 0000 0000 0000 0000 0000 0000 0000
000000a0: 0000 0000 0000 0000 0000 0000 0000 0000
000000b0: 0000 0000 0000 0000 0000 0000 0000 0000
000000c0: 0000 0000 0000 0000 0000 0000 0000 0000
000000d0: 0000 0000 0000 0000 0000 0000 0000 0000
000000e0: 0000 0000 0000 0000 0000 0000 0000 0000
000000f0: 0000 0000 0000 0000 0000 0000 0000 0000
00000100: 0000 0000 0000 0000 0000 0000 0000 0000
00000110: 0000 0000 0000 0000 0000 0000 0000 0000
00000120: 0000 0000 0000 0000 0000 0000 0000 0000
00000130: 0000 0000 0000 0000 0000 0000 0000 0000
00000140: 0000 0000 0000 0000 0000 0000 0000 0000
00000150: 0000 0000 0000 0000 0000 0000 0000 0000
00000160: 0000 0000 0000 0000 0000 0000 0000 0000
00000170: 0000 0000 0000 0000 0000 0000 0000 0000
00000180: 0000 0000 0000 0000 0000 0000 0000 0000
00000190: 0000 0000 0000 0000 0000 0000 0000 0000
000001a0: 0000 0000 0000 0000 0000 0000 0000 0000
000001b0: 0000 0000 0000 0000 0000 0000 0000 0000
000001c0: 0000 0000 0000 0000 0000 0000 0000 0000
000001d0: 0000 0000 0000 0000 0000 0000 0000 0000
000001e0: 0000 0000 0000 0000 0000 0000 0000 0000
000001f0: 0000 0000 0000 0000 0000 0000 0000 0000

network_body._body_endoder.seq_layers.2.weight f4 [128, 128]
0.027481733 0.022610977 0.008998156 -0.027748827 -0.06155612 0.11628759 0.079283684 -0.06941772
0.052146472 0.055864558 0.07284851 0.058650374 -0.040733926 0.12066986 -0.08840847 -0.098458774
0.22715014 0.1605212 0.08865333 0.073614076 0.014188477 -0.09510216 0.11538984 0.1379916
0.16781145 -0.092974976 0.061473854 -0.15084976 0.061744567 0.010566052 0.0822616 -0.06954807
-0.08819336 0.022820877 -0.018586896 -0.15002954 -0.020835383 -0.04641831 -0.18766719 -0.109313495
0.04921981 -0.059939686 -0.070222765 0.10822284 0.14314008 0.042083308 -0.033234637 -0.15920934
0.015520496 -0.13486879 0.051523026 0.025473911 0.1148459 0.06851121 0.09307464 0.04015509
-0.07989819 0.03999907 -0.14326759 0.07123435 -0.042874575 0.08118395 -0.02790372 -0.0038232591
0.1113169 0.054858044 -0.13057989 -0.016164934 -0.06851752 -0.090848215 0.04391457 -0.0739736
-0.03522451 0.023920607 -0.083740205 0.00015031472 0.037032627 -0.0056751724 -0.17196216 0.09663375
-0.07436059 -0.053110108 -0.10739016 -0.05462664 -0.17728901 0.04565933 0.082134135 0.024342952
0.15656418 0.0020620783 0.11655639 0.005752104 -0.10082989 -0.004090802 -0.018024841 -0.07474607
-0.011267739 -0.0365159 0.08539982 0.042005908 0.09171564 -0.019387757 -0.018952372 0.0420526
0.099528864 -0.067852214 0.0011789337 -0.021574305 -0.026946034 0.040961772 0.006080649 -0.033421684
-0.09678707 0.057879377 0.09214409 0.0644987 0.15479268 0.13321902 -0.02368813 0.053852092
0.03262052 0.012526131 0.015956856 -0.049706895 0.15785998 -0.03630618 0.026837219 0.1558494
0.15636024 -0.10382192 0.06129499 -0.13157238 -0.09310058 -0.018615115 0.031212501 0.13275264
0.03960322 0.011694414 0.088712215 0.06221205 0.10989391 0.051948816 0.061879195 0.050728895
0.006462677 0.072691746 -0.020137047 -0.05474564 -0.11527206 0.17103747 -0.0061888047 0.100372046
0.12929612 0.14754358 -0.23894131 0.108898215 0.22498558 -0.10116061 0.05987166 -0.072752185
-0.04784424 -0.16714174 -0.10141394 -0.053463187 -0.12729132 0.01306259 -0.011453622 0.13579911
0.06964335 0.021222178 0.027175916 0.07137173 0.067032434 -0.016076725 0.026738899 -0.034855563
-0.08683477 0.13550256 0.051892 0.021963092 -0.061977457 0.014299707 0.12973419 -0.009803374
0.0037783664 -0.003267684 -0.014362064 0.03489501 -0.033470124 -0.07645309 0.17070231 -0.0131156985
0.06318528 0.093275376 -0.19796546 -0.02405599 0.009296009 -0.13056308 0.060563747 -0.047514893
-0.047156792 0.18858533 0.042306222 0.016452145 0.17974716 -0.011635701 0.032848787 0.10131273
-0.01778433 -0.030468157 -0.057347674 0.042908538 0.12944128 -0.011289341 -0.084353305 -0.036294628
-0.08511487 0.04112804 0.036025017 -0.016126787 -0.026006056 -0.013384541 0.12644379 0.0013215526
0.0151896775 -0.028706487 -0.021828718 0.04266457 -0.062887594 -0.06588647 0.15799554 -0.19203357
0.016466247 0.02001834 0.033585187 -0.025345666 -0.029428583 0.034757704 -0.07702314 -0.07791709
0.089922756 -0.029478155 -0.06944574 0.19009127 0.14972581 -0.034778375 0.05435894 -0.10086139
-0.06477023 -0.044037282 -0.08525765 0.08468504 -0.106439285 0.083409816 -0.11478017 0.010673858
00000000: 5f21 e13c a83a b93c 006d 133c 8251 e3bc
00000010: 4522 7cbd 3028 ee3d 7c5f a23d e12a 8ebd
00000020: 8a97 553d 3cd2 643d 9a31 953d 603b 703d
00000030: 9ed8 26bd c221 f73d 800f b5bd c1a4 c9bd
00000040: 0c9a 683e ab5f 243e e18f b53d fac2 963d
00000050: c976 683c ecc4 c2bd 8251 ec3d ac4d 0d3e
00000060: c4d6 2b3e aa69 bebd 02cc 7b3d 5c78 1abe
00000070: dfe7 7c3d 3c1d 2d3c c578 a83d 386f 8ebd
00000080: b89e b4bd d9f2 ba3c 8c43 98bc 58a1 19be
00000090: f7ae aabc 2021 3ebd d42b 40be c1df dfbd
000000a0: b69a 493d 5183 75bd f4d0 8fbd f0a3 dd3d
000000b0: 5093 123e 8c5f 2c3d 0b21 08bd c607 23be
000000c0: ae49 7e3c 0b1b 0abe cf09 533d aaae d03c
000000d0: 5434 eb3d 9b4f 8c3d eb9d be3d aa79 243d
000000e0: aaa1 a3bd 11d6 233d bdb4 12be 51e3 913d
000000f0: 409d 2fbd c543 a63d 5896 e4bc a58f 7abb
00000100: 1dfa e33d d4b2 603d bcb6 05be 536c 84bc
00000110: ea52 8cbd a10e babd c4df 333d 797f 97bd
00000120: 9347 10bd 26f5 c33c fc7f abbd cd9d 1d39
00000130: 86af 173d ccf6 b9bb d916 30be eae7 c53d
00000140: 5d4a 98bd fc89 59bd 5fef dbbd 2fc0 5fbd
00000150: 408b 35be 4705 3b3d f135 a83d df6a c73c
00000160: 5c52 203e ef23 073b 1eb5 ee3d 257c bc3b
00000170: e77f cebd 220c 86bb d5a8 93bc 7814 99bd
00000180: 539c 38bc b291 15bd 1ae6 ae3d 630e 2c3d
00000190: 69d5 bb3d 13d3 9ebc 0142 9bbc 593f 2c3d
000001a0: cad5 cb3d 1af6 8abd 7386 9a3a 99bc b0bc
000001b0: eebd dcbc 88c7 273d 2e40 c73b 2de5 08bd
000001c0: 4d38 c6bd ed12 6d3d 0ab6 bc3d e517 843d
000001d0: f981 1e3e 916a 083e 9c0d c2bc 0394 5c3d
000001e0: 189d 053d 673a 4d3c f4b7 823c 7599 4bbd
000001f0: 0ca6 213e cab5 14bd bad9 db3c fc96 1f3e
00000200: e61c 203e 96a0 d4bd 7510 7b3d e9ba 06be
00000210: 84ab bebd ba7e 98bc 5cb1 ff3c 4ff0 073e
00000220: fc36 223d ed99 3f3c c0ae b53d 10d2 7e3d
00000230: 0f10 e13d 48c8 543d 0a75 7d3d 1ac9 4f3d
00000240: ddc4 d33b 69df 943d 73f6 a4bc f73c 60bd
00000250: c213 ecbd 7224 2f3e 75cb cabb dc8f cd3d
00000260: 3466 043e aa15 173e 08ad 74be 0706 df3d
00000270: 9f62 663e 4b2d cfbd fc3b 753d 19ff 94bd
00000280: 52f8 43bd 3427 2bbe 1db2 cfbd 37fc 5abd
00000290: a858 02be 7904 563c f9a7 3bbc ec0e 0b3e
000002a0: 2ca1 8e3d 22da ad3c 07a0 de3c 572b 923d
000002b0: 4d48 893d 56b3 83bc 890b db3c b5c4 0ebd
000002c0: 6ed6 b1bd 2fc1 0a3e b58c 543d f1eb b33c
000002d0: 13dc 7dbd 5149 6a3c 0ad9 043e 559e 20bc
000002e0: 789e 773b a426 56bb dd4e 6bbc 12ee 0e3d
000002f0: f817 09bd 7093 9cbd 96cc 2e3e 3ae3 56bc
00000300: 4967 813d 2907 bf3d 75b7 4abe 1111 c5bc
00000310: 4a4e 183c 54b2 05be b111 783d fa9e 42bd
00000320: 7b27 41bd 831c 413e 4a49 2d3d a6c6 863c
00000330: a40f 383e aba3 3ebc 738c 063d 0c7d cf3d
00000340: 71b0 91bc 5b98 f9bc 65e5 6abd ddc0 2f3d
00000350: 418c 043e eef6 38bc 6dc1 acbd ada9 14bd
00000360: b450 aebd e075 283d f88e 133d 531c 84bc
00000370: a70a d5bc d54a 5bbc 7b7a 013e f237 ad3a
00000380: 20de 783c de29 ebbc 24d2 b2bc 0bc1 2e3d
00000390: 36cb 80bd 7cef 86bd 95c9 213e 73a4 44be
000003a0: 39e4 863c 80fd a33c 9f90 093d b7a1 cfbc
000003b0: 3614 f1bc 185e 0e3d 4fbe 9dbd ff92 9fbd
000003c0: 6c29 b83d 2c7c f1bc 9139 8ebd 49a7 423e
000003d0: b951 193e c573 0ebd 7ba7 5e3d 6b90 cebd
000003e0: 41a6 84bd 7060 34bd 909b aebd 5a6f ad3d
000003f0: d7fc d9bd c4d2 aa3d de11 ebbd 68e1 2e3c
