CubeTest/results/ppo/MoveToGoal/MoveToGoal-6268.onnx (onnx, 72461 bytes, 7 tensors)

action_model._continuous_distribution.log_sigma f4 [1, 2]
00000000: 0000 0000 0000 0000
0.0 0.0

action_model._continuous_distribution.mu.bias f4 [2]
00000000: 0000 0000 0000 0000
0.0 0.0

action_model._continuous_distribution.mu.weight f4 [2, 128]
00000000: 88df c83a 7dfb b33c a769 4a3a 2ed5 913c
00000010: 3c75 203c 6869 2f3c 1710 6bbb 1df7 62bc
00000020: 351b 2a3d 86fc 38bc e2b7 6abc 07c7 f83b
00000030: 5878 72bc 7a7c 213b 2730 1bbd b320 9cbb
00000040: 47ea b43c a843 70bc af90 173b de3d 4bbb
00000050: 6b23 99bc 9343 033b 3fb1 faba 6f44 b5bc
00000060: 35b7 81b8 30cd e33c 4322 2cbc 02fb 1dbc
00000070: 27d3 9e3b 067d 1e3d c3ed bb3c ebff 98bc
00000080: 6df4 5bbc df04 6e3c e713 1dbc 8d24 12bc
00000090: 7b6b b7bc 436b 41bc 7303 283c e6bc 213c
000000a0: 71d7 00bc fe7e c63c d82c 4abb d8d1 1f3d
000000b0: 95e5 f33c 5a1c 783c 641d 1e3c b5f6 0e3d
000000c0: 372e e93c c333 853c dec2 9f3c d042 ea3b
000000d0: afd2 853c efa5 5ebc 336f 4f3b 5bf8 9c3c
000000e0: 5754 133c 3b88 df3c b997 44bc 339a 9e3c
000000f0: 8067 793b 5054 563c 5298 14bb 3d1e 203c
00000100: fd05 44bc bae9 29bc 972f db3b 4f74 413c
00000110: a845 d1bc d527 d2bc 8453 c73c 36b5 a53b
00000120: 9dea 7fbc 2067 9b3b b062 3d3c 20d0 753c
00000130: 2c27 a63b 7da3 91bc 2dbf aa3c e079 843b
00000140: d090 063d cb41 d63b 714e 82bc 7823 183c
00000150: f9f9 90bb 30d7 d53b 0b94 b3bc a5a1 c03b
00000160: e687 0ebc aee7 bb3c 8f44 8a3c 5f40 203c
00000170: 2a7b e0bc 85aa d73a 4a82 7fbc cafb 953c
00000180: 939c 0c3d 6860 e2bb f3fa 30bc d82e d83c
00000190: 73a0 273d a309 1ebd 47e3 81ba 8bc8 36bb
000001a0: 3f21 95bc b82d 8b3c 659d ff3c b650 c13c
000001b0: be5a 1c3d 390e 94bc 5e84 91bb e08d bc3b
000001c0: 67b5 443c cada 4bbc 673a cb3c 2b87 033a
000001d0: 45c3 beba ece9 ac3c 0f2b b73c 2a9a 04bd
000001e0: b5bd 3bba 9fb2 3cbc f4aa 8cbb 9a02 223c
000001f0: eab3 b2bc 4296 c33b 3cc4 a23b ccd8 923b
00000200: 11ae 933c 7e28 33ba 1c96 2a3c cfa8 543c
00000210: 9de1 3cbc b75d 65bb ae51 20bd 3fe9 1b3d
00000220: 52d1 36bc a3c5 7a3c d093 8fbc 91ce a3bc
00000230: 9d55 3bbc 8677 aa3c 305b b8bc b986 043d
00000240: e20d 6dbc 2d34 05bc ac63 4abb 3361 883b
00000250: 5279 543c 0fab c93c 929f df3c 2f67 e03b
00000260: a680 1e3c 4b3e 173c adfa 5a3c 7f56 02bd
00000270: a387 92ba 27ed 1bbb 4a23 b23b a057 f33b
00000280: 060a 4cbb 6b01 eb3a 243c 943c 70df 103a
00000290: f766 433b 0f2c 1cbd 1007 693b 4e1e c6bb
000002a0: 42d7 d2b9 9591 6b3c 713a 8abc dbbb ef3c
000002b0: d8e7 503c 3555 963c 6e01 0fbc 8a9e b9bc
000002c0: 5f2b 04bc c002 a73b 14db a1bc 93a4 1dbc
000002d0: 6f8b 82bc 7a46 cebc 9475 1e3c d426 82bc
000002e0: d579 eabb 97d6 d73c 6f6e ad3b 5fd1 9cbb
000002f0: 7db2 7b3b b0e7 523c 822b 933b 25aa 57bc
00000300: 8dbf 7ebc 4eff a0bc 8062 01bc 9380 64bc
00000310: f9fc 953c 67a3 08bd d7fa 9bbb fadd 5abc
00000320: f7dc 733c 5cad c0bc 05fc feb9 3832 f5bb
00000330: 473d e3bb c04e 1dbc 4040 c93b 9003 a5bc
00000340: 61bc 953a 986d d7bc 6b2a 173c 7bef d73c
00000350: a5d5 d73c af70 c5bc 83fb a53b 00fc c4bc
00000360: 470f f4ba 9bed a1bc f3a8 babc 2477 b7bc
00000370: d5d0 fa3a d412 333c c3f3 a2bb 8ffd 05bc
00000380: 22b4 7c3b 444e 173c 8d19 3c3c 74a5 323c
00000390: afbf 5a3c 0151 303c 78ce 3bbc c1c4 be3b
000003a0: 23ad 1c3c 7758 c0bb 7529 10bd 4c5f bfbc
000003b0: d8a1 a83a bd16 7c3b 2f28 99ba de32 a2bb
000003c0: 2acb 7bbc 1dc4 643c 32de 81bc f276 ef3b
000003d0: 3ff3 0b3c a712 55bc 6d55 bb39 2021 06bd
000003e0: 72f6 3e3c 33cb 91bc 42e8 e13b 3f08 193c
000003f0: ebe3 013b 20b0 cf3b 605e 5eba f736 be3b
0.0015325407 0.021970505 0.0007721432 0.017801847 0.009793576 0.010706283 -0.0035867745 -0.013852862
0.041529853 -0.011290675 -0.014326068 0.0075920853 -0.0147992 0.0024640844 -0.03788772 -0.0047646402
0.022084368 -0.014664568 0.002312701 -0.0031012218 -0.018693646 0.002002929 -0.001912631 -0.022127358
-6.185324e-05 0.027807802 -0.0105062155 -0.009642364 0.0048469487 0.03869345 0.022940522 -0.018676719
-0.013424975 0.014527529 -0.009587265 -0.008919847 -0.022390118 -0.011805358 0.010254729 0.009871697
-0.007863865 0.024230476 -0.0030849483 0.039018482 0.02977256 0.015143478 0.009650562 0.034903247
0.02846442 0.016260033 0.0195021 0.007149078 0.016335813 -0.013589366 0.0031651973 0.019161394
0.008992276 0.02728664 -0.011999064 0.019360637 0.0038056076 0.013081625 -0.0022673798 0.009772834
-0.011964318 -0.010370666 0.0066890228 0.011807515 -0.02554591 -0.025653759 0.024331816 0.0050570024
-0.015619901 0.004742518 0.011559173 0.015003234 0.0050705876 -0.017778153 0.020843113 0.004042849
0.032852948 0.006538605 -0.015906544 0.0092858 -0.0044243303 0.0065258965 -0.021921178 0.0058786445
-0.008699393 0.022937622 0.016878394 0.009780972 -0.02740248 0.0016454017 -0.015595028 0.018308539
0.03432901 -0.006908465 -0.010802018 0.026389524 0.0409245 -0.03858341 -0.0009909653 -0.002789053
-0.01820433 0.016989574 0.031202981 0.023598056 0.038172476 -0.018073188 -0.004440828 0.0057542175
0.01200614 -0.0124423 0.024808122 0.0005017395 -0.0014554044 0.021107636 0.0223594 -0.032373585
-0.00071617524 -0.011517196 -0.00429284 0.009888316 -0.021814305 0.00596884 0.0049672406 0.0044814106
0.018027337 -0.0006834342 0.010411765 0.0129797 -0.0115284 -0.0034998485 -0.039140396 0.038064238
-0.011158304 0.015305909 -0.017526537 -0.01999596 -0.011433986 0.020808946 -0.02250442 0.032355044
-0.014468642 -0.008130115 -0.0030882163 0.0041619777 0.012968378 0.0246177 0.027297769 0.006848238
0.009674227 0.00923116 0.01336543 -0.03182077 -0.0011179339 -0.0023792477 0.0054363357 0.007426217
-0.0031133904 0.00179295 0.018095084 0.0005526459 0.002981601 -0.038127955 0.0035557188 -0.006046093
-0.000402147 0.014377971 -0.01687357 0.029264381 0.012750588 0.018351177 -0.008728368 -0.022658605
-0.008066981 0.0050967634 -0.019757785 -0.009621757 -0.015935628 -0.02518009 0.0096715875 -0.015887655
-0.007155637 0.026347442 0.0052927057 -0.004785701 0.0038405948 0.012872621 0.0044912705 -0.013163124
-0.015548599 -0.019652989 -0.007897019 -0.01394667 0.018309103 -0.033358958 -0.004760127 -0.013358587
0.014884225 -0.023520164 -0.00048634424 -0.007482793 -0.006934795 -0.009601295 0.0061416924 -0.0201433
0.0011423939 -0.026297376 0.009226422 0.02635931 0.02634699 -0.024101583 0.005065383 -0.024045944
-0.0018620276 -0.01976662 -0.02278564 -0.022395678 0.0019135723 0.010929782 -0.0049729063 -0.008178129
0.0038559516 0.009234969 0.011480701 0.010903705 0.013351365 0.0107615 -0.0114628 0.0058217947
0.009562763 -0.005869921 -0.035195787 -0.02336087 0.0012865616 0.0038465702 -0.0011684949 -0.0049499115
-0.015368262 0.013962773 -0.015853021 0.0073078806 0.008541881 -0.013004935 0.00035731067 -0.032746434
0.011655437 -0.017797088 0.0068941424 0.009340345 0.0019819688 0.0063381344 -0.0008482691 0.005804892

network_body._body_endoder.seq_layers.0.bias f4 [128]
00000000: 0000 0000 0000 0000 0000 0000 0000 0000
00000010: 0000 0000 0000 0000 0000 0000 0000 0000
00000020: 0000 0000 0000 0000 0000 0000 0000 0000
00000030: 0000 0000 0000 0000 0000 0000 0000 0000
00000040: 0000 0000 0000 0000 0000 0000 0000 0000
00000050: 0000 0000 0000 0000 0000 0000 0000 0000
00000060: 0000 0000 0000 0000 0000 0000 0000 0000
00000070: 0000 0000 0000 0000 0000 0000 0000 0000
00000080: 0000 0000 0000 0000 0000 0000 0000 0000
00000090: 0000 0000 0000 0000 0000 0000 0000 0000
000000a0: 0000 0000 0000 0000 0000 0000 0000 0000
000000b0: 0000 0000 0000 0000 0000 0000 0000 0000
000000c0: 0000 0000 0000 0000 0000 0000 0000 0000
000000d0: 0000 0000 0000 0000 0000 0000 0000 0000
000000e0: 0000 0000 0000 0000 0000 0000 0000 0000
000000f0: 0000 0000 0000 0000 0000 0000 0000 0000
00000100: 0000 0000 0000 0000 0000 0000 0000 0000
00000110: 0000 0000 0000 0000 0000 0000 0000 0000
00000120: 0000 0000 0000 0000 0000 0000 0000 0000
00000130: 0000 0000 0000 0000 0000 0000 0000 0000
00000140: 0000 0000 0000 0000 0000 0000 0000 0000
00000150: 0000 0000 0000 0000 0000 0000 0000 0000
00000160: 0000 0000 0000 0000 0000 0000 0000 0000
00000170: 0000 0000 0000 0000 0000 0000 0000 0000
00000180: 0000 0000 0000 0000 0000 0000 0000 0000
00000190: 0000 0000 0000 0000 0000 0000 0000 0000
000001a0: 0000 0000 0000 0000 0000 0000 0000 0000
000001b0: 0000 0000 0000 0000 0000 0000 0000 0000
000001c0: 0000 0000 0000 0000 0000 0000 0000 0000
000001d0: 0000 0000 0000 0000 0000 0000 0000 0000
000001e0: 0000 0000 0000 0000 0000 0000 0000 0000
000001f0: 0000 0000 0000 0000 0000 0000 0000 0000
0.0 0.0 0.0 0.0 0.0 0.0 0.0 0.0
0.0 0.0 0.0 0.0 0.0 0.0 0.0 0.0
0.0 0.0 0.0 0.0 0.0 0.0 0.0 0.0
0.0 0.0 0.0 0.0 0.0 0.0 0.0 0.0
0.0 0.0 0.0 0.0 0.0 0.0 0.0 0.0
0.0 0.0 0.0 0.0 0.0 0.0 0.0 0.0
0.0 0.0 0.0 0.0 0.0 0.0 0.0 0.0
0.0 0.0 0.0 0.0 0.0 0.0 0.0 0.0
0.0 0.0 0.0 0.0 0.0 0.0 0.0 0.0
0.0 0.0 0.0 0.0 0.0 0.0 0.0 0.0
0.0 0.0 0.0 0.0 0.0 0.0 0.0 0.0
0.0 0.0 0.0 0.0 0.0 0.0 0.0 0.0
0.0 0.0 0.0 0.0 0.0 0.0 0.0 0.0
0.0 0.0 0.0 0.0 0.0 0.0 0.0 0.0
0.0 0.0 0.0 0.0 0.0 0.0 0.0 0.0
0.0 0.0 0.0 0.0 0.0 0.0 0.0 0.0

network_body._body_endoder.seq_layers.0.weight f4 [128, 6]
00000000: 16da 2f3b 52e2 aabe 9efb 65bf f32b 0e3e
00000010: 7031 b4be f6bd aabe 7607 62bf f443 7b3e
00000020: a1a4 dabc a961 693f 18fd e43e 67ed 393e
00000030: f174 803e f55c d0be d6c5 98be 5798 d4be
00000040: fcef ec3c 4e42 efbe 2f51 233f 56c1 203f
00000050: 27fb bebe 1545 d9be c9ad 49be 2ad9 edbe
00000060: a97e 4a3f 4626 a13e 3bde be3d ca1f 8d3d
00000070: 96ab 4b3e 7f2b 00bf 898b ae3e 93e6 d53e
00000080: 3aea 913e de8a 9abe 892a babc ff97 9b3e
00000090: bead a83e 0296 ac3d e8dd 6e3e f9d5 c3be
000000a0: a651 e23e 81b0 103f 3a17 933e e4b0 a83d
000000b0: 3203 3a3e 818d 8b3e 4540 5dbe d5be e33e
000000c0: c92a 58be c81b 723e ba37 ebbe 30c0 a73c
000000d0: 3902 a63a bdfb 923d 745e 76be 1461 2abe
000000e0: f60e 353e adbd b0be e3d8 f0bd 9758 3cbe
000000f0: bd4f ee3e c41d 3a3f 08b9 09be 21bb cbbe
00000100: 846b 063f f44a f63d 95f6 033f a420 8cbe
00000110: 3695 803e 3c02 b4bd b1ed a23e 25bb b23c
00000120: b1f4 fe3e 2dd3 febd 737a bfbe b380 3f3e
00000130: 6976 a8be 4e1f 38bf a765 90be 1617 b1be
00000140: 6a99 b7be dd95 003f 569d c7be 0352 02bf
00000150: 26f6 d8be cbad 513d 0c55 173e 83e7 11be
00000160: e8b6 31bf a3d2 d23c 3b46 4f3d 2547 f6be
00000170: 72d9 b83d 4d6b e83e 3f2b 65be 2e4d adbe
00000180: fb11 99be 4615 b5be f9d8 ffbd 1da0 ee3e
00000190: 210b e3be ff17 d9be 6d43 9cbe 93eb 803c
000001a0: e9c3 2d3d 0d5d 6dbe 8967 e4be 7b6d bfbc
000001b0: 6b55 333a fe3e 49be 9bfb a0be 4d1b 54be
000001c0: f269 6c3e fbaf 8ebe 7ecb 9a3c dcac 06be
000001d0: ac51 5abf 2fef 9a3e 0f84 cebd c647 1fbd
000001e0: f670 92be f9ce 1a3f 0e9b 13be 1d3b 20bf
000001f0: f3bc 483e a7a0 9f3e 0102 f33e 1792 a0be
00000200: ade1 c83d c30f b73d 4bfb 09bf 5629 09bf
00000210: 4c96 223f 56a8 85be 77a4 5ebd 1a0e 733d
00000220: b6af f23e 4588 e0bd 1f66 18be 0673 333f
00000230: 2a8e 42be 934c c53e f8fa f0be e79d d2be
00000240: c530 a63e a670 0cbd 8668 b4bd 10ee 413f
00000250: a8d9 99bd bca9 043e 68d2 a63d 2d6d a7bd
00000260: daf0 d5be dc5f fc3e dd6c ca3d bcf8 ffbe
00000270: 9cd1 03bf 05b7 583d 6b3a 97bf a632 27be
00000280: f438 303f ab4c 74be 71e1 45be a6d8 b0bc
00000290: 7121 bdbe 9043 cd3d dd3a 27bf 4228 b53e
000002a0: bd61 d63e 0257 ba3e d049 83bd 6804 09be
000002b0: 782b 1d3f b1f3 fbbc f549 013e 930b b6be
000002c0: a67b ebbe 10ca fc3e 4ffe 54be 2d0e babe
000002d0: d545 dd3e 0f0e 8dbe 4612 c2be 3400 ed3e
000002e0: 867b fe3e 5fc3 023d 76d9 e5bd 275c e03e
000002f0: daef 5ebe 5554 4b3f 0292 05bf 68b6 173f
00000300: 6124 9cbe e44c 9a3e 9558 9a3e 2a42 403e
00000310: ad96 47be 4003 61be dd32 16bd b4e0 c6bc
00000320: 3b0a 7d3f eff1 a9be 0d60 a8be 7c19 a8be
00000330: 6a1c ef3e 2d97 a13d 39cf 63be 63ee ebbe
00000340: 54da 42be f65d 68bd d218 e73e 44f3 bf3c
00000350: 7c6c 543e 05c6 e9be 6935 8c3e 1d4c 103f
00000360: 0ba0 553f 2eda cabe 054f f53e 7fdd f53d
00000370: ff81 e43e 8c6e 203f d46f 97bd ccc9 07be
00000380: 5f5e 543e 1fd8 2a3e b3e6 083f 18a9 b33e
00000390: a53c f23e 03f5 b43d b298 d73e 1a87 acbe
000003a0: c614 f93d 9baa df3e 5ac5 6abe 4b1e 85be
000003b0: cffb 033e ea44 713c c156 0ebe c637 51be
000003c0: 5b8d 6f3e e714 9d3e 04ab 87be 0463 8fbe
000003d0: 6932 d9be d918 e6bd 4d1a 5f3f 59e1 bcbe
000003e0: 0d0f 96be 8efd b0bd 6a3b 333d 81cb f4be
000003f0: 4572 f3bd 28e7 abbe 29fb e93e 6fdf 10be
0.002683287 -0.33375794 -0.8983706 0.13883953 -0.35193968 -0.33348054 -0.88292634 0.24537641
-0.02668983 0.9116464 0.44724345 0.18156968 0.2508922 -0.4069592 -0.29838437 -0.41522476
0.028923027 -0.46730274 0.6379575 0.6279501 -0.3730099 -0.42435518 -0.196952 -0.46454746
0.7909952 0.31474513 0.09319731 0.06890829 0.19889674 -0.5006637 0.34090832 0.41777477
0.28499013 -0.30184072 -0.02272536 0.303894 0.32945055 0.08427049 0.23326838 -0.38249186
0.44202918 0.56519324 0.28728658 0.08236864 0.18165281 0.27256396 -0.21606548 0.4448153
-0.21110071 0.2364341 -0.45940953 0.020477384 0.0012665457 0.071769215 -0.24059469 -0.16638595
0.17681488 -0.3451971 -0.11760118 -0.1839317 0.4654521 0.7270167 -0.1344949 -0.39791206
0.52507806 0.12026015 0.5154813 -0.27368653 0.2511384 -0.08789489 0.3182197 0.021817753
0.4979606 -0.12442622 -0.3739811 0.18701439 -0.3290284 -0.7192277 -0.28202555 -0.34587926
-0.35859233 0.50228673 -0.38987225 -0.5090639 -0.42375296 0.051191133 0.14778537 -0.14248471
-0.6941972 0.025735205 0.050604086 -0.48101154 0.090258494 0.45394364 -0.22379778 -0.33847946
-0.2989653 -0.35367793 -0.12492556 0.46606532 -0.44344428 -0.4240112 -0.30520192 0.01573733
0.042423163 -0.23180027 -0.4461024 -0.023367634 0.00068410364 -0.19652936 -0.3144196 -0.2071354
0.2308729 -0.27868637 0.01889586 -0.13151878 -0.8528087 0.30260608 -0.10083782 -0.038886808
-0.28601807 0.60472065 -0.14414617 -0.625902 0.19603328 0.31177256 0.47462466 -0.31361458
0.09808669 0.08938553 -0.5389907 -0.535787 0.63510585 -0.26104993 -0.054356065 0.05933962
0.47399682 -0.10963491 -0.14882706 0.70097387 -0.18999544 0.38534984 -0.47066474 -0.41136095
0.32459083 -0.034287117 -0.08808999 0.7575388 -0.07512218 0.12955374 0.081456006 -0.081751205
-0.41785318 0.49291885 0.09884045 -0.49994457 -0.51491714 0.052908916 -1.1814703 -0.16327915
0.68836904 -0.23857372 -0.1932428 -0.021587681 -0.36939576 0.10022652 -0.65324193 0.35382277
0.41871443 0.36394507 -0.06410563 -0.13380587 0.61394453 -0.03075585 0.12625869 -0.35555705
-0.45992774 0.4937291 -0.20800136 -0.3633894 0.4321734 -0.27549788 -0.37904567 0.46289217
0.49703616 0.0319246 -0.11223118 0.43820307 -0.21771184 0.79425555 -0.52175915 0.59262705
-0.30496505 0.30136788 0.30145708 0.1877524 -0.19491072 -0.21973896 -0.0366696 -0.024277069
0.98843735 -0.33192393 -0.3288578 -0.32831943 0.46701366 0.078901626 -0.22247018 -0.46080312
-0.19028598 -0.056730233 0.45136124 0.023431428 0.20744509 -0.4565889 0.273845 0.5636614
0.8344733 -0.39619583 0.4791185 0.12005138 0.4463043 0.6266868 -0.073943764 -0.13260573
0.20739125 0.16684006 0.5347702 0.35089946 0.47311893 0.08835795 0.42108685 -0.33696824
0.12162165 0.4368485 -0.22926846 -0.25999674 0.12889026 0.014725903 -0.13900281 -0.20431432
0.23393767 0.3068001 -0.26497662 -0.2800523 -0.42421272 -0.11235208 0.87149507 -0.36890677
-0.29308358 -0.08642112 0.043757834 -0.4781151 -0.118870296 -0.33574796 0.45699432 -0.14147733

network_body._body_endoder.seq_layers.2.bias f4 [128]
00000000: 0000 0000 0000 0000 0000 0000 0000 0000
00000010: 0000 0000 0000 0000 0000 0000 0000 0000
00000020: 0000 0000 0000 0000 0000 0000 0000 0000
00000030: 0000 0000 0000 0000 0000 0000 0000 0000
00000040: 0000 0000 0000 0000 0000 0000 0000 0000
00000050: 0000 0000 0000 0000 0000 0000 0000 0000
00000060: 0000 0000 0000 0000 0000 0000 0000 0000
00000070: 0000 0000 0000 0000 0000 0000 0000 0000
00000080: 0000 0000 0000 0000 0000 0000 0000 0000
00000090: 0000 0000 0000 0000 0000 0000 0000 0000
000000a0: 0000 0000 0000 0000 0000 0000 0000 0000
000000b0: 0000 0000 0000 0000 0000 0000 0000 0000
000000c0: 0000 0000 0000 0000 0000 0000 0000 0000
000000d0: 0000 0000 0000 0000 0000 0000 0000 0000
000000e0: 0000 0000 0000 0000 0000 0000 0000 0000
000000f0: 0000 0000 0000 0000 0000 0000 0000 0000
00000100: 0000 0000 0000 0000 0000 0000 0000 0000
00000110: 0000 0000 0000 0000 0000 0000 0000 0000
00000120: 0000 0000 0000 0000 0000 0000 0000 0000
00000130: 0000 0000 0000 0000 0000 0000 0000 0000
00000140: 0000 0000 0000 0000 0000 0000 0000 0000
00000150: 0000 0000 0000 0000 0000 0000 0000 0000
00000160: 0000 0000 0000 0000 0000 0000 0000 0000
00000170: 0000 0000 0000 0000 0000 0000 0000 0000
00000180: 0000 0000 0000 0000 0000 0000 0000 0000
00000190: 0000 0000 0000 0000 0000 0000 0000 0000
000001a0: 0000 0000 0000 0000 0000 0000 0000 0000
000001b0: 0000 0000 0000 0000 0000 0000 0000 0000
000001c0: 0000 0000 0000 0000 0000 0000 0000 0000
000001d0: 0000 0000 0000 0000 0000 0000 0000 0000
000001e0: 0000 0000 0000 0000 0000 0000 0000 0000
000001f0: 0000 0000 0000 0000 0000 0000 0000 0000
0.0 0.0 0.0 0.0 0.0 0.0 0.0 0.0
0.0 0.0 0.0 0.0 0.0 0.0 0.0 0.0
0.0 0.0 0.0 0.0 0.0 0.0 0.0 0.0
0.0 0.0 0.0 0.0 0.0 0.0 0.0 0.0
0.0 0.0 0.0 0.0 0.0 0.0 0.0 0.0
0.0 0.0 0.0 0.0 0.0 0.0 0.0 0.0
0.0 0.0 0.0 0.0 0.0 0.0 0.0 0.0
0.0 0.0 0.0 0.0 0.0 0.0 0.0 0.0
0.0 0.0 0.0 0.0 0.0 0.0 0.0 0.0
0.0 0.0 0.0 0.0 0.0 0.0 0.0 0.0
0.0 0.0 0.0 0.0 0.0 0.0 0.0 0.0
0.0 0.0 0.0 0.0 0.0 0.0 0.0 0.0
0.0 0.0 0.0 0.0 0.0 0.0 0.0 0.0
0.0 0.0 0.0 0.0 0.0 0.0 0.0 0.0
0.0 0.0 0.0 0.0 0.0 0.0 0.0 0.0
0.0 0.0 0.0 0.0 0.0 0.0 0.0 0.0

network_body._body_endoder.seq_layers.2.weight f4 [128, 128]
00000000: e1f0 11bd 2f71 1abe f051 f53d 41f9 96bd
00000010: d965 ba3d 5bd3 2f3d b659 be3d 69cb c13d
00000020: 58ac 273d 0c47 2f3d 6273 ab3d f36c 723c
00000030: c8b9 24bd c370 bebd 9a43 d13d 8804 c03d
00000040: e29a 97bd 16de 8dbd 7316 ca3d 2f33 cfbc
00000050: 69a7 eb3d 6f3f cc3d b7b7 07be 96b2 563c
00000060: 74cd 1cbd 51e9 1b3e 8bfc b53c 50f9 8a3d
00000070: ad47 22bd 6df4 6b3d 828e 9dbd b8f2 23bd
00000080: dada 603d cdb9 44be a661 57be b8f0 b03d
00000090: ce42 75bd 48bb dcbd 0fc1 13bc ddf9 d13c
000000a0: 5954 c93c 24b3 f33c 2bc9 22bc 59c6 fdbc
000000b0: 84cf 423d 5208 66bd 51f9 083e 7d53 c93c
000000c0: 060d 863d bb50 b3bd c405 363d 2531 32bc
000000d0: 252a 13be ceae 80bc 87cf 473e 960b 1c3e
000000e0: 7bb9 c0bd 782c 8f3d 60a5 3e3d bc56 b3bd
000000f0: 3b3a 5f3c d158 29be ce2a 6cbd affb 8ebc
00000100: 0795 263d 6691 d7bd cbf9 793d 2595 a8bd
00000110: 2da9 033c 91e0 493d db22 b2bc 2b90 98bd
00000120: 239d c9bd 7ba1 7c3c b6a2 1e3d 9830 943b
00000130: caa6 bebd 3b36 74bd 8805 bb3d 3c4e 2f3d
00000140: aee0 c3bd 6603 1cbe 0069 1d3d 753a 87bd
00000150: 19e0 1a3c bc64 173d 1d0f 5f3e fc7f 413c
00000160: fd36 0ebe e894 b13d e069 463d 5839 3c3d
00000170: 2bc0 64bd 6cc3 e43d d5f7 a43a 0ab9 26bd
00000180: e645 0a3e aaac a4bb e42f cabd 777c 323c
00000190: 4729 cd3a 4931 9a3d 46ac 353e af54 0cbd
000001a0: 1f49 58bd 9515 9dbc 351c 00bd 3a2c 113e
000001b0: eae5 483d 2403 f0bd be53 01bd 7339 16bc
000001c0: 3841 463d 50c4 f8bd 3d99 f6bc d7c3 b83d
000001d0: 763a b23d 996f a93d 1d2c cc3c a8db 3e3c
000001e0: 20b3 4cbd e8bc da3d 9882 21bc 417b 3bbd
000001f0: 8f64 a7bd 0b05 ddbc 0831 54bd 167b f73d
00000200: ab5d 533d 7e18 e8bd 17f4 88bd 14c7 17be
00000210: 5953 a43d 2b13 713d 0b93 7e3d 007e 6e3d
00000220: 3634 763c 699c 89bb cec1 87bc 2743 b13d
00000230: e9ef 9dbc aec1 10bc 4511 35be d1a4 093d
00000240: 9630 efbb ebc0 713c 2b04 83be 7747 58bd
00000250: 50b5 07bd 9a6f de3d ceb5 0a3d de78 cbbc
00000260: 02dc 183e f8c4 4a3d 04ea 91bc 22b1 583e
00000270: e0ff 0bbe 42c1 89bd c7a6 b03c 64fc 2ebe
00000280: 4ae7 ae3d 246a 1c3c 740a 27be 401a deb9
00000290: 8087 93bd 58e4 82bd 6b7d b8bd 4b35 09bd
000002a0: 5830 72bd 922c ce3d 5107 d6bd 1779 9b3d
000002b0: c7ae 523c 9f86 dfbc 368b a5bb 760d 02bc
000002c0: 082d 70be e14f d13d 504d 7a3d f104 57be
000002d0: 3b93 a7bc 9781 ffbd 1dc0 18be bb32 033e
000002e0: d2fa 133e dd80 0abd 3489 863d 9e0a 283d
000002f0: ada8 213a 23d8 35bd 4909 373d ed90 243e
00000300: 8007 ea3c d9d0 40be a8dc 73bd b0db c63d
00000310: 62cd bbbb 8d95 1fbd e066 27bd cf4a 023e
00000320: 8ddd edbd f775 893d 24d4 dabd f1b7 65bd
00000330: 29b7 423c 504d 373d 77e6 55bb 0feb 083e
00000340: 055d f9bc 5c5f 823d 69d9 07be ae8a d63b
00000350: d03c f73d c53f edbd bb64 cabd 62be dfbd
00000360: 94e4 adbd e659 adbd da41 86bd 66c2 58bd
00000370: d0b8 47be e0ca 443d ff98 403d 6c6a a2bc
00000380: 02b2 24bd 7fde 973b 3ad2 33bd e78c debd
00000390: cb18 363d 85b6 c33d 29e8 febd 9add d1bd
000003a0: f80d 6e3d e37f 9abd f24c 35bd 1608 30bc
000003b0: 1c27 593d 3072 d0bd 0ea6 8dbd 6e50 cfba
000003c0: 8b55 e33c c3a3 a0bd 2146 013e f89c fa3d
000003d0: 1f78 053e c6c4 e0bd 65e3 5c3d cd0a 0cbe
000003e0: 8e52 e3bd 0160 13bd 5640 90bc a69c a639
000003f0: 9e6f 08be ce0b 7f3c c1f4 7d3c e7b9 9b3d
-0.03563011 -0.15082239 0.11978519 -0.0737176 0.09101457 0.042926174 0.09294455 0.094626255
0.040935844 0.042792365 0.08371617 0.014796483 -0.040216237 -0.09298851 0.10217972 0.09375864
-0.074025884 -0.06927125 0.09867563 -0.02529296 0.1150654 0.099730365 -0.13253675 0.013104102
-0.038281873 0.15225722 0.022215148 0.06785834 -0.039619137 0.05760615 -0.07693197 -0.040026397
0.054896213 -0.19211502 -0.21033344 0.086396635 -0.059878163 -0.107779086 -0.009018197 0.02563184
0.024576353 0.029748507 -0.0099356575 -0.030978369 0.047561184 -0.05616028 0.13376357 0.024575943
0.06545453 -0.087556325 0.044439092 -0.010875975 -0.14371546 -0.015708353 0.19512759 0.15238795
-0.094103776 0.069909036 0.046544433 -0.08756778 0.013624723 -0.16537787 -0.05765801 -0.017453996
0.040669467 -0.105257794 0.061029237 -0.08231572 0.00803594 0.04928643 -0.021745136 -0.07449373
-0.098444246 0.015419359 0.038729392 0.0045223944 -0.09309156 -0.05962203 0.091319144 0.04279922
-0.095643386 -0.15235671 0.038430214 -0.06602947 0.009452843 0.036961302 0.21783109 0.011810299
-0.13888164 0.0867098 0.048440814 0.045953125 -0.05584733 0.11170086 0.0012586067 -0.04070381
0.13503227 -0.005025466 -0.09872416 0.010893933 0.001565256 0.07528932 0.17741498 -0.034260448
-0.05280411 -0.01917533 -0.0312769 0.14177027 0.049047388 -0.11719349 -0.031574003 -0.00916897
0.04840204 -0.12146819 -0.030102367 0.090217285 0.08702557 0.08273239 0.024923379 0.01164905
-0.049975514 0.10680562 -0.009857796 -0.04577184 -0.08173477 -0.026979944 -0.051804572 0.12084024
0.051603 -0.113327965 -0.066871814 -0.14822036 0.0802371 0.05885617 0.06215195 0.05822563
0.0150270965 -0.0041995537 -0.016571905 0.086553864 -0.019279437 -0.008835239 -0.17682369 0.033604447
-0.007299493 0.014755468 -0.25589117 -0.05280253 -0.033131897 0.1086113 0.03386479 -0.024837907
0.14927676 0.04950425 -0.017811783 0.21161321 -0.13671827 -0.06726314 0.0215639 -0.17088467
0.08540209 0.00954679 -0.16312581 -0.00042362697 -0.07203579 -0.06391209 -0.090082966 -0.03349809
-0.059128135 0.10067095 -0.10450614 0.075914554 0.012859053 -0.027285872 -0.0050519956 -0.00793778
-0.23454678 0.10220314 0.061108887 -0.20997979 -0.020455947 -0.12475889 -0.14917035 0.12812321
0.14451149 -0.0338143 0.06569138 0.04102575 0.0006166797 -0.044395577 0.04468659 0.1607091
0.02856803 -0.18829669 -0.059536606 0.09709871 -0.0057312706 -0.038960982 -0.040869594 0.1272385
-0.11614523 0.06711953 -0.10684994 -0.056083623 0.011884489 0.044751465 -0.0032638588 0.13370918
-0.030439863 0.063658446 -0.13266529 0.0065472936 0.12072146 -0.11584429 -0.09882494 -0.109249845
-0.084908634 -0.084644124 -0.06555529 -0.052919768 -0.19504094 0.04804504 0.04702091 -0.019826137
-0.040208824 0.004634678 -0.04390166 -0.10866719 0.04445724 0.09556297 -0.12446625 -0.10247345
0.05811879 -0.07543924 -0.044262834 -0.010744115 0.053015813 -0.101780295 -0.06916438 -0.0015816817
0.027750751 -0.07843735 0.12624408 0.12236971 0.13034104 -0.109750316 0.053927798 -0.13675995
-0.110997304 -0.03598023 -0.017608803 0.000317787 -0.13323829 0.015566779 0.015500248 0.076038174
