CubeTest/results/ppo/MoveToGoal/MoveToGoal-2176.onnx (onnx, 71603 bytes, 6 tensors)

action_model._discrete_distribution.branches.0.bias f4 [5]
0.0 0.0 0.0 0.0 0.0
00000000: 0000 0000 0000 0000 0000 0000 0000 0000
00000010: 0000 0000

action_model._discrete_distribution.branches.0.weight f4 [5, 128]
-0.005149008 -0.0036151675 -0.015360969 -0.0034285728 -0.0076540867 0.0026533129 -0.005204129 0.01178326
-0.0013012337 -0.00032575813 -0.0075678113 0.008083038 -0.0034766335 0.008196863 -0.005266748 0.007157679
0.023733346 -0.0016675616 0.01093266 -0.0014795153 0.0012567763 -0.007746921 -0.0072194682 0.006316952
-0.01055019 -0.0016972263 0.0035242022 -0.0014733992 0.00360846 -0.0067224423 0.014699357 0.005141869
-0.011616926 -0.0053725857 0.010101268 -0.0027943363 0.0070801936 -0.0085785175 -0.00950272 0.0036740934
0.0041309097 -0.0051386035 -0.0127723785 -0.0034496307 -0.0056212908 -0.0011183446 0.0029616784 0.010131523
0.006836138 0.0026615795 0.0012115146 0.006800843 0.008189416 -0.004596303 0.007294039 0.0061437017
0.0032150343 0.0096520865 0.00507338 -0.004098067 0.009030576 -0.00016706313 0.017562384 0.0106584625
-0.0016377959 0.002433023 0.008127275 0.006732799 -0.006125636 -0.0014380772 -0.00023178534 0.0075185522
-0.008315749 0.0012852512 -0.019432807 -0.0035265014 0.0014757985 0.0065778643 -0.009417488 -0.010414803
-0.0038179345 -0.016999302 -0.0011568742 -0.011674638 -0.0019101031 0.005220791 -0.0044913464 0.006217576
0.0046795323 0.012963319 -0.021826008 -0.016874755 -0.0031747296 0.015580072 -0.0041754264 0.0032485493
0.01157827 -0.0002108212 0.0182298 0.0006517504 -0.0019693242 0.0058120745 -0.0048017646 -0.025243357
-0.016928997 0.00231121 -0.00051593507 -0.00637424 0.00950384 -0.009953904 0.017087556 -0.00094292033
0.00043079635 0.0006852955 0.0067347134 -0.01093938 0.021163188 -0.0013554259 0.025044149 -0.01396655
-0.02054646 0.014193109 -0.012927142 -0.0055295313 0.0016203575 0.01120418 -0.023462959 -0.0077717504
-0.0070584896 -0.0030819483 0.006800495 -0.0036291068 -0.0048414185 -0.00022704642 0.006953896 -0.0009189672
-0.010968945 0.0013913916 -0.011449626 -0.009351235 -0.0036735677 0.011551163 -0.0067617605 -0.007746586
-0.001255206 0.013548228 -0.0025326137 0.000464379 -0.00821634 0.0045919255 -0.0005524715 0.0009449942
-0.0020776258 -0.005596381 0.007065307 -0.003192002 0.007049044 0.01312981 0.0049398905 -0.0016693037
-0.0020040513 -0.004378223 0.0061644255 -0.001537577 0.0065631308 0.0040154452 -0.00482957 -0.010202162
-0.013482216 -0.013657567 0.017041255 0.004676714 -0.013805861 0.008689878 0.010520682 0.0010267843
-0.00076945586 0.0073895054 -0.0057992376 -0.0013685665 0.0061736023 -0.012479392 -0.0032033902 0.008220273
-0.0028939138 0.0004998119 0.014257011 0.013232688 0.004067821 -0.0029254276 -0.0029670342 -0.0053409208
-0.0057438663 -0.0068955496 -0.004735045 -0.0022853285 -0.0073852027 -0.002427866 -0.003654465 0.016753916
-0.00846612 -0.009013194 0.013011942 0.00923852 -0.000167461 0.0034726192 0.009003783 0.0033738024
-0.0015763246 -0.009284102 -0.0008733314 0.0027661794 -0.004905647 0.0022152292 0.007975238 -0.005786086
0.012458853 0.0012549305 0.021096814 0.012866099 0.013020991 -0.013036235 0.0051267277 0.005185229
-0.0021978084 -0.014344445 -2.9055062e-05 -0.0032327373 0.001245383 -0.015120188 0.0077506565 0.0005445025
-0.0060984883 0.0062797405 -0.005261575 0.0056769475 -0.0053470163 -0.003985483 0.0045934087 -0.008584128
0.009466 -0.007834672 -6.7381297e-06 -0.0074880957 0.010141506 0.008923215 -0.0065324865 -0.002998969
-0.0030338818 0.0009162485 0.015259217 0.00079872133 -0.0033764038 -0.0030750248 0.0007562305 -0.008239119
00000000: 02b9 a8bb 72ec 6cbb 93ac 7bbc e8b1 60bb
00000010: 22cf fabb 34e3 2d3b 6687 aabb 930e 413c
00000020: 288e aaba 84ca aab9 67fb f7bb b86e 043c
00000030: 3bd8 63bb 234c 063c af94 acbb f78a ea3b
00000040: 6f6c c23c 1592 daba e61e 333c 4cec c1ba
00000050: 6aba a43a e2d9 fdbb 4a91 ecbb 6ffe ce3b
00000060: b4da 2cbc 7775 deba 4df6 663b 131f c1ba
00000070: ea7b 6c3b ef47 dcbb 92d5 703c 207d a83b
00000080: eb54 3ebc 840c b0bb ca7f 253c 2f21 37bb
00000090: f800 e83b e98c 0cbc 4cb1 1bbc 0fc9 703b
000000a0: 955c 873b bb61 a8bb 3d43 51bc 3313 62bb
000000b0: ce32 b8bb 6b95 92ba b818 423b b0fe 253c
000000c0: af01 e03b e56d 2e3b afcb 9e3a 9bd9 de3b
000000d0: e62c 063c 969c 96bb d502 ef3b 1b51 c93b
000000e0: 53b3 523b c923 1e3c 993e a63b 1449 86bb
000000f0: fbf4 133c ab2d 2fb9 fdde 8f3c d5a0 2e3c
00000100: 50ab d6ba 5a73 1f3b 4328 053c d09e dc3b
00000110: 8fb9 c8bb dd7d bcba 670b 73b9 305e f63b
00000120: c73e 08bc e075 a83a 8d31 9fbc e01c 67bb
00000130: 956f c13a 208b d73b cf4b 1abc daa2 2abc
00000140: 5036 7abb 1f42 8bbc 42a2 97ba fb46 3fbc
00000150: 6d5c faba 2b13 ab3b 252c 93bb cfbc cb3b
00000160: c356 993b 1a64 543c 75cc b2bc ed3c 8abc
00000170: 200f 50bb 8f43 7f3c 04d2 88bb 9de5 543b
00000180: c9b2 3d3c e30f 5db9 a956 953c 3bda 2a3a
00000190: c70f 01bb 3773 be3b 1f58 9dbb 28cb cebc
000001a0: aeae 8abc ab77 173b d13f 07ba 00df d0bb
000001b0: feb5 1b3c b315 23bc 34fb 8b3c 502e 77ba
000001c0: 82dc e139 67a5 333a dfae dc3b 163b 33bc
000001d0: 6c5e ad3c 8ca8 b1ba 6329 cd3c f5d3 64bc
000001e0: 0d51 a8bc 378a 683c 5dcc 53bc 1231 b5bb
000001f0: 2d62 d43a bd91 373c 6435 c0bc 2baa febb
00000200: e74a e7bb 83fa 49bb b0d6 de3b 4fd6 6dbb
00000210: c3a4 9ebb 4f13 6eb9 82dd e33b d8e6 70ba
00000220: 17b7 33bc 5b5f b63a 3697 3bbc ec35 19bc
00000230: 3dc0 70bb 1741 3d3c c291 ddbb 13d7 fdbb
00000240: b985 a4ba 63f9 5d3c 35fa 25bb e577 f339
00000250: d49d 06bc dd77 963b bcd3 10ba 7db9 773a
00000260: c728 08bb d961 b7bb 1784 e73b e830 51bb
00000270: abfb e63b 6a1e 573c cede a13b 8acc daba
00000280: 6756 03bb 3277 8fbb f3fe c93b 8688 c9ba
00000290: 880f d73b ff93 833b 5f41 9ebb f826 27bc
000002a0: 83e4 5cbc fdc3 5fbc 1a9a 8b3c 1f3f 993b
000002b0: fa31 62bc fd5f 0e3c f05e 2c3c 2a95 863a
000002c0: 4fb5 49ba aa23 f23b 8807 bebb 7961 b3ba
000002d0: ee4b ca3b 5d76 4cbc f8ef 51bb 53ae 063c
000002e0: d1a7 3dbb cf05 033a 3d96 693c ebcd 583c
000002f0: 5b4b 853b 88b8 3fbb 9372 42bb e402 afbb
00000300: 0b37 bcbb 10f4 e1bb 7028 9bbb 73c5 15bb
00000310: 92ff f1bb d51c 1fbb c07f 6fbb 823f 893c
00000320: 7bb5 0abc 13ac 13bc 0a30 553c 295d 173c
00000330: 7898 2fb9 e294 633b 9a84 133c 031b 5d3b
00000340: ad9c ceba 591c 18bc 47f0 64ba ca48 353b
00000350: 8dbf a0bb 612d 113b 93aa 023c 3599 bdbb
00000360: 3820 4c3c 7b7c a43a 3ad3 ac3c 55cc 523c
00000370: ff55 553c ef95 55bc 1cfe a73b dae8 a93b
00000380: 1b09 10bb f704 6bbc 45bb f3b7 55dc 53bb
00000390: 1f3c a33a aaba 77bc 38f9 fd3b f2bc 0e3a
000003a0: d4d5 c7bb 48c6 cd3b 4a69 acbb b005 ba3b
000003b0: 0636 afbb a898 82bb 4e84 963b 71a4 0cbc
000003c0: 4817 1b3c ff5c 00bc 1818 e2b6 b35e f5bb
000003d0: 8f28 263c ad32 123c 780e d6bb 5a8a 44bb
000003e0: 17d4 46bb 6530 703a cb01 7a3c 4861 513a
000003f0: a846 5dbb 5b86 49bb c53d 463a 5ffd 06bc

network_body._body_endoder.seq_layers.0.bias f4 [128]
0.0 0.0 0.0 0.0 0.0 0.0 0.0 0.0
0.0 0.0 0.0 0.0 0.0 0.0 0.0 0.0
0.0 0.0 0.0 0.0 0.0 0.0 0.0 0.0
0.0 0.0 0.0 0.0 0.0 0.0 0.0 0.0
0.0 0.0 0.0 0.0 0.0 0.0 0.0 0.0
0.0 0.0 0.0 0.0 0.0 0.0 0.0 0.0
0.0 0.0 0.0 0.0 0.0 0.0 0.0 0.0
0.0 0.0 0.0 0.0 0.0 0.0 0.0 0.0
0.0 0.0 0.0 0.0 0.0 0.0 0.0 0.0
0.0 0.0 0.0 0.0 0.0 0.0 0.0 0.0
0.0 0.0 0.0 0.0 0.0 0.0 0.0 0.0
0.0 0.0 0.0 0.0 0.0 0.0 0.0 0.0
0.0 0.0 0.0 0.0 0.0 0.0 0.0 0.0
0.0 0.0 0.0 0.0 0.0 0.0 0.0 0.0
0.0 0.0 0.0 0.0 0.0 0.0 0.0 0.0
0.0 0.0 0.0 0.0 0.0 0.0 0.0 0.0
00000000: 0000 0000 0000 0000 0000 0000 0000 0000
00000010: 0000 0000 0000 0000 0000 0000 0000 0000
00000020: 0000 0000 0000 0000 0000 0000 0000 0000
00000030: 0000 0000 0000 0000 0000 0000 0000 0000
00000040: 0000 0000 0000 0000 0000 0000 0000 0000
00000050: 0000 0000 0000 0000 0000 0000 0000 0000
00000060: 0000 0000 0000 0000 0000 0000 0000 0000
00000070: 0000 0000 0000 0000 0000 0000 0000 0000
00000080: 0000 0000 0000 0000 0000 0000 0000 0000
00000090: 0000 0000 0000 0000 0000 0000 0000 0000
000000a0: 0000 0000 0000 0000 0000 0000 0000 0000
000000b0: 0000 0000 0000 0000 0000 0000 0000 0000
000000c0: 0000 0000 0000 0000 0000 0000 0000 0000
000000d0: 0000 0000 0000 0000 0000 0000 0000 0000
000000e0: 0000 0000 0000 0000 0000 0000 0000 0000
000000f0: 0000 0000 0000 0000 0000 0000 0000 0000
00000100: 0000 0000 0000 0000 0000 0000 0000 0000
00000110: 0000 0000 0000 0000 0000 0000 0000 0000
00000120: 0000 0000 0000 0000 0000 0000 0000 0000
00000130: 0000 0000 0000 0000 0000 0000 0000 0000
00000140: 0000 0000 0000 0000 0000 0000 0000 0000
00000150: 0000 0000 0000 0000 0000 0000 0000 0000
00000160: 0000 0000 0000 0000 0000 0000 0000 0000
00000170: 0000 0000 0000 0000 0000 0000 0000 0000
00000180: 0000 0000 0000 0000 0000 0000 0000 0000
00000190: 0000 0000 0000 0000 0000 0000 0000 0000
000001a0: 0000 0000 0000 0000 0000 0000 0000 0000
000001b0: 0000 0000 0000 0000 0000 0000 0000 0000
000001c0: 0000 0000 0000 0000 0000 0000 0000 0000
000001d0: 0000 0000 0000 0000 0000 0000 0000 0000
000001e0: 0000 0000 0000 0000 0000 0000 0000 0000
000001f0: 0000 0000 0000 0000 0000 0000 0000 0000

network_body._body_endoder.seq_layers.0.weight f4 [128, 1]
-0.3657047 -1.2510564 -0.22799374 -0.47492853 -0.7104096 0.23859492 0.15191324 1.1449734
-0.33445483 -1.3258327 0.79575527 -0.016818436 0.28612334 0.2850348 2.14101 0.0039452445
-0.14493038 -0.022850567 -0.80488133 -0.9802566 1.1474236 -0.14068958 0.23633175 0.027913531
-0.91465443 2.4143004 -0.35398403 0.5973556 0.3521711 -1.062684 -0.5679516 -0.7783417
0.273135 -0.024192987 0.18629837 0.09060193 -1.1856723 1.1314048 -0.26652429 1.5284089
-1.0566051 -1.7620114 0.5466458 0.15395425 -0.4659406 2.2002754 0.8780706 -0.46895593
0.6531303 0.33310214 -1.0352632 -0.96629834 -0.053161483 -0.3291931 -0.74623555 -1.4533546
0.41132218 -0.17647006 -1.355892 -0.7518248 0.73234195 -0.65296805 -0.6566701 0.88137573
0.5838376 0.0059964 -1.7237359 1.02501 -0.22685573 0.7778892 1.8260975 0.8113937
0.44125733 -0.7454339 0.20729451 -0.6741138 -0.33978352 1.4929748 0.6063827 1.01061
0.67975324 -1.0773741 0.31706998 -0.9250236 -1.940455 -1.4426309 -0.18806775 0.6171988
0.036169026 0.24607484 0.55364376 0.014562081 0.010627771 0.72745264 0.92424256 1.5708729
-0.34434563 0.123533964 0.0680373 -0.14459284 2.4510949 1.9222406 -1.0302384 0.07972005
-0.33948123 0.58013064 0.32453597 1.2172666 -1.3480016 1.56351 -0.23283143 -0.19089681
0.37376451 0.33717224 0.96942145 2.065307 -0.19847874 0.34934965 0.18742768 0.08509273
-0.4797046 -1.9141042 -1.1995312 0.35675815 1.2548769 1.7616606 0.86316633 -1.6640341
00000000: a53d bbbe 9e22 a0bf 3177 69be d529 f3be
00000010: 67dd 35bf 3a52 743e 258f 1b3e 7d8e 923f
00000020: aa3d abbe e3b4 a9bf 9eb6 4b3f d1c6 89bc
00000030: c27e 923e 15f0 913e 4f06 0940 1c47 813b
00000040: a168 14be 1d31 bbbc b40c 4ebf 19f2 7abf
00000050: c7de 923f ee10 10be f300 723e ebaa e43c
00000060: cb26 6abf e683 1a40 653d b5be 4cec 183f
00000070: c54f b43e 0806 88bf 4765 11bf 6741 47bf
00000080: 5ad8 8b3e 5f30 c6bc 00c5 3e3e 818d b93d
00000090: 1cc4 97bf dfd1 903f df75 88be e7a2 c33f
000000a0: d63e 87bf 9789 e1bf fbf0 0b3f 2fa6 1d3e
000000b0: c48f eebe 50d1 0c40 3cc9 603f fe1a f0be
000000c0: 8c33 273f 5d8c aa3e 8183 84bf 545f 77bf
000000d0: dbbf 59bd ff8b a8be 4b09 3fbf 8607 babf
000000e0: d298 d23e 91b4 34be de8d adbf 9777 40bf
000000f0: c37a 3b3f ea28 27bf 881b 28bf d7a1 613f
00000100: 6276 153f 737d c43b 61a3 dcbf 8733 833f
00000110: de4c 68be bf23 473f 90bd e93f 7fb7 4f3f
00000120: 7bec e13e c2d4 3ebf 0345 543e b992 2cbf
00000130: 1bf8 adbe cc19 bf3f e63b 1b3f ab5b 813f
00000140: 4f04 2e3f 65e7 89bf ff56 a23e 59ce 6cbf
00000150: d460 f8bf 21a8 b8bf d594 40be be00 1e3f
00000160: f925 143d 0bfb 7b3e 99bb 0d3f cb95 6e3c
00000170: 1a20 2e3c 563a 3a3f 299b 6c3f 5d12 c93f
00000180: 124e b0be 60ff fc3d 2457 8b3d 2510 14be
00000190: bdde 1c40 fb0b f63f dade 83bf 4444 a33d
000001a0: 7cd0 adbe 7183 143f 9429 a63e 64cf 9b3f
000001b0: 518b acbf 1821 c83f 5d6b 6ebe 747a 43be
000001c0: 105e bf3e d7a1 ac3e 012c 783f fd2d 0440
000001d0: 033e 4bbe f5dd b23e 0bed 3f3e 1945 ae3d
000001e0: d79b f5be 5e01 f5bf 3d8a 99bf 01a9 b63e
000001f0: ce9f a03f 187e e13f 78f8 5c3f 12ff d4bf

network_body._body_endoder.seq_layers.2.bias f4 [128]
0.0 0.0 0.0 0.0 0.0 0.0 0.0 0.0
0.0 0.0 0.0 0.0 0.0 0.0 0.0 0.0
0.0 0.0 0.0 0.0 0.0 0.0 0.0 0.0
0.0 0.0 0.0 0.0 0.0 0.0 0.0 0.0
0.0 0.0 0.0 0.0 0.0 0.0 0.0 0.0
0.0 0.0 0.0 0.0 0.0 0.0 0.0 0.0
0.0 0.0 0.0 0.0 0.0 0.0 0.0 0.0
0.0 0.0 0.0 0.0 0.0 0.0 0.0 0.0
0.0 0.0 0.0 0.0 0.0 0.0 0.0 0.0
0.0 0.0 0.0 0.0 0.0 0.0 0.0 0.0
0.0 0.0 0.0 0.0 0.0 0.0 0.0 0.0
0.0 0.0 0.0 0.0 0.0 0.0 0.0 0.0
0.0 0.0 0.0 0.0 0.0 0.0 0.0 0.0
0.0 0.0 0.0 0.0 0.0 0.0 0.0 0.0
0.0 0.0 0.0 0.0 0.0 0.0 0.0 0.0
0.0 0.0 0.0 0.0 0.0 0.0 0.0 0.0
00000000: 0000 0000 0000 0000 0000 0000 0000 0000
00000010: 0000 0000 0000 0000 0000 0000 0000 0000
00000020: 0000 0000 0000 0000 0000 0000 0000 0000
00000030: 0000 0000 0000 0000 0000 0000 0000 0000
00000040: 0000 0000 0000 0000 0000 0000 0000 0000
00000050: 0000 0000 0000 0000 0000 0000 0000 0000
00000060: 0000 0000 0000 0000 0000 0000 0000 0000
00000070: 0000 0000 0000 0000 0000 0000 0000 0000
00000080: 0000 0000 0000 0000 0000 0000 0000 0000
00000090: 0000 0000 0000 0000 0000 0000 0000 0000
000000a0: 0000 0000 0000 0000 0000 0000 0000 0000
000000b0: 0000 0000 0000 0000 0000 0000 0000 0000
000000c0: 0000 0000 0000 0000 0000 0000 0000 0000
000000d0: 0000 0000 0000 0000 0000 0000 0000 0000
000000e0: 0000 0000 0000 0000 0000 0000 0000 0000
000000f0: 0000 0000 0000 0000 0000 0000 0000 0000
00000100: 0000 0000 0000 0000 0000 0000 0000 0000
00000110: 0000 0000 0000 0000 0000 0000 0000 0000
00000120: 0000 0000 0000 0000 0000 0000 0000 0000
00000130: 0000 0000 0000 0000 0000 0000 0000 0000
00000140: 0000 0000 0000 0000 0000 0000 0000 0000
00000150: 0000 0000 0000 0000 0000 0000 0000 0000
00000160: 0000 0000 0000 0000 0000 0000 0000 0000
00000170: 0000 0000 0000 0000 0000 0000 0000 0000
00000180: 0000 0000 0000 0000 0000 0000 0000 0000
00000190: 0000 0000 0000 0000 0000 0000 0000 0000
000001a0: 0000 0000 0000 0000 0000 0000 0000 0000
000001b0: 0000 0000 0000 0000 0000 0000 0000 0000
000001c0: 0000 0000 0000 0000 0000 0000 0000 0000
000001d0: 0000 0000 0000 0000 0000 0000 0000 0000
000001e0: 0000 0000 0000 0000 0000 0000 0000 0000
000001f0: 0000 0000 0000 0000 0000 0000 0000 0000

network_body._body_endoder.seq_layers.2.weight f4 [128, 128]
-0.082252644 0.04621669 0.011392384 0.018288104 -0.026664661 0.028677648 -0.07749198 -0.17289354
-0.035230074 -0.11709053 0.03621671 0.059793565 0.12829198 0.0041482644 -0.024322316 -0.0315636
-0.06588025 0.0026162677 -0.10152335 -0.04546084 0.03401518 0.0768676 -0.0675922 0.013007384
0.044187956 -0.0889772 -0.022160599 0.06747726 0.0024208114 0.17050269 0.10094469 -0.1627904
0.09200627 0.040622868 -0.104478955 0.25721753 -0.039859027 -0.11804066 0.08126354 -0.02544859
0.06813699 -0.123985045 -0.077508844 0.09238499 0.06251678 0.017330987 0.14034043 -0.097930826
0.06427405 -0.0121875275 0.030299077 -0.022770306 -0.024676155 0.08138002 -0.18691581 -0.0507075
-0.054059234 0.002531705 0.10379523 0.0022456716 -0.12913828 0.0637049 0.047178064 0.02004991
0.019251252 -0.015605433 -0.03768502 0.15797758 -0.15700191 -0.014074465 -0.011772945 0.06939636
-0.09342754 0.09836166 0.12012566 -0.02680898 -0.019696014 -0.23948567 -0.07888537 0.08014571
-0.06650363 0.09224431 -0.23599301 0.04189758 -0.0067777066 -0.13231382 -0.011481791 0.10607377
0.17740312 0.06624352 -0.03775334 0.05886211 0.094618164 -0.001996316 -0.07322692 -0.11801522
0.111603886 -0.07841849 0.010295784 0.06423451 0.056682162 -0.17662968 -0.05887433 0.03801058
-0.058900867 0.10075469 0.01316029 -0.019087914 0.028800417 -0.048809763 -0.024852065 0.00830143
0.05674916 0.038603354 -0.07356691 -0.030965894 0.21499737 -0.10926112 -0.024229951 0.06442319
-0.09520326 0.05762936 0.06381043 -0.102475256 -0.100012735 -0.053125653 0.07258963 -0.050570473
-0.071195446 0.02459686 -0.018112086 -0.04518943 0.03703684 0.05189301 -0.061013903 0.093061
0.107172035 0.041154638 0.007015627 -0.05306885 -0.04771835 0.04798377 0.20056336 -0.088565044
0.07215828 -0.074382946 0.016520476 0.010861674 -0.13217346 0.0469829 0.102502726 -0.0666368
-0.05651811 0.019531326 0.006212012 0.0006528764 -0.18026347 -0.018808587 0.005496626 -0.22948107
-0.020333959 0.1301692 0.15425025 -0.13560648 -0.047662623 0.037466306 0.09267794 -0.0009672734
-0.088029325 -0.026164094 0.035004906 0.02646066 0.13805622 -0.032412402 0.03209132 -0.03796884
0.043995593 -0.13155223 -0.054538563 0.0020531395 -0.028067686 0.13835609 0.053824365 -0.07397295
-0.0069836923 0.10113122 -0.019192448 0.06199037 -0.07193015 0.08747128 -0.099188216 -0.122012205
0.021627918 0.11752423 0.021909608 0.16129743 -0.08944369 0.020380618 -0.057777766 0.052895863
0.0501242 0.13251619 0.070146024 -0.039505087 -0.0556896 0.050464015 -0.23401548 0.036930233
0.0011197815 -0.09475026 0.089081965 -0.013499555 -0.031827845 -0.02510818 0.11912912 -0.022233944
-0.022312794 0.106643125 -0.00478548 0.011454811 0.14080584 0.083992936 -0.20391421 -0.025902174
-0.018390065 -0.098319106 0.0069228 0.0664144 0.11674567 0.046809036 -0.10313808 0.041295785
-0.022687314 -0.17914912 -0.052209254 0.037477158 0.06318442 -0.023916028 0.06709778 0.2582345
0.07816668 -0.053767998 -0.09811436 0.15726523 -0.04455304 -0.019227874 -0.05131493 0.058334183
-0.16628547 0.02685448 -0.009074346 0.07596653 0.018930908 0.18961586 0.104587846 0.016282408
00000000: 1374 a8bd b64d 3d3d 1fa7 3a3c efd0 953c
00000010: d96f dabc 63ed ea3c 1db4 9ebd 010b 31be
00000020: 694d 10bd 29cd efbd f957 143d 19ea 743d
00000030: f95e 033e 2aee 873b 983f c7bc d548 01bd
00000040: 39ec 86bd b075 2b3b 79eb cfbd 2535 3abd
00000050: 8053 0b3d c36c 9d3d c86d 8abd ec1c 553c
00000060: 6efe 343d ae39 b6bd 258a b5bc 8531 8a3d
00000070: 7aa6 1e3b 4298 2e3e 17bc ce3d 87b2 26be
00000080: c96d bc3d 2a64 263d 10f9 d5bd 04b2 833e
00000090: 3843 23bd 4dbf f1bd 806d a63d 9079 d0bc
000000a0: 688b 8b3d dfeb fdbd f5bc 9ebd 5734 bd3d
000000b0: cc08 803d b7f9 8d3c 67b5 0f3e f58f c8bd
000000c0: 1da2 833d 32ae 47bc c535 f83c cb88 babc
000000d0: a625 cabc 91aa a63d dc66 3fbe abb2 4fbd
000000e0: 376d 5dbd f6ea 253b 9892 d43d 1e2c 133b
000000f0: d33c 04be b777 823d c93d 413d b53f a43c
00000100: cdb4 9d3c eead 7fbc 9c5b 1abd e0c4 213e
00000110: 1cc5 20be 9698 66bc 4fe3 40bc ae1f 8e3d
00000120: f056 bfbd d771 c93d 7104 f63d 829e dbbc
00000130: 8959 a1bc bb3b 75be a78e a1bd 6f23 a43d
00000140: 0e33 88bd 96ea bc3d 27a8 71be cc9c 2b3d
00000150: 8617 debb 467d 07be 1f1e 3cbc 343d d93d
00000160: 2aa9 353e afaa 873d 3fa3 1abd 6519 713d
00000170: 2bc7 c13d a0d4 02bb fff7 95bd f7b1 f1bd
00000180: 9490 e43d e099 a0bd a6af 283c 628d 833d
00000190: 8e2b 683d 69de 34be 3626 71bd fbb0 1b3d
000001a0: 0942 71bd 7a58 ce3d 429e 573c 425e 9cbc
000001b0: daee eb3c bfec 47bd 8f96 cbbc b902 083c
000001c0: cf71 683d 8d1e 1e3d 40aa 96bd 30ac fdbc
000001d0: 4528 5c3e 4bc4 dfbd e47d c6bc 4ef0 833d
000001e0: edf9 c2bd c40c 6c3d 0baf 823d 8cde d1bd
000001f0: 7ad3 ccbd 499a 59bd dfa9 943d fc22 4fbd
00000200: ebce 91bd 5b7f c93c cc5f 94bc 8d18 39bd
00000210: f1b3 173d c48d 543d b7e9 79bd c496 be3d
00000220: 037d db3d c491 283d 58e3 e53b b95e 59bd
00000230: 5174 43bd a18a 443d 7b60 4d3e 9761 b5bd
00000240: b8c7 933d 1656 98bd f355 873c 2af5 313c
00000250: 7b58 07be 2471 403d f3ec d13d e078 88bd
00000260: 897f 67bd 2900 a03c 228e cb3b cb25 2b3a
00000270: fd96 38be 7714 9abc 0a1d b43b 16fd 6abe
00000280: 6793 a6bc 134b 053e c7f3 1d3e 6ddc 0abe
00000290: e239 43bd 4576 193d efcd bd3d 9e90 7dba
000002a0: b848 b4bd 1556 d6bc 4e61 0f3d 07c4 d83c
000002b0: 9c5e 0d3e dec2 04bd 3072 033d 3785 1bbd
000002c0: b934 343d a1b5 06be d463 5fbd f78d 063b
000002d0: 34ee e5bc 38ad 0d3e f076 5c3d 217f 97bd
000002e0: 75d7 e4bb e31d cf3d 7b39 9dbc 9de9 7d3d
000002f0: 1d50 93bd 2424 b33d 3123 cbbd 89e1 f9bd
00000300: 082d b13c 8bb0 f03d c77b b33c 272b 253e
00000310: 412e b7bd 41f5 a63c 61a8 6cbd 55a9 583d
00000320: 084f 4d3d 53b2 073e b8a8 8f3d 16d0 21bd
00000330: c71a 64bd 5bb3 4e3d c1a1 6fbe 2844 173d
00000340: a2c5 923a 6d0c c2bd 9b70 b63d 3d2d 5dbc
00000350: ea5d 02bd abaf cdbc f8f9 f33d f623 b6bc
00000360: 52c9 b6bc b667 da3d 84cf 9cbb f6ac 3b3c
00000370: 682f 103e 7d04 ac3d e3ce 50be cc30 d4bc
00000380: c3a6 96bc 875b c9bd a8d8 e23b 4604 883d
00000390: 5b18 ef3d d5ba 3f3d 0f3a d3bd c525 293d
000003a0: bfda b9bc de72 37be 5fd9 55bd a681 193d
000003b0: d566 813d 8ceb c3bc 906a 893d 5037 843e
000003c0: da15 a03d d53b 5cbd 2ef0 c8bd 230a 213e
000003d0: 407d 36bd c683 9dbc 9b2f 52bd d3ef 6e3d
000003e0: bd46 2abe edfd db3c 91ac 14bc 5794 9b3d
000003f0: fe14 9b3c a92a 423e 2732 d63d af62 853c
