CubeTest/results/ppo/MoveToGoal/MoveToGoal-1152.onnx (onnx, 72461 bytes, 7 tensors)

action_model._continuous_distribution.log_sigma f4 [1, 2]
0.0 0.0
00000000: 0000 0000 0000 0000

action_model._continuous_distribution.mu.bias f4 [2]
0.0 0.0
00000000: 0000 0000 0000 0000

action_model._continuous_distribution.mu.weight f4 [2, 128]
0.03193369 -0.0051267254 0.0035338358 -0.012821729 -0.0005237481 0.0112865195 -0.0016777065 0.01993542
-0.013142365 0.027056847 0.015003293 -0.009713805 0.016171915 0.010112597 -0.020119656 0.013881633
0.016072316 0.017353853 0.029335657 -0.012638563 -0.03701922 -0.013056204 0.008481043 -0.004033763
0.004424497 -0.004177052 0.0077529917 0.004346921 0.036521424 -0.029340018 0.024008613 0.017820375
-0.010694596 0.026965488 -0.0251853 -0.029162506 -0.0071147284 -0.033681925 -0.0054034563 -0.00906664
-0.0070564947 -0.030480165 0.0009992342 -0.010192971 0.008908441 -0.020778617 0.013576741 0.0022559057
0.009651285 0.028167266 -0.037407618 0.024567751 0.029577732 0.016578866 -0.017600944 -0.008835348
-0.016138589 0.015159379 0.017180048 0.020279948 -0.022936149 -0.013797358 -0.016291732 0.013527875
0.0500002 0.014390551 0.00047570202 0.005408991 0.006646169 0.0013691786 0.013009022 -0.0047583147
0.015049112 -0.009849985 0.009957987 -0.004489307 -0.017133055 0.014074201 0.008426807 0.033047516
-0.0116286725 -0.02132957 0.026922349 -0.023294037 0.005516747 0.012185512 -0.003089684 -0.002957761
-0.025717666 0.014404999 0.00413198 -0.014956385 0.018763501 -0.004012655 -0.0058077057 -0.010557948
-0.0073255324 -0.012430391 -0.031471074 0.013272482 0.023931153 0.022066124 0.012218351 0.00049378077
0.0040036603 0.012438002 -0.013872865 -0.007286079 -0.0077485326 -0.018566845 -0.0024515651 -0.024399247
-0.01155112 -0.008988242 -0.0008196281 -0.009065886 -0.0067098835 -0.034606304 0.041194644 -0.01493637
-0.01381166 0.0048836586 0.011930099 -0.019284794 -0.011069826 -0.026889473 -0.013117151 0.0017214179
0.022054698 0.016725574 0.019579405 -0.0018686553 -0.016227989 -0.012842335 0.0049546915 -0.01090457
-0.010700963 0.005282005 -0.01151361 0.018207725 0.013790696 -0.018420175 0.02203918 -0.008017472
0.023540078 0.010509569 0.009970463 0.024453886 -0.01755559 -0.00026019322 -0.030206287 0.009782253
-0.005626685 -0.019417858 -0.009837198 0.010007494 0.0021654796 -0.007339532 -0.019450571 0.01267714
-0.0015918313 -0.0010593042 0.047394954 0.028890615 -0.013360267 0.0019263624 -0.026012748 0.042251363
0.005649353 0.009411273 -0.015282087 -0.016221736 -0.025085557 0.0018014392 0.02316807 -0.0049268906
-0.009217078 0.022911897 -0.011821011 -0.019632785 -0.008134557 0.013260582 -0.002878104 -0.015689066
0.01303181 -0.0033248297 0.013484855 0.012119877 0.014252404 0.0028228236 0.026126234 0.00043061172
0.0031780563 0.0052047763 -0.0023895781 -0.008480472 0.015329666 0.028792918 -0.010877571 -0.01646529
-0.00872303 -0.041458454 -0.020177677 -0.0015108215 -0.018151684 -0.032672647 0.02114179 0.022232024
-0.023298632 -0.030383749 0.008661166 -0.010704993 -0.046689823 -0.024124155 0.03171896 0.015134804
0.0019960746 -0.010945282 0.03143546 -0.022578046 -0.0068386346 -0.012724064 -0.009145069 -0.006164868
0.018530345 -0.025451591 -0.00038312364 0.012792276 -0.015583563 0.015410549 -0.022306478 -0.036021035
-0.0014175116 -0.0013849349 -0.024471175 0.013420683 -0.033094447 0.0045391223 0.012180224 0.0010900722
0.009206333 0.019235207 -0.022718491 -0.0072044614 -0.0047254376 -0.027553892 -0.004226111 0.026445797
0.011202407 -0.003586198 -0.0005924184 0.00478691 0.021152632 -0.008296049 -0.0034831737 -0.022957504
00000000: e7cc 023d 17fe a7bb ed97 673b 3b12 52bc
00000010: 244c 09ba 18eb 383c 7de6 dbba 9b4f a33c
00000020: 1353 57bc 52a6 dd3c 5fd0 753c a726 1fbc
00000030: f77a 843c 4eaf 253c fad1 a4bc ca6f 633c
00000040: 17aa 833c ab29 8e3c 5551 f03c fa11 4fbc
00000050: 77a1 17bd b0e9 55bc 13f4 0a3c a82d 84bb
00000060: 5ffb 903b a7df 88bb cf0c fe3b 9e70 8e3b
00000070: 7d97 153d 7a5a f0bc b6ad c43c 09fc 913c
00000080: 6338 2fbc bae6 dc3c 6751 cebc 35e6 eebc
00000090: ab22 e9bb 0ff6 09bd 7a0f b1bb 3f8c 14bc
000000a0: 2b3a e7bb 8ab1 f9bc bcf8 823a 6b00 27bc
000000b0: b6f4 113c eb37 aabc fb70 5e3c d1d7 133b
000000c0: 6c20 1e3c 0abf e63c bb38 19bd 4f42 c93c
000000d0: 004d f23c 67d0 873c db2f 90bc 23c2 10bc
000000e0: 1335 84bc 0b5f 783c 2cbd 8c3c 2222 a63c
000000f0: 97e4 bbbc 500e 62bc 3d76 85bc 05a4 5d3c
00000100: 02cd 4c3d 58c6 6b3c a567 f939 e83d b13b
00000110: 1bc8 d93b 0376 b33a cb23 553c a3eb 9bbb
00000120: 8d90 763c d561 21bc d326 233c 091b 93bb
00000130: 9f5a 8cbc 7a97 663c 9710 0a3c d55c 073d
00000140: 3086 3ebc 5abb aebc 428c dc3c 23d3 bebc
00000150: d4c5 b43b bea5 473c 4c7c 4abb ffd6 41bb
00000160: dbad d2bc f202 6c3c 8f65 873b a00b 75bc
00000170: eab5 993c 977c 83bb 914e bebb 3efb 2cbc
00000180: 050b f0bb d7a8 4bbc d0e7 00bd d374 593c
00000190: 440b c43c 04c4 b43c 7a2f 483c 1171 013a
000001a0: 2331 833b c3c8 4b3c 034b 63bc 10c0 eebb
000001b0: 67e7 fdbb 7f19 98bc 70aa 20bb eee0 c7bc
000001c0: e940 3dbc 6b43 13bc 50dc 56ba 1589 14bc
000001d0: 95de dbbb 57bf 0dbd b7bb 283d adb7 74bc
000001e0: 4d4a 62bc 1907 a03b 7676 433c 25fb 9dbc
000001f0: 375e 35bc 5047 dcbc 52e9 56bc 33a1 e13a
00000200: 0eac b43c 1204 893c fd64 a03c abed f4ba
00000210: 8ff0 84bc a868 52bc f75a a23b 15a9 32bc
00000220: 1853 2fbc ab14 ad3b 95a3 3cbc 5e28 953c
00000230: 5ff2 613c e8e5 96bc 838b b43c b75b 03bc
00000240: 1fd7 c03c 5430 2c3c 275b 233c 8453 c83c
00000250: bed0 8fbc 8b6a 88b9 2d73 f7bc be45 203c
00000260: 0e60 b8bb 3312 9fbc 332c 21bc 79f6 233c
00000270: b8ea 0d3b 7580 f0bb ce56 9fbc c7b3 4f3c
00000280: ffa4 d0ba 5ad8 8aba 3621 423d 03ac ec3c
00000290: 05e5 5abc ff7d fc3a b018 d5bc c40f 2d3d
000002a0: 351e b93b bd31 1a3c b861 7abc 72e3 84bc
000002b0: 3a80 cdbc 451e ec3a f7ca bd3c c171 a1bb
000002c0: 3a03 17bc bbb1 bb3c eaac 41bc efd4 a0bc
000002d0: ce46 05bc ea42 593c 939e 3cbb 5b86 80bc
000002e0: 5f83 553c 63e5 59bb 95ef 5c3c 7392 463c
000002f0: ea82 693c 1fff 383b af06 d63c bac3 e139
00000300: f046 503b d48c aa3b 789a 1cbb adf1 0abc
00000310: 4829 7b3c 20df eb3c d737 32bc 37e2 86bc
00000320: 0aeb 0ebc 57d0 29bd a84b a5bc c206 c6ba
00000330: d7b2 94bc c1d3 05bd 8c31 ad3c ef1f b63c
00000340: c6dc bebc 57e7 f8bc 90e7 0d3c ff63 2fbc
00000350: d43d 3fbd 05a0 c5bc bdeb 013d f8f7 773c
00000360: 93d0 023b d753 33bc 78c2 003d 98f5 b8bc
00000370: a016 e0bb 9878 50bc 33d5 15bc a902 cabb
00000380: f3cc 973c db7f d0bc fcdd c8b9 b296 513c
00000390: 3352 7fbc 877c 7c3c 13bc b6bc cb8a 13bd
000003a0: cccb b9ba b486 b5ba c677 c8bc 6de2 5b3c
000003b0: 0b8e 07bd ebbc 943b 908f 473c c1e0 8e3a
000003c0: 29d6 163c 2793 9d3c 211c babc 6713 ecbb
000003d0: d8d7 9abb b3b8 e1bc 307b 8abb dba4 d83c
000003e0: 4d8a 373c 6b06 6bbb 874c 1bba 83db 9c3b
000003f0: 4948 ad3c 27ec 07bc f545 64bb 6011 bcbc

network_body._body_endoder.seq_layers.0.bias f4 [128]
0.0 0.0 0.0 0.0 0.0 0.0 0.0 0.0
0.0 0.0 0.0 0.0 0.0 0.0 0.0 0.0
0.0 0.0 0.0 0.0 0.0 0.0 0.0 0.0
0.0 0.0 0.0 0.0 0.0 0.0 0.0 0.0
0.0 0.0 0.0 0.0 0.0 0.0 0.0 0.0
0.0 0.0 0.0 0.0 0.0 0.0 0.0 0.0
0.0 0.0 0.0 0.0 0.0 0.0 0.0 0.0
0.0 0.0 0.0 0.0 0.0 0.0 0.0 0.0
0.0 0.0 0.0 0.0 0.0 0.0 0.0 0.0
0.0 0.0 0.0 0.0 0.0 0.0 0.0 0.0
0.0 0.0 0.0 0.0 0.0 0.0 0.0 0.0
0.0 0.0 0.0 0.0 0.0 0.0 0.0 0.0
0.0 0.0 0.0 0.0 0.0 0.0 0.0 0.0
0.0 0.0 0.0 0.0 0.0 0.0 0.0 0.0
0.0 0.0 0.0 0.0 0.0 0.0 0.0 0.0
0.0 0.0 0.0 0.0 0.0 0.0 0.0 0.0
00000000: 0000 0000 0000 0000 0000 0000 0000 0000
00000010: 0000 0000 0000 0000 0000 0000 0000 0000
00000020: 0000 0000 0000 0000 0000 0000 0000 0000
00000030: 0000 0000 0000 0000 0000 0000 0000 0000
00000040: 0000 0000 0000 0000 0000 0000 0000 0000
00000050: 0000 0000 0000 0000 0000 0000 0000 0000
00000060: 0000 0000 0000 0000 0000 0000 0000 0000
00000070: 0000 0000 0000 0000 0000 0000 0000 0000
00000080: 0000 0000 0000 0000 0000 0000 0000 0000
00000090: 0000 0000 0000 0000 0000 0000 0000 0000
000000a0: 0000 0000 0000 0000 0000 0000 0000 0000
000000b0: 0000 0000 0000 0000 0000 0000 0000 0000
000000c0: 0000 0000 0000 0000 0000 0000 0000 0000
000000d0: 0000 0000 0000 0000 0000 0000 0000 0000
000000e0: 0000 0000 0000 0000 0000 0000 0000 0000
000000f0: 0000 0000 0000 0000 0000 0000 0000 0000
00000100: 0000 0000 0000 0000 0000 0000 0000 0000
00000110: 0000 0000 0000 0000 0000 0000 0000 0000
00000120: 0000 0000 0000 0000 0000 0000 0000 0000
00000130: 0000 0000 0000 0000 0000 0000 0000 0000
00000140: 0000 0000 0000 0000 0000 0000 0000 0000
00000150: 0000 0000 0000 0000 0000 0000 0000 0000
00000160: 0000 0000 0000 0000 0000 0000 0000 0000
00000170: 0000 0000 0000 0000 0000 0000 0000 0000
00000180: 0000 0000 0000 0000 0000 0000 0000 0000
00000190: 0000 0000 0000 0000 0000 0000 0000 0000
000001a0: 0000 0000 0000 0000 0000 0000 0000 0000
000001b0: 0000 0000 0000 0000 0000 0000 0000 0000
000001c0: 0000 0000 0000 0000 0000 0000 0000 0000
000001d0: 0000 0000 0000 0000 0000 0000 0000 0000
000001e0: 0000 0000 0000 0000 0000 0000 0000 0000
000001f0: 0000 0000 0000 0000 0000 0000 0000 0000

network_body._body_endoder.seq_layers.0.weight f4 [128, 6]
0.076140955 0.53461623 0.13236038 0.4692406 0.12611412 -0.124125026 -0.57253015 -0.7965347
-0.6957816 0.36785296 -0.022041906 0.2631127 0.36129105 -0.24942711 0.0767623 0.15805265
-0.81367177 -0.6100496 -0.6995186 -0.16197944 0.016786687 -0.50652385 -0.06478195 -0.34790877
-0.10177104 0.20142762 -0.47002435 0.36333203 0.36845735 0.38966057 -0.35912365 -0.14969859
0.20460632 0.24938862 -0.21141364 0.5029768 0.12914804 -0.33511928 -0.37031442 -0.30141562
-0.20984496 0.4454034 -0.16661955 -0.10281942 -0.8103724 0.7611509 -0.6443367 -0.43620622
-0.48964992 0.39567414 -0.19375154 -0.00928878 -0.32620507 0.3559798 -0.2760086 -0.2969773
0.35417274 0.21412376 0.20210244 0.24944425 0.010889786 -0.48011506 -0.6114368 0.10270304
-0.44538993 -0.052765273 0.26112324 -0.29757643 0.071059406 0.3009166 0.14436612 -0.55624497
-0.3148622 -0.077111006 0.38111243 0.3964391 -0.6334192 0.117228545 0.31302223 0.029685184
0.509025 -0.24906965 -0.83730096 0.20917735 -0.14257768 0.24570766 -0.021968653 -0.0072357086
-0.597431 -0.15796974 -0.4053631 -0.58323455 -0.71813315 0.3510567 -0.56578994 0.3860472
-0.08899457 0.39299738 0.053684194 0.43161553 0.09012625 -0.36907998 -0.19610067 0.471276
-0.12612343 -0.104322135 -0.027752163 -0.5741577 -0.012196237 -0.089950934 -0.52651924 -0.994983
0.44032568 -0.48967272 0.112873755 0.5025612 0.004732621 0.6012559 -0.5084256 0.34588152
0.17634968 -0.16076155 0.17980146 0.39967147 -0.88347244 0.24699123 0.5598664 -0.10401904
0.05654861 -0.18425503 0.3233728 -0.66348666 0.23294167 -0.32964385 -0.2914143 -0.42469525
-0.060725078 0.24544048 -0.12327581 -0.3949046 0.28069258 0.42763996 -0.94998306 0.0945274
-0.76607335 -0.7422943 -0.4328018 -0.2689664 -0.1888212 -0.12954989 0.09022967 -0.43755668
-0.035145286 -0.026790299 -0.11211939 0.11461642 -0.9162186 0.5123024 -0.03255032 -0.051598348
0.26970887 -0.08299675 0.2613701 0.43844977 -0.03197683 0.15026349 0.37838334 0.57244295
-0.25354084 0.7478374 -0.44370288 -0.3062486 0.124372154 0.37757814 0.29625264 -0.17434241
-0.12226317 0.5397129 0.39687356 1.0069697 0.0065030497 -0.29378384 0.14767127 0.37960976
0.5081569 0.94147015 -0.22850262 0.4083624 0.8189315 0.2791761 -0.23135558 0.51259434
-0.29629368 0.2349157 -0.35826895 -0.6352063 -0.010437507 -0.41991273 -0.24391173 -0.0011638363
-0.15625337 0.015393388 -0.49528342 0.21059021 0.5837953 -0.07320667 -0.20283978 -0.28726354
0.06364867 0.47741753 -0.39122033 0.97948354 0.07973606 0.062821664 0.023992695 -0.47471768
-0.35463482 -0.43227762 -0.020880245 0.1666843 0.31571993 -0.69434357 0.12484578 -0.057842325
0.24566399 -0.6766633 -0.296874 0.063776374 -0.12022714 -0.10174016 0.13485758 0.01465962
-0.1862504 -0.250882 0.24639134 0.4617741 0.7386113 -0.18817611 -0.31083477 0.22306442
-0.03874488 -0.21141729 0.50074565 0.28206915 -0.48594287 -0.022342987 -0.6599362 -0.20069242
0.079544015 0.95487314 -0.10241322 0.049674947 0.28561223 -0.36738172 -0.008427182 0.14513163
00000000: caef 9b3d 9cdc 083f 7b89 073e 4e40 f03e
00000010: 0f24 013e 4335 febd 5691 12bf b3e9 4bbf
00000020: be1e 32bf 3957 bc3e 3a91 b4bc b5b6 863e
00000030: 24fb b83e d269 7fbe 8e35 9d3d 8ed8 213e
00000040: cb4c 50bf 362c 1cbf a713 33bf f0dd 25be
00000050: 3c84 893c 8cab 01bf 66ac 84bd 1921 b2be
00000060: 566d d0bd 0b43 4e3e 08a7 f0be a806 ba3e
00000070: 71a6 bc3e 9781 c73e 0edf b7be 964a 19be
00000080: 5284 513e bb5f 7f3e d17c 58be 16c3 003f
00000090: 623f 043e c194 abbe da99 bdbe 2653 9abe
000000a0: 99e1 56be ea0b e43e 519e 2abe fd92 d2bd
000000b0: 9174 4fbf c9da 423f 40f3 24bf 6c56 dfbe
000000c0: 65b3 fabe cd95 ca3e ce66 46be f82f 18bc
000000d0: 5a04 a7be fc42 b63e 0051 8dbe 690d 98be
000000e0: 2156 b53e 4243 5b3e f1f3 4e3e 506e 7f3e
000000f0: 136b 323c a4d1 f5be 1f87 1cbf f955 d23d
00000100: 260a e4be 6620 58bd f2b1 853e f05b 98be
00000110: 9887 913d be11 9a3e b6d4 133e 1266 0ebf
00000120: 9e35 a1be 60ec 9dbd 2b21 c33e 11fa ca3e
00000130: c327 22bf 8515 f03d 7344 a03e 582e f33c
00000140: 764f 023f 1d0c 7fbe 5b59 56bf 9632 563e
00000150: e2ff 11be ca9a 7b3e 9bf7 b3bc 8619 edbb
00000160: 3df1 18bf d2c2 21be c18b cfbe dc4e 15bf
00000170: 93d7 37bf b4bd b33e 9cd7 10bf fba7 c53e
00000180: c942 b6bd f436 c93e f5e3 5b3d b6fc dc3e
00000190: 1d94 b83d 0df8 bcbe 9dce 48be 164b f13e
000001a0: 8026 01be d8a6 d5bd 8158 e3bc 00fc 12bf
000001b0: bad2 47bc 3238 b8bd f7c9 06bf 35b7 7ebf
000001c0: 5e72 e13e 62b6 fabe 5b2a e73d daa7 003f
000001d0: 1a14 9b3b e8eb 193f 2e28 02bf 6217 b13e
000001e0: 0395 343e ad9e 24be e01d 383e bda1 cc3e
000001f0: 402b 62bf 45eb 7c3e 6853 0f3f ef07 d5bd
00000200: 849f 673d 5aad 3cbe 1f91 a53e 43da 29bf
00000210: 4388 6e3e 14c7 a8be 4134 95be a871 d9be
00000220: dcba 78bd c054 7b3e 0778 fcbd f030 cabe
00000230: f0b6 8f3e a0f3 da3e 1732 73bf 9597 c13d
00000240: 621d 44bf 0007 3ebf 3398 ddbe f7b5 89be
00000250: 585a 41be baa8 04be 55ca b83d 6e07 e0be
00000260: 81f4 0fbd 5477 dbbc da9e e5bd 03bc ea3d
00000270: 4d8d 6abf 4026 033f 7c53 05bd ca58 53bd
00000280: 4817 8a3e 33fa a9bd 4dd2 853e 7d7c e03e
00000290: 23fa 02bd acde 193e 76bb c13e 9f8b 123f
000002a0: 1bd0 81be 4672 3f3f 062d e3be 9ecc 9cbe
000002b0: d4b6 fe3d ec51 c13e 6dae 973e d186 32be
000002c0: 1d65 fabd a02a 0a3f 0333 cb3e 62e4 803f
000002d0: 8917 d53b d66a 96be 2337 173e 365c c23e
000002e0: 9216 023f 3004 713f 97fc 69be e014 d13e
000002f0: 7fa5 513f 2bf0 8e3e 7ae8 6cbe 6239 033f
00000300: ceb3 97be be8d 703e 076f b7be e19c 22bf
00000310: 1402 2bbc cdfe d6be ffc3 79be de8b 98ba
00000320: e200 20be 8d34 7c3c ca95 fdbe f6a4 573e
00000330: 9c73 153f 61ed 95bd 3bb5 4fbe 3514 93be
00000340: 3c5a 823d 1270 f43e 084e c8be 6fbf 7a3f
00000350: a94c a33d a5a8 803d 548c c43c 320e f3be
00000360: b292 b5be 7e53 ddbe 0c0d abbc 4aaf 2a3e
00000370: 0ba6 a13e 80c0 31bf 25af ff3d 13ec 6cbd
00000380: 578f 7b3e ce39 2dbf deff 97be 309d 823d
00000390: a639 f6bd 255d d0bd 1b18 0a3e e72e 703c
000003a0: 6db8 3ebe 9b73 80be 034e 7c3e a86d ec3e
000003b0: a115 3d3f 3db1 40be bc25 9fbe 006b 643e
000003c0: f4b2 1ebd c67d 58be de30 003f 5e6b 903e
000003d0: 81cd f8be a408 b7bc 94f1 28bf 5082 4dbe
000003e0: f9e7 a23d 9172 743f 06be d1bd f577 4b3d
000003f0: c43b 923e 7519 bcbe 2a12 0abc 639d 143e

network_body._body_endoder.seq_layers.2.bias f4 [128]
0.0 0.0 0.0 0.0 0.0 0.0 0.0 0.0
0.0 0.0 0.0 0.0 0.0 0.0 0.0 0.0
0.0 0.0 0.0 0.0 0.0 0.0 0.0 0.0
0.0 0.0 0.0 0.0 0.0 0.0 0.0 0.0
0.0 0.0 0.0 0.0 0.0 0.0 0.0 0.0
0.0 0.0 0.0 0.0 0.0 0.0 0.0 0.0
0.0 0.0 0.0 0.0 0.0 0.0 0.0 0.0
0.0 0.0 0.0 0.0 0.0 0.0 0.0 0.0
0.0 0.0 0.0 0.0 0.0 0.0 0.0 0.0
0.0 0.0 0.0 0.0 0.0 0.0 0.0 0.0
0.0 0.0 0.0 0.0 0.0 0.0 0.0 0.0
0.0 0.0 0.0 0.0 0.0 0.0 0.0 0.0
0.0 0.0 0.0 0.0 0.0 0.0 0.0 0.0
0.0 0.0 0.0 0.0 0.0 0.0 0.0 0.0
0.0 0.0 0.0 0.0 0.0 0.0 0.0 0.0
0.0 0.0 0.0 0.0 0.0 0.0 0.0 0.0
00000000: 0000 0000 0000 0000 0000 0000 0000 0000
00000010: 0000 0000 0000 0000 0000 0000 0000 0000
00000020: 0000 0000 0000 0000 0000 0000 0000 0000
00000030: 0000 0000 0000 0000 0000 0000 0000 0000
00000040: 0000 0000 0000 0000 0000 0000 0000 0000
00000050: 0000 0000 0000 0000 0000 0000 0000 0000
00000060: 0000 0000 0000 0000 0000 0000 0000 0000
00000070: 0000 0000 0000 0000 0000 0000 0000 0000
00000080: 0000 0000 0000 0000 0000 0000 0000 0000
00000090: 0000 0000 0000 0000 0000 0000 0000 0000
000000a0: 0000 0000 0000 0000 0000 0000 0000 0000
000000b0: 0000 0000 0000 0000 0000 0000 0000 0000
000000c0: 0000 0000 0000 0000 0000 0000 0000 0000
000000d0: 0000 0000 0000 0000 0000 0000 0000 0000
000000e0: 0000 0000 0000 0000 0000 0000 0000 0000
000000f0: 0000 0000 0000 0000 0000 0000 0000 0000
00000100: 0000 0000 0000 0000 0000 0000 0000 0000
00000110: 0000 0000 0000 0000 0000 0000 0000 0000
00000120: 0000 0000 0000 0000 0000 0000 0000 0000
00000130: 0000 0000 0000 0000 0000 0000 0000 0000
00000140: 0000 0000 0000 0000 0000 0000 0000 0000
00000150: 0000 0000 0000 0000 0000 0000 0000 0000
00000160: 0000 0000 0000 0000 0000 0000 0000 0000
00000170: 0000 0000 0000 0000 0000 0000 0000 0000
00000180: 0000 0000 0000 0000 0000 0000 0000 0000
00000190: 0000 0000 0000 0000 0000 0000 0000 0000
000001a0: 0000 0000 0000 0000 0000 0000 0000 0000
000001b0: 0000 0000 0000 0000 0000 0000 0000 0000
000001c0: 0000 0000 0000 0000 0000 0000 0000 0000
000001d0: 0000 0000 0000 0000 0000 0000 0000 0000
000001e0: 0000 0000 0000 0000 0000 0000 0000 0000
000001f0: 0000 0000 0000 0000 0000 0000 0000 0000

network_body._body_endoder.seq_layers.2.weight f4 [128, 128]
0.08286334 0.12090973 0.09802006 0.17739432 -0.07483831 0.0075834785 0.098546766 0.083925165
-0.041713964 0.044136457 0.039426178 -0.028628765 0.09896826 -0.12589799 0.0031636336 -0.042321872
0.05883826 0.005105067 -0.1061255 0.09457776 0.14474396 0.10037668 0.14099391 0.12758265
0.025734346 -0.17138301 0.05328978 0.087509766 0.0039282236 -0.0044155307 0.045457 0.045304246
-0.09560944 -0.077537164 0.02406702 0.03933071 0.06426754 0.0118868835 0.026930626 0.14082247
-0.07518782 0.0034723142 0.089476876 0.04510308 -0.07336866 0.11856934 -0.0896561 0.020204555
0.09381165 0.05097591 0.27966526 0.10085415 0.14175159 -0.06743704 0.08256128 0.09278185
-0.08427195 -0.06827689 -0.06341372 -0.10041482 -0.13065481 0.103965044 0.024669569 -0.05924888
-0.114265226 -0.045732923 0.082904406 -0.09249422 0.0089021 -0.02781994 -0.004420519 0.08350233
-0.012997791 0.083821714 0.13635534 0.07253201 -0.08115909 -0.12140681 -0.11087875 -0.058377378
0.014379494 -0.11923233 0.051713962 0.17575257 0.013738447 0.00974724 -0.10962133 -0.043771233
0.013229166 0.06557952 -0.15082514 -0.122292355 0.08645894 -0.14078617 0.041306954 0.04469006
-0.08024598 -0.07364602 -0.06973852 -0.02371053 0.06562684 -0.016135942 0.01963131 -0.11160714
-0.018192478 -0.13193004 -0.1005783 -0.042213093 0.16903892 0.16314793 0.013074839 0.02713961
-0.06952154 0.10133073 -0.24791138 -0.10113277 0.006072645 0.0105835805 -0.10737416 -0.099429816
0.027461722 -0.2152933 0.014120091 0.082704194 0.102304384 -0.022325488 -0.20748134 -0.15004487
-0.019476391 -0.07787761 -0.11154505 -0.101538934 0.04560163 -0.029720742 0.023109332 0.023351522
-0.06869984 -0.017446723 -0.015700243 -0.019773755 0.08662883 -0.02135462 0.03027382 -0.028170258
-0.16525462 0.019342901 -0.19144692 -0.029256526 -0.11265069 -0.06366146 0.05071151 -0.011094499
0.058725543 -0.058203768 -0.050733726 -0.02174125 0.12751147 -0.016116861 0.032211654 0.071154244
-0.0336865 -0.06030416 0.003907588 -0.017145975 -0.086889744 -0.17211038 0.039293185 -0.037902344
0.07264228 0.07791507 -0.0044417246 0.08788455 -0.061466746 -0.030581716 -0.12774266 -0.08369303
-0.105323456 0.22015202 0.033316985 -0.03841789 0.019514821 0.019517653 -0.026347246 0.08715741
0.10088378 0.13517487 0.019114316 -0.05099438 0.05070788 0.06392788 0.14512663 0.112851396
-0.09236724 0.05184053 0.06294869 -0.015702369 0.00028890328 -0.1811023 0.017545067 0.07214563
-0.13134088 -0.011814232 -0.032719113 0.09391209 -0.060341816 0.05040133 0.120538965 0.08961485
0.014689289 0.082844995 0.07322931 0.094325334 -0.12090749 0.06657667 -0.029607808 -0.043141462
-0.1086696 0.12358898 -0.13221748 -0.04768931 0.10222965 0.078605115 -0.13273439 -0.1231241
-0.034345444 0.0125851855 0.175693 0.09139319 -0.05501097 0.11032075 0.09255968 0.15737437
-0.0270661 -0.12831056 0.09204293 0.03020073 -0.093888775 -0.047298264 0.07925473 0.036900654
0.03967778 0.08641278 -0.11679198 0.0021343855 0.08777932 -0.00034786513 -0.052737255 0.19674635
0.059980545 -0.022257974 -0.1222848 0.06186592 -0.039775956 0.1168621 0.2000934 -0.0025721067
00000000: 41b4 a93d 859f f73d bebe c83d dba6 353e
00000010: d444 99bd d47e f83b e3d2 c93d f5e0 ab3d
00000020: 43dc 2abd 6ec8 343d 587d 213d df86 eabc
00000030: dfaf ca3d 67eb 00be f754 4f3b b359 2dbd
00000040: 6300 713d 6848 a73b 5358 d9bd fcb1 c13d
00000050: c337 143e 4a92 cd3d b560 103e 07a5 023e
00000060: d6d0 d23c 077f 2fbe 6246 5a3d 5238 b33d
00000070: 54b8 803b 28b0 90bb 1f31 3a3d f290 393d
00000080: e2ce c3bd cecb 9ebd 3328 c53c 3d19 213d
00000090: b39e 833d 34c1 423c 9e9d dc3c c433 103e
000000a0: 12fc 99bd c48f 633b a73f b73d 02be 383d
000000b0: 4f42 96bd 7bd4 f23d 9e9d b7bd 0684 a53c
000000c0: 5320 c03d 1ecc 503d 4930 8f3e 9f8c ce3d
000000d0: 5427 113e 6e1c 8abd e315 a93d 6904 be3d
000000e0: c696 acbd c1d4 8bbd 0ddf 81bd 49a6 cdbd
000000f0: 60ca 05be a0eb d43d d617 ca3c f4ae 72bd
00000100: e303 eabd 7252 3bbd c9c9 a93d 9c6d bdbd
00000110: 1dda 113c a5e6 e3bc 00da 90bb 4503 ab3d
00000120: b0f4 54bc b8aa ab3d bca0 0b3e aa8b 943d
00000130: bd36 a6bd 22a4 f8bd 6614 e3bd 1e1d 6fbd
00000140: f897 6b3c 1430 f4bd 05d2 533d 7bf8 333e
00000150: 3917 613c e3b2 1f3c 2681 e0bd 7749 33bd
00000160: 25bf 583c 8e4e 863d e871 1abe 6a74 fabd
00000170: 6211 b13d 402a 10be 7b31 293d ed0c 373d
00000180: 0158 a4bd b9d3 96bd 12d3 8ebd 963c c2bc
00000190: 5d67 863d 862f 84bc d7d1 a03c 4992 e4bd
000001a0: 6408 95bc ab18 07be fffb cdbd a3e7 2cbd
000001b0: 8a18 2d3e 4010 273e d937 563c e353 de3c
000001c0: 4f61 8ebd 7c86 cf3d 7bdc 7dbe b31e cfbd
000001d0: 0afd c63b c166 2d3c fce6 dbbd dca1 cbbd
000001e0: 68f7 e03c d975 5cbe f457 673c d160 a93d
000001f0: f684 d13d f1e3 b6bc fd75 54be 5da5 19be
00000200: f48c 9fbc 4c7e 9fbd bb71 e4bd a5f3 cfbd
00000210: c6c8 3a3d ea78 f3bc c84f bd3c b14b bf3c
00000220: 80b2 8cbd 6eec 8ebc cc9d 80bc 92fc a1bc
00000230: 756a b13d e2ef aebc cd00 f83c 50c5 e6bc
00000240: 8238 29be 0175 9e3c a90a 44be 62ab efbc
00000250: 68b5 e6bd f160 82bd dfb6 4f3d b4c5 35bc
00000260: 328a 703d 1367 6ebd 2bce 4fbd b51a b2bc
00000270: 5e92 023e 8207 84bc 5ef0 033d 51b9 913d
00000280: dbfa 09bd 7f01 77bd 390b 803b b775 8cbc
00000290: 40f3 b1bd b43d 30be e4f1 203d 7d3f 1bbd
000002a0: 7ac5 943d f091 9f3d e38b 91bb d1fc b33d
000002b0: 8ec4 7bbd 8286 fabc f9ce 02be 4067 abbd
000002c0: d3b3 d7bd 886f 613e 6477 083d 145c 1dbd
000002d0: 8cdd 9f3c 7ce3 9f3c 2ed6 d7bc 967f b23d
000002e0: 289c ce3d 486b 0a3e a095 9c3c 7cdf 50bd
000002f0: 11b3 4f3d 9fec 823d 139c 143e a21e e73d
00000300: 092b bdbd bc56 543d 3eeb 803d 41a2 80bc
00000310: f177 9739 e272 39be acba 8f3c 17c1 933d
00000320: 397e 06be 7b90 41bc 7a04 06bd fb54 c03d
00000330: fb28 77bd a071 4e3d 22dd f63d fe87 b73d
00000340: 58ab 703c a3aa a93d 40f9 953d a42d c13d
00000350: 599e f7bd 5959 883d 138c f2bc 1ab5 30bd
00000360: 2b8e debd 381c fd3d 0564 07be de55 43bd
00000370: c75d d13d b8fb a03d 86eb 07be 7d28 fcbd
00000380: cfad 0cbd 1832 4e3c dee8 333e 5a2c bb3d
00000390: 2f53 61bd d8ef e13d ee8f bd3d bf26 213e
000003a0: bab9 ddbc d863 03be 0181 bc3d 8567 f73c
000003b0: c248 c0bd d3bb 41bd 4e50 a23d 2425 173d
000003c0: 2b85 223d 2ff9 b03d a230 efbd 0ce1 0b3b
000003d0: a5c5 b33d ab61 b6b9 0503 58bd e077 493e
000003e0: 29ae 753d 5b56 b6bc 7470 fabd 1e67 7d3d
000003f0: 1dec 22bd 6655 ef3d 49e5 4c3e ca90 28bb
