CubeTest/results/ppo/MoveToGoal/MoveToGoal-3712.onnx (onnx, 72461 bytes, 7 tensors)

action_model._continuous_distribution.log_sigma f4 [1, 2]
0.0 0.0
00000000: 0000 0000 0000 0000

action_model._continuous_distribution.mu.bias f4 [2]
0.0 0.0
00000000: 0000 0000 0000 0000

action_model._continuous_distribution.mu.weight f4 [2, 128]
0.007060849 -0.006201684 -0.024261083 0.017665373 0.001562455 -0.0017988415 0.006661258 -0.017628917
-0.00077833247 -0.010251878 0.00238205 -0.02701057 -0.010884953 -0.013652551 -0.0154386675 -0.0007846908
0.019100297 -0.011775182 -0.02880217 -0.0054288534 0.006579903 -0.01513947 0.01613137 0.0034997351
0.007542863 -0.027005231 -0.0029979737 0.009432526 -0.015594405 -0.007469877 -0.003411219 -0.0030172565
-0.010142539 -0.014725273 -0.018044021 0.017766865 -0.017613562 0.01822315 0.015574244 0.008880851
-0.008563784 -0.0071337232 0.032507826 -0.015618133 -0.0056554116 0.009977554 0.0030179992 0.0027440877
0.013274281 -0.03488387 -0.0055797 -0.04577576 -0.012975449 0.0028456512 0.014200519 0.006337614
0.007677242 0.014687533 0.022221912 -0.028622571 -0.01064958 -0.0055539417 -0.004483323 -0.011750759
-0.010202504 0.0035034434 -0.022216154 0.004988051 -0.015159962 0.001774632 -0.009885008 -0.031559106
0.007090404 -0.00057061814 -0.03900693 -0.00014718765 0.0070054247 -0.031995375 0.015055089 0.002632661
0.02215559 0.009970911 -0.038817454 0.00016314184 0.006316287 0.03131575 0.044671167 -0.005411493
-0.033179708 0.029575968 0.004148102 -0.013906903 -0.011174551 0.022217747 -0.009385012 -0.00646032
-0.021950992 0.024697492 -0.0034230542 -0.0030958883 -0.002322918 0.0066125016 0.0043256376 -0.011416721
-0.004486907 -0.015084607 -0.002794858 -0.02389828 0.008424166 0.028340429 0.016040292 0.0029505256
-0.012740226 0.008620062 -0.00018454708 0.032663364 -0.0077924817 0.0213082 0.003106942 -0.015363541
0.0028642963 0.011652114 0.00018822264 -0.011531815 0.0119987605 -0.02449306 -0.029559651 0.0123471785
-0.017863443 0.029619915 -0.0054385974 -0.034323003 0.003858155 0.024400452 -0.0027874492 0.012121196
-0.017492743 -0.001611208 0.0012337591 -0.017206699 0.01183141 0.009770746 -0.0072682123 -0.011620517
0.0036986214 -0.011974305 0.0029605748 -0.0033801335 -0.048063286 0.0029404212 -0.0031403105 -0.011802978
-0.010864108 -0.023368167 -0.007814846 -0.012793327 0.006208383 0.0053126276 -0.022978619 -0.006837708
-0.006032287 0.005329053 -0.0423035 -0.0066991337 -0.00041170674 -0.0035442137 0.01953642 -0.0013767149
-0.016116336 0.0047980216 0.011226246 0.0008548382 0.005388122 0.0053694937 0.0411057 -0.009851445
0.006201909 -0.00610495 -0.039462388 0.021552103 0.00961295 -0.006574971 0.013178229 -0.0002596881
-0.028455421 -0.054293852 -0.019722553 -0.0083611505 -0.0029955888 0.015485211 -0.0038228927 -0.0055069956
-0.017754223 -0.0026447966 0.010629082 0.01900859 -0.034068644 -0.0025948456 0.0013629894 0.013447744
-0.01055539 -0.0062145772 0.040347226 -0.01619463 -0.026428437 0.05071457 -0.004706647 -0.0057974774
0.021018641 0.014218553 -0.02531811 -0.013440318 0.009620477 0.020703256 -0.0134078255 0.0028554436
0.022014989 0.017356185 -0.0058551617 -0.02086885 -0.014786546 -0.010254095 -0.022026138 -0.022027044
-0.011857013 0.0075607323 0.0014691567 0.024525432 0.017238516 -0.020817924 -0.007919329 0.024361936
-0.027206382 0.032820076 -0.008850613 -0.03743009 0.0032773074 0.013082189 -0.0011958437 0.023683887
-0.0012800581 0.03425405 -0.0050017745 -0.014320728 0.010944828 -0.020565538 -0.0015368693 -0.014398868
0.02863123 0.013796707 -0.016889427 -0.02643843 0.034607638 -0.029377747 0.020532882 0.004695156
00000000: b25e e73b 7f37 cbbb 2ebf c6bc f9b6 903c
00000010: 4acb cc3a 1bc7 ebba af46 da3b 856a 90bc
00000020: 0209 4cba 7ef7 27bc 2b1c 1c3b 4545 ddbc
00000030: cd56 32bc f3ae 5fbc 77f2 7cbc b5b3 4dba
00000040: 3a78 9c3c b1ec 40bc 87f2 ebbc 86e4 b1bb
00000050: 3a9c d73b 8a0b 78bc ef25 843c d05b 653b
00000060: 1f2a f73b 133a ddbc a779 44bb e28a 1a3c
00000070: ad7f 7fbc dfc5 f4bb c28e 5fbb 2abd 45bb
00000080: e42c 26bc 4542 71bc 0ed1 93bc d18b 913c
00000090: 514a 90bc b748 953c 1d2b 7f3c fd80 113c
000000a0: 1d4f 0cbc 02c2 e9bb ed26 053d 33e3 7fbc
000000b0: 0851 b9bb e578 233c a0c9 453b 27d6 333b
000000c0: 5f7c 593c 64e2 0ebd ebd5 b6bb 5d7f 3bbd
000000d0: fa96 54bc 1b7e 3a3b 4ba9 683c c2ab cf3b
000000e0: 6091 fb3b faa3 703c ba0a b63c e279 eabc
000000f0: 937b 2ebc d7fd b5bb d7e8 92bb 4186 40bc
00000100: 6728 27bc 079a 653b a7fe b5bc ce72 a33b
00000110: 7d61 78bc c59a e83a bbf4 21bc 1f44 01bd
00000120: 9f56 e83b 8995 15ba bbc5 1fbd 6256 1ab9
00000130: c38d e53b 950d 03bd 9fa9 763c b988 2c3b
00000140: a47f b53c 085d 233c 0dff 1ebd 0e11 2b39
00000150: dbf8 ce3b f244 003d 1df9 363d e552 b1bb
00000160: 72e7 07bd 4d49 f23c cdec 873b c7d9 63bc
00000170: 7715 37bc fe01 b63c 98c3 19bc 18b1 d3bb
00000180: 91d2 b3bc 6552 ca3c 5255 60bb 63e4 4abb
00000190: 193c 18bb afad d83b 14be 8d3b 330d 3bbc
000001a0: e706 93bb 6d25 77bc f029 37bb 53c6 c3bc
000001b0: 8305 0a3c 302a e83c ee66 833c 9b5d 413b
000001c0: 62bc 50bc 293b 0d3c fb82 41b9 05ca 053d
000001d0: 1358 ffbb 898e ae3c d69d 4b3b 5db7 7bbc
000001e0: ebb6 3b3b 82e8 3e3c a15d 4539 f0ef 3cbc
000001f0: 7396 443c aba5 c8bc 1527 f2bc d24b 4a3c
00000200: 5b56 92bc 77a5 f23c 4336 b2bb 4796 0cbd
00000210: 1ad9 7c3b 75e3 c73c a3ad 36bb fb97 463c
00000220: f14c 8fbc 2b2f d3ba 16b6 a13a 10f5 8cbc
00000230: 88d8 413c 7b15 203c 2f2a eebb fb63 3ebc
00000240: 9264 723b e02f 44bc 3406 423b 3b85 5dbb
00000250: 02de 44bd 15b4 403b abcd 4dbb 4761 41bc
00000260: 5fff 31bc 996e bfbc d709 00bc 1a9b 51bc
00000270: b16f cb3b 8d15 ae3b a83d bcbc da0e e0bb
00000280: 7eaa c5bb 569f ae3b 6f46 2dbd 6884 dbbb
00000290: 58da d7b9 0a46 68bb d80a a03c e372 b4ba
000002a0: 6806 84bc b938 9d3b 4aee 373c 3817 603a
000002b0: d88e b03b 94f2 af3b 735e 283d f567 21bc
000002c0: 6239 cb3b 080c c8bb 50a3 21bd 098e b03c
000002d0: a27f 1d3c db72 d7bb 80e9 573c bf26 88b9
000002e0: 581b e9bc 3b63 5ebd 3191 a1bc 35fd 08bc
000002f0: a451 44bb afb5 7d3c 7f89 7abb 0774 b4bb
00000300: 4e71 91bc 5354 2dbb 9a25 2e3c e7b7 9b3c
00000310: 908b 0bbd 490e 2abb 56a6 b23a ed53 5c3c
00000320: 84f0 2cbc a7a3 cbbb 2243 253d 9aaa 84bc
00000330: 7380 d8bc 15ba 4f3d 373a 9abb c4f8 bdbb
00000340: 492f ac3c eff4 683c ed67 cfbc c834 5cbc
00000350: 359f 1d3c e099 a93c 7fac 5bbc 6522 3b3b
00000360: c758 b43c 8f2e 8e3c a8dc bfbb 27f5 aabc
00000370: 4543 72bc cb00 28bc 2970 b4bc 0f72 b4bc
00000380: eb43 42bc 05c0 f73b b890 c03a 8fe9 c83c
00000390: ca37 8d3c 5a8a aabc 13c0 01bc af92 c73c
000003a0: ebdf debc 586e 063d 2902 11bc 4b50 19bd
000003b0: 18c8 563b ad56 563c dbbd 9cba b604 c23c
000003c0: 9fc7 a7ba fa4d 0c3d ede5 a3bb 7da1 6abc
000003d0: f051 333c 0f79 a8bc c770 c9ba 3be9 6bbc
000003e0: 0b8c ea3c 950b 623c b25b 8abc 6895 d8bc
000003f0: bdc0 0d3d 9aa9 f0bc 9334 a83c d3d9 993b

network_body._body_endoder.seq_layers.0.bias f4 [128]
0.0 0.0 0.0 0.0 0.0 0.0 0.0 0.0
0.0 0.0 0.0 0.0 0.0 0.0 0.0 0.0
0.0 0.0 0.0 0.0 0.0 0.0 0.0 0.0
0.0 0.0 0.0 0.0 0.0 0.0 0.0 0.0
0.0 0.0 0.0 0.0 0.0 0.0 0.0 0.0
0.0 0.0 0.0 0.0 0.0 0.0 0.0 0.0
0.0 0.0 0.0 0.0 0.0 0.0 0.0 0.0
0.0 0.0 0.0 0.0 0.0 0.0 0.0 0.0
0.0 0.0 0.0 0.0 0.0 0.0 0.0 0.0
0.0 0.0 0.0 0.0 0.0 0.0 0.0 0.0
0.0 0.0 0.0 0.0 0.0 0.0 0.0 0.0
0.0 0.0 0.0 0.0 0.0 0.0 0.0 0.0
0.0 0.0 0.0 0.0 0.0 0.0 0.0 0.0
0.0 0.0 0.0 0.0 0.0 0.0 0.0 0.0
0.0 0.0 0.0 0.0 0.0 0.0 0.0 0.0
0.0 0.0 0.0 0.0 0.0 0.0 0.0 0.0
00000000: 0000 0000 0000 0000 0000 0000 0000 0000
00000010: 0000 0000 0000 0000 0000 0000 0000 0000
00000020: 0000 0000 0000 0000 0000 0000 0000 0000
00000030: 0000 0000 0000 0000 0000 0000 0000 0000
00000040: 0000 0000 0000 0000 0000 0000 0000 0000
00000050: 0000 0000 0000 0000 0000 0000 0000 0000
00000060: 0000 0000 0000 0000 0000 0000 0000 0000
00000070: 0000 0000 0000 0000 0000 0000 0000 0000
00000080: 0000 0000 0000 0000 0000 0000 0000 0000
00000090: 0000 0000 0000 0000 0000 0000 0000 0000
000000a0: 0000 0000 0000 0000 0000 0000 0000 0000
000000b0: 0000 0000 0000 0000 0000 0000 0000 0000
000000c0: 0000 0000 0000 0000 0000 0000 0000 0000
000000d0: 0000 0000 0000 0000 0000 0000 0000 0000
000000e0: 0000 0000 0000 0000 0000 0000 0000 0000
000000f0: 0000 0000 0000 0000 0000 0000 0000 0000
00000100: 0000 0000 0000 0000 0000 0000 0000 0000
00000110: 0000 0000 0000 0000 0000 0000 0000 0000
00000120: 0000 0000 0000 0000 0000 0000 0000 0000
00000130: 0000 0000 0000 0000 0000 0000 0000 0000
00000140: 0000 0000 0000 0000 0000 0000 0000 0000
00000150: 0000 0000 0000 0000 0000 0000 0000 0000
00000160: 0000 0000 0000 0000 0000 0000 0000 0000
00000170: 0000 0000 0000 0000 0000 0000 0000 0000
00000180: 0000 0000 0000 0000 0000 0000 0000 0000
00000190: 0000 0000 0000 0000 0000 0000 0000 0000
000001a0: 0000 0000 0000 0000 0000 0000 0000 0000
000001b0: 0000 0000 0000 0000 0000 0000 0000 0000
000001c0: 0000 0000 0000 0000 0000 0000 0000 0000
000001d0: 0000 0000 0000 0000 0000 0000 0000 0000
000001e0: 0000 0000 0000 0000 0000 0000 0000 0000
000001f0: 0000 0000 0000 0000 0000 0000 0000 0000

network_body._body_endoder.seq_layers.0.weight f4 [128, 6]
0.061605312 0.2663498 -0.25013396 -0.08584896 0.22353949 -0.16722909 0.48197144 0.37115595
-0.5628314 0.18163279 0.3777157 -0.0491985 0.4250718 0.6012673 -0.09699629 -0.11263182
0.96892047 -0.082550205 -0.13814138 -0.28968903 0.5461162 -0.23891142 -0.50352633 -0.10270802
0.108976305 0.17105909 -0.31169805 0.48185334 -0.37919313 0.20441209 -0.30911517 -0.42404363
-0.32624322 -0.009015974 0.046420995 0.40412226 0.39618382 0.3716144 0.28930756 -0.32404968
0.15981795 -0.44535765 0.42977595 -0.06844824 -0.39022112 -0.09947626 -0.10153011 -0.28110498
-0.12533721 0.000705111 0.5715837 -0.25376493 0.1999243 0.7783403 -0.074313685 -0.111695096
-0.1784099 -0.7744959 0.2886282 -0.22088769 -0.7764454 -0.3599733 0.4734649 -0.22555313
-0.18509951 -0.55372053 0.33500165 -0.8097465 0.23891227 0.34742153 -0.7658169 0.05882323
-0.29436967 -0.4668841 -0.09635648 0.17799649 -0.20726074 -0.25918835 -0.24092606 -0.20528401
-0.28039524 -0.56786656 0.030797625 -0.08649678 0.6091994 0.71477413 0.17975216 -0.67922974
-0.51034886 -0.31091022 0.054504115 0.48332313 0.13494009 -0.060472682 -0.52386 0.16660349
-0.80914986 0.17869787 0.094594434 -0.41246516 -0.24725826 -0.57238823 -0.16220705 0.6687213
-0.47713703 -0.36806667 -0.5451264 0.20083697 0.036444694 -0.026897762 -0.050007097 -0.49314657
0.071526736 0.6129264 0.23033223 0.36062577 -0.16137627 0.033812974 -0.6646363 -0.15267828
-0.37339404 -0.25818986 -0.40612298 -0.62524724 0.62597364 0.056190573 0.58396435 -0.37362847
-0.57689464 -0.34418708 0.11041653 -0.95372605 0.6436793 0.26015127 -0.14253102 0.19553839
0.61398697 -0.1776557 -0.37203404 0.28572768 0.26430613 -0.7432279 -0.48323956 0.45423448
-0.25847337 -0.7276649 0.85892403 0.2126949 0.6350981 -0.56616575 0.30163753 0.2824501
0.14038336 -0.007997948 0.77690595 0.09346052 -0.37235716 0.00017317706 -0.023231573 -0.054610293
0.025659192 -0.17405468 0.3964945 -1.4480324 -0.75962746 0.73357344 -0.5690046 -0.17710508
-0.1591782 -0.53635246 0.018088773 0.331388 -0.15808904 0.9035541 0.73695064 0.2508918
0.033488963 0.16822611 0.06271995 -0.7429473 0.45787126 -0.18699922 0.16662015 0.23276271
-0.59565556 -0.23646997 0.19795875 0.038855806 -0.4288522 0.16083567 -0.5745584 0.821604
-0.6260251 0.4460574 0.3658105 0.2168527 -0.49808624 0.87723553 -0.35026214 0.60785735
0.1277767 0.47534153 -0.41379985 0.43444997 -0.034778424 0.4637265 -0.151683 0.38797265
0.79099244 0.32177332 0.083777815 0.39516622 0.06245414 0.5555447 0.15947898 0.012791977
0.1499077 1.0860103 -0.029981408 0.28487146 -0.2649831 0.37433875 -0.2782787 0.6729872
-0.35161224 -0.41781944 -0.4139003 0.4893785 0.12144804 -0.07732453 0.0747628 0.24561974
-0.49308822 -0.40028796 -0.18782583 -0.20496711 -0.6386517 -0.5549886 -0.20770141 0.25828516
-0.40888768 0.09696245 0.13234767 0.23750418 -0.81454194 0.99540883 0.53051764 0.08713126
0.5983167 0.2889381 -0.50754535 -0.21554537 -0.1228017 0.88076144 -0.1844548 0.11293173
00000000: da55 7c3d 005f 883e 8f11 80be 94d1 afbd
00000010: 89e7 643e 1a3e 2bbe f6c4 f63e 2708 be3e
00000020: b815 10bf f2fd 393e f463 c13e 5e84 49bd
00000030: 03a3 d93e a7ec 193f fea5 c6bd 83ab e6bd
00000040: 2c0b 783f 1510 a9bd ef74 0dbe 1f52 94be
00000050: 45ce 0b3f 32a5 74be 1ae7 00bf 9558 d2bd
00000060: f82e df3d 1d2a 2f3e e396 9fbe 7bb5 f63e
00000070: 9a25 c2be 6751 513e 5844 9ebe 3f1c d9be
00000080: 5a09 a7be bcb7 13bc f123 3e3d 1de9 ce3e
00000090: 9bd8 ca3e 3e44 be3e 1f20 943e d7e9 a5be
000000a0: 51a7 233e eb05 e4be 980b dc3e 972e 8cbd
000000b0: 10cb c7be 36ba cbbd 05ef cfbd feec 8fbe
000000c0: 6658 00be 33d7 383a 4f53 123f 7aed 81be
000000d0: f5b8 4c3e 4f41 473f c631 98bd 66c0 e4bd
000000e0: 16b1 36be 5d45 46bf 13c7 933e 6230 62be
000000f0: 20c5 46bf 6c4e b8be fe69 f23e 66f7 66be
00000100: ba8a 3dbe a1c0 0dbf 5685 ab3e 8c4b 4fbf
00000110: 6ba5 743e 3ce1 b13e 940c 44bf a1f0 703d
00000120: 9fb7 96be 6f0b efbe 8c56 c5bd b644 363e
00000130: 293c 54be 56b4 84be 52b5 76be f935 52be
00000140: f78f 8fbe b45f 11bf 4d4b fc3c 3925 b1bd
00000150: 7ef4 1b3f 70fb 363f f310 383e 00e2 2dbf
00000160: 39a6 02bf a02f 9fbe b53f 5f3d 2176 f73e
00000170: bc2d 0a3e 34b2 77bd b01b 06bf 1b9a 2a3e
00000180: 7224 4fbf 93fc 363e baba c13d a22e d3be
00000190: 4531 7dbe 0988 12bf 9b19 26be 5231 2b3f
000001a0: 4e4b f4be 3c73 bcbe 678d 0bbf 35a8 4d3e
000001b0: 0847 153d b258 dcbc 3ed4 4cbd b57d fcbe
000001c0: 9c7c 923d bfe8 1c3f 36dc 6b3e f1a3 b83e
000001d0: d23f 25be 797f 0a3d 9b25 2abf b257 1cbe
000001e0: 812d bfbe 7631 84be 5aef cfbe 3410 20bf
000001f0: cf3f 203f 1628 663d b07e 153f 3b4c bfbe
00000200: 5eaf 13bf 4a39 b0be 1022 e23d 6427 74bf
00000210: 2bc8 243f 8c32 853e a7f3 11be 373b 483e
00000220: 402e 1d3f 60eb 35be 3f7b bebe e64a 923e
00000230: 2253 873e 2f44 3ebf 2d6b f7be 6c91 e83e
00000240: 9f56 84be 3f48 3abf 72e2 5b3f b1cc 593e
00000250: ca95 223f 3df0 10bf 3c70 9a3e 4d9d 903e
00000260: a8c0 0f3e d309 03bc 4fe3 463f 3b68 bf3d
00000270: 99a5 bebe dd96 3539 2450 bebc 0baf 5fbd
00000280: 3a33 d23c 643b 32be 5401 cb3e 2059 b9bf
00000290: f276 42bf 78cb 3b3f 49aa 11bf 095b 35be
000002a0: 9cff 22be 654e 09bf e82e 943c b0ab a93e
000002b0: 18e2 21be 524f 673f cca8 3c3f e474 803e
000002c0: b92b 093d 7743 2c3e 5173 803d cb31 3ebf
000002d0: 1a6e ea3e b97c 3fbe 799e 2a3e 5959 6e3e
000002e0: e27c 18bf 2f25 72be b3b5 4a3e 4427 1f3d
000002f0: 8492 dbbe 1bb2 243e 4216 13bf a454 523f
00000300: 2e43 20bf a361 e43e 844b bb3e a20e 5e3e
00000310: 2905 ffbe 8292 603f 8f55 b3be 8a9c 1b3f
00000320: e5d7 023e f75f f33e 93dd d3be 3a70 de3e
00000330: d273 0ebd 8f6d ed3e ca52 1bbe 5aa4 c63e
00000340: 7b7e 4a3f 79bf a43e b493 ab3d 3a53 ca3e
00000350: eacf 7f3d 2d38 0e3f 754e 233e 7195 513c
00000360: 6781 193e 6302 8b3f 929b f5bc acda 913e
00000370: ddab 87be 54a9 bf3e 8c7a 8ebe e448 2c3f
00000380: 8506 b4be 6eec d5be bdea d3be d28f fa3e
00000390: c0b9 f83d 535c 9ebd 3d1d 993d be83 7b3e
000003a0: 0f76 fcbe 8bf2 ccbe 6a55 40be e6e2 51be
000003b0: ae7e 23bf bc13 0ebf aeaf 54be f43d 843e
000003c0: ba59 d1be 4094 c63d 2686 073e 4c34 733e
000003d0: d285 50bf 1dd3 7e3f 01d0 073f e071 b23d
000003e0: 492b 193f b2ef 933e 7eee 01bf edb7 5cbe
000003f0: 757f fbbd 9579 613f b8e1 3cbe c048 e73d

network_body._body_endoder.seq_layers.2.bias f4 [128]
0.0 0.0 0.0 0.0 0.0 0.0 0.0 0.0
0.0 0.0 0.0 0.0 0.0 0.0 0.0 0.0
0.0 0.0 0.0 0.0 0.0 0.0 0.0 0.0
0.0 0.0 0.0 0.0 0.0 0.0 0.0 0.0
0.0 0.0 0.0 0.0 0.0 0.0 0.0 0.0
0.0 0.0 0.0 0.0 0.0 0.0 0.0 0.0
0.0 0.0 0.0 0.0 0.0 0.0 0.0 0.0
0.0 0.0 0.0 0.0 0.0 0.0 0.0 0.0
0.0 0.0 0.0 0.0 0.0 0.0 0.0 0.0
0.0 0.0 0.0 0.0 0.0 0.0 0.0 0.0
0.0 0.0 0.0 0.0 0.0 0.0 0.0 0.0
0.0 0.0 0.0 0.0 0.0 0.0 0.0 0.0
0.0 0.0 0.0 0.0 0.0 0.0 0.0 0.0
0.0 0.0 0.0 0.0 0.0 0.0 0.0 0.0
0.0 0.0 0.0 0.0 0.0 0.0 0.0 0.0
0.0 0.0 0.0 0.0 0.0 0.0 0.0 0.0
00000000: 0000 0000 0000 0000 0000 0000 0000 0000
00000010: 0000 0000 0000 0000 0000 0000 0000 0000
00000020: 0000 0000 0000 0000 0000 0000 0000 0000
00000030: 0000 0000 0000 0000 0000 0000 0000 0000
00000040: 0000 0000 0000 0000 0000 0000 0000 0000
00000050: 0000 0000 0000 0000 0000 0000 0000 0000
00000060: 0000 0000 0000 0000 0000 0000 0000 0000
00000070: 0000 0000 0000 0000 0000 0000 0000 0000
00000080: 0000 0000 0000 0000 0000 0000 0000 0000
00000090: 0000 0000 0000 0000 0000 0000 0000 0000
000000a0: 0000 0000 0000 0000 0000 0000 0000 0000
000000b0: 0000 0000 0000 0000 0000 0000 0000 0000
000000c0: 0000 0000 0000 0000 0000 0000 0000 0000
000000d0: 0000 0000 0000 0000 0000 0000 0000 0000
000000e0: 0000 0000 0000 0000 0000 0000 0000 0000
000000f0: 0000 0000 0000 0000 0000 0000 0000 0000
00000100: 0000 0000 0000 0000 0000 0000 0000 0000
00000110: 0000 0000 0000 0000 0000 0000 0000 0000
00000120: 0000 0000 0000 0000 0000 0000 0000 0000
00000130: 0000 0000 0000 0000 0000 0000 0000 0000
00000140: 0000 0000 0000 0000 0000 0000 0000 0000
00000150: 0000 0000 0000 0000 0000 0000 0000 0000
00000160: 0000 0000 0000 0000 0000 0000 0000 0000
00000170: 0000 0000 0000 0000 0000 0000 0000 0000
00000180: 0000 0000 0000 0000 0000 0000 0000 0000
00000190: 0000 0000 0000 0000 0000 0000 0000 0000
000001a0: 0000 0000 0000 0000 0000 0000 0000 0000
000001b0: 0000 0000 0000 0000 0000 0000 0000 0000
000001c0: 0000 0000 0000 0000 0000 0000 0000 0000
000001d0: 0000 0000 0000 0000 0000 0000 0000 0000
000001e0: 0000 0000 0000 0000 0000 0000 0000 0000
000001f0: 0000 0000 0000 0000 0000 0000 0000 0000

network_body._body_endoder.seq_layers.2.weight f4 [128, 128]
-0.041605063 0.025033887 -0.04192082 0.030156707 0.06379212 -0.07657382 0.014271929 0.06137771
0.07552927 -0.01506186 -0.030007096 -0.025870979 -0.16837317 -0.10722507 -0.13353987 0.17072925
0.12413326 -0.022832038 -0.0053614685 -0.03551493 -0.07033939 0.05675266 0.1375394 -0.10634622
0.003411859 0.038767725 -0.13992941 -0.07790559 0.08321612 -0.047777694 -0.11318526 0.12223756
0.00010799893 -0.0946627 -0.022536336 0.0044769687 0.066810474 -0.027226144 -0.065743774 0.009107349
-0.017945869 0.004243158 -0.021297457 -0.067401536 -0.0019124523 -0.14441113 -0.040938575 0.109035
-0.011665004 0.22518212 -0.24476774 0.21257424 -0.13673703 0.036563136 0.022168484 -0.00913847
0.102459654 -0.1827079 0.044153985 -0.01589064 -0.008727788 -0.12155893 0.17140196 -0.03265623
0.049625505 0.10173341 0.036059447 0.08182303 0.15418294 -0.12019897 -0.20433542 0.0063842023
0.021969695 0.025680978 0.017744042 0.04399683 0.07835834 -0.002968713 -0.078314334 -0.018395988
0.08653917 0.03679683 0.00977066 -0.045787707 0.018027756 0.04591825 0.020908576 0.042723347
0.070752025 -0.031616043 -0.024911191 -0.036272135 -0.053383224 -0.25870746 -0.030185273 -0.022788348
-0.010867349 -0.104497254 0.00057627575 -0.05699132 -0.054561783 -0.13697857 0.06356713 0.02484165
0.0730128 0.20353457 -0.11852509 -0.013688343 -0.014560187 -0.032135595 -0.06706962 -0.02445145
0.109646134 -0.00923963 -0.013176913 0.04564183 0.091572486 -0.086876504 0.022040991 0.08999137
0.06117099 -0.18362933 0.060553864 -0.014622358 -0.036169056 -0.0763098 0.0031450714 -0.057908494
-0.07694066 0.0114600295 -0.04682043 0.16075361 0.06614734 0.14226608 0.07643062 0.09504916
0.0046886625 0.21380919 -0.11001718 -0.032121 -0.03712214 -0.037871655 -0.04135972 -0.1204028
-0.0067626783 0.016149731 0.03102092 0.028637093 0.08597013 -0.06453657 -0.05412927 0.10228389
0.07675882 -0.042568855 0.0876039 -0.059855066 0.09550965 0.06795689 0.038504668 -0.024406096
-0.028343905 0.104355246 0.014133881 -0.07811323 0.084097765 -0.031533267 0.014414118 -0.100886285
-0.2053479 -0.07617504 0.109634645 -0.0088119 -0.11530782 0.067437366 -0.108054645 -0.06709787
-0.06698122 -0.1546573 0.08829126 -0.12136593 -0.20147657 -0.11375001 -0.018074784 -0.03432339
-0.11885037 -0.054126326 0.09201425 -0.0394084 -0.063079685 0.15502061 0.046471525 -0.01738628
-0.041118972 -0.0033340852 0.13318913 0.011160909 -0.026454497 -0.1116816 -0.04617491 -0.020904267
0.008066357 -0.088565424 0.03892174 0.04272919 0.010715061 0.053484045 0.12363835 -0.03754836
-0.14096269 -0.0027528224 -0.10070125 0.057694316 0.024172336 0.17490023 -0.15530457 0.1580767
0.006842397 -0.0063201324 -0.068326354 0.17709237 0.009339503 -0.033042036 0.038981333 0.03663861
0.05677596 0.19900946 0.0015184826 -0.06392991 -0.044944376 0.0707391 0.09872945 0.13280746
-0.07288013 0.046888262 0.2758415 0.015007656 -0.039551202 -0.050652567 0.022043597 -0.021760724
0.11164744 -0.09801305 -0.03699438 0.027857225 0.13073517 0.06281852 0.19016668 -0.03011602
-0.038260203 -0.11548988 0.2923927 -0.04162133 -0.16269514 -0.032310273 -0.11638525 -0.032055527
00000000: 126a 2abd de13 cd3c 2ab5 2bbd 330b f73c
00000010: 71a5 823d bcd2 9cbd cfd4 693c 3267 7b3d
00000020: 17af 9a3d 05c6 76bc 71d1 f5bc 60ef d3bc
00000030: 046a 2cbe d198 dbbd adbe 08be a6d3 2e3e
00000040: 9439 fe3d 410a bbbc 42af afbb 1a78 11bd
00000050: 190e 90bd 7a75 683d 21d7 0c3e 0ccc d9bd
00000060: 7f99 5f3b e8ca 1e3d a849 0fbe f78c 9fbd
00000070: 376d aa3d 8bb2 43bd accd e7bd b057 fa3d
00000080: 7c7d e238 85de c1bd 1f9e b8bc 89b3 923b
00000090: eed3 883d 5d09 dfbc aca4 86bd fe36 153c
000000a0: 3703 93bc 300a 8b3b 0178 aebc d109 8abd
000000b0: 40ab faba 83e0 13be 35af 27bd be4d df3d
000000c0: 931e 3fbc 2496 663e 65a4 7abe 10ad 593e
000000d0: cb04 0cbe 3ac3 153d ae9a b53c 85b9 15bc
000000e0: 5ed6 d13d c817 3bbe cfda 343d 162d 82bc
000000f0: fffe 0ebc e3f3 f8bd ff83 2f3e 8ac2 05bd
00000100: 1d44 4b3d 9b59 d03d 12b3 133d d592 a73d
00000110: 22e2 1d3e e12a f6bd 4e3d 51be 9232 d13b
00000120: caf9 b33c ea60 d23c f45b 913c 0536 343d
00000130: 567a a03d bd8e 42bb 4463 a0bd 2fb3 96bc
00000140: 733b b13d 46b8 163d 1e15 203c e48b 3bbd
00000150: f2ae 933c c614 3c3d 7648 ab3c adfe 2e3d
00000160: 70e6 903d d37f 01bd 8e12 ccbc 1792 14bd
00000170: 5ea8 5abd 4e75 84be 1b47 f7bc a1ae babc
00000180: f70c 32bc a802 d6bd 3611 173a bb6f 69bd
00000190: 2d7c 5fbd 1c44 0cbe 7c2f 823d b780 cb3c
000001a0: bc87 953d 5e6b 503e 48bd f2bd 1245 60bc
000001b0: da8d 6ebc 9da0 03bd cc5b 89bd 684e c8bc
000001c0: 278e e03d d161 17bc fbe3 57bc edf2 3a3d
000001d0: 5b8a bb3d 4fec b1bd 4f8f b43c 654d b83d
000001e0: 6f8e 7a3d 5409 3cbe 5407 783d 9d92 6fbc
000001f0: 0126 14bd 5048 9cbd 8b1d 4e3b 7531 6dbd
00000200: 1193 9dbd d9c2 3b3c c7c6 3fbd 989c 243e
00000210: 4278 873d 33ae 113e a887 9c3d 22a9 c23d
00000220: 5aa3 993b ccf0 5a3e b050 e1bd 4f91 03bd
00000230: 630d 18bd 4f1f 1bbd cf68 29bd be95 f6bd
00000240: 7599 ddbb 714c 843c 961f fe3c 5698 ea3c
00000250: 1c11 b03d c02b 84bd a7b6 5dbd 377a d13d
00000260: ba33 9d3d ae5c 2ebd ac69 b33d 962a 75bd
00000270: 909a c33d fb2c 8b3d 12b7 1d3d 4bef c7bc
00000280: 7a31 e8bc 34b8 d53d cb91 673c d4f9 9fbd
00000290: 733b ac3d 0729 01bd 3129 6c3c 789d cebd
000002a0: b846 52be a901 9cbd 2188 e03d ca5f 10bc
000002b0: 8226 ecbd 9a1c 8a3d c14b ddbd 9c6a 89bd
000002c0: 732d 89bd 7c5e 1ebe 0cd2 b43d b38e f8bd
000002d0: e04f 4ebe c4f5 e8bd 9211 94bc af96 0cbd
000002e0: d367 f3bd 91b3 5dbd f871 bc3d b46a 21bd
000002f0: ec2f 81bd b9bd 1e3e ed58 3e3d ac6d 8ebc
00000300: 5e6c 28bd ab80 5abb bb62 083e 3fdc 363c
00000310: 1ab7 d8bc 53b9 e4bd e721 3dbd 6d3f abbc
00000320: c128 043c ca61 b5bd 676c 1f3d ce04 2f3d
00000330: 398e 2f3c 1612 5b3d 1a36 fd3d 4fcc 19bd
00000340: 8658 10be b268 34bb 753c cebd e050 6c3d
00000350: 1005 c63c 0c19 333e 2908 1fbe dcde 213e
00000360: 3036 e03b 1d19 cfbb b0ee 8bbd b457 353e
00000370: b704 193c 1657 07bd e4aa 1f3d 5e12 163d
00000380: e98d 683d 23c9 4b3e d207 c73a afed 82bd
00000390: 9817 38bd a9df 903d aa32 ca3d aefe 073e
000003a0: 2d42 95bd e80d 403d 193b 8d3e ace2 753c
000003b0: 7100 22bd 1179 4fbd c694 b43c 8c43 b2bc
000003c0: 6aa7 e43d 11bb c8bd 6b87 17bd d634 e43c
000003d0: 71df 053e ffa6 803d 0ebb 423e dfb5 f6bc
000003e0: bbb6 1cbd f585 ecbd 7fb4 953e 217b 2abd
000003f0: 8e99 26be c757 04bd 645b eebd a84c 03bd
