CubeTest/results/ppo/MoveToGoal/MoveToGoal-1600.onnx (onnx, 71603 bytes, 6 tensors)

action_model._discrete_distribution.branches.0.bias f4 [5]
000000 00 00 00 00 00 00 00 00 00 00 00 00 00 00 00 00
       0.0 0.0 0.0 0.0
000010 00 00 00 00
       0.0

action_model._discrete_distribution.branches.0.weight f4 [5, 128]
000000 e3 de 5f ba ac a3 cc bb fb 67 87 bb bf 40 c6 3b
       -0.00085399876 -0.006245097 -0.0041322685 0.006050199
000010 a7 e8 c1 3c c9 da a2 3c 07 86 98 3c e1 0e 83 3c
       0.023670508 0.019879716 0.018618597 0.015998306
000020 4c e6 98 3a e5 62 00 3c 08 ad 1c 3c 73 4e 91 bb
       0.0011665314 0.007836078 0.009562738 -0.0044344007
000030 2b 9d 56 3b 93 71 68 bb c5 a5 c5 bb 3a 2d b3 3c
       0.0032747488 -0.0035468086 -0.006031724 0.021872152
000040 6d ae 73 bc 80 f8 22 bb cb 26 07 3c 77 d1 29 3c
       -0.014873129 -0.0024867356 0.008248995 0.010364882
000050 ef 17 83 3b 0f 9b 2f bb b7 00 91 b8 95 55 56 bb
       0.004000656 -0.0026795303 -6.914272e-05 -0.003270482
000060 07 94 83 3c 97 3c 4b bc bb bd 09 3c 9a bc a1 3b
       0.016061796 -0.012404582 0.008407052 0.004935813
000070 1b bc 3b bb c8 eb e1 bb f3 20 9a bb 25 82 8a bc
       -0.0028646055 -0.0068945624 -0.004703635 -0.01690776
000080 22 5f 7b bb 73 c0 09 3b 5f 01 32 bc 9f d1 7f bb
       -0.0038356264 0.002101925 -0.010864585 -0.0039034856
000090 a5 c0 df 3b 50 04 12 3c 18 34 d0 3b d0 64 8c bc
       0.006828385 0.008912161 0.0063538663 -0.017137915
0000a0 85 ca 20 3b 90 93 13 bb cb 87 46 3c 47 c1 46 3b
       0.0024534774 -0.0022518374 0.0121173365 0.0030327605
0000b0 8c d9 47 3a 99 70 ca 3c 55 76 3c 3b 8d 3f d1 bb
       0.00076236646 0.024711894 0.0028757055 -0.0063857497
0000c0 af da 8d bc d3 4f 3d bb d7 b4 8d 3b 93 c7 5a bc
       -0.01731619 -0.002888669 0.0043245363 -0.013353246
0000d0 bb 4b 8e bc 50 95 85 3b 30 7a e9 39 35 65 56 3a
       -0.017370095 0.0040766373 0.0004453226 0.0008178533
0000e0 b3 07 5a bb 1b 46 4d bb 04 79 97 bc 8c f5 2e bc
       -0.003326875 -0.0031322304 -0.018490322 -0.01067866
0000f0 38 ec 5b bc 0d b8 eb bb b2 b7 37 3a 6d 95 f2 3b
       -0.013423018 -0.0071935714 0.0007008269 0.007403067
000100 f9 a3 11 3c e7 2c a6 3b 07 ca 49 3c 8b 91 08 3b
       0.008889192 0.0050712707 0.0123162335 0.0020838703
000110 45 aa 7d 3c 2f 6f a2 3b d7 ad af 39 c9 f8 23 3b
       0.01548249 0.004957102 0.00033508122 0.0025020114
000120 f9 9a 8c 3c a8 8f 0a bb 4f 2e 76 bb c8 f5 db 3b
       0.01716374 -0.0021142755 -0.0037564223 0.006712649
000130 76 dd 10 3b 67 96 41 bc 7f aa 64 3b 07 b1 3a ba
       0.0022104657 -0.011815644 0.0034891663 -0.0007121716
000140 44 e6 aa 3a c3 fd 95 3c 99 a2 04 bc f3 6f 2d bb
       0.0013038595 0.01830948 -0.008095407 -0.0026464432
000150 2b d8 b8 bb 58 6d de bb 05 9f 0b 3c 3b 7f db b8
       -0.0056410036 -0.006787937 0.0085218 -0.00010466432
000160 9f 62 b1 bb 7d 44 91 3b 7f 05 2a 3c fb 55 5b 3c
       -0.005413368 0.0044332133 0.010377287 0.013387199
000170 d7 c1 56 bb 57 59 42 bc 66 53 c8 3b 53 49 13 bb
       -0.0032769346 -0.011862121 0.0061134575 -0.0022474125
000180 e6 1e c5 3b 1b c3 c6 3b 3f 61 0d 3c 3c d4 20 3b
       0.0060156463 0.006065739 0.008629142 0.0024540564
000190 9f 55 ef bb 55 00 fc bb 55 aa 85 bb 93 dd 89 bb
       -0.007303908 -0.0076904693 -0.004079143 -0.004207322
0001a0 f6 ac a9 bb 7d ec 19 bc f8 48 af bb 73 5b 44 3c
       -0.0051780893 -0.009394762 -0.0053492747 0.011984694
0001b0 91 1e 13 bb 9f d9 2f bc 03 6e 9b 3b 60 cb cf 3a
       -0.002244864 -0.010733037 0.004743339 0.0015853457
0001c0 e7 eb 77 bb ab 2b e6 3a b1 2c 2c bc 73 bc 33 bc
       -0.0037829818 0.0017560621 -0.010508702 -0.010970223
0001d0 85 a0 74 3c 6f 03 da 38 a3 70 25 3c b0 e7 df bb
       0.014930849 0.000103956896 0.0100976555 -0.006833039
0001e0 28 ea cd 3b be 8f 16 3c f0 69 d8 39 8a d8 f3 ba
       0.006284017 0.009189544 0.0004127766 -0.0018603962
0001f0 af 6a 94 bb d7 c4 fc bc df 06 f8 3b 45 da 51 bc
       -0.0045293192 -0.03085558 0.0075691785 -0.012808387
000200 09 44 12 3c 9d 10 76 bb 59 70 0d 3b 46 4b c3 bb
       0.008927354 -0.0037546523 0.0021581857 -0.005959901
000210 2b c1 bd bb 1d 63 63 3b d8 59 0b 3c 17 61 6a bb
       -0.0057908497 0.0034696527 0.008505307 -0.0035763436
000220 8d 71 eb 3a f5 09 7e bb 4d 89 e4 3b ab cf 92 bb
       0.0017962918 -0.003876326 0.0069743753 -0.0044803224
000230 4f 2e 4c 3c 5d ad f2 bb 4a 18 aa 3b 1d b0 9d bb
       0.012462213 -0.0074059204 0.0051908838 -0.004812254
000240 01 86 06 39 21 80 a0 3c 46 68 28 3b 28 73 09 bc
       0.00012829156 0.019592347 0.0025696917 -0.008389272
000250 7d fa 87 bc 2b 1e 2d 3c 7a 2c 7c 3c f2 7e f1 ba
       -0.016598934 0.010566275 0.015391463 -0.0018424673
000260 fc ad 86 3b c5 49 df bb 9b 48 bf 3a f4 08 3c 3c
       0.004110096 -0.006814214 0.0014593782 0.011476744
000270 97 27 1c bc f0 96 ef bb a8 75 e9 bb f0 dd bb 3b
       -0.009530923 -0.0073116943 -0.0071246214 0.005733244
000280 75 12 42 bc 59 14 93 3b 2e 35 1b 3c 18 30 60 bc
       -0.011845221 0.0044885096 0.009473128 -0.013683341
000290 51 8d ae 3b c7 5b af 3b 01 12 96 3c 59 54 18 bc
       0.005326905 0.005351517 0.018319132 -0.009297454
0002a0 0c b4 b1 3b 43 eb 02 3c e9 4e 28 3c 58 5d 37 3b
       0.0054230746 0.007990661 0.01027272 0.0027979221
0002b0 88 95 93 bc 73 33 71 bb 87 94 bf bb d7 e5 23 3b
       -0.018015638 -0.0036804348 -0.0058465633 0.0025008821
0002c0 2f 06 10 3c 72 17 e1 bb c5 43 bd 3b ea 4f f0 3b
       0.008790537 -0.00686925 0.005775901 0.0073337452
0002d0 cf fd 4b 3b de 9d c1 3a 0a 07 5a bc 88 41 2a bc
       0.0031126624 0.001477178 -0.013307342 -0.0103916
0002e0 2a 2b 25 bc e2 46 1d 3a eb 27 a3 bc 14 27 05 bc
       -0.010081092 0.0005999637 -0.019916495 -0.008126993
0002f0 eb 58 f1 bb 71 90 3d bc c7 8e d5 b9 a3 c4 8f 3b
       -0.007365336 -0.011570082 -0.00040732903 0.0043874546
000300 9f 25 03 3a 43 90 82 3c 02 9c d3 3b 0b 06 73 bb
       0.00050028594 0.01593793 0.0064578066 -0.003708246
000310 b0 c1 31 bc c5 d5 5d 3c 64 8f 15 3c 8f 60 90 3c
       -0.010849401 0.013539736 0.009128425 0.017624168
000320 5e 4d 8a bb 3d 73 b8 3b ce 7e 1d 3c d1 01 29 bc
       -0.0042206487 0.005628972 0.009612752 -0.0103153745
000330 6a 22 63 3b 39 76 12 bc 37 6d fc bb bf db e0 3b
       0.0034657964 -0.008939319 -0.007703449 0.0068621333
000340 06 e9 b9 3b 43 93 d6 bb 0b 41 48 3b 3b 87 49 3b
       0.0056735305 -0.0065483167 0.0030556347 0.003075077
000350 34 36 9f 3a e6 50 9f bb d1 c4 87 3b ac 2b b7 bb
       0.0012146891 -0.0048619388 0.0041433354 -0.005589923
000360 0b 09 f5 bb c6 05 ab ba 9b 7d 0c 3c 8b 92 90 3b
       -0.0074778846 -0.0013047985 0.008574869 0.0044120005
000370 ff 65 8c 3b 4a cc c0 bb 67 56 53 bc 28 30 1d 3c
       0.00428462 -0.005883728 -0.012899018 0.009594001
000380 5f 57 86 3c 06 69 85 ba 6f 2c 03 bb e2 a3 32 3c
       0.016399084 -0.0010178394 -0.0020015498 0.0109033305
000390 13 4b fa bb 70 cd 93 3b 79 f5 2b bb 15 11 78 bb
       -0.007638344 0.004510574 -0.0026238842 -0.0037851979
0003a0 bb 42 2e 3c d3 16 3e bc b7 6e 0b 3c 33 43 c0 bb
       0.010636027 -0.011602121 0.008510283 -0.005867386
0003b0 e0 1d d2 3a 53 aa a2 3b d4 9e 96 3a 0f 80 47 3b
       0.0016030632 0.004964152 0.0011491426 0.003044132
0003c0 2b a0 88 bb 4d 3c 56 3a 01 f6 8f ba 7f f3 e0 3b
       -0.004169484 0.00081724377 -0.0010983349 0.0068649645
0003d0 ca c3 e0 bb 4f 88 8e 3c c3 ab 2b bc 45 83 cf bb
       -0.0068592774 0.017398981 -0.010477963 -0.006332787
0003e0 51 a0 48 3a c3 e1 da 3b 3b a9 2b bc d3 a2 e0 bb
       0.00076532835 0.006679745 -0.010477359 -0.0068553477
0003f0 e4 7a 2e 3c cb ba 86 3b 97 62 08 3b 82 95 3c 3b
       0.010649417 0.004111623 0.0020810717 0.0028775637

network_body._body_endoder.seq_layers.0.bias f4 [128]
000000 00 00 00 00 00 00 00 00 00 00 00 00 00 00 00 00
       0.0 0.0 0.0 0.0
000010 00 00 00 00 00 00 00 00 00 00 00 00 00 00 00 00
       0.0 0.0 0.0 0.0
000020 00 00 00 00 00 00 00 00 00 00 00 00 00 00 00 00
       0.0 0.0 0.0 0.0
000030 00 00 00 00 00 00 00 00 00 00 00 00 00 00 00 00
       0.0 0.0 0.0 0.0
000040 00 00 00 00 00 00 00 00 00 00 00 00 00 00 00 00
       0.0 0.0 0.0 0.0
000050 00 00 00 00 00 00 00 00 00 00 00 00 00 00 00 00
       0.0 0.0 0.0 0.0
000060 00 00 00 00 00 00 00 00 00 00 00 00 00 00 00 00
       0.0 0.0 0.0 0.0
000070 00 00 00 00 00 00 00 00 00 00 00 00 00 00 00 00
       0.0 0.0 0.0 0.0
000080 00 00 00 00 00 00 00 00 00 00 00 00 00 00 00 00
       0.0 0.0 0.0 0.0
000090 00 00 00 00 00 00 00 00 00 00 00 00 00 00 00 00
       0.0 0.0 0.0 0.0
0000a0 00 00 00 00 00 00 00 00 00 00 00 00 00 00 00 00
       0.0 0.0 0.0 0.0
0000b0 00 00 00 00 00 00 00 00 00 00 00 00 00 00 00 00
       0.0 0.0 0.0 0.0
0000c0 00 00 00 00 00 00 00 00 00 00 00 00 00 00 00 00
       0.0 0.0 0.0 0.0
0000d0 00 00 00 00 00 00 00 00 00 00 00 00 00 00 00 00
       0.0 0.0 0.0 0.0
0000e0 00 00 00 00 00 00 00 00 00 00 00 00 00 00 00 00
       0.0 0.0 0.0 0.0
0000f0 00 00 00 00 00 00 00 00 00 00 00 00 00 00 00 00
       0.0 0.0 0.0 0.0
000100 00 00 00 00 00 00 00 00 00 00 00 00 00 00 00 00
       0.0 0.0 0.0 0.0
000110 00 00 00 00 00 00 00 00 00 00 00 00 00 00 00 00
       0.0 0.0 0.0 0.0
000120 00 00 00 00 00 00 00 00 00 00 00 00 00 00 00 00
       0.0 0.0 0.0 0.0
000130 00 00 00 00 00 00 00 00 00 00 00 00 00 00 00 00
       0.0 0.0 0.0 0.0
000140 00 00 00 00 00 00 00 00 00 00 00 00 00 00 00 00
       0.0 0.0 0.0 0.0
000150 00 00 00 00 00 00 00 00 00 00 00 00 00 00 00 00
       0.0 0.0 0.0 0.0
000160 00 00 00 00 00 00 00 00 00 00 00 00 00 00 00 00
       0.0 0.0 0.0 0.0
000170 00 00 00 00 00 00 00 00 00 00 00 00 00 00 00 00
       0.0 0.0 0.0 0.0
000180 00 00 00 00 00 00 00 00 00 00 00 00 00 00 00 00
       0.0 0.0 0.0 0.0
000190 00 00 00 00 00 00 00 00 00 00 00 00 00 00 00 00
       0.0 0.0 0.0 0.0
0001a0 00 00 00 00 00 00 00 00 00 00 00 00 00 00 00 00
       0.0 0.0 0.0 0.0
0001b0 00 00 00 00 00 00 00 00 00 00 00 00 00 00 00 00
       0.0 0.0 0.0 0.0
0001c0 00 00 00 00 00 00 00 00 00 00 00 00 00 00 00 00
       0.0 0.0 0.0 0.0
0001d0 00 00 00 00 00 00 00 00 00 00 00 00 00 00 00 00
       0.0 0.0 0.0 0.0
0001e0 00 00 00 00 00 00 00 00 00 00 00 00 00 00 00 00
       0.0 0.0 0.0 0.0
0001f0 00 00 00 00 00 00 00 00 00 00 00 00 00 00 00 00
       0.0 0.0 0.0 0.0

network_body._body_endoder.seq_layers.0.weight f4 [128, 1]
000000 85 c3 c6 bd 4a c4 02 3e 04 91 ca be ff 90 db bf
       -0.09705261 0.12770191 -0.39563763 -1.7153624
000010 64 23 06 bf c4 00 7b 3e ab cf 04 c0 ec 56 cb bf
       -0.5239775 0.24512011 -2.075175 -1.5885901
000020 8e 67 63 bb 09 45 68 bf a4 80 bb 3e e8 9a ea bc
       -0.0034699175 -0.9073034 0.36621583 -0.028638318
000030 63 22 64 be 5f 7a 4b 3f 0a a8 41 3f b1 08 56 3f
       -0.22278742 0.794836 0.7564703 0.8360701
000040 9a 47 fc be 6d 11 d4 3c 27 66 57 3f c1 56 b2 3f
       -0.49273378 0.025887216 0.8414025 1.3932725
000050 a6 d7 40 3f 30 3c 4b be a7 9c 85 3f 48 3a df bf
       0.75329053 -0.19847178 1.0438432 -1.7439661
000060 a2 53 92 bd 6e 4c 9e bf 49 e6 16 3f 7c 1c 19 bf
       -0.07144858 -1.2367074 0.5894514 -0.5980909
000070 8a 30 31 3f 37 ea 2c bf f9 5a dc 3f 9b fa 03 40
       0.6921469 -0.67544883 1.7215263 2.0621707
000080 60 53 e6 3e 7a 72 44 bf 1a da 28 40 c3 ba 82 bf
       0.44985485 -0.7673718 2.6383119 -1.0213245
000090 d5 c3 dc 3d da 9c a8 3f c9 f9 f0 be a9 84 2b c0
       0.107795395 1.3172867 -0.4706557 -2.679972
0000a0 4b 9c f1 be f9 8c e5 3e d4 5d 17 3f 7a c4 2a 40
       -0.47189555 0.44834116 0.59127545 2.668242
0000b0 5f de a2 bc a9 47 fa 3d 9a 36 23 bf 38 d5 41 3f
       -0.019881425 0.12220699 -0.6375519 0.7571597
0000c0 86 d4 c4 3e a7 c2 ee 3f 10 6e 23 3e 51 a3 1b bf
       0.38443393 1.8653153 0.15959954 -0.60796076
0000d0 16 e2 6b 3e 89 69 27 3f 63 ad 33 3f d7 5e 20 3f
       0.23035464 0.6539541 0.7018644 0.62644714
0000e0 eb 5b f0 3e 33 fd cd bf 6e e0 35 3f c1 a6 18 c0
       0.46945128 -1.6092895 0.7104558 -2.3851779
0000f0 6e 80 ca bf 95 92 da 3f 63 a9 e1 3e ad 3b c9 3f
       -1.5820444 1.7075983 0.44074544 1.5721337
000100 2f f7 0e 3f 5f 56 aa be 1f 69 11 3f 4d e7 aa bf
       0.5584592 -0.3326902 0.5680103 -1.3351837
000110 12 cd 04 bf 84 cc 86 be db 58 bb bd 29 43 d9 bd
       -0.5187541 -0.26327908 -0.09147807 -0.10608513
000120 05 26 7e be 27 9b 3f 3e d0 21 08 40 ad d5 9a 3f
       -0.24819191 0.1871153 2.1270638 1.2096459
000130 15 c6 d5 3f 82 aa 01 3f 6d 3b eb 3e 68 3e 09 40
       1.6701075 0.506508 0.45943776 2.144434
000140 cc 34 52 3f ce a3 47 bf 3d 2b 89 3e 6f 98 43 3d
       0.8211181 -0.7798432 0.267908 0.047752794
000150 f9 48 a0 3f c1 e7 73 bf a1 35 d3 3e 68 b5 d4 bf
       1.252227 -0.95275503 0.41251853 -1.6617861
000160 dc 1f b6 3f 20 1f a5 3f f6 14 3a bf c4 74 b1 3f
       1.4228473 1.2900124 -0.72688234 1.3863759
000170 0d f4 d9 be 6b d1 8d 3f 23 4c fc 3e 5d 04 82 3f
       -0.42569008 1.1079534 0.49276838 1.0157582
000180 6d aa e0 3f a6 47 e3 3f dc 73 45 bf 16 b7 30 3f
       1.755201 1.775624 -0.7712991 0.69029367
000190 b2 3a 71 3f 3d 8e 75 3e 58 ad 43 bf 6b b4 2b be
       0.94230187 0.23980041 -0.76436377 -0.16768043
0001a0 03 57 c7 3f c3 50 29 bf bd 02 27 bd c2 09 82 3f
       1.5573429 -0.6613886 -0.040774096 1.0159228
0001b0 51 66 19 3d 88 2e 11 3f ab 53 ed 3f 43 d6 61 be
       0.037451092 0.56711626 1.8541158 -0.2205439
0001c0 3e c5 2e 3f ed 69 10 3f 7b 50 52 be 7b fb 93 be
       0.6826972 0.5641163 -0.20538513 -0.28902802
0001d0 8e 75 4b be 15 9e dd be 81 98 93 bf eb d9 a4 3d
       -0.19869062 -0.4328467 -1.1530915 0.08049377
0001e0 37 01 d3 be f3 d0 15 3f 6a 90 8d bf 7a d1 ed be
       -0.41211864 0.58521956 -1.1059697 -0.4644888
0001f0 06 fc 82 bf e8 a6 f2 bf 4e 0d 25 40 d4 d7 73 3f
       -1.0233161 -1.8957186 2.578937 0.952512

network_body._body_endoder.seq_layers.2.bias f4 [128]
000000 00 00 00 00 00 00 00 00 00 00 00 00 00 00 00 00
       0.0 0.0 0.0 0.0
000010 00 00 00 00 00 00 00 00 00 00 00 00 00 00 00 00
       0.0 0.0 0.0 0.0
000020 00 00 00 00 00 00 00 00 00 00 00 00 00 00 00 00
       0.0 0.0 0.0 0.0
000030 00 00 00 00 00 00 00 00 00 00 00 00 00 00 00 00
       0.0 0.0 0.0 0.0
000040 00 00 00 00 00 00 00 00 00 00 00 00 00 00 00 00
       0.0 0.0 0.0 0.0
000050 00 00 00 00 00 00 00 00 00 00 00 00 00 00 00 00
       0.0 0.0 0.0 0.0
000060 00 00 00 00 00 00 00 00 00 00 00 00 00 00 00 00
       0.0 0.0 0.0 0.0
000070 00 00 00 00 00 00 00 00 00 00 00 00 00 00 00 00
       0.0 0.0 0.0 0.0
000080 00 00 00 00 00 00 00 00 00 00 00 00 00 00 00 00
       0.0 0.0 0.0 0.0
000090 00 00 00 00 00 00 00 00 00 00 00 00 00 00 00 00
       0.0 0.0 0.0 0.0
0000a0 00 00 00 00 00 00 00 00 00 00 00 00 00 00 00 00
       0.0 0.0 0.0 0.0
0000b0 00 00 00 00 00 00 00 00 00 00 00 00 00 00 00 00
       0.0 0.0 0.0 0.0
0000c0 00 00 00 00 00 00 00 00 00 00 00 00 00 00 00 00
       0.0 0.0 0.0 0.0
0000d0 00 00 00 00 00 00 00 00 00 00 00 00 00 00 00 00
       0.0 0.0 0.0 0.0
0000e0 00 00 00 00 00 00 00 00 00 00 00 00 00 00 00 00
       0.0 0.0 0.0 0.0
0000f0 00 00 00 00 00 00 00 00 00 00 00 00 00 00 00 00
       0.0 0.0 0.0 0.0
000100 00 00 00 00 00 00 00 00 00 00 00 00 00 00 00 00
       0.0 0.0 0.0 0.0
000110 00 00 00 00 00 00 00 00 00 00 00 00 00 00 00 00
       0.0 0.0 0.0 0.0
000120 00 00 00 00 00 00 00 00 00 00 00 00 00 00 00 00
       0.0 0.0 0.0 0.0
000130 00 00 00 00 00 00 00 00 00 00 00 00 00 00 00 00
       0.0 0.0 0.0 0.0
000140 00 00 00 00 00 00 00 00 00 00 00 00 00 00 00 00
       0.0 0.0 0.0 0.0
000150 00 00 00 00 00 00 00 00 00 00 00 00 00 00 00 00
       0.0 0.0 0.0 0.0
000160 00 00 00 00 00 00 00 00 00 00 00 00 00 00 00 00
       0.0 0.0 0.0 0.0
000170 00 00 00 00 00 00 00 00 00 00 00 00 00 00 00 00
       0.0 0.0 0.0 0.0
000180 00 00 00 00 00 00 00 00 00 00 00 00 00 00 00 00
       0.0 0.0 0.0 0.0
000190 00 00 00 00 00 00 00 00 00 00 00 00 00 00 00 00
       0.0 0.0 0.0 0.0
0001a0 00 00 00 00 00 00 00 00 00 00 00 00 00 00 00 00
       0.0 0.0 0.0 0.0
0001b0 00 00 00 00 00 00 00 00 00 00 00 00 00 00 00 00
       0.0 0.0 0.0 0.0
0001c0 00 00 00 00 00 00 00 00 00 00 00 00 00 00 00 00
       0.0 0.0 0.0 0.0
0001d0 00 00 00 00 00 00 00 00 00 00 00 00 00 00 00 00
       0.0 0.0 0.0 0.0
0001e0 00 00 00 00 00 00 00 00 00 00 00 00 00 00 00 00
       0.0 0.0 0.0 0.0
0001f0 00 00 00 00 00 00 00 00 00 00 00 00 00 00 00 00
       0.0 0.0 0.0 0.0

network_body._body_endoder.seq_layers.2.weight f4 [128, 128]
000000 73 2a d5 3c ce 2a 12 bd 08 c1 3c be ef 87 15 3d
       0.026021218 -0.035685353 -0.1843301 0.03650659
000010 3b cc 22 3e 55 09 e3 3d d8 04 73 3c 0b 4f ab 3d
       0.1589822 0.11085764 0.014832698 0.083646856
000020 5d e3 7d 3d 57 8b 05 3d 17 a8 6b 3c 06 24 06 3d
       0.06198441 0.032603588 0.014383337 0.0327492
000030 12 f4 68 bd dd d3 40 3d 47 bf 11 3d 81 e9 00 3e
       -0.05687339 0.04707705 0.035582807 0.12589075
000040 d4 a8 a0 3c c5 49 59 be 19 c1 86 bc 70 05 fa 3d
       0.019611754 -0.21219547 -0.016449498 0.12208068
000050 f7 27 59 bd 61 fa a6 3d a8 f1 ec 39 14 4a 68 bc
       -0.05301663 0.08153225 0.00045193476 -0.014177818
000060 37 03 27 3d 16 46 10 3e 11 05 dc bd cf 81 cf 3c
       0.04077455 0.14089236 -0.10743154 0.025330452
000070 e9 71 e5 bd 49 94 66 bd 0b b4 a3 3b 34 ab 94 3b
       -0.11203367 -0.05629376 0.004995828 0.0045370106
000080 2f 41 59 bc 53 f1 ba 3d 6e 7c c9 3c 2d 25 fa bd
       -0.01326017 0.0912806 0.024595466 -0.12214122
000090 e8 7b 8b bd a2 a9 7e 3d c8 e1 b0 3d ec 43 18 bc
       -0.068107426 0.062173493 0.08636814 -0.009293538
0000a0 04 f1 12 3e 2f a3 a6 3d 89 be f9 bc 71 e8 9e 3c
       0.14349753 0.081365936 -0.030486362 0.019397946
0000b0 7b 91 26 3d bf 89 75 3c 51 a5 e5 bb 6e cd a8 bd
       0.040666085 0.0149864545 -0.0070082326 -0.082423076
0000c0 ce 8c 52 bd d2 e0 10 3c 36 62 79 bd da f0 04 be
       -0.051403813 0.008842664 -0.060884677 -0.12982503
0000d0 25 86 f2 bb 1b 6e bc 3c d2 41 85 3d 74 67 13 3d
       -0.007401245 0.023001721 0.06506695 0.035987332
0000e0 0a a2 28 3d 84 82 c5 bd 61 5f 89 3d 41 27 cb 3d
       0.041170157 -0.096440345 0.06707645 0.099195965
0000f0 4f 12 0c bd 8a 07 5d 3d 7a 4e 86 3d 64 40 93 3c
       -0.034197148 0.053962268 0.06557937 0.01797504
000100 8a a8 83 bd fd dd 4f 3d 75 b6 29 bd 46 8e e7 bd
       -0.06428631 0.050748814 -0.04143377 -0.113064334
000110 96 3a d4 3d 91 b1 cf 3b f5 1d 55 3e 68 9d 01 3c
       0.10362737 0.0063383062 0.20812209 0.007911064
000120 9a ba bd bc a6 ea a5 3b 17 73 eb bd 44 f7 ca bd
       -0.023160268 0.0050633727 -0.11496561 -0.099104434
000130 45 de 61 bd d8 4e 32 bc 1a 19 ac bd 1e 1a 6e 3d
       -0.055143613 -0.010883056 -0.08403225 0.058130376
000140 0d 32 9f 3d ea 8f 06 3d f3 0d 0c be 48 c9 e0 bc
       0.07773218 0.03285209 -0.13677196 -0.027439728
000150 17 7c 08 be b9 9f cf bd bb e1 ff bc 65 9c ac 3d
       -0.13328587 -0.101378866 -0.031235566 0.084282674
000160 60 6d d0 3d 79 5b 09 3e 8e 78 35 3d bb 80 6f 3d
       0.101771116 0.134138 0.044304423 0.058472376
000170 71 3e fc bd 18 3d 83 3c 00 2d 17 3d c6 3e 9a 3b
       -0.12316597 0.016020343 0.03690815 0.00470719
000180 40 8b d0 bb ac 1e dd 3d 77 cd a5 bb d1 56 a8 3c
       -0.006364256 0.10796866 -0.0050598937 0.02054921
000190 dc 88 cb 3d 3b d1 b3 bd 97 2e 8c 3c c9 2e 9e 3d
       0.09938213 -0.08780142 0.01711206 0.07723767
0001a0 06 35 3f 3c e1 7b be bc 88 3e 8e 3c a0 39 13 be
       0.011670357 -0.02325243 0.017363802 -0.14377451
0001b0 6a ac e7 3c c6 b3 3d be d9 9f 48 be 58 94 0e 3d
       0.028280456 -0.1852561 -0.19592227 0.03480944
0001c0 77 c0 09 bd e7 e2 17 3e ed d0 30 bc c1 92 86 3d
       -0.033630814 0.1483265 -0.010791999 0.0657096
0001d0 4f a4 48 3d eb e9 c5 bd 26 10 87 3c ac 26 01 bd
       0.048984822 -0.09663757 0.016487192 -0.03153102
0001e0 e7 00 07 be 86 1d bb 3c 3b 5b 79 bd a4 be 07 be
       -0.13183938 0.022841226 -0.06087802 -0.13256317
0001f0 2b ae 42 bd 1f 85 50 bd 99 01 82 bd 46 98 da 3c
       -0.04752938 -0.050908204 -0.06347961 0.026683938
000200 5d 97 5c 3d d3 b0 a7 bd 49 78 4f 3b 52 8b 6a bd
       0.05385529 -0.081880234 0.003165739 -0.057261772
000210 47 76 fd bc 68 6a fb bc da 0e e6 bd 23 43 3d bd
       -0.030940188 -0.030690387 -0.112333015 -0.046206605
000220 83 fa 64 bd 7f 0f 38 3c 3d b2 05 bd a2 53 62 3d
       -0.05590297 0.011234163 -0.032640684 0.05525554
000230 de 72 71 bd 66 b8 27 3e 28 be f8 3c 22 f7 43 3d
       -0.058947437 0.16378936 0.030364111 0.047843106
000240 4b 32 b3 3d 48 52 9d 3c e1 05 66 3d de 08 84 bd
       0.08749827 0.019204274 0.05615795 -0.06447004
000250 1a 2c 4f 3d 4c a6 a6 3d ed 46 08 3d c3 03 03 bc
       0.050579168 0.08137187 0.033270765 -0.007996502
000260 69 b3 1e 3e d7 82 13 be 6a 42 0b bd 6c 14 c4 3c
       0.15498127 -0.1440538 -0.033998884 0.02393552
000270 c8 e9 08 bd 5a 35 ed bd 91 0e 57 3d b6 80 e3 bd
       -0.033426076 -0.11582442 0.052504126 -0.11108534
000280 0f 95 bf bd be 5c 09 3e 20 b7 b1 3d 6c 5e 54 bc
       -0.093546025 0.13414285 0.086775064 -0.012961965
000290 e8 da fb bd 05 ff 25 3e 84 0f c2 3d 36 b1 47 bd
       -0.122976124 0.16210563 0.094756156 -0.048752986
0002a0 6a 42 80 3d 7a 59 c8 bc 88 0a 68 3d e2 8c 6f 3e
       0.062626675 -0.024456728 0.05665067 0.23393586
0002b0 f9 bc 89 bd 9a 1d 33 be a6 14 93 bd 66 ea 52 3d
       -0.06725497 -0.17491761 -0.07181673 0.05149307
0002c0 23 11 a4 ba a5 4e a0 bd 91 9b ee 3d 96 15 92 3d
       -0.0012517314 -0.078275 0.11650766 0.071330234
0002d0 89 cc 75 3d 2b ee 00 3e 05 27 b9 bd 1f 2c a4 3d
       0.060009513 0.12590854 -0.090406455 0.08016228
0002e0 c6 37 0a 3e 31 5e 91 bc cd 5b 8d bb 79 73 0c 3d
       0.13497838 -0.01774511 -0.004313922 0.03428981
0002f0 78 53 0a 3b c6 27 4a 3d 7e 83 48 be 4d d5 80 bd
       0.002110688 0.049354337 -0.1958141 -0.06290684
000300 97 fc 59 3e 37 d8 80 bd a7 38 05 bc 28 e4 09 bd
       0.21287762 -0.0629124 -0.008131183 -0.033664852
000310 b9 87 ec 3d da 36 86 bd 74 88 3f 3c fe db 10 3e
       0.115493245 -0.06553431 0.011690248 0.1414642
000320 5f b3 69 3e 14 13 24 3e 3a 72 1c bd 3d 66 3e 3c
       0.22822331 0.16022903 -0.038194872 0.011621055
000330 cd f5 c3 3a c3 14 e5 bc 87 e9 60 3e 62 13 5f bc
       0.0014950574 -0.027964002 0.21964084 -0.013615461
000340 33 df ed bd d2 ab 91 3d 7f f8 33 3c d0 6e cb bb
       -0.116148375 0.0711285 0.010984539 -0.0062082782
000350 54 5f 8e bc bf 81 0c bd 9b 10 90 bd be 5e 81 bc
       -0.01737944 -0.034303423 -0.07034417 -0.015792247
000360 e0 96 b2 bb 67 08 5b 3d ea 14 ba 3a b7 4a 07 bd
       -0.0054501146 0.05347481 0.0014196907 -0.033030238
000370 08 c6 57 bd 64 9d 02 3e 7a 5c a7 bd 7d b6 11 3d
       -0.05267909 0.12755352 -0.081719354 0.035574425
000380 2c dc cf bd 6a cb 93 bd 0f bb b7 3d 40 03 f5 3d
       -0.10149416 -0.072165325 0.089712255 0.119635105
000390 02 dc 4a 3e b6 6d 61 bd fa 9e e2 bb f2 ad 30 3d
       0.19810489 -0.05503627 -0.006915924 0.043134637
0003a0 63 17 f8 3c 63 a9 28 be c2 14 43 bd 6d 9c 2a 3d
       0.03028459 -0.16470866 -0.047627218 0.041653086
0003b0 4a 45 2d 3e b5 cc ed 3d 59 a2 01 3d 01 d7 9a 3c
       0.16920963 0.116113104 0.031648967 0.01890135
0003c0 f8 f7 48 bd e4 40 ff 3c 97 65 4c be 83 e0 0b 3d
       -0.049064606 0.031158872 -0.19960628 0.034149658
0003d0 c0 df 7b be 6f 90 63 bd fd 65 9d bd 88 a0 d5 3d
       -0.24597073 -0.055557664 -0.07685468 0.104310095
0003e0 99 60 0a 3d 82 58 66 bd 4c ff 6b bd e1 52 98 3c
       0.03378353 -0.05623675 -0.057616517 0.018594207
0003f0 41 65 e1 3c a7 96 11 be 3a f2 5a bd 78 b3 54 bd
       0.027514102 -0.14217626 -0.05345366 -0.051928967
