CubeTest/results/ppo/MoveToGoal/MoveToGoal-154955.pt (torch, 439199 bytes, 36 tensors)

network_body._body_endoder.seq_layers.0.weight f4 [128, 6]
0	0xbeb7f91d	-0.35932246
1	0x3c396952	0.011316614
2	0x3e6d0090	0.23144746
3	0xbf028454	-0.50983167
4	0xbf1826ba	-0.5943409
5	0x3e8d9412	0.2765203
6	0xbe448727	-0.19192182
7	0xbe6dcd44	-0.23222834
8	0xbdb7ffb8	-0.08984321
9	0xbf008cfd	-0.5021513
10	0xbe481713	-0.19540052
11	0x3e5555d9	0.2083353
12	0xbbaa5394	-0.0051979516
13	0x3e3e9687	0.18612109
14	0x3edeb7b3	0.43499526
15	0x3e72fcde	0.23729274
16	0x3dc1cc22	0.09462763
17	0x3e15c640	0.14626408
18	0xbf144f97	-0.57933944
19	0x3e205c7a	0.15660277
20	0xbe49226b	-0.19642036
21	0x3f104451	0.5635424
22	0x3e5c940d	0.21540852
23	0xbe16e83a	-0.14737025
24	0xbf319c50	-0.6937914
25	0x3e8d2ac2	0.27571684
26	0xbd3cafb8	-0.046066016
27	0xbe5ac5bf	-0.21364497
28	0xbdc61800	-0.096725464
29	0xbec2f879	-0.38080195
30	0xbe34b386	-0.17646608
31	0xbeeb7ee6	-0.45995253
32	0x3e9d5ce3	0.3073493
33	0x3e980a96	0.29695576
34	0x3db0cf56	0.08633296
35	0xbecd8569	-0.40140846
36	0xbdb20809	-0.08692939
37	0xbe82ff95	-0.2558562
38	0x3eba7c59	0.36422995
39	0x3f89474b	1.0724882
40	0xbe82b8b2	-0.25531536
41	0xbe4edefb	-0.20202248
42	0x3eb568fd	0.35431662
43	0x3ec50963	0.38483724
44	0xbf0a00e9	-0.5390764
45	0xbe357d2d	-0.17723532
46	0x3d97d59b	0.07413789
47	0xbf3abc33	-0.7294342
48	0xbe9d8333	-0.3076416
49	0xbe3fcabd	-0.18729682
50	0x3e622668	0.22084963
51	0xbd98f27e	-0.07468127
52	0xbeb4f78f	-0.35345122
53	0xbe884ed1	-0.26622632
54	0x3d9ee000	0.07757568
55	0xbde11e3a	-0.109920934
56	0xbef97d55	-0.48728433
57	0xbe6cb5f4	-0.23116285
58	0x3d53b5f1	0.051687185
59	0x3db3aa0e	0.0877267
60	0x3ee656b8	0.44988036
61	0xbd0a4ec6	-0.03376653
62	0x3ef97c39	0.48727587
63	0x3dc8a11e	0.09796356
64	0xbf16f45a	-0.589666
65	0x3f0f9da1	0.560999
66	0x3eb434fc	0.35196674
67	0x3eda5796	0.42644948
68	0x3ef86768	0.48516393
69	0xbe088595	-0.13332208
70	0xbeb7cde7	-0.3589928
71	0xbd6e7677	-0.058218446
72	0xbe20a37a	-0.15687361
73	0x3ecb1892	0.39667183
74	0xbe92d45f	-0.2867765
75	0x3d99ab8a	0.075034216
76	0xbe5db0c2	-0.21649459
77	0x3e37ce2a	0.17949739
78	0xbf279d39	-0.6547428
79	0x3d925f82	0.07147123
80	0x3e8882ce	0.26662296
81	0x3e555ba5	0.20835741
82	0xbf1c4117	-0.6103682
83	0x3ec06c5c	0.37582672
84	0x3f6b91a7	0.9201912
85	0x3edc1ebf	0.42992207
86	0x3ddac36a	0.106818035
87	0xbf3b23e8	-0.73101664
88	0xbeb69b99	-0.35665587
89	0xbecab768	-0.39593053
90	0xbf24b565	-0.64339286
91	0x3e9c36bc	0.3051051
92	0x3b85f0b1	0.0040875305
93	0x3d9bb1ed	0.07602296
94	0xbe3e7f24	-0.18603188
95	0x3f3ecb66	0.7452911
96	0xbe2a094e	-0.16605112
97	0xbecd7a7a	-0.40132505
98	0x3f01d890	0.50721073
99	0x3e2383fb	0.15968315
100	0xbdda0ba5	-0.10646752
101	0x3a5ebdcd	0.00084969105
102	0xbf3fbdbb	-0.7489888
103	0x3dca3a07	0.09874349
104	0x3eb9cdb8	0.36289763
105	0xbe38a878	-0.18033016
106	0x3f333c69	0.70014054
107	0xbdaaac35	-0.08333627
108	0xbe0661d5	-0.13123257
109	0xbe9c1649	-0.30485752
110	0x3f077f3e	0.5292853
111	0x3d7bcb58	0.06147322
112	0xbdade4fb	-0.0849094
113	0x3f219a14	0.6312573
114	0xbee0eaf8	-0.43929267
115	0xbe7ca181	-0.24670984
116	0x3ed1e2ab	0.40993246
117	0xbefefaeb	-0.4980081
118	0x3e0263c2	0.12733367
119	0xbda6d4a6	-0.08146028
120	0x3f51085b	0.81653374
121	0x3e8b577c	0.27215183
122	0x3e5ce56c	0.21571892
123	0xbedabd41	-0.42722514
124	0xbe9ae9a6	-0.30256385
125	0xbef12b76	-0.4710347
126	0x3f537921	0.82606703
127	0x3ea4ec11	0.32211354
128	0x3e8f7342	0.28017622
129	0x3e1c2aec	0.15250748
130	0xbebd40dc	-0.36963546
131	0xbd0283cd	-0.031863976
132	0x3ed9cb9a	0.42538148
133	0x3d89b59d	0.06724093
134	0xbdcfe824	-0.10151699
135	0x3f09f35b	0.53886956
136	0xbd3beb3a	-0.045878626
137	0x3d7a479a	0.06110344
138	0x3ed9d80e	0.4254765
139	0xbe9264ab	-0.2859243
140	0xbf13fbb5	-0.5780595
141	0xbe0cfbce	-0.13767931
142	0xbf21e8e3	-0.6324598
143	0xbd903993	-0.070422314
144	0xbd777258	-0.06041178
145	0x3ec2d624	0.38054
146	0x3e88ee3b	0.26744255
147	0xbf0239cd	-0.50869447
148	0xbea3b899	-0.31976774
149	0xbefdb9cd	-0.49555817
150	0xbe80c581	-0.25150684
151	0x3e4a6067	0.19763337
152	0x3f28ef12	0.6598979
153	0x3d1bc1d6	0.038026653
154	0xbf63fd64	-0.8905852
155	0x3ef821db	0.4846333
156	0x3e1d7c74	0.15379506
157	0xbd0165a0	-0.031591058
158	0xbd9bfb6d	-0.07616315
159	0xbf45b912	-0.7723552
160	0xbe94546e	-0.28970665
161	0xbec205ba	-0.37894994
162	0x3c73f4db	0.014889921
163	0xbe63da6a	-0.22251287
164	0x3df2727c	0.118382424
165	0xbd1a669d	-0.037695516
166	0xbf34d316	-0.7063459
167	0x3ef2d96c	0.47431505
168	0x3effb49c	0.49942482
169	0x3d2f2500	0.042759895
170	0x3e154082	0.14575389
171	0xbda240a6	-0.07922487
172	0x3e6ab24c	0.22919577
173	0xbdc42806	-0.09577946
174	0xbe120020	-0.1425786
175	0xbb351d50	-0.002763588
176	0xbedfaf5b	-0.43688473
177	0x3e00f41e	0.12593123
178	0x3ea76391	0.3269315
179	0x3ebf04ae	0.37308258
180	0xbeda6801	-0.42657474
181	0x3cbf592a	0.023357946
182	0xbddd38d1	-0.108018525
183	0xbe834237	-0.25636455
184	0xbecc15fc	-0.39860523
185	0xbe86b2c1	-0.26308253
186	0xbf09653b	-0.5367009
187	0xbefd56a7	-0.49480173
188	0xbaf64ca6	-0.0018791154
189	0x3d9b1b1a	0.075735286
190	0x3eddd300	0.43325043
191	0x3f0d1ef0	0.5512533
192	0x3e27bd5b	0.16380827
193	0xbf4e7f3d	-0.806629
194	0xbdbc9f6a	-0.09210093
195	0x3eb0285a	0.34405786
196	0x3e89e4c0	0.26932335
197	0xbef1873d	-0.4717349
198	0x3efea277	0.49733326
199	0xbcc4b69e	-0.02401286
200	0xbefc465d	-0.49272433
201	0x3f1e19a8	0.617579
202	0xbf02c560	-0.5108242
203	0xbd37b2db	-0.044848304
204	0x3f145617	0.5794386
205	0xbf607c3b	-0.8768956
206	0xbe75a61f	-0.23989151
207	0xbee4ac22	-0.44662577
208	0xbef5a56f	-0.47977778
209	0x3e415197	0.1887878
210	0x3f53cb66	0.82732236
211	0x3d4b064f	0.049566563
212	0x3f902df9	1.126403
213	0xbeedafc2	-0.46423155
214	0xbe685d06	-0.22691736
215	0xbea2fe7c	-0.3183478
216	0x3f701eac	0.937968
217	0x3e4edd8c	0.20201701
218	0xbdc50040	-0.09619188
219	0x3a884310	0.0010395963
220	0xbc5c7657	-0.013455949
221	0xbdfa2ffc	-0.122161835
222	0x3e81c810	0.25347948
223	0xbcb4e283	-0.022080665
224	0x3e2a814b	0.16650884
225	0xbef721fc	-0.48268116
226	0x3d2e9abf	0.042628046
227	0xbeb728bc	-0.35773265
228	0x3e5e6e73	0.2172182
229	0xbe830a9d	-0.25594035
230	0x3e322a04	0.1739884
231	0xbe196c11	-0.1498263
232	0x3e549777	0.20760904
233	0xbed67b2c	-0.41890848
234	0xbe63b706	-0.22237787
235	0xbee23771	-0.44182923
236	0x3f329755	0.69762164
237	0xbe5bcb89	-0.21464361
238	0xbe199c34	-0.15000993
239	0x3d81a453	0.063301705
240	0x3e5d1722	0.21590856
241	0xbf04593f	-0.5169868
242	0x3f93b7c8	1.154046
243	0xbd250e52	-0.04029686
244	0x3ef3814a	0.47559577
245	0x3eb81727	0.35955164
246	0x3ecc6bf6	0.39926118
247	0xbee9b6be	-0.45647234
248	0x3f30cb6e	0.6906041
249	0x3e9da315	0.30788484
250	0x3e3475f6	0.17623124
251	0xbe2c3d16	-0.16820177
252	0xbdae7694	-0.08518711
253	0xbc5a39a0	-0.013319403
254	0xbf21dc86	-0.6322712
255	0x3dff482d	0.12464938

network_body._body_endoder.seq_layers.0.bias f4 [128]
0	0x3c46b5f7	0.012128345
1	0x3c45d833	0.012075472
2	0x3c720d84	0.01477373
3	0xbc216727	-0.009851254
4	0x3c70b45a	0.014691437
5	0x3bb642cd	0.0055621625
6	0x3abf2c1a	0.0014585287
7	0x3c53a5a0	0.012917906
8	0x3b5bdbb7	0.0033547708
9	0xbc92c796	-0.017917436
10	0x3c5f0671	0.013612376
11	0x3c11776e	0.008878572
12	0x3d01bd8c	0.031674907
13	0xbc16cfdf	-0.009204834
14	0x3c67c5dd	0.014146295
15	0x3c046b8d	0.008082283
16	0x3c30b1a3	0.010784539
17	0x3ca07ed4	0.019591726
18	0xbcada6c0	-0.021197677
19	0x3cbadfe4	0.022811837
20	0xbb8681c9	-0.004104827
21	0x3d4690ce	0.04847794
22	0xbbb9004b	-0.005645787
23	0xb8b775d0	-8.748064e-05
24	0x3d2f060d	0.04273038
25	0x3c0bd250	0.008534029
26	0x3c8e09fa	0.017338742
27	0x3b9cd9f2	0.0047867233
28	0x3c2a720e	0.010403169
29	0x3b8fa7d9	0.0043840227
30	0xbc7efb8d	-0.015562904
31	0x3abe3770	0.0014512371
32	0xbcc7da66	-0.024396133
33	0x3d343b76	0.04400202
34	0xbc6401bf	-0.013916432
35	0x3d3ef4bf	0.046620127
36	0x3bebccbb	0.0071960366
37	0x3caba86e	0.020954337
38	0x3d09c907	0.03363898
39	0x3b666929	0.0035157895
40	0xbb4712b4	-0.0030376138
41	0x3c45a6f3	0.01206373
42	0x3d1f006c	0.03881876
43	0x3cdd341a	0.027002383
44	0x3d4d87bf	0.050178286
45	0xbb6ab186	-0.0035811379
46	0x3cb2eeaa	0.02184232
47	0xba02e65b	-0.0004993432
48	0x3bf6db0e	0.0075334376
49	0x3a68d558	0.00088818884
50	0x3d1f0096	0.03881892
51	0x3d4fd2b7	0.050738063
52	0xbcdf02b9	-0.027222978
53	0xbbff26f2	-0.007786625
54	0x3c77c7b0	0.015123293
55	0x3d0ec527	0.034855988
56	0xbc036f5a	-0.008022154
57	0x3aa8b0ad	0.0012870036
58	0x3d1f2eb9	0.038862918
59	0x3c8de8b7	0.017322881
60	0x3c9c41de	0.019074377
61	0xbb990f26	-0.0046709953
62	0x3ca42f3e	0.020042058
63	0xbc42e673	-0.011895764
64	0x3b4de43f	0.0031416563
65	0x3c55837e	0.013031838
66	0x3b849351	0.004045882
67	0xb93c7a7c	-0.00017974706
68	0x3c21748e	0.009854449
69	0x3bdaeed2	0.0066813016
70	0x3c089e39	0.0083385045
71	0x3c456044	0.012046877
72	0x3c86e336	0.016465764
73	0xbbb85bff	-0.005626201
74	0x3beb51f2	0.0071813995
75	0xbbcacdbe	-0.006189077
76	0xbc19508a	-0.009357581
77	0xbb66c106	-0.0035210266
78	0x3c95d740	0.018291116
79	0xbcb0691b	-0.021534493
80	0xb8ff67ff	-0.00012178718
81	0xbb4522ef	-0.0030080636
82	0xbc111e92	-0.008857386
83	0x3d13654f	0.035985287
84	0x3b7fdb7d	0.0039040737
85	0xbc5b2142	-0.0133746285
86	0x3cdab5e3	0.026698058
87	0x3b024c81	0.0019882026
88	0x39e6ed09	0.00044045624
89	0x3c2f99d3	0.010717827
90	0xbac39cda	-0.0014924065
91	0x3aab842e	0.0013085657
92	0x3cf78628	0.030215338
93	0xbb3aa1ec	-0.002847786
94	0x3c7dcb07	0.0154903
95	0x3c30c2a8	0.010788597
96	0x3c1726d9	0.009225571
97	0xbbf38327	-0.007431406
98	0x3c803891	0.015651973
99	0x3a8c3bd8	0.0010698987
100	0xbcfd0954	-0.030888237
101	0xbb3726ee	-0.0027946788
102	0x3c09b598	0.008405112
103	0x3c8567f5	0.016284922
104	0xbba2302e	-0.004949591
105	0xbc4e5fba	-0.012596065
106	0x3a9be8c4	0.0011894931
107	0x3ceec653	0.029147303
108	0xbc240773	-0.010011542
109	0x3baabd3a	0.005210546
110	0xbaf17ece	-0.0018424632
111	0x3cba8336	0.022767644
112	0x3ce48d10	0.027899295
113	0x3d4f839a	0.050662614
114	0x3a18122f	0.00058010494
115	0x3cb3aa9c	0.021931939
116	0xbc629c09	-0.013831147
117	0xbc7c01ff	-0.015381335
118	0x3cf96c2f	0.030447094
119	0x3caa211c	0.02076774
120	0xbc067702	-0.008207085
121	0x3d0e693b	0.034768324
122	0x3ba9a931	0.00517764
123	0x3cee0b6b	0.029058179
124	0xbbc4a5fe	-0.006001233
125	0xbc308802	-0.010774614
126	0x3d05900a	0.03260807
127	0x3bd7aeca	0.006582116

network_body._body_endoder.seq_layers.2.weight f4 [128, 128]
0	0xbe04e8c2	-0.12979415
1	0xbe5de5a9	-0.2166964
2	0xbd2dabbd	-0.04240011
3	0xbd0235c2	-0.03178955
4	0x3e454705	0.19265373
5	0xbe1f25ed	-0.15541811
6	0xbc3d2bc2	-0.011546077
7	0xbd9c98e6	-0.076463506
8	0xbdeb558c	-0.11490926
9	0xbd98d40f	-0.07462322
10	0xbd5e9819	-0.05434427
11	0xbcccf247	-0.02501787
12	0x3de75636	0.1129574
13	0x3c802466	0.015642356
14	0xbd9cee9d	-0.07662699
15	0x3d4c2b65	0.04984607
16	0xbd590d32	-0.0529911
17	0x3cd201b7	0.025635583
18	0xbc2d1f8a	-0.0105666015
19	0xbddb27a3	-0.107009195
20	0xbdcb2e47	-0.09920936
21	0xbb6137dc	-0.003436557
22	0x3df3984f	0.11894285
23	0xbc78552d	-0.015157026
24	0xbcaa1e9a	-0.020766545
25	0xbd36b328	-0.04460445
26	0xbdda4405	-0.10657505
27	0x3d5f1fac	0.054473564
28	0x3c9b01f2	0.018921826
29	0xbd9b1f6a	-0.07574351
30	0x3d37fae2	0.044916995
31	0xba805063	-0.0009789582
32	0xbdc0d9c6	-0.09416537
33	0xbd0cbca4	-0.03435959
34	0x3d478e0b	0.048719447
35	0xbdb09096	-0.086213276
36	0xbdd65482	-0.10465337
37	0x3de24415	0.11048142
38	0xbc076bb8	-0.008265428
39	0xbdfb0e42	-0.12258579
40	0xbc61ebe5	-0.013789152
41	0xbc39f4d9	-0.01134988
42	0x3c89e3a2	0.016832177
43	0xbdb43a87	-0.08800226
44	0x3d87d69b	0.066327296
45	0x3dc40ab7	0.09572356
46	0x3ddfa011	0.10919202
47	0xbd60f242	-0.054918535
48	0x3db672d7	0.08908623
49	0x3d784df0	0.060621202
50	0x3db0bed7	0.0863015
51	0xbd3df78c	-0.046378657
52	0xbd183248	-0.037157327
53	0x3dda15df	0.10648703
54	0x3dae2335	0.08502809
55	0xbdfd5150	-0.12369025
56	0x3e20a833	0.15689163
57	0xbd358e0e	-0.044324927
58	0xbb68a17f	-0.003549665
59	0x3c242f8c	0.010021102
60	0x3dbad853	0.09123292
61	0x3d34f607	0.044179942
62	0xbd0cc181	-0.034364227
63	0xbda0852d	-0.07837901
64	0xbe148ca1	-0.1450677
65	0xbc5973cb	-0.013272236
66	0xbcaf94b6	-0.021433216
67	0xbd9e18bc	-0.077195615
68	0xbe1bf043	-0.15228371
69	0xbce70b0f	-0.028203515
70	0x3d1df415	0.038562853
71	0xbc560bd6	-0.013064345
72	0x3d5b7852	0.053581543
73	0xbd9eb617	-0.07749575
74	0xbd91c89d	-0.07118342
75	0xbd284e94	-0.041090563
76	0x3dcd9333	0.10037842
77	0x3de39f50	0.11114371
78	0x3e3f6fca	0.18694988
79	0xbe04107e	-0.12896916
80	0xbd69500e	-0.05696111
81	0x3e0959b9	0.13413133
82	0xbd844e0f	-0.06460201
83	0x3d1d8e78	0.038465947
84	0x3b7cb33c	0.003855898
85	0x3bd0a497	0.006367277
86	0x3c5c7889	0.013456472
87	0xbd712396	-0.058871828
88	0xbdb82682	-0.0899172
89	0xbe3658a7	-0.17807256
90	0xbdbf7821	-0.09349085
91	0x3c317a85	0.010832434
92	0xbe05cc20	-0.13066149
93	0x3c0ad414	0.008473415
94	0xbe4616ac	-0.19344586
95	0x3d059c5a	0.03261981
96	0xbe7f0e94	-0.24907905
97	0xbcda8419	-0.026674317
98	0x3ce41a8c	0.02784469
99	0xbe5311f0	-0.20612311
100	0xbd279062	-0.04090918
101	0xbd9cb88a	-0.076523855
102	0x3da102f5	0.07861892
103	0xbdd0819e	-0.101809725
104	0xbcccdce9	-0.025007682
105	0xbd89b802	-0.0672455
106	0xbd625660	-0.055258155
107	0xbd9d348b	-0.076760374
108	0x3cde8fc6	0.027168166
109	0xbded0bab	-0.11574491
110	0x3d8f113e	0.069857106
111	0xbd8a20e6	-0.06744556
112	0x3dbfbe9e	0.09362529
113	0x3c839948	0.016064301
114	0xbda9c720	-0.08289933
115	0x3d874e02	0.06606676
116	0x3cd25ae9	0.025678115
117	0xbc9c489f	-0.019077597
118	0x3d389343	0.045062315
119	0x3d2a92ab	0.04164378
120	0xbda163c0	-0.07880354
121	0xbe60c8ca	-0.21951595
122	0xbdb29b7a	-0.08721061
123	0xbd0e2614	-0.034704283
124	0xbd81ff7c	-0.06347558
125	0x3d92a0b8	0.07159561
126	0x3d3a1907	0.045434024
127	0xbdff2c55	-0.124596275
128	0xbe0f5fb7	-0.14001356
129	0xbe07c8cc	-0.13260192
130	0x3dc7fc64	0.097649366
131	0xbe845e7a	-0.2585333
132	0xbc7b9d45	-0.01535732
133	0x3d45ce55	0.048292477
134	0xbc9a673f	-0.01884806
135	0xbdda4fa5	-0.10659722
136	0xbdd636da	-0.10459681
137	0xbd8de2e0	-0.069280386
138	0x3e745ee5	0.23864324
139	0xbd3db531	-0.046315376
140	0x3bde6bc4	0.006787749
141	0xbd8fda6a	-0.07024081
142	0xbe34eb15	-0.17667802
143	0x3cb48272	0.022034857
144	0x3c850958	0.016239807
145	0x3c9cf0ce	0.019157793
146	0xbd92dd67	-0.071711354
147	0xbcd24a19	-0.025670098
148	0xbe0dc559	-0.13844813
149	0xbb6790f6	-0.0035334206
150	0x3c5de528	0.013543405
151	0x3d3b7360	0.045764327
152	0xbde08b60	-0.10964084
153	0x3d863d6e	0.065546855
154	0xbe152698	-0.14565504
155	0xbb2f2401	-0.002672434
156	0xbe2c3253	-0.16816072
157	0x3cc1e649	0.023669379
158	0x3cc90cfa	0.02454232
159	0x3d135700	0.03597164
160	0xbc8b3cb3	-0.016996717
161	0x3c83d234	0.016091444
162	0x3da0c233	0.078495406
163	0xbbaca422	-0.0052685896
164	0x3c24a7b4	0.010049749
165	0x3b8892be	0.0041678837
166	0x3c45d609	0.012074956
167	0x3d16938b	0.0367618
168	0xbc7bad55	-0.01536115
169	0xbb668e56	-0.0035180054
170	0xbc21dc12	-0.009879129
171	0xbd5fd4cb	-0.054646295
172	0x3bf71b6c	0.0075411107
173	0x3d4356fa	0.04769037
174	0x3d8672c7	0.06564861
175	0xbd8bddf2	-0.06829442
176	0x3db6e898	0.089310825
177	0xbd07a0c3	-0.0331123
178	0xbd9159aa	-0.0709718
179	0xbd2ddaac	-0.04244487
180	0xbd9d0f6f	-0.07668959
181	0xbe185685	-0.14876755
182	0xbd9f5a55	-0.07780901
183	0xbe37a262	-0.17933038
184	0xbd5979e8	-0.053094774
185	0xbd9a71a8	-0.075412095
186	0x3e1b8159	0.15186061
187	0x3da9d9f9	0.08293528
188	0x3b59ce47	0.0033234523
189	0xbdd76c67	-0.10518723
190	0xbcee2adf	-0.029073177
191	0xbd84dc44	-0.06487325
192	0xbd51125e	-0.051042907
193	0xbe175911	-0.1478007
194	0xbb9e26fb	-0.004826424
195	0x3e03c4bc	0.12868017
196	0xbcc3a036	-0.023880105
197	0x3d8a3803	0.06748965
198	0xbd149fa9	-0.036285076
199	0xbe000607	-0.12502299
200	0x3d79bc04	0.06097032
201	0xbdbc4492	-0.09192766
202	0xbd84bb6a	-0.06481059
203	0x3cf04ec6	0.029334437
204	0x3d2d1610	0.04225737
205	0xbdccb5a3	-0.09995582
206	0x3da30628	0.079601586
207	0x3d4dc5a6	0.05023732
208	0x3ca400ba	0.020019878
209	0x3ded331a	0.115820125
210	0x3e159d23	0.14610724
211	0xbda28607	-0.0793572
212	0xbd1cc5dc	-0.03827463
213	0xbdf1bea3	-0.11803939
214	0x3e01a461	0.12660362
215	0x3cb4c6a4	0.022067375
216	0xbca4eb42	-0.02013171
217	0xbd81d9b7	-0.06340354
218	0xbcf63007	-0.030052198
219	0xbe2555fb	-0.1614608
220	0x3c054616	0.008134386
221	0xbd13aaca	-0.03605155
222	0xbe0e274c	-0.13882178
223	0x3ca1c939	0.01974927
224	0xbe79092b	-0.24319904
225	0x3d483e8b	0.04888777
226	0x3d8b6f09	0.06808288
227	0x3c4c5cc8	0.012473293
228	0xbd655941	-0.055993322
229	0x3bc601db	0.0060427017
230	0xbd9c9bab	-0.07646879
231	0x3d3d69c9	0.046243463
232	0x3ba3b1c9	0.004995559
233	0x3e2d4f07	0.16924678
234	0x3ded5bfa	0.11589809
235	0x3c5dd624	0.013539825
236	0x3d87a313	0.06622901
237	0x3cacf4fc	0.021112911
238	0xbd8c47b6	-0.06849615
239	0xbd37a747	-0.044837262
240	0x3cc3d019	0.02390294
241	0x3d8bd7a5	0.0682824
242	0x3d68aad8	0.056803554
243	0x3de2a2aa	0.11066182
244	0x3e0e1858	0.13876474
245	0xbe04dc57	-0.12974678
246	0xbb4c4eff	-0.0031175015
247	0xba8ddcc1	-0.0010823236
248	0xbdea1dfc	-0.114315
249	0xbe127424	-0.14302117
250	0x3e07859a	0.13234559
251	0x3dcb1b49	0.099173136
252	0x3d13bb2d	0.036067177
253	0x3c6bdffd	0.014396665
254	0x3d85bd61	0.06530262
255	0xbe0e840e	-0.13917562

network_body._body_endoder.seq_layers.2.bias f4 [128]
0	0x3c859932	0.0163084
1	0x3cc2d37c	0.023782484
2	0x3b5b1067	0.0033426525
3	0xbbdcd861	-0.0067396616
4	0xbb8d14cc	-0.0043054577
5	0x3b05d05a	0.0020418377
6	0x3aba9214	0.0014234209
7	0x3b06a83d	0.0020547055
8	0x3cf111ab	0.02942737
9	0xbc0a96c1	-0.008458794
10	0xbbd8e70e	-0.0066193407
11	0xbbb66e00	-0.0055673122
12	0x3c5cfa99	0.0134874815
13	0xbc435a96	-0.011923453
14	0x3c0e2c5a	0.008677566
15	0xbba42ccd	-0.0050102235
16	0x3bfe48dc	0.0077601504
17	0x3cd38528	0.02582033
18	0x3cca8d0a	0.024725456
19	0xb98219e3	-0.0002481482
20	0xbb819f88	-0.003955785
21	0x3cb10236	0.0216075
22	0x3c1bd8da	0.009512151
23	0xbb4c64d6	-0.0031188033
24	0x3c93e7bd	0.018054837
25	0xba85f6c0	-0.0010220632
26	0x3c5b3f22	0.013381751
27	0x3b7e98fd	0.0038848512
28	0xbc3f3227	-0.011669672
29	0x3b736b9f	0.0037143005
30	0xbc02a0c7	-0.007972903
31	0x3b979ddd	0.004626973
32	0x3cace8c0	0.021107078
33	0x3c6c9ebc	0.014442142
34	0xbc535b36	-0.012900164
35	0x3b67dd11	0.0035379569
36	0xbc47c991	-0.012194053
37	0x3b9fb96a	0.004874398
38	0x3c008b66	0.007845735
39	0x3d04d6b0	0.032431304
40	0x3af5a5d6	0.001874144
41	0x3a7f5c13	0.0009741198
42	0xbb1c93ec	-0.002389188
43	0x3b7ebfa5	0.0038871553
44	0x3ce66e0a	0.028128643
45	0x3c6e12dd	0.014530865
46	0xbc191e0f	-0.009345545
47	0x39d61b06	0.00040837395
48	0x3cc7cce1	0.024389686
49	0x3c824e62	0.015906516
50	0x3c8d3ae0	0.017239988
51	0x3cac7cd0	0.021055609
52	0xbbd46dfd	-0.006482838
53	0x3c9db0cc	0.019249342
54	0x3c6a0321	0.014282973
55	0xbbfbf97d	-0.0076896534
56	0x3a7b9d01	0.00095982855
57	0xbba46de5	-0.0050179833
58	0xbb27029f	-0.002548374
59	0x3c1dbb48	0.009627171
60	0x3d08e2fb	0.03341959
61	0xbc27bcc4	-0.010237876
62	0x3c160b1c	0.009157922
63	0xbb8992a1	-0.0041983877
64	0x3bb4d6f1	0.005518787
65	0x3c3a27f4	0.011362065
66	0xbb4b760c	-0.0031045703
67	0x3ba82bab	0.0051321588
68	0x3a6ae606	0.0008960668
69	0x3b89d148	0.0042058565
70	0x3c820d9b	0.015875628
71	0x3d0dfffd	0.034667958
72	0xbbef4c4d	-0.007302797
73	0xbc3fbeab	-0.011703174
74	0x3d02ffec	0.031982347
75	0x3bcbdf7a	0.006221709
76	0xbbb31355	-0.005464951
77	0x3c31884c	0.010835718
78	0x3c09bf38	0.0084074065
79	0x3bc15dfe	0.0059010973
80	0x3b1b20e0	0.0023670718
81	0xbbee3855	-0.007269899
82	0xbc4a65ee	-0.0123534035
83	0x3cecaa86	0.028889906
84	0x3b24d703	0.002515257
85	0xbaac163b	-0.0013129184
86	0x3ccaeee7	0.02477212
87	0x3d0c6ef9	0.03428552
88	0xbbd01f68	-0.0063514
89	0x3d0e7b2b	0.03478543
90	0xb9f9c5ab	-0.00047640255
91	0xbac41cb7	-0.0014962171
92	0x3b3fa91f	0.002924509
93	0x3bbbcc51	0.0057311435
94	0x3c799a37	0.015234522
95	0x3c3512d1	0.011051849
96	0x3bd1434f	0.0063861976
97	0xbc7ee03d	-0.015556392
98	0xbb913b4b	-0.004432117
99	0xbaada728	-0.0013248669
100	0xbb6ee2b7	-0.003645105
101	0xbaf81062	-0.0018925781
102	0xbaf9cf4b	-0.001905897
103	0xb9ad6f35	-0.00033079987
104	0x3c18e2ab	0.009331386
105	0xbc921d9e	-0.017836388
106	0xbbd7079a	-0.0065621855
107	0x3b7e4a13	0.0038801476
108	0x3c97ddd0	0.018538386
109	0x3aca004a	0.0015411463
110	0x3b364eb3	0.0027817904
111	0xbaa7fcb8	-0.0012816405
112	0x3ae265d8	0.0017272783
113	0xbbf2d4e3	-0.007410632
114	0xbc2562b8	-0.010094337
115	0x3b857c27	0.004073638
116	0xba31b6ac	-0.00067792344
117	0x3c26c53a	0.010178858
118	0xbb19ba6b	-0.002345706
119	0xbc0f14df	-0.008733003
120	0x3c21800e	0.009857191
121	0x3be0a953	0.0068561225
122	0xb9eb27f0	-0.0004485245
123	0x3bf6a52e	0.007527015
124	0xbb6bc6b4	-0.003597659
125	0x3cc16b5c	0.023610763
126	0x3a5a4adb	0.00083271944
127	0x3d0a48fd	0.033761013

action_model._continuous_distribution.log_sigma f4 [1, 2]
0	0xbd4cb1f9	-0.049974415
1	0xbd18961f	-0.03725254

action_model._continuous_distribution.mu.weight f4 [2, 128]
0	0xbd3ace3e	-0.045606844
1	0xbdbd9b71	-0.09258164
2	0x3d90c407	0.07068639
3	0xbcac68cf	-0.02104607
4	0x3c455b54	0.0120457
5	0xbbf69ccf	-0.0075260173
6	0x3c83a6bb	0.016070714
7	0x3c4d0b4a	0.012514899
8	0xbd8c7718	-0.06858653
9	0x3caba382	0.02095199
10	0x3c902906	0.017597686
11	0x3cdb9f38	0.02680932
12	0xbcbc62ab	-0.022996267
13	0x3d2a72c7	0.041613366
14	0x3ccf97fa	0.025341023
15	0x3c34b7bb	0.011030133
16	0xbc931d63	-0.017958349
17	0xbd0983f3	-0.033573102
18	0xbc8a0c18	-0.01685147
19	0xbce780b1	-0.028259607
20	0x3d2327e3	0.03983296
21	0xbd470a46	-0.048593782
22	0xbd4a63d5	-0.049411613
23	0x3d0763ec	0.033054277
24	0x3d476eda	0.0486897
25	0xbc245a54	-0.0100313015
26	0x3d57f78f	0.052726325
27	0x3c2077ec	0.009794217
28	0x3bd2857f	0.0064246054
29	0x3c48b302	0.01224971
30	0x3cc5729c	0.024102502
31	0xbd0c0a54	-0.034189537
32	0xbcd247cd	-0.025669003
33	0xbd40ffa5	-0.0471188
34	0x3c0bf892	0.0085431505
35	0x3ce876b1	0.028376909
36	0xbbc93f6e	-0.0061415946
37	0xbd37d656	-0.04488214
38	0x3ab13767	0.001352054
39	0x3c22141a	0.009892488
40	0xbb5c9b9d	-0.0033662089
41	0x3cd4c390	0.025972158
42	0xbbf664c9	-0.0075193387
43	0xbb14cca4	-0.0022704983
44	0xbcce3b06	-0.025174629
45	0xbbc9546f	-0.0061440985
46	0x3c8313d9	0.016000675
47	0x3c9be901	0.019032003
48	0xbd3acf73	-0.045607995
49	0xbcc85e35	-0.024458984
50	0x3d66c85b	0.056343418
51	0xbd5ec602	-0.054388054
52	0x3beee91b	0.007290972
53	0x3d408a81	0.047007088
54	0x3b89b3ac	0.0042023268
55	0x3cf88de5	0.030341098
56	0x3b8a0914	0.004212508
57	0x3d15803b	0.036499243
58	0x3ccf599d	0.025311286
59	0xbc21023e	-0.009827195
60	0xbd2c606a	-0.042084135
61	0xbccdc551	-0.025118502
62	0x3d5b89c3	0.053598177
63	0x3a27c953	0.0006400544
64	0xbc88817c	-0.016663305
65	0xbcf14838	-0.029453382
66	0xbc8eb900	-0.0174222
67	0xbcb424d2	-0.021990214
68	0xbc215cbd	-0.009848771
69	0x3c4000b3	0.011718917
70	0x3d0aa2d6	0.0338467
71	0x3d4c1171	0.04982132
72	0xbaed8799	-0.0018122076
73	0x3c881430	0.016611189
74	0x3d33ab78	0.043864697
75	0xbcb14bc8	-0.02164258
76	0x3cb9b080	0.02266717
77	0xbc8a651c	-0.016893916
78	0xbc6a4fc1	-0.014301241
79	0x3d3b0dcd	0.04566746
80	0xbcf123bd	-0.029435987
81	0x3b8a526c	0.0042212512
82	0x3c3b652d	0.011437696
83	0xbd67e937	-0.056618895
84	0x3ca5d37d	0.020242447
85	0xbc34bd0f	-0.011031403
86	0xbc87f8db	-0.016598156
87	0xbd93a17f	-0.07208537
88	0x3d608480	0.05481386
89	0xbd3c3aaf	-0.045954403
90	0x3d1967cc	0.037452504
91	0xbc5f7bd8	-0.0136403665
92	0x3d32cf72	0.043654867
93	0xbcaf5005	-0.021400461
94	0x3c7039db	0.014662231
95	0xbd8da811	-0.06916822
96	0x3c6fc06b	0.014633278
97	0x3b7eda86	0.0038887574
98	0x3ccaefb5	0.024772504
99	0x3b4d3f67	0.0031318308
100	0x3c9d44a9	0.019197779
101	0x3cf84a97	0.030309005
102	0xbc02afc2	-0.007976474
103	0x3a3d3710	0.0007217983
104	0x3d1ddedb	0.03854261
105	0x3d00812b	0.031373184
106	0x3d04f740	0.03246236
107	0xbd299ea8	-0.041411072
108	0xbcdbfd13	-0.026854074
109	0x3c06ff4c	0.008239578
110	0xbce9039b	-0.028444102
111	0x3bb105ff	0.005402326
112	0x3dad5ac0	0.08464575
113	0xbc42ce06	-0.01188994
114	0xbc08e370	-0.008355007
115	0xbc6ed6a3	-0.014577541
116	0x3d0e0536	0.03467294
117	0x3c9d191a	0.019177008
118	0x3d0f3116	0.03495892
119	0x3c460ccd	0.012088013
120	0x3d40c1f4	0.047059968
121	0xbd02a641	-0.031896833
122	0x3c48c42e	0.012253804
123	0xbb3cfafa	-0.0028836117
124	0xba5b50f1	-0.0008366248
125	0x3d7ca6a2	0.06168235
126	0x3d64aad2	0.05582697
127	0x3c9069ad	0.017628515
128	0x3cf8b180	0.030358076
129	0xbcfa92e2	-0.030587617
130	0xbc613f19	-0.013747954
131	0xbd0fd7ca	-0.0351179
132	0x3bdeb8c2	0.006796927
133	0x3c054039	0.008132988
134	0xbd5e6da7	-0.05430379
135	0x3cb2d0db	0.021828106
136	0x3cbfcf40	0.023414254
137	0xbcdd12f9	-0.026986586
138	0xbcb5630b	-0.022141954
139	0xbbd871a5	-0.0066053444
140	0xbc0fee12	-0.008784788
141	0xbd26d933	-0.04073448
142	0x3b8cf010	0.0043010786
143	0xbd6cca9d	-0.057810415
144	0x3c83eb2a	0.016103346
145	0xbb8a31dc	-0.0042173695
146	0x3c8a50b1	0.01688418
147	0xbd0991fb	-0.033586483
148	0xbad401bc	-0.0016174833
149	0xbc22cc3f	-0.009936391
150	0xbcf3c55a	-0.02975719
151	0x3c0fd735	0.008779337
152	0x3cf0a9fb	0.029377928
153	0xbcd2c49f	-0.025728522
154	0x3b0ede78	0.0021800082
155	0xbd649744	-0.05580832
156	0xbce77a44	-0.028256543
157	0xbd222fd3	-0.03959639
158	0xbd191842	-0.03737665
159	0xbd8f830c	-0.07007417
160	0x3c5a96d8	0.013341628
161	0xbd86f410	-0.0658952
162	0xbc4bc552	-0.012437182
163	0xbcd0793a	-0.02544843
164	0xbc7fd8e9	-0.01561568
165	0xbced69ee	-0.028981175
166	0x3d09ff8a	0.033690967
167	0x3d852aa2	0.06502272
168	0x3c1a3bac	0.009413641
169	0xbd7baecf	-0.061446007
170	0xbd8e4370	-0.069464564
171	0xbd75e411	-0.060031954
172	0xbcec25f5	-0.028826693
173	0xbd8071f1	-0.062717326
174	0xbb9b1c5a	-0.0047336044
175	0xbd5fa648	-0.054601938
176	0x3cbd41e3	0.023102706
177	0x3d29a82c	0.041420147
178	0x3c9f4215	0.01944069
179	0xbcc91b7a	-0.024549235
180	0xbce61380	-0.02808547
181	0x3ceb905c	0.02875536
182	0x3b3784dd	0.0028002777
183	0xbbc31140	-0.005952984
184	0x3d32193a	0.04348109
185	0xbcb8ce25	-0.022559235
186	0xbd98624d	-0.074406244
187	0x3d30f8cb	0.043206017
188	0x3d49c4b9	0.049259875
189	0xbcadfebb	-0.021239629
190	0xbb231c33	-0.0024888634
191	0xbd2629ea	-0.040567316
192	0xbd38141f	-0.044941064
193	0x3c1b247f	0.009469151
194	0xbbbea1b8	-0.005817618
195	0xbcc31931	-0.023815723
196	0xbd545985	-0.051843185
197	0x3c04dd08	0.008109339
198	0x3d34765a	0.04405818
199	0x3d0bbe52	0.03411705
200	0xbd26cdd0	-0.04072362
201	0xbd0ffba4	-0.035152093
202	0x3d36f13d	0.044663657
203	0x3ad2221d	0.0016031895
204	0xbd80794b	-0.06273135
205	0xbd7a15f1	-0.06105608
206	0x3c8f149b	0.01746588
207	0x3cb8519b	0.02249985
208	0xbc245733	-0.010030556
209	0xbd14751f	-0.036244508
210	0xbd4d8d94	-0.050183848
211	0x3d10ae61	0.03532255
212	0x3c8165d6	0.01579563
213	0xbcc81f04	-0.024428852
214	0x3d79255b	0.06082664
215	0x3d804129	0.06262428
216	0xbd43a514	-0.047764853
217	0x3cb8a9e2	0.022541944
218	0xbc05366b	-0.00813065
219	0xbcbf6eaf	-0.023368208
220	0x3aeddfd2	0.0018148369
221	0xbca71e16	-0.020400088
222	0x3d1e98a4	0.03871979
223	0xbcb9276d	-0.022601807
224	0x3d2954de	0.0413407
225	0xbc70014a	-0.014648745
226	0x3c769dd8	0.015052281
227	0xbd24b852	-0.040214844
228	0x3af6c7b8	0.0018827831
229	0xbce812cc	-0.028329276
230	0xbd112fcd	-0.035445977
231	0xbcf66e55	-0.030081907
232	0xbc600ed0	-0.013675407
233	0xbcf1967c	-0.029490702
234	0x3c33ea4b	0.010981153
235	0xbcfc9dfa	-0.030837048
236	0xbc9c2bf9	-0.019063937
237	0xbd7c0e18	-0.06153688
238	0x3c002a53	0.007822591
239	0x39941dee	0.0002825106
240	0xbc8fb8eb	-0.01754423
241	0xbd2f96cd	-0.042868424
242	0xbca67185	-0.020317802
243	0xbc53acae	-0.012919588
244	0xbbbcee7c	-0.0057657342
245	0x3caa05ca	0.020754714
246	0xbcd7e0b2	-0.02635226
247	0xbcfca0a9	-0.030838327
248	0x3d17059e	0.03687059
249	0x3c6406d9	0.013917648
250	0xbd67b490	-0.056568682
251	0x3c8c88df	0.017155109
252	0xbc8f85db	-0.017519882
253	0xbbd9b4e6	-0.006643879
254	0xbc9ad516	-0.018900435
255	0x3d82736f	0.063696735

action_model._continuous_distribution.mu.bias f4 [2]
0	0xbbda6600	-0.0066649914
1	0x3c2f9373	0.010716307

exp_avg f4 [128, 6]
0	0x39deff14	0.00042533188
1	0x37a2e327	1.9417681e-05
2	0xb9a364af	-0.00031164798
3	0xb9a2e322	-0.00031068275
4	0x00000000	0.0
5	0xb9a2e322	-0.00031068275
6	0x38e7632a	0.00011033409
7	0x36c3b4ef	5.8325163e-06
8	0xb840f767	-4.600678e-05
9	0xb8c3b4e8	-9.332021e-05
10	0x00000000	0.0
11	0xb8c3b4e8	-9.332021e-05
12	0xb9650950	-0.00021842611
13	0x3592aa7a	1.0927463e-06
14	0xb8f183e8	-0.00011516345
15	0xb792aa4d	-1.7483859e-05
16	0x00000000	0.0
17	0xb792aa4d	-1.7483859e-05
18	0x39d55c59	0.0004069533
19	0x37c24361	2.3157978e-05
20	0xb923450a	-0.0001557061
21	0xb9c2435d	-0.00037052753
22	0x00000000	0.0
23	0xb9c2435d	-0.00037052753
24	0x38e915b3	0.000111143476
25	0x372ee8c4	1.0425403e-05
26	0xb8aacb0e	-8.1440536e-05
27	0xb92ee8c0	-0.00016680639
28	0x00000000	0.0
29	0xb92ee8c0	-0.00016680639
30	0x394bb7ee	0.00019428108
31	0x36c57c92	5.8855594e-06
32	0xb9bdd4be	-0.00036207394
33	0xb8c57c7d	-9.41688e-05
34	0x00000000	0.0
35	0xb8c57c7d	-9.41688e-05
36	0xb97077ab	-0.00022932763
37	0xb6c8827b	-5.9756544e-06
38	0x374f4500	1.2354227e-05
39	0x38c88275	9.561043e-05
40	0x00000000	0.0
41	0x38c88275	9.561043e-05
42	0x35e4c0cf	1.7043438e-06
43	0x360f3392	2.1338678e-06
44	0xb6581811	-3.2200517e-06
45	0xb80f3390	-3.4141878e-05
46	0x00000000	0.0
47	0xb80f3390	-3.4141878e-05
48	0x3988b026	0.00026071182
49	0x372850b2	1.0032369e-05
50	0xb9812f44	-0.00024640013
51	0xb92850a8	-0.00016051775
52	0x00000000	0.0
53	0xb92850a8	-0.00016051775
54	0xb5294125	-6.3052204e-07
55	0xb431cefc	-1.655971e-07
56	0x35e0db15	1.6753062e-06
57	0x3631cefa	2.6495532e-06
58	0x00000000	0.0
59	0x3631cefa	2.6495532e-06
60	0xb994a393	-0.00028350632
61	0xb6eeaac1	-7.112831e-06
62	0xb87b2fef	-5.9887705e-05
63	0x38eeaac5	0.00011380533
64	0x00000000	0.0
65	0x38eeaac5	0.00011380533
66	0xb8c88b6d	-9.562713e-05
67	0x36807a78	3.8289545e-06
68	0xb955c866	-0.00020387917
69	0xb8807a73	-6.1263236e-05
70	0x00000000	0.0
71	0xb8807a73	-6.1263236e-05
72	0x3994f9d0	0.00028414885
73	0x38084edb	3.2498367e-05
74	0xb891fc65	-6.961151e-05
75	0xba084edc	-0.0005199739
76	0x00000000	0.0
77	0xba084edc	-0.0005199739
78	0x399879a1	0.0002908232
79	0x3712b495	8.744323e-06
80	0xb942c70f	-0.00018575437
81	0xb912b48c	-0.00013990904
82	0x00000000	0.0
83	0xb912b48c	-0.00013990904
84	0xb7e83093	-2.7679174e-05
85	0x34711398	2.2452002e-07
86	0xb774a910	-1.4582896e-05
87	0xb671139e	-3.5923217e-06
88	0x00000000	0.0
89	0xb671139e	-3.5923217e-06
90	0x3a156c6c	0.0005700055
91	0x3837aeea	4.37935e-05
92	0xb7b88fb7	-2.2001432e-05
93	0xba37aeec	-0.00070069614
94	0x00000000	0.0
95	0xba37aeec	-0.00070069614
96	0x392dafb7	0.00016564025
97	0x373026d8	1.04994615e-05
98	0xb9d24eb5	-0.00040112963
99	0xb93026ca	-0.00016799118
100	0x00000000	0.0
101	0xb93026ca	-0.00016799118
102	0x39fa5522	0.00047747145
103	0x37cf4657	2.4709077e-05
104	0xba07009d	-0.00051499327
105	0xb9cf4649	-0.00039534483
106	0x00000000	0.0
107	0xb9cf4649	-0.00039534483
108	0xb8912b74	-6.9222326e-05
109	0xb6d63f02	-6.385032e-06
110	0xb8bb3e9a	-8.928515e-05
111	0x38d63f02	0.00010216051
112	0x00000000	0.0
113	0x38d63f02	0.00010216051
114	0x399acaf7	0.0002952439
115	0x378ce56a	1.679613e-05
116	0xb9b3ec8c	-0.00034317782
117	0xb98ce55e	-0.00026873773
118	0x00000000	0.0
119	0xb98ce55e	-0.00026873773
120	0xb861a82d	-5.3800806e-05
121	0xb5e9a1b4	-1.7406915e-06
122	0x37afd3c3	2.0960235e-05
123	0x37e9a1b7	2.7851069e-05
124	0x00000000	0.0
125	0x37e9a1b7	2.7851069e-05
126	0xb91830f1	-0.00014514082
127	0x3792b449	1.7488508e-05
128	0xb990e783	-0.0002763831
129	0xb992b44b	-0.0002798162
130	0x00000000	0.0
131	0xb992b44b	-0.0002798162
132	0xb9aa369b	-0.0003246561
133	0xb57eadad	-9.4875105e-07
134	0x38ef5a07	0.00011413177
135	0x377eadd1	1.518005e-05
136	0x00000000	0.0
137	0x377eadd1	1.518005e-05
138	0xb6917e0a	-4.3360096e-06
139	0xb4e35b4b	-4.234847e-07
140	0x36e5e1c1	6.851013e-06
141	0x36e35b3e	6.775749e-06
142	0x00000000	0.0
143	0x36e35b3e	6.775749e-06
144	0x36e5b234	6.8454774e-06
145	0x357ed46a	9.4931477e-07
146	0xb6e3cc86	-6.788937e-06
147	0xb77ed46a	-1.5189036e-05
148	0x00000000	0.0
149	0xb77ed46a	-1.5189036e-05
150	0xb7f2b6a0	-2.893369e-05
151	0xb61eeeec	-2.3682906e-06
152	0xb959ff3a	-0.00020789812
153	0x381eef5a	3.789305e-05
154	0x00000000	0.0
155	0x381eef5a	3.789305e-05
156	0xb79855fa	-1.8159848e-05
157	0x357a4f37	9.324753e-07
158	0x3625a9ea	2.468582e-06
159	0xb77a4f3b	-1.49196085e-05
160	0x00000000	0.0
161	0xb77a4f3b	-1.49196085e-05
162	0x398953ae	0.00026193022
163	0x37b04c9f	2.1016514e-05
164	0xb7c6512e	-2.3641242e-05
165	0xb9b04ca3	-0.00033626435
166	0x00000000	0.0
167	0xb9b04ca3	-0.00033626435
168	0xb67324fa	-3.6231345e-06
169	0x357a6457	9.327827e-07
170	0xb7c2fd99	-2.3244693e-05
171	0xb77a6445	-1.4924507e-05
172	0x00000000	0.0
173	0xb77a6445	-1.4924507e-05
174	0x398c1bb1	0.00026723513
175	0x3802c6c5	3.1179534e-05
176	0x37f8a416	2.9640312e-05
177	0xba02c6c7	-0.00049887266
178	0x00000000	0.0
179	0xba02c6c7	-0.00049887266
180	0x3710dec0	8.634932e-06
181	0x35842af8	9.847272e-07
182	0x370354c7	7.827947e-06
183	0xb7842afc	-1.5755642e-05
184	0x00000000	0.0
185	0xb7842afc	-1.5755642e-05
186	0x38b68772	8.703665e-05
187	0x37380d1f	1.097031e-05
188	0x38f5ee50	0.000117268995
189	0xb9380d26	-0.00017552506
190	0x00000000	0.0
191	0xb9380d26	-0.00017552506
192	0xb6b43a3e	-5.3711983e-06
193	0xb63aa2ea	-2.7810988e-06
194	0x385ad0fc	5.2169882e-05
195	0x383aa2df	4.449754e-05
196	0x00000000	0.0
197	0x383aa2df	4.449754e-05
198	0xb8baae56	-8.901644e-05
199	0x376d5e4e	1.4148258e-05
200	0xb8862c9a	-6.3979256e-05
201	0xb96d5e4e	-0.00022637213
202	0x00000000	0.0
203	0xb96d5e4e	-0.00022637213
204	0xb68e890a	-4.247883e-06
205	0xb549e21a	-7.5207356e-07
206	0x36f9c6ef	7.443937e-06
207	0x3749e215	1.2033172e-05
208	0x00000000	0.0
209	0x3749e215	1.2033172e-05
210	0x3926e1fb	0.00015915178
211	0x37e1f658	2.6936803e-05
212	0xb9d54726	-0.00040679536
213	0xb9e1f64c	-0.0004309885
214	0x00000000	0.0
215	0xb9e1f64c	-0.0004309885
216	0xb63f5b02	-2.8514191e-06
217	0xb561e044	-8.414538e-07
218	0x369eb154	4.7294106e-06
219	0x3761e041	1.3463258e-05
220	0x00000000	0.0
221	0x3761e041	1.3463258e-05
222	0x3761eb38	1.3465811e-05
223	0x3548c378	7.479025e-07
224	0xb71b4020	-9.25365e-06
225	0xb748c372	-1.1966435e-05
226	0x00000000	0.0
227	0xb748c372	-1.1966435e-05
228	0xb65ebcb7	-3.3190424e-06
229	0x3533b957	6.69524e-07
230	0xb757c92e	-1.2861839e-05
231	0xb733b94a	-1.0712372e-05
232	0x00000000	0.0
233	0xb733b94a	-1.0712372e-05
234	0x39043354	0.00012607622
235	0xb578b5f0	-9.2651953e-07
236	0xb9f90475	-0.00047496302
237	0x3778b6f6	1.4824551e-05
238	0x00000000	0.0
239	0x3778b6f6	1.4824551e-05
240	0xb8f28411	-0.000115640585
241	0xb70b755c	-8.3123705e-06
242	0xb91dde21	-0.00015055436
243	0x390b7563	0.00013299803
244	0x00000000	0.0
245	0x390b7563	0.00013299803
246	0xb998d5cb	-0.00029150987
247	0xb73087f4	-1.05220715e-05
248	0xb92afa3e	-0.00016305686
249	0x39308802	0.00016835335
250	0x00000000	0.0
251	0x39308802	0.00016835335
252	0x391a786f	0.0001473145
253	0x378a2e08	1.6472317e-05
254	0xb8b81880	-8.778367e-05
255	0xb98a2e0b	-0.00026355716

exp_avg_sq f4 [128, 6]
0	0x344bc6c8	1.8978164e-07
1	0x3131f66c	2.5896965e-09
2	0x34db9fa4	4.0908083e-07
3	0x3531f665	6.629619e-07
4	0x00000000	0.0
5	0x3531f665	6.629619e-07
6	0x32ceebc5	2.4088772e-08
7	0x2f95170e	2.7119323e-10
8	0x333e6ac4	4.4334925e-08
9	0x3395167d	6.942444e-08
10	0x00000000	0.0
11	0x3395167d	6.942444e-08
12	0x3475d483	2.2894714e-07
13	0x316a02cd	3.4053074e-09
14	0x351815c1	5.665607e-07
15	0x356a0b50	8.7188255e-07
16	0x00000000	0.0
17	0x356a0b50	8.7188255e-07
18	0x343a013b	1.7323048e-07
19	0x31369701	2.6570321e-09
20	0x34dbc699	4.0936428e-07
21	0x353697d2	6.802121e-07
22	0x00000000	0.0
23	0x353697d2	6.802121e-07
24	0x32d764ab	2.5075073e-08
25	0x2f2f34f5	1.5934971e-10
26	0x32e9f30f	2.72353e-08
27	0x332f34ee	4.0793502e-08
28	0x00000000	0.0
29	0x332f34ee	4.0793502e-08
30	0x34a037ab	2.9842826e-07
31	0x315da9d6	3.2256273e-09
32	0x35227985	6.0526537e-07
33	0x355dac52	8.2579675e-07
34	0x00000000	0.0
35	0x355dac52	8.2579675e-07
36	0x34213b02	1.501576e-07
37	0x3108b3f1	1.989289e-09
38	0x34b82796	3.4301473e-07
39	0x3508b30e	5.0924507e-07
40	0x00000000	0.0
41	0x3508b30e	5.0924507e-07
42	0x3197b417	4.4151522e-09
43	0x2ddd90e7	2.518914e-11
44	0x31c13091	5.6225606e-09
45	0x31dd9358	6.4486976e-09
46	0x00000000	0.0
47	0x31dd9358	6.4486976e-09
48	0x33ae7a4f	8.124754e-08
49	0x3097398e	1.1003054e-09
50	0x344063b6	1.7917668e-07
51	0x34973992	2.816783e-07
52	0x00000000	0.0
53	0x34973992	2.816783e-07
54	0x3048f50d	7.3107814e-10
55	0x2c960be6	4.2645774e-12
56	0x30860201	9.750353e-10
57	0x309730f9	1.1000615e-09
58	0x00000000	0.0
59	0x309730f9	1.1000615e-09
60	0x345686be	1.9979322e-07
61	0x317158dd	3.5120629e-09
62	0x35143534	5.5211717e-07
63	0x35715815	8.990767e-07
64	0x00000000	0.0
65	0x35715815	8.990767e-07
66	0x33830bff	6.102345e-08
67	0x3094b9cb	1.0821223e-09
68	0x345c7098	2.0530058e-07
69	0x3494b9dc	2.770238e-07
70	0x00000000	0.0
71	0x3494b9dc	2.770238e-07
72	0x3406f6fe	1.2569578e-07
73	0x31158735	2.175921e-09
74	0x34a9090f	3.1485294e-07
75	0x35158815	5.570485e-07
76	0x00000000	0.0
77	0x35158815	5.570485e-07
78	0x343b5056	1.7444958e-07
79	0x311eae2c	2.3091031e-09
80	0x34cfc330	3.8698772e-07
81	0x351eb462	5.912208e-07
82	0x00000000	0.0
83	0x351eb462	5.912208e-07
84	0x315d8516	3.2235383e-09
85	0x2e5c261e	5.0056063e-11
86	0x3208ca3a	7.962223e-09
87	0x325c2273	1.2813518e-08
88	0x00000000	0.0
89	0x325c2273	1.2813518e-08
90	0x3558f8a9	8.082812e-07
91	0x325a2df5	1.26997195e-08
92	0x3607374e	2.014876e-06
93	0x365a3071	3.2512728e-06
94	0x00000000	0.0
95	0x365a3071	3.2512728e-06
96	0x3440129e	1.7888166e-07
97	0x312c60ef	2.5084395e-09
98	0x34f5b208	4.576434e-07
99	0x352c623f	6.421796e-07
100	0x00000000	0.0
101	0x352c623f	6.421796e-07
102	0x3492c7c0	2.7339956e-07
103	0x3169f643	3.4045946e-09
104	0x3519aee1	5.7251424e-07
105	0x3569f682	8.715798e-07
106	0x00000000	0.0
107	0x3569f682	8.715798e-07
108	0x33bdaea7	8.8327674e-08
109	0x30828aab	9.498157e-10
110	0x3429e9e7	1.5824445e-07
111	0x34828d65	2.4317265e-07
112	0x00000000	0.0
113	0x34828d65	2.4317265e-07
114	0x34069781	1.253484e-07
115	0x30af3c22	1.2750017e-09
116	0x34812b46	2.4059608e-07
117	0x34af3c2f	3.264008e-07
118	0x00000000	0.0
119	0x34af3c2f	3.264008e-07
120	0x322c52f0	1.00305755e-08
121	0x2eae7163	7.9327454e-11
122	0x32480ea2	1.1644859e-08
123	0x32ae7072	2.03074e-08
124	0x00000000	0.0
125	0x32ae7072	2.03074e-08
126	0x34008903	1.1970774e-07
127	0x3137d667	2.6751878e-09
128	0x34dcc39d	4.112052e-07
129	0x3537d67a	6.8484917e-07
130	0x00000000	0.0
131	0x3537d67a	6.8484917e-07
132	0x34457fc8	1.8393541e-07
133	0x31505e12	3.0321456e-09
134	0x34f739eb	4.6049476e-07
135	0x35505ee0	7.76241e-07
136	0x00000000	0.0
137	0x35505ee0	7.76241e-07
138	0x30e7711e	1.6839612e-09
139	0x2d0257a4	7.409105e-12
140	0x30b20f7a	1.2955603e-09
141	0x31030d3a	1.9070527e-09
142	0x00000000	0.0
143	0x31030d3a	1.9070527e-09
144	0x2f527fec	1.9144836e-10
145	0x2bd146c7	1.4869988e-12
146	0x2f64c345	2.0805853e-10
147	0x2fd172f2	3.8098552e-10
148	0x00000000	0.0
149	0x2fd172f2	3.8098552e-10
150	0x340fa6d7	1.3378609e-07
151	0x310d0e72	2.0526412e-09
152	0x34c2667a	3.6209877e-07
153	0x350d1110	5.255142e-07
154	0x00000000	0.0
155	0x350d1110	5.255142e-07
156	0x3106348a	1.9529431e-09
157	0x2e04a4ed	3.015981e-11
158	0x31a0150c	4.6590056e-09
159	0x3204a78f	7.72151e-09
160	0x00000000	0.0
161	0x3204a78f	7.72151e-09
162	0x34a326a8	3.0389242e-07
163	0x317bbd1f	3.663281e-09
164	0x3533d739	6.6995887e-07
165	0x357bd1f2	9.3810297e-07
166	0x00000000	0.0
167	0x357bd1f2	9.3810297e-07
168	0x31cb71e5	5.921026e-09
169	0x2e186f28	3.4659525e-11
170	0x318bf048	4.0727492e-09
171	0x3218d2c6	8.895489e-09
172	0x00000000	0.0
173	0x3218d2c6	8.895489e-09
174	0x346141e3	2.0978727e-07
175	0x317af393	3.6518244e-09
176	0x351116c3	5.404983e-07
177	0x357afdfa	9.350184e-07
178	0x00000000	0.0
179	0x357afdfa	9.350184e-07
180	0x32e4cbf6	2.6635444e-08
181	0x2ec3c670	8.902823e-11
182	0x32b7a337	2.1378225e-08
183	0x32c3c3c7	2.2790017e-08
184	0x00000000	0.0
185	0x32c3c3c7	2.2790017e-08
186	0x3415cb5f	1.3950692e-07
187	0x3115c476	2.1794029e-09
188	0x34cadae0	3.7784685e-07
189	0x3515cf4b	5.5808476e-07
190	0x00000000	0.0
191	0x3515cf4b	5.5808476e-07
192	0x31e02433	6.5233734e-09
193	0x2e82bd50	5.945344e-11
194	0x3213f4ca	8.612185e-09
195	0x3282f473	1.5245154e-08
196	0x00000000	0.0
197	0x3282f473	1.5245154e-08
198	0x33901787	6.709802e-08
199	0x30a7c335	1.220633e-09
200	0x34364436	1.6974886e-07
201	0x34a7c697	3.1250667e-07
202	0x00000000	0.0
203	0x34a7c697	3.1250667e-07
204	0x320bbfc5	8.134468e-09
205	0x2dc55436	2.2433704e-11
206	0x31ab99dd	4.9942472e-09
207	0x31c57db7	5.7477467e-09
208	0x00000000	0.0
209	0x31c57db7	5.7477467e-09
210	0x32d76b89	2.5078196e-08
211	0x301cc4e5	5.7032273e-10
212	0x340be222	1.302765e-07
213	0x341cc510	1.4600323e-07
214	0x00000000	0.0
215	0x341cc510	1.4600323e-07
216	0x31e6db0b	6.7187833e-09
217	0x2dde4401	2.5268678e-11
218	0x32050b1d	7.744146e-09
219	0x31de7463	6.474282e-09
220	0x00000000	0.0
221	0x31de7463	6.474282e-09
222	0x2fad1b7f	3.1488054e-10
223	0x2c770987	3.51061e-12
224	0x3019d5a4	5.596468e-10
225	0x30770f32	8.987967e-10
226	0x00000000	0.0
227	0x30770f32	8.987967e-10
228	0x2f36a9cc	1.6613128e-10
229	0x2c5016a0	2.9571137e-12
230	0x3009d2d5	5.013992e-10
231	0x305016fe	7.5702633e-10
232	0x00000000	0.0
233	0x305016fe	7.5702633e-10
234	0x35224ca8	6.046125e-07
235	0x32085092	7.9345615e-09
236	0x35c20306	1.4455006e-06
237	0x36085159	2.031293e-06
238	0x00000000	0.0
239	0x36085159	2.031293e-06
240	0x33f22c5b	1.12770714e-07
241	0x30e5f08a	1.6730308e-09
242	0x3498c19d	2.8453078e-07
243	0x34e5f794	4.283471e-07
244	0x00000000	0.0
245	0x34e5f794	4.283471e-07
246	0x349a8047	2.877807e-07
247	0x31af83fe	5.108176e-09
248	0x355f59a6	8.320443e-07
249	0x35af844e	1.3077022e-06
250	0x00000000	0.0
251	0x35af844e	1.3077022e-06
252	0x32af51ef	2.040994e-08
253	0x2f95a211	2.7218097e-10
254	0x3318c7a1	3.557182e-08
255	0x3395b842	6.9718695e-08

exp_avg f4 [128]
0	0xb922e31f	-0.00015534133
1	0xb843b4ed	-4.6660123e-05
2	0xb712aa3b	-8.741913e-06
3	0xb942435b	-0.00018526374
4	0xb8aee8c1	-8.34032e-05
5	0xb8457c76	-4.7084373e-05
6	0x38488274	4.780521e-05
7	0xb78f338e	-1.7070935e-05
8	0xb8a850a9	-8.0258884e-05
9	0x35b1cef7	1.3247762e-06
10	0x386eaacf	5.69027e-05
11	0xb8007a76	-3.063163e-05
12	0xb9884eda	-0.0002599869
13	0xb892b487	-6.995448e-05
14	0xb5f11365	-1.7961544e-06
15	0xb9b7aeeb	-0.00035034804
16	0xb8b026cf	-8.399563e-05
17	0xb94f4653	-0.00019767256
18	0x38563f07	5.1080275e-05
19	0xb90ce560	-0.0001343689
20	0x3769a1b0	1.3925528e-05
21	0xb912b449	-0.00013990806
22	0x36fead2d	7.58995e-06
23	0x36635b40	3.387875e-06
24	0xb6fed46a	-7.594518e-06
25	0x379eef3d	1.8946472e-05
26	0xb6fa4f4b	-7.4598115e-06
27	0xb9304ca4	-0.00016813219
28	0xb6fa6442	-7.462252e-06
29	0xb982c6c7	-0.00024943633
30	0xb7042afa	-7.877819e-06
31	0xb8b80d28	-8.776254e-05
32	0x37baa2de	2.2248769e-05
33	0xb8ed5e4a	-0.00011318603
34	0x36c9e216	6.0165867e-06
35	0xb961f64e	-0.00021549428
36	0x36e1e041	6.731629e-06
37	0xb6c8c374	-5.983218e-06
38	0xb6b3b94f	-5.3561885e-06
39	0x36f8b870	7.4124473e-06
40	0x388b755a	6.649895e-05
41	0x38b08806	8.41767e-05
42	0xb90a2e09	-0.00013177855
43	0xb88656f1	-6.405812e-05
44	0xb89b5035	-7.405916e-05
45	0x39175eb9	0.00014435769
46	0xb95f8e6c	-0.00021319994
47	0xb75c3345	-1.3124959e-05
48	0xb83195a0	-4.2339438e-05
49	0x38c2b734	9.284765e-05
50	0xb9068115	-0.00012827323
51	0xb907b26f	-0.00012941075
52	0x363130af	2.6403393e-06
53	0xb8f72243	-0.000117842596
54	0xb993c36b	-0.00028183623
55	0xb8b425d0	-8.590112e-05
56	0xb8b171ec	-8.461237e-05
57	0xb81278a0	-3.4921453e-05
58	0xb88f2bd1	-6.826933e-05
59	0xb98a77a7	-0.0002641056
60	0xb8ec7958	-0.00011275959
61	0xb8e0437c	-0.00010693722
62	0xb8b56917	-8.650327e-05
63	0x3724daeb	9.826133e-06
64	0xb6c7be84	-5.952841e-06
65	0xb6568973	-3.196849e-06
66	0xb92494ba	-0.00015695664
67	0x3735ba08	1.08317545e-05
68	0xb7c05a2d	-2.2930175e-05
69	0x37f0b4e5	2.8694465e-05
70	0xb98d1e9c	-0.00026916421
71	0xb98f378f	-0.0002731648
72	0xb6ea7d73	-6.9883476e-06
73	0xb84b6ffd	-4.850327e-05
74	0xb71341a8	-8.77717e-06
75	0xb608cf3c	-2.0386206e-06
76	0x38463f0f	4.7265607e-05
77	0x36a8b413	5.0277536e-06
78	0xb895ddcd	-7.146187e-05
79	0x380ab0f6	3.306657e-05
80	0x38860d01	6.39204e-05
81	0x38a68853	7.940889e-05
82	0x35774d20	9.21269e-07
83	0xb8991a42	-7.3004994e-05
84	0x3856db94	5.1226074e-05
85	0x389ed9c5	7.57459e-05
86	0xb7f08bdf	-2.8675362e-05
87	0x3834fd18	4.3151056e-05
88	0xb796bc3f	-1.7969052e-05
89	0xb70e8d49	-8.496755e-06
90	0x36f638e7	7.3379956e-06
91	0xb93e806c	-0.00018167653
92	0xb8e305d6	-0.000108252905
93	0xb86c0482	-5.6270983e-05
94	0xb90692f4	-0.0001283398
95	0xb88f3727	-6.829044e-05
96	0xb9cf8bf4	-0.0003958639
97	0x3805a857	3.186645e-05
98	0xb937e9ba	-0.0001753931
99	0xb6f99cfa	-7.4390528e-06
100	0x378798c8	1.6164398e-05
101	0xb90c9c3e	-0.00013409645
102	0x3704322b	7.879494e-06
103	0xb811393d	-3.4624e-05
104	0x37833f49	1.5645886e-05
105	0x38eef7c0	0.000113948714
106	0x37d36724	2.5201189e-05
107	0xb7938dec	-1.7589853e-05
108	0x38ed1ec6	0.00011306773
109	0xb6595447	-3.2384576e-06
110	0xb7315653	-1.0570121e-05
111	0xb7176da4	-9.025829e-06
112	0xb4f08609	-4.4801007e-07
113	0xb9a4eac2	-0.00031455426
114	0x36422ba5	2.8933657e-06
115	0xb80b92f8	-3.3277058e-05
116	0x381d26da	3.74679e-05
117	0xb67a4b07	-3.7296575e-06
118	0xb77de97f	-1.513434e-05
119	0x370a6394	8.248626e-06
120	0xb8ee5a88	-0.00011365587
121	0xb9ed24f7	-0.00045231704
122	0x370ae6ef	8.279209e-06
123	0xb8ae7340	-8.3184335e-05
124	0x36c1d27b	5.7763514e-06
125	0x37189a44	9.095824e-06
126	0xb78bf39f	-1.6683536e-05
127	0xb8b5a910	-8.662243e-05

exp_avg_sq f4 [128]
0	0x3431f664	1.6574046e-07
1	0x3295167b	1.7356106e-08
2	0x346a0b4f	2.1797062e-07
3	0x343697d0	1.70053e-07
4	0x322f34ed	1.0198375e-08
5	0x345dac54	2.0644922e-07
6	0x3408b30d	1.2731125e-07
7	0x30dd9359	1.6121745e-09
8	0x33973991	7.041957e-08
9	0x2f9730f9	2.7501537e-10
10	0x34715816	2.247692e-07
11	0x3394b9de	6.925596e-08
12	0x34158815	1.3926213e-07
13	0x341eb463	1.4780521e-07
14	0x315c2272	3.2033793e-09
15	0x355a3072	8.1281826e-07
16	0x342c623f	1.605449e-07
17	0x3469f685	2.1789499e-07
18	0x33828d65	6.079316e-08
19	0x33af3c2d	8.1600184e-08
20	0x31ae7072	5.07685e-09
21	0x3437d67c	1.7121232e-07
22	0x34505ee0	1.9406025e-07
23	0x30030d3b	4.7676324e-10
24	0x2ed172f2	9.524638e-11
25	0x340d110f	1.3137854e-07
26	0x3104a78e	1.9303772e-09
27	0x347bd1f3	2.3452576e-07
28	0x3118d2c4	2.2238718e-09
29	0x347afdfa	2.337546e-07
30	0x31c3c3c6	5.697504e-09
31	0x3415cf4a	1.3952118e-07
32	0x3182f474	3.811289e-09
33	0x33a7c697	7.812667e-08
34	0x30c57db7	1.4369367e-09
35	0x331cc512	3.6500815e-08
36	0x30de7463	1.6185705e-09
37	0x2f770f32	2.2469918e-10
38	0x2f5016fe	1.8925658e-10
39	0x35085158	5.078232e-07
40	0x33e5f794	1.0708678e-07
41	0x34af844e	3.2692554e-07
42	0x3295b840	1.742967e-08
43	0x325cddad	1.2856089e-08
44	0x32d9c1c0	2.5350232e-08
45	0x351597ae	5.572755e-07
46	0x33da8e1f	1.0177268e-07
47	0x301b9ae9	5.660881e-10
48	0x34b328c6	3.3371015e-07
49	0x35009cfe	4.791217e-07
50	0x32e65327	2.6813337e-08
51	0x33d3873e	9.8500536e-08
52	0x30c6ac0f	1.4455298e-09
53	0x34206a4b	1.493983e-07
54	0x34f8475c	4.624552e-07
55	0x32871c89	1.5729045e-08
56	0x33f3ae98	1.1347328e-07
57	0x3366b9b7	5.3719955e-08
58	0x33f115bf	1.12263926e-07
59	0x34dcdb7f	4.1137898e-07
60	0x3404ed52	1.2379795e-07
61	0x3330d0b0	4.1167993e-08
62	0x347b2391	2.3389136e-07
63	0x3008f1c0	4.982006e-10
64	0x301bb5e8	5.6647176e-10
65	0x2ff6e87f	4.4912338e-10
66	0x3348b209	4.672805e-08
67	0x3417578c	1.409482e-07
68	0x33b20de7	8.2913e-08
69	0x334b60b0	4.7352557e-08
70	0x34d97b5c	4.0509155e-07
71	0x350b7778	5.1955385e-07
72	0x302a27c4	6.190215e-10
73	0x330fc5af	3.3474574e-08
74	0x30efeb2d	1.745638e-09
75	0x2ecfef02	9.4557265e-11
76	0x3315571e	3.4771e-08
77	0x2f0f1c6f	1.3015876e-10
78	0x330b9e3c	3.2507373e-08
79	0x3284deef	1.5468201e-08
80	0x33a7e62d	7.818412e-08
81	0x34c94a36	3.7493163e-07
82	0x32463966	1.1538168e-08
83	0x3331e659	4.1420524e-08
84	0x342d7b60	1.6156764e-07
85	0x32e7970c	2.6960628e-08
86	0x3205de67	7.792187e-09
87	0x3464aa61	2.1296138e-07
88	0x3150a8cc	3.0363934e-09
89	0x321f56e5	9.274776e-09
90	0x30e13626	1.6386295e-09
91	0x34e8c371	4.335557e-07
92	0x333fa623	4.4621753e-08
93	0x32a3319d	1.8998259e-08
94	0x34440b2a	1.8257984e-07
95	0x32b6bea3	2.127428e-08
96	0x35913346	1.0818264e-06
97	0x34cdaf08	3.8311578e-07
98	0x349e88f0	2.9529429e-07
99	0x30c8f3d2	1.4621213e-09
100	0x304474c4	7.147032e-10
101	0x34f5fba5	4.5817902e-07
102	0x319257bd	4.259134e-09
103	0x3239bc76	1.0811268e-08
104	0x31a94a42	4.9269895e-09
105	0x347a858b	2.3331647e-07
106	0x3329ceb0	3.953636e-08
107	0x3396331d	6.994217e-08
108	0x33fa46d5	1.16544165e-07
109	0x30991eb2	1.1140939e-09
110	0x2fa19697	2.939273e-10
111	0x2f2039d4	1.457246e-10
112	0x2e90d01b	6.585329e-11
113	0x340c2841	1.305316e-07
114	0x2f9dd1e0	2.870726e-10
115	0x3318b495	3.5554496e-08
116	0x32409c8f	1.1211468e-08
117	0x2ea958fc	7.701037e-11
118	0x312677a8	2.4224196e-09
119	0x31b62e3e	5.3021543e-09
120	0x34178077	1.4109706e-07
121	0x34c0a564	3.5883124e-07
122	0x340320a9	1.2212207e-07
123	0x340368ec	1.2238496e-07
124	0x2f915e6f	2.6442445e-10
125	0x30bf2bd1	1.3909532e-09
126	0x33881e66	6.338523e-08
127	0x32fc2b53	2.9356363e-08
