CubeTest/results/ppo/MoveToGoal/MoveToGoal-499970.pt (torch, 439199 bytes, 36 tensors)

network_body._body_endoder.seq_layers.0.weight f4 [128, 6]
000000 a0 87 07 3e 4e 74 1e bd 8f 2f ec 3e 42 c5 92 3d
       0.1323533 -0.038685136 0.46130034 0.0716653
000010 c4 9b f0 3e a8 15 2b bf fb 0c a5 3e 7b 02 d9 be
       0.4699384 -0.6682992 0.32236466 -0.42384705
000020 40 41 ff 3c 18 79 a9 3e 8f 31 d4 be cf e5 ff 3e
       0.031159043 0.331002 -0.4144406 0.49980018
000030 90 7e 70 3e 81 46 e3 3c f6 b6 a9 3e 7a 3f 60 be
       0.2348578 0.02774358 0.331474 -0.21899214
000040 2e 03 37 be bf c0 39 bf c3 3a 1f bd ac bc 22 3f
       -0.17872307 -0.7255973 -0.0388744 0.6356914
000050 be 30 2f 3f f7 12 fa be ca bb 83 be a9 e5 0c 3f
       0.6843375 -0.48842594 -0.2572921 0.55037934
000060 56 11 91 be 2e 11 03 3d fd ff 8b 3e 5e 4f a5 3d
       -0.2833354 0.031998806 0.2734374 0.08071779
000070 15 bf a7 3e b3 a9 4a bd b2 c5 9e 3e ac 64 4d bc
       0.32762972 -0.049478244 0.31010205 -0.012536209
000080 65 20 91 3e 9a 2c 3b be 7a e0 08 3d 6c 3b 91 be
       0.28345028 -0.18278733 0.033417203 -0.28365648
000090 6c c0 f8 be c2 08 03 3f 70 4f aa be 55 eb bf 3c
       -0.48584306 0.5118524 -0.3326373 0.023427645
0000a0 5a 17 fe be 02 6d 8a 3f 17 76 c3 3e 9c dc e2 be
       -0.4962719 1.0814517 0.38176033 -0.44308937
0000b0 1d 95 2b 3f 36 d2 df be 10 f1 c7 3e 88 ce 8d be
       0.67024404 -0.43715066 0.39051104 -0.27696633
0000c0 c6 02 13 3f 3e 8c 4a bc 2f be 2e bd 92 27 8c bb
       0.57426107 -0.012362538 -0.042661842 -0.004277178
0000d0 5b 77 50 3e 44 8a b5 bd 48 e6 51 bf 2b 9e 6b bf
       0.2035803 -0.08864263 -0.81992006 -0.9203822
0000e0 fb a4 e5 be a0 d4 3f 3f 11 35 f8 be 94 f6 03 be
       -0.44852433 0.74933815 -0.48477986 -0.12887031
0000f0 e0 6f f7 3e 66 c7 cc be bf 86 1b bf 9b a8 ac 3d
       0.4832754 -0.3999588 -0.6075248 0.084305964
000100 95 28 d6 be 31 21 02 bf 67 ad a1 be 29 5a ae be
       -0.41827837 -0.50831896 -0.31577608 -0.34053162
000110 a9 56 2d bf ee fb 41 3e a5 ef 1b bf 99 c5 9e be
       -0.6771036 0.1894376 -0.60912544 -0.3101013
000120 a2 ae a7 3e 0b 71 f0 3e 3d 28 d2 3d 8f c4 05 bf
       0.32750422 0.46961245 0.10261581 -0.5225305
000130 1a 93 14 3e f5 2b e2 be 7a b8 e6 3e 62 de e3 3c
       0.1450924 -0.44174162 0.4506262 0.027816001
000140 79 50 94 3e 69 80 1a bd 6c e1 f7 3e 8d 64 7f 3e
       0.28967646 -0.037720118 0.4841417 0.24940701
000150 e3 3e 25 3e d7 69 11 3d de 2e f3 3e ed d1 dc 3e
       0.1613727 0.035501327 0.47496694 0.4312891
000160 aa 2d aa 3d b0 c1 3f 3e f5 a7 83 3e f5 47 29 bf
       0.08309491 0.1872623 0.2571408 -0.6612542
000170 1a f8 27 bf 3d 1d 0c be d7 8c 6f 3e ff 81 c9 3e
       -0.6561295 -0.13683029 0.2339357 0.39356992
000180 8a 9a ff 3d ed 4b 3e 3f a8 b4 a7 be 60 b6 6c 3a
       0.12480648 0.74334604 -0.32755017 0.00090298615
000190 f5 3f 8c be fb 0e 57 3d 1f 0c ff 3e 37 77 49 be
       -0.27392545 0.05250452 0.49813935 -0.19674383
0001a0 89 66 73 3e 62 eb 41 be 13 a4 e0 be fa 3a 43 3f
       0.23769583 -0.18937448 -0.4387518 0.76261866
0001b0 63 cc a4 be 62 0b 8c 3e 4e 9c c0 3e e0 61 b5 3e
       -0.32187185 0.27352434 0.3761925 0.35426235
0001c0 16 32 ed 3e 9a 29 99 bd fd f6 00 3f 1b d1 c6 3e
       0.46327275 -0.07478638 0.50376874 0.3883141
0001d0 d0 21 aa be 54 67 88 bc 05 cf ff 3e 77 ea 3d bf
       -0.33228922 -0.016650833 0.4996263 -0.7418589
0001e0 7b a0 1e be 8d 04 8e 3e 02 2d fc 3e b6 84 1a 3e
       -0.15490906 0.27737847 0.49253088 0.15089688
0001f0 4e bb 15 3e e2 68 e8 bb 8f 1a 91 be 10 6e 6e bf
       0.14622232 -0.007092581 -0.28340575 -0.9313669
000200 50 b3 3e be 88 1a 4c 3f 2f e0 9d 3e 71 a0 d2 3e
       -0.1862309 0.79727983 0.308351 0.41138032
000210 6d 73 4c 3f 28 dd 91 3e a2 51 d1 be e6 11 8d 3e
       0.79863626 0.2848904 -0.40882593 0.27552718
000220 26 03 d8 be 52 fd 4b be 93 23 e8 3e f0 1b 28 3f
       -0.42189902 -0.19920853 0.4533964 0.6566763
000230 83 0f 32 bf 0d e2 d8 39 a7 3d 97 be 0b 34 dd be
       -0.6955492 0.0004136715 -0.29539225 -0.43203768
000240 34 e4 50 bf 3a 9f f8 bb 14 f4 a9 be d0 4a 0f 3e
       -0.8159821 -0.0075873407 -0.3319403 0.13993382
000250 60 6b 03 3e 14 bb 23 3c 59 ea da 3e b7 d2 d8 be
       0.12833929 0.009993333 0.42756918 -0.42348263
000260 66 e5 37 be b9 f0 35 3f 5e e4 9e bd 99 4f 13 be
       -0.17958602 0.7107044 -0.07758401 -0.14385833
000270 4f c8 0a bf a9 8b c0 3d bd 4a 5b be 0b 34 63 bf
       -0.54211897 0.09401638 -0.21415229 -0.88751286
000280 94 1e fa be 34 6a 1d 3e f8 80 c5 3b 2b 46 1f 3e
       -0.48851454 0.15372545 0.006027337 0.1555411
000290 5f 8e 4b 3e ec 82 e0 be 2e d7 a1 bd 8f a9 ae be
       0.19878529 -0.43849885 -0.079023704 -0.34113738
0002a0 72 17 6c ba 15 3d 0c 3f db 1a bd 3d 51 d8 36 be
       -0.0009006179 0.54780704 0.09233638 -0.17855956
0002b0 fb 3f 1b 3f 72 93 3c bf 53 0d e1 3e 66 cd d3 bd
       0.606445 -0.73662484 0.43955478 -0.10341911
0002c0 7a 6e 41 bf 51 b1 1a 3e b7 8a 01 bd 94 17 18 bf
       -0.755592 0.15106703 -0.03162643 -0.5941098
0002d0 dc d6 28 be dc fd d9 3a cd be 4b 3d 81 c3 05 bf
       -0.16488212 0.0016631442 0.04974251 -0.5225144
0002e0 de fa 35 3d 1a 79 07 3f 2c 9f 3c 3f 6c b8 3e bf
       0.0444287 0.5291916 0.73680377 -0.74500155
0002f0 a6 a5 2e 3f 43 e2 1d 3f fc 0a 30 3f a1 70 4e 3e
       0.6822151 0.61673373 0.6876676 0.20160152
000300 1a 02 37 bf 99 b7 3e bd 4b c7 16 bf 08 81 ae be
       -0.7148758 -0.04656181 -0.58897847 -0.34082818
000310 7a e7 c5 bb 4d f3 d0 3e aa cf 68 3e b2 02 ca 3d
       -0.006039557 0.40810624 0.22735468 0.09863795
000320 37 62 e7 be 89 5e 36 be 32 cc 2b 3f 3b d8 94 be
       -0.4519212 -0.178095 0.6710845 -0.2907122
000330 47 72 07 3f 1b 02 c7 3d 0f 86 b3 3d ec ad c7 3d
       0.5290875 0.097171985 0.08765804 0.0974997
000340 9d 3d 07 be 54 ee 57 be 0f 67 9c 3e a9 b7 bb be
       -0.13207097 -0.21087009 0.30547377 -0.3666356
000350 da ef 7e be 46 e5 02 bf d9 8e a9 3e 55 19 86 3c
       -0.24896184 -0.51131094 0.33116797 0.016369501
000360 f6 53 b0 be 3e 50 a6 3e 5b 60 2a bf c6 4e 58 bf
       -0.34439057 0.32483095 -0.66553277 -0.844952
000370 ed 23 8c bf 8d e8 51 be 0a 50 53 be 98 d5 de bd
       -1.0948464 -0.20498867 -0.20636001 -0.108805835
000380 2e 03 a5 bf 45 50 19 3e 57 39 6f be b3 e9 bc 3c
       -1.2891595 0.14972027 -0.23361717 0.023060655
000390 31 61 9e be d2 f5 6a be cf b5 1f bf 99 a6 50 be
       -0.30933526 -0.22945336 -0.6238679 -0.20376052
0003a0 5b 39 c7 3e 4b 84 47 3e c4 20 61 bf 6a 98 74 bf
       0.38910946 0.1948406 -0.8794062 -0.95545065
0003b0 74 84 a9 3e f6 7b 31 3e 94 17 fa 3e 27 eb 76 3e
       0.33108866 0.17332444 0.48846114 0.24113141
0003c0 26 93 ce be f6 38 3d be 75 ec 15 bf 4c bc bb be
       -0.4034664 -0.1847876 -0.5856393 -0.36667097
0003d0 d5 ce 45 3e 1a 54 2c bf e5 b3 bc bc a3 96 80 bd
       0.19317181 -0.6731583 -0.023035 -0.06278732
0003e0 c1 86 2c 3f fc 83 0c 3f 01 0b 10 3f b0 fd cc 3e
       0.6739312 0.5488889 0.5626679 0.40037298
0003f0 41 aa 0b 3f e0 15 a0 bd a4 20 d2 be 53 57 41 3e
       0.5455666 -0.07816672 -0.41040528 0.18880968

network_body._body_endoder.seq_layers.0.bias f4 [128]
000000 1c 04 1a bc b4 17 76 3b b9 4a 0a 3d fc 42 2d bd
       -0.009400394 0.003755075 0.033762667 -0.04230021
000010 00 87 2c 3d 08 4e 4d bb 61 d9 1a 3c 89 d6 c0 bc
       0.042120934 -0.0031327028 0.009451241 -0.023539798
000020 1c 30 c3 3c 8f 97 cc 3c 4d d0 f1 3c 48 a5 89 3c
       0.023826651 0.024974613 0.02951827 0.016802445
000030 49 bd c7 bc 88 24 8e 3c 18 77 1e bb c2 db eb 3c
       -0.02438225 0.017351404 -0.0024179872 0.028791312
000040 e5 bd 28 3d e0 59 08 3c 38 ab 71 3c 6d 03 66 3d
       0.041196723 0.008322209 0.014750294 0.05615561
000050 7b 41 da 3c 48 4f 1b bc 94 45 5f 3c e6 66 14 3d
       0.026642552 -0.009479351 0.013627429 0.036230944
000060 e6 85 19 3d 4e 9f 92 bc fb 56 42 3d 71 43 b0 3c
       0.03748121 -0.017898228 0.047446232 0.021516534
000070 79 ef e9 3c a2 6d c9 3c 54 69 19 3c 1f 20 29 3c
       0.028556572 0.02458841 0.009363491 0.0103226
000080 12 e4 3e 3d fe 9a 1c 3d c1 3b e5 3c 7b 3c 87 3b
       0.046604224 0.03823375 0.027982594 0.004127083
000090 79 8a e1 bc 5e 10 cb 3c 07 48 a9 3c dc 7e 8b 3d
       -0.02753185 0.024788078 0.020664228 0.06811306
0000a0 98 ba 74 3d f7 c9 02 3d 31 59 0a 3b b6 4b 48 3b
       0.059748262 0.03193089 0.002111029 0.0030562705
0000b0 d5 e9 83 3d d2 7b 71 3c 8d 89 fb 3c e6 d2 79 3c
       0.06441084 0.014738994 0.030705238 0.015248036
0000c0 f2 56 eb 3a 22 d0 47 bb f5 c6 51 3c 5d 60 96 3c
       0.0017954989 -0.0030489047 0.012803783 0.018356496
0000d0 c4 7a 0b bd 5f 87 fe 3b 09 88 c2 3b 7d 47 39 bc
       -0.034052625 0.0077676023 0.005936627 -0.011308548
0000e0 93 c3 90 bc 33 2b 9b 3d cc b3 6c bc 4d 5e cf 3c
       -0.017671382 0.07576599 -0.014447164 0.02531352
0000f0 e1 ab 5e 3c fa 1f e5 3a a4 28 3d 3d 76 08 51 bb
       0.013590784 0.0017480843 0.046181336 -0.0031895912
000100 5a 94 d4 bc 67 2d 89 3c c8 0a 80 3c 48 73 3e 3d
       -0.025949646 0.016745282 0.01563014 0.04649666
000110 0e ae 8f bc 5c 3f f8 3b ff 37 9a bb 1d 0b 0d 3c
       -0.01753905 0.0075759124 -0.0047063823 0.008608607
000120 40 f5 da 3c 61 6a c1 3c c2 dd 44 3c ac 5c d8 3b
       0.026728272 0.023610296 0.012015762 0.006602844
000130 61 5e 59 3c da c6 de bc 3c a3 d5 3c c8 20 77 3d
       0.013267131 -0.02719443 0.026078813 0.060333997
000140 f3 f9 8b 3b 64 84 56 3d 1b eb 6a 3c f3 d9 17 3d
       0.0042717396 0.05237235 0.01433828 0.037073087
000150 ca 82 a2 3c 3c f4 1e 3c 8f c8 bc 3c bc 5e 9b 3c
       0.019837756 0.009701785 0.023044853 0.018966071
000160 db 63 ad 3c 1c 97 fd 3b 16 bd 14 3d f3 1f 36 3c
       0.021165779 0.007738961 0.03631314 0.011116016
000170 e1 16 93 bc ad 0e 6f bd 4c 4c 03 3d 62 06 1e 3d
       -0.017955245 -0.058363605 0.032055184 0.038580306
000180 58 54 36 3c 6e 8a 0c 3d 1b 55 79 bc 00 1b d7 3c
       0.011128508 0.034311704 -0.015218045 0.026257992
000190 1f 17 2c 3c aa 1b 9c ba 5c 18 7d 3c 17 c2 3f 3c
       0.010503559 -0.00119101 0.015447702 0.0117039895
0001a0 a2 ea 6b bb e6 4f ad 3c 08 3a a4 3c c0 21 a1 3c
       -0.0035998006 0.021156263 0.020047203 0.019669414
0001b0 dd 82 82 3c d8 af 17 3d ad 5c 51 bc 7f 12 c1 bc
       0.015931541 0.037032932 -0.012778443 -0.02356839
0001c0 4e 6a 5c bd 10 a0 f8 bc 2f 08 35 3d ab 88 c1 bc
       -0.053812318 -0.030349761 0.044197258 -0.023624739
0001d0 76 58 8b 3d 41 21 1c 3b 24 f0 9b 3c 39 ec 3b 3d
       0.06803982 0.0023823532 0.019035406 0.045879576
0001e0 d4 32 69 3c 37 08 a5 3b 29 c5 38 3d 39 9d 73 3a
       0.01423331 0.0050363797 0.0451099 0.00092931424
0001f0 d7 10 27 3d 5d 80 2d 3c 5c 07 67 bc 25 8c 08 3d
       0.040787544 0.010589686 -0.014100876 0.033336777

network_body._body_endoder.seq_layers.2.weight f4 [128, 128]
000000 cd ad 9c bd a7 c9 99 bd a4 dd 4e bc 77 30 ae bd
       -0.07650337 -0.07509165 -0.012626085 -0.08505338
000010 3d a1 39 be cf 26 53 3d e8 00 2f bd 20 7c 98 bd
       -0.18127914 0.051550683 -0.042725474 -0.0744555
000020 64 e2 0a bd f6 f4 74 3d 05 90 e7 3d c3 29 0a 3e
       -0.03390731 0.059803925 0.113067664 0.13492493
000030 cc b2 e8 3d c2 5d bf bd 3c 57 f2 bd 23 ee 15 3e
       0.11362228 -0.09344055 -0.11833045 0.14641623
000040 2b c0 2e 3c 58 03 e5 bd 4d 42 a7 bd 43 30 2b 3d
       0.010665934 -0.111822784 -0.08166943 0.041794073
000050 f8 fe 43 be 1b ad 96 bd fb 02 1b 3e 35 9e b9 3d
       -0.19140232 -0.07357236 0.15137856 0.09063379
000060 6d 3a b2 3d a6 10 04 3e dc be a8 3d c7 c7 51 3d
       0.0870255 0.12896976 0.082395285 0.051215913
000070 61 1d b1 bd 66 ca d4 3b b4 74 ad bd cc 2c 62 bd
       -0.08648182 0.0064938543 -0.08469525 -0.055218503
000080 7c 48 2d 3e 28 b5 34 3e 5d 3c a8 bd a6 8c e0 bc
       0.16922182 0.1764723 -0.082146384 -0.027410816
000090 31 7f a5 3d fc d4 36 3e f5 65 66 3d bc 09 63 3d
       0.080809005 0.17854685 0.056249578 0.055429205
0000a0 24 79 81 3d 2b b0 85 bc 57 ac 68 bc 33 d4 d7 bd
       0.06321934 -0.016319355 -0.014201245 -0.10538521
0000b0 56 00 d0 3c f4 d3 95 3d c0 c4 c0 3c 16 19 41 3d
       0.025390785 0.073158175 0.023531318 0.047143064
0000c0 07 3c de bc d3 49 fa 3c 83 a5 81 3b d2 f4 3b 3c
       -0.027128233 0.03055278 0.003956498 0.011471944
0000d0 60 a5 37 bc f4 e6 83 3d 41 a1 19 bc c6 38 a6 bc
       -0.011208862 0.06440535 -0.009376825 -0.020290744
0000e0 3b c9 a0 bd ab a8 08 be 4a de db 3c 91 21 85 3d
       -0.07850882 -0.13345592 0.026839394 0.06500543
0000f0 aa 1c 7b bb cd 55 48 bc 49 9c ae bd b6 3a 35 3d
       -0.0038316646 -0.012227488 -0.08525903 0.044245444
000100 b8 5e 82 3d 51 28 da bd d9 fe fa 3d d3 cc c3 3c
       0.063657224 -0.10652221 0.122556396 0.023901379
000110 16 6a 97 bb 14 9e 49 3d 49 6f 73 bd 4a 88 1c be
       -0.0046208007 0.04922302 -0.0594323 -0.15286365
000120 d3 4c f5 bd ec a0 cc bc af f8 5d 3d ea 27 13 3d
       -0.11977544 -0.024979077 0.05419224 0.035926737
000130 e2 0a d3 bd ea 42 8d bd 0c 5e 1d bc b9 34 0b bd
       -0.1030481 -0.068975285 -0.009604942 -0.033985827
000140 87 7e a8 bd ec 7c 5d be 29 1d 64 bb 0b f0 f7 3d
       -0.08227258 -0.21629685 -0.003480742 0.121063314
000150 7c 3d 37 be b4 30 ca bc 14 17 d4 bc 05 11 4b 3e
       -0.17894548 -0.024681427 -0.02588991 0.19830711
000160 45 77 be bd 3a 27 08 3e ab e6 4c 3d 69 32 ea bc
       -0.093000926 0.13296214 0.05002467 -0.02858849
000170 e8 74 ca 3d 15 f2 d2 3d c0 e7 04 3e 7e cd d1 3d
       0.09885579 0.1030008 0.1297903 0.10244273
000180 3e a7 99 bb aa fa 8b 3d c8 79 5e bd 14 af c1 3b
       -0.0046891263 0.0683492 -0.05431536 0.0059107635
000190 16 89 22 3e fa 90 2b bd c4 9f fc 3d a7 1c 15 3e
       0.15872607 -0.041886307 0.123351604 0.14561711
0001a0 83 b3 96 3d 66 6f a7 bc de aa 34 3d 1f 92 aa 3b
       0.07358458 -0.020438861 0.044108264 0.0052054073
0001b0 f8 f7 47 bc ef 9d 01 3e 95 5d d0 bd f1 ba d9 bc
       -0.012205116 0.12657903 -0.10174099 -0.026578398
0001c0 11 f7 be 3d ce 16 4d 3d 2a 3d c1 3d 20 ff 0f 3d
       0.09324468 0.050070576 0.09435494 0.035155416
0001d0 72 4a 9d 3e c1 fa 92 3d 69 8e 95 3c f1 ae 19 bd
       0.3072086 0.07176734 0.018256383 -0.037520353
0001e0 8d 62 11 3e 63 48 01 3d e9 45 e0 bd 72 1e 94 3c
       0.1419775 0.031563174 -0.10950834 0.018080924
0001f0 9d 97 77 be 74 84 02 bd ba 36 d2 3d 24 37 32 be
       -0.2417893 -0.0318646 0.102643445 -0.17403847
000200 c3 6f 8f bc 1a 2e ad 3d d5 03 0c 3d 35 d9 ad 3d
       -0.017509347 0.08456059 0.034183342 0.084886946
000210 d4 d9 b8 3d 31 1d 48 bd fc dd fd 3c 94 a5 d9 bd
       0.090259224 -0.048855964 0.03098964 -0.10627285
000220 04 21 e5 3c 60 3c fc 3d dd 51 17 3e e5 47 09 bd
       0.027969845 0.12316203 0.14777322 -0.03351583
000230 1a 6f b8 bd bc 5a f8 3d 7d 11 4c bd 22 4c c2 ba
       -0.09005566 0.12126681 -0.049821366 -0.0014823715
000240 2c dd 17 bd 9f d9 e4 3d f3 30 c4 bd 48 10 b9 3d
       -0.03707616 0.111743204 -0.09579649 0.090363085
000250 8a a3 3a bd 39 63 04 bd 3c 52 75 bd 49 2d 85 3d
       -0.04556612 -0.03232119 -0.059892878 0.06502778
000260 82 d4 a0 bd 9b e0 82 3d 1d f9 1d be 25 5f fb 3d
       -0.07853033 0.06390496 -0.1542706 0.12274007
000270 3e e6 19 be 2d 65 35 3e 55 7c 9e 3d 7d 84 b6 bd
       -0.15029237 0.17714377 0.07738558 -0.08911989
000280 d7 0a 41 be f1 2a 8c bd 2f 52 3a 3e dc 33 ec bd
       -0.18851791 -0.06844128 0.18195413 -0.11533329
000290 6a 8c 53 be 1b c7 0b 3d b1 b9 1f 3e 89 39 21 bd
       -0.20659032 0.03412543 0.1559818 -0.03936151
0002a0 25 62 2a 3d ff c6 bf 3c 01 fd 05 3e 1c 8a 13 3e
       0.041597504 0.023410318 0.13084795 0.14408153
0002b0 bb ec 6d be e0 7d 2c bb 01 f0 ab 3d 65 1a ff 3c
       -0.23234837 -0.0026320145 0.083953865 0.031140516
0002c0 a3 5d c3 bd 96 2d 7d 3d 2b 34 41 3d f4 97 02 be
       -0.09539344 0.061811052 0.047168892 -0.12753278
0002d0 ec 91 a2 bc 98 f4 d4 bd bd f0 6e 3d c9 63 d8 bc
       -0.019844972 -0.10398215 0.058335055 -0.026414769
0002e0 55 a6 18 3e 63 21 6e be 6b 4d 2f 3d 47 9c 09 3e
       0.149072 -0.23254924 0.04279844 0.13438521
0002f0 f9 d5 2b be 80 3e 9c 3d 90 8d d9 3c fd bc d8 3d
       -0.16780843 0.076291084 0.02655676 0.10582922
000300 f5 08 3d be 49 6d 85 bd 94 9b 24 bd 29 97 50 bd
       -0.18460448 -0.06514985 -0.040187433 -0.050925408
000310 bf 23 1d 3e 8b fb ef bd a6 fb e1 3d f3 ce ee 3d
       0.15345667 -0.117179 0.11034326 0.11660566
000320 03 7d b8 bc 79 8a a1 bd 8b c8 cd 3d e5 19 43 3b
       -0.022520548 -0.0788774 0.10048016 0.0029770073
000330 ab c3 aa bd fe 1a 6c 3d 4d da dd bb 16 b6 83 be
       -0.08338102 0.05764293 -0.0067704082 -0.25724858
000340 eb a5 c3 3d d4 ba f5 bd e1 8c fe 3c b2 78 11 bd
       0.09553131 -0.11998525 0.031073036 -0.035515495
000350 cc b6 bb 3d bf 3d 09 be 9f 91 3c be f0 67 23 be
       0.09165725 -0.1340246 -0.18414925 -0.15957618
000360 c3 d7 aa 3d d7 b1 67 bd f0 87 fb 3d b9 ef 55 be
       0.083419345 -0.056566086 0.122817874 -0.20892228
000370 43 30 ee bc fb b8 3f 3d 60 32 21 bd 44 fd 00 bb
       -0.029075747 0.04680727 -0.039354682 -0.0019682208
000380 57 53 17 3e bc 27 74 bd 78 46 29 3d 85 53 a4 3d
       0.14777885 -0.059608206 0.04132697 0.080237426
000390 d4 7d 90 3d f4 4e a9 bd 1a d0 2d bd 21 6a 18 be
       0.0705525 -0.08267012 -0.04243479 -0.14884235
0003a0 20 9a 3a bc 22 73 13 3e 35 d9 9e 3c ad 86 0d be
       -0.011389285 0.14399388 0.019390682 -0.13820906
0003b0 4d 8a 8d bd 7d 8a 12 3e 7a 1e 8d bb 28 b8 02 bd
       -0.069111444 0.14310642 -0.0043066116 -0.031913906
0003c0 5d ec 7c bd 38 ee 54 bd 2e d2 b8 bd a4 36 c9 3b
       -0.06174885 -0.051984996 -0.090244636 0.006140547
0003d0 dc 31 e5 bd 0e 3e de 3b 63 7b 24 3c e3 2f 42 3d
       -0.111911505 0.0067823 0.010039183 0.04740895
0003e0 99 83 b4 3d 3a 3c 17 be 19 95 cb 3d a0 63 80 bd
       0.08814163 -0.14769068 0.099405475 -0.06269002
0003f0 71 0c 99 bd 76 06 af 3c f7 26 1b 3e e0 bc 4a bd
       -0.07473076 0.021365386 0.15151583 -0.04949653

network_body._body_endoder.seq_layers.2.bias f4 [128]
000000 ee ed be 3c b4 62 4b 3c 09 30 68 3c 3a 34 c7 bb
       0.023306813 0.012413669 0.014171609 -0.006079224
000010 5b 4f e3 bb dd e8 56 3c ca 5a dc 3b 16 3b ee 3c
       -0.00693695 0.013117042 0.00672469 0.029080909
000020 09 91 87 3c 4e 78 54 3b 5c 93 55 3c e7 a5 9e 3c
       0.01654865 0.003242034 0.0130356215 0.019366218
000030 ee 37 aa 3a f2 45 66 3c 7b 2c 6e 3c 38 2b b7 3b
       0.0012986639 0.014054762 0.014536972 0.005589869
000040 48 3d 23 3d 02 e3 5c 39 0e e0 bf 3c 33 56 14 3a
       0.039853364 0.00021065402 0.023422267 0.00056585966
000050 56 5e 72 3c 8b 1c 97 bc 35 20 d3 3b 7d f7 e2 bc
       0.014792999 -0.018446228 0.0064430484 -0.027705902
000060 55 f5 26 3d db c3 4f bb 10 4f 92 3c 4d f2 6e bc
       0.04076131 -0.0031702432 0.017859966 -0.014584136
000070 9c 8a 2e 3c 5f f9 9c 3c 74 63 7b 3b e7 28 4d 3c
       0.010653164 0.019161878 0.003835884 0.012521959
000080 f4 b0 3f bb 59 cb 43 3c 07 34 3f 3c d6 e5 97 3c
       -0.002924976 0.011950337 0.011670119 0.018542212
000090 41 df f9 3c 58 af e2 3c dc 26 04 3d 3c 76 71 3c
       0.030501964 0.027671501 0.03226362 0.014737662
0000a0 2a 44 a2 3c b9 08 09 3c 7b 6e d0 bb 6c 72 40 3c
       0.019807894 0.008363896 -0.0063608265 0.01174603
0000b0 0d d4 2e 3c e6 78 81 3b c7 18 98 bb 47 2b ee 3b
       0.010670674 0.00395118 -0.0046416256 0.0072683427
0000c0 ee 80 0c 3c c4 91 b4 3c f9 8f 6c 3c 0a 3d ab 3c
       0.008575661 0.022042163 0.014438623 0.02090313
0000d0 ae 7e 8f 3c ab 20 36 3d 01 05 4f 3c df 5f a3 bb
       0.01751646 0.04446475 0.01263547 -0.004985794
0000e0 bb 25 68 3c 6f b0 d1 bb 52 29 50 3b 4b 08 6f 3c
       0.014169152 -0.0063992064 0.003176291 0.01458938
0000f0 10 cd 8a 3c 8a ae 59 3c 45 34 4c bb 60 26 11 3b
       0.016943485 0.013286242 -0.0031159085 0.0022148117
000100 71 ec ff 3b 9b 5b 87 bb 3c a8 dc 3c 6f 8d cc 3c
       0.0078101684 -0.0041307933 0.02693569 0.024969785
000110 0f 35 c9 3c 33 b4 b4 3b 8d 52 3a 3c 96 d6 21 3c
       0.024561433 0.0055146455 0.011372221 0.009877821
000120 d8 d3 76 3c 5a bb 61 3c 81 36 e1 3b 83 db ac 3c
       0.015065156 0.013777578 0.0068729525 0.021100765
000130 46 6c ca 3c fa 88 05 3c 4b a2 81 bc 0f 19 89 bc
       0.024709832 0.008150334 -0.015824458 -0.016735582
000140 2b b7 47 bc 65 fe 24 3c bf 9f 45 3c 6f 04 46 3c
       -0.012189667 0.010070418 0.012062012 0.012086018
000150 20 f0 c0 3c b0 36 0f bb e3 46 d8 3a e5 2f 0b 3d
       0.023552 -0.0021852665 0.0016500618 0.033981223
000160 c7 8f ba 3c e1 07 e5 3b ed f7 6f 3c 15 90 e6 ba
       0.022773637 0.0069894646 0.014646512 -0.0017590547
000170 82 5f 4b 3c 39 f7 82 3c e5 30 f1 3b 0b 83 16 bb
       0.012412908 0.015987026 0.007360565 -0.0022966291
000180 4f 68 e0 3c 4a 15 57 3c c0 b5 7f 3b dd 68 a8 3c
       0.027393488 0.013127634 0.0039018244 0.020557815
000190 04 a4 90 3c 31 05 f3 3a 93 b6 35 3b 21 d1 89 ba
       0.017656334 0.0018540976 0.002772723 -0.0010514596
0001a0 a4 f7 a8 bb eb 5e 8d 3c ce 40 67 bc 0d e7 47 3c
       -0.005156474 0.017257174 -0.014114572 0.012201083
0001b0 db 54 5d 3c f0 93 17 3c 36 e8 09 3d 76 92 38 bc
       0.013509001 0.00925158 0.03366872 -0.011265388
0001c0 1f 2d 11 3b 05 9c 01 3c a0 49 e9 bb 23 8f a2 3a
       0.0022152138 0.007910733 -0.0071193725 0.0012402277
0001d0 74 4a 8d 3b e3 08 2a 3d 50 36 ed 3b 2b 85 35 3c
       0.004311854 0.04151238 0.0072391406 0.011079113
0001e0 61 f1 17 3d 65 46 27 3c ea de 4c bc d2 ab 0a bb
       0.03709543 0.010209654 -0.012504319 -0.0021159542
0001f0 07 8a bc 3b 47 61 ef 3c 92 9f 8a 3c 09 16 80 3c
       0.005753759 0.02922119 0.016921792 0.015635507

action_model._continuous_distribution.log_sigma f4 [1, 2]
000000 95 14 c9 bd ad f0 b4 bd
       -0.09818379 -0.08834968

action_model._continuous_distribution.mu.weight f4 [2, 128]
000000 41 b5 17 3b ec 6e 96 bd c3 3b f4 bc ec 60 65 3c
       0.0023148807 -0.073453754 -0.029813653 0.014000159
000010 64 47 3d 3c 8c cc 39 3d 70 2b 98 3d 26 c7 2b 3d
       0.011552665 0.045361087 0.0743016 0.04193797
000020 f8 00 e3 3c 5a 98 5d 3b 7b a6 79 bc 30 51 b3 3d
       0.027710423 0.0033812732 -0.015237446 0.0875572
000030 6f 64 16 ba 69 a1 c6 3d 25 31 08 3d ee f1 71 bc
       -0.00057370117 0.09698755 0.033249993 -0.014767153
000040 a1 f5 94 bd 86 3c e5 3c 08 46 fd 3a 91 24 28 3c
       -0.072734125 0.027982961 0.0019323239 0.010262624
000050 6d ff 92 3d 14 13 15 3c 9b 48 9d 3c 00 ab 54 bc
       0.07177625 0.009098787 0.01919966 -0.012980223
000060 94 1f a5 bd df 57 85 bc 66 99 7f 3a 82 e9 11 bc
       -0.08062664 -0.016277252 0.0009750336 -0.00890577
000070 66 af 8a bd b4 55 8c 3d c0 d9 30 bd 9f 3d 64 bd
       -0.06771736 0.06852284 -0.043176413 -0.05572283
000080 9c f6 b7 3b a8 94 9f 3d 66 3b 7a 3d 7b 22 16 3d
       0.005614115 0.07792026 0.061091803 0.036653977
000090 66 05 8a 3d b0 81 88 bd 31 b3 10 bd dd 76 98 3d
       0.06739311 -0.06665361 -0.03532714 0.07444546
0000a0 d1 de e0 bb 99 1d e4 3c e9 1c 87 3c c5 3d 4d bd
       -0.0068624993 0.027846145 0.016493278 -0.050107736
0000b0 a3 56 28 bd 3d ac 10 bd 0b ef 28 3d b2 b0 01 3d
       -0.04109825 -0.03532051 0.041243594 0.03166265
0000c0 bc 19 2b bd 4e 05 38 3c 9d fb a1 3d 96 fe c8 bd
       -0.04177259 0.0112317335 0.079093195 -0.098141834
0000d0 2e 86 9e 3d b0 6f 95 3d 77 d1 98 3c 8d b8 4f bc
       0.077404365 0.07296693 0.018654568 -0.012678278
0000e0 6b ba cf bc 54 6e 53 3b dc d6 28 3d 4b 68 a6 bd
       -0.025357446 0.0032261806 0.04122053 -0.08125361
0000f0 93 a5 ed 3c 08 8b a2 3d 2b 43 14 3d 8c c1 ba 3c
       0.029009616 0.07936674 0.03619687 0.022797368
000100 3e 56 33 3d fe 91 0f 3d 2d 4f aa bd 5e df f1 bd
       0.04378342 0.03505134 -0.08315883 -0.11810182
000110 bb 20 aa bd fd 9d c6 3c 98 d4 4a 3d a4 1b 8e 3c
       -0.08307024 0.024245257 0.04951915 0.017347164
000120 57 2f 25 bc 7d 2c e5 3c ca 5f 8a bd a5 02 ab bd
       -0.0100820875 0.027975315 -0.067565516 -0.08350114
000130 1a 83 92 ba 46 07 fb 3c de bf 07 3d cf ef 00 3c
       -0.0011177987 0.030643117 0.033141963 0.007869675
000140 a9 99 1f 3c 64 c0 94 bd 15 28 68 bd d7 d9 8c bc
       0.009741225 -0.07263258 -0.05667885 -0.017193718
000150 91 d4 a5 3c 92 62 cb 3c f7 be 7f 3d ae c9 e0 bc
       0.020242961 0.024827275 0.062437978 -0.027439918
000160 40 82 7a bd 5d 4e 15 3d 8a 9a a1 bd e3 19 e8 3c
       -0.061159372 0.036451686 -0.07890804 0.028332656
000170 e3 15 ae 3d 2b be 9f bd 17 19 4e 3d 80 ba 54 3d
       0.08500268 -0.077999435 0.050316896 0.051935673
000180 0a 86 8f 3c 35 f5 87 bc a2 78 cf bc 5a 3c 4c 3d
       0.01751997 -0.016596416 -0.025326077 0.049862243
000190 d7 4b b1 3d 44 d0 d5 3c 0b c0 97 3a 0b ec 69 bc
       0.086570434 0.026100285 0.0011577619 -0.014277468
0001a0 7e a8 a8 3a af 0f 1e 3d 49 19 d1 3c 5d 1a c8 bc
       0.0012867597 0.038589176 0.025524752 -0.024426633
0001b0 a1 7b aa bd fb 25 74 bd 62 80 8e bd 84 76 81 3c
       -0.083243616 -0.059606533 -0.06958081 0.015803583
0001c0 37 2d 35 3d e5 c4 21 3d 82 f7 2b bc 86 7e 05 3c
       0.044232573 0.039494414 -0.010496022 0.008147841
0001d0 8d c9 f4 bc a7 b6 14 3d 60 8b 0f bd 6e 37 84 3d
       -0.029881263 0.036307003 -0.035045028 0.06455885
0001e0 b9 6f ad 3c fc 6f 9f 3d fb c6 07 bd c9 ce 35 bc
       0.021171438 0.07785031 -0.033148747 -0.011096665
0001f0 f5 18 cf bc 4a 5c a0 bd 64 20 81 bd 0a 0f e5 3b
       -0.025280455 -0.07830103 -0.06305006 0.006990318
000200 0b ac a3 3d 65 9f 8f bc aa 0e 27 bd d6 18 4a bb
       0.07991799 -0.01753206 -0.04078547 -0.0030837557
000210 74 42 88 bb 17 22 c9 bc 45 6c 20 3c df 83 7a bd
       -0.0041583125 -0.024552388 0.0097914385 -0.06116092
000220 9d 23 ac 3d f7 02 3d bd 4d d6 6c bd f0 c2 09 bd
       0.0840523 -0.046145406 -0.05782156 -0.033633173
000230 81 3d b2 bc a9 93 8d 3c 34 ed 3d bd aa 1f f0 bc
       -0.021757843 0.017282324 -0.046368793 -0.029311974
000240 94 ef 1b bd 00 92 36 3d f9 18 96 3d 0a 87 2c 3d
       -0.038070276 0.04457283 0.07328982 0.04212097
000250 16 2a 81 3d fb 03 78 3c 06 a2 82 3c 89 b5 c2 3b
       0.063068554 0.015137668 0.0159464 0.005942051
000260 10 82 30 3c d0 6f 7b 3c ab 04 a4 bd 46 e0 c8 bc
       0.010773197 0.015346482 -0.08008703 -0.024521004
000270 1b 16 92 3d c3 b0 fc bb 93 80 f0 3c 2d 00 3e bd
       0.071331225 -0.0077115013 0.029358184 -0.046386886
000280 bd 7c 9d ba 00 60 86 3c 9f c2 7a 3d 86 ba 9e 3d
       -0.0012015324 0.016403198 0.06122076 0.0775042
000290 5d c4 54 3d 87 5e c7 bc ca bb 75 bd 12 cd 93 3c
       0.05194508 -0.024337066 -0.059993543 0.018042121
0002a0 b6 a6 8e bc 33 58 f5 bc c2 76 26 bc e6 4c a1 bc
       -0.017413478 -0.029949283 -0.01016015 -0.019689988
0002b0 60 ac f4 bc 1e 00 e8 3c 77 a5 92 3c 59 3a 14 bd
       -0.029867351 0.028320368 0.017901165 -0.036188457
0002c0 e4 82 57 3c 36 39 60 bd 50 e3 de 3b de 10 f7 bc
       0.013153765 -0.05474206 0.006802 -0.03015941
0002d0 72 03 68 3c 90 27 ed 3c ca dd be 3d e9 c9 ed 3c
       0.014160978 0.028949529 0.09319647 0.029026942
0002e0 f4 3c 6a bd b4 03 58 bb f2 d1 a7 bc 23 f8 8c 3d
       -0.057187036 -0.0032961192 -0.020485852 0.06883266
0002f0 c8 19 ab 3d 40 a6 bb 3c fc 52 2c bb 25 60 4f bc
       0.08354527 0.022906423 -0.002629458 -0.0126572
000300 b5 38 e2 bc 4c 90 7e bb ce ff 9d bc c1 c4 d9 3c
       -0.02761493 -0.0038843332 -0.019287016 0.026583077
000310 99 3b 46 3c 39 72 71 3b 4f 0c 80 3d 45 69 3b bd
       0.01209917 0.0036841764 0.06252348 -0.04575469
000320 47 dd 1f 3d 2d be ab 3d 7c 66 40 3b 1a f6 cf 3c
       0.039029386 0.083858825 0.002935796 0.025385905
000330 6c e1 c2 bd 43 ea bb bc 8b f4 97 3c 17 c2 57 3c
       -0.09515652 -0.022938853 0.018549224 0.013168833
000340 6b 5f d0 3c fa a5 26 3b 46 3f 9f 3d 81 bc a4 bc
       0.025436124 0.002542852 0.0777574 -0.020109417
000350 5e f2 4f bd a3 cc 55 bb 62 42 eb 3b ae 31 97 bd
       -0.05076825 -0.0032623194 0.0071795443 -0.073825225
000360 ef bd 1d 3d 83 64 db bc a0 bc aa 3b 4e 83 b5 3c
       0.038511213 -0.026781326 0.005210474 0.022157338
000370 ad cb 21 3d a0 d4 ab 3c 1a 74 8b 3b 89 8f ee 3c
       0.03950088 0.020975411 0.0042557837 0.029121177
000380 19 08 b3 bd 7e c2 2f 3d ed 0f 32 bc db 76 9f bd
       -0.08741779 0.04291009 -0.010868055 -0.07786342
000390 bc 58 04 3d 84 e1 2a 3d b4 c9 d8 bc 38 fe e8 3c
       0.032311186 0.041718975 -0.026463367 0.028441533
0003a0 1b cf 17 3c 5e 29 a1 bd da 1b de 3c 4d c9 79 bd
       0.009265686 -0.07869218 0.02711289 -0.06098299
0003b0 39 41 9a 3a 91 4b f3 3c 78 ab 0f bd 79 82 20 3d
       0.0011768705 0.029699119 -0.035075635 0.03918693
0003c0 b1 fb 64 3c 72 2e 93 3c 4e 55 8c bb 73 1c c3 bc
       0.0139760235 0.017966483 -0.00428263 -0.023817277
0003d0 ec a9 1a 3d e3 f8 9c 3d 5c f7 d6 3a 21 03 8f 3d
       0.037759706 0.07664659 0.0016400623 0.06983019
0003e0 33 c7 b4 3d ca 7a 95 3c 7d 54 71 3d 37 55 11 3c
       0.08827057 0.018247027 0.058918465 0.008870414
0003f0 da 4c b6 3c 79 8e 14 bd da 06 11 bd 5a d8 d6 3d
       0.022253443 -0.036268685 -0.035406925 0.104904845

action_model._continuous_distribution.mu.bias f4 [2]
000000 26 df ac ba 32 f2 e0 bb
       -0.0013189062 -0.0068648094

exp_avg f4 [128, 6]
000000 41 8f 22 b7 b7 1b a2 35 3f 7a 93 36 ac 1b a2 b7
       -9.689306e-06 1.2078007e-06 4.3951727e-06 -1.932479e-05
000010 00 00 00 00 ac 1b a2 b7 b0 4a 85 ba f9 cb 00 39
       0.0 -1.932479e-05 -0.0010169353 0.00012283017
000020 4e 88 7c 3a f2 cb 00 bb 00 00 00 00 f2 cb 00 bb
       0.0009633348 -0.001965281 0.0 -0.001965281
000030 7e 30 10 37 88 11 63 b5 27 ad e2 b6 7a 11 63 37
       8.594359e-06 -8.45896e-07 -6.7554824e-06 1.3534323e-05
000040 00 00 00 00 7a 11 63 37 58 32 3c b8 4d 85 c3 36
       0.0 1.3534323e-05 -4.486958e-05 5.826971e-06
000050 cb 59 25 38 44 85 c3 b8 00 00 00 00 44 85 c3 b8
       3.942269e-05 -9.323147e-05 0.0 -9.323147e-05
000060 24 50 7e 39 f8 80 d7 b7 f7 11 94 b9 f2 80 d7 39
       0.00024253182 -2.5690053e-05 -0.00028242145 0.00041104067
000070 00 00 00 00 f2 80 d7 39 1d 7f 9e b7 f4 df 1c 36
       0.0 0.00041104067 -1.889426e-05 2.337617e-06
000080 66 da a8 37 ee df 1c b8 00 00 00 00 ee df 1c b8
       2.012886e-05 -3.740185e-05 0.0 -3.740185e-05
000090 86 dd a7 3a 1b e6 1c b9 cf 0d 9e ba 13 e6 1c 3b
       0.0012807108 -0.0001496304 -0.0012058559 0.0023940846
0000a0 00 00 00 00 13 e6 1c 3b 8a a2 9f b8 b4 c2 11 37
       0.0 0.0023940846 -7.611986e-05 8.688006e-06
0000b0 ab da 81 38 ac c2 11 b9 00 00 00 00 ac c2 11 b9
       6.1919294e-05 -0.00013900799 0.0 -0.00013900799
0000c0 28 a8 0b bb 12 57 86 39 6d 18 0c 3b 0f 57 86 bb
       -0.0021309946 0.00025623344 0.0021376864 -0.0040997337
0000d0 00 00 00 00 0f 57 86 bb 47 25 0b 3b 84 10 81 b9
       0.0 -0.0040997337 0.0021231936 -0.00024617102
0000e0 0a b6 ed ba 7d 10 81 3b 00 00 00 00 7d 10 81 3b
       -0.0018135917 0.003938733 0.0 0.003938733
0000f0 84 fc e0 ba 7a e9 55 39 ed 76 00 3b 72 e9 55 bb
       -0.0017165099 0.0002040024 0.0019602135 -0.0032640365
000100 00 00 00 00 72 e9 55 bb 9f b8 7c 39 cb b5 ef b7
       0.0 -0.0032640365 0.0002410137 -2.8575674e-05
000110 fa e4 20 37 b4 b5 ef 39 00 00 00 00 b4 b5 ef 39
       9.590056e-06 0.00045721012 0.0 0.00045721012
000120 3d 81 3d b8 a1 53 b3 36 3b 24 47 38 99 53 b3 b8
       -4.5181474e-05 5.3443514e-06 4.747904e-05 -8.5509564e-05
000130 00 00 00 00 99 53 b3 b8 d7 7e d4 ba c3 e1 4f 39
       0.0 -8.5509564e-05 -0.0016212118 0.00019825161
000140 6a f7 bf 3a bd e1 4f bb 00 00 00 00 bd e1 4f bb
       0.0014645879 -0.0031720244 0.0 -0.0031720244
000150 32 71 0d ba 76 51 95 38 08 c0 ae 39 6d 51 95 ba
       -0.00053955906 7.120047e-05 0.0003333094 -0.0011392065
000160 00 00 00 00 6d 51 95 ba 84 62 86 ba 25 d2 00 39
       0.0 -0.0011392065 -0.0010252749 0.00012285316
000170 04 ab 9e 3a 1f d2 00 bb 00 00 00 00 1f d2 00 bb
       0.001210541 -0.0019656492 0.0 -0.0019656492
000180 40 fc 0b ba cb d0 86 38 0b 23 2f 3a c5 d0 86 ba
       -0.00053400174 6.428509e-05 0.0006680942 -0.0010285607
000190 00 00 00 00 c5 d0 86 ba c2 ad c9 ba 79 e2 43 39
       0.0 -0.0010285607 -0.0015386867 0.00018681017
0001a0 2b 38 ad 3a 6d e2 43 bb 00 00 00 00 6d e2 43 bb
       0.0013215592 -0.00298896 0.0 -0.00298896
0001b0 c2 4c 6d 3a fc 0a d7 b8 0c 37 79 ba f1 0a d7 3a
       0.00090522703 -0.00010254045 -0.0009506799 0.0016406459
0001c0 00 00 00 00 f1 0a d7 3a 04 96 9b b9 e8 ca 16 38
       0.0 0.0016406459 -0.00029675674 3.5951758e-05
0001d0 08 57 ad 39 e3 ca 16 ba 00 00 00 00 e3 ca 16 ba
       0.00033061975 -0.00057522784 0.0 -0.00057522784
0001e0 55 33 82 39 e3 a8 de b7 87 5d 9f b9 df a8 de 39
       0.00024833778 -2.6543106e-05 -0.00030396527 0.00042468958
0001f0 00 00 00 00 df a8 de 39 d0 a9 8d 3a ad 0a 05 b9
       0.0 0.00042468958 0.0010808054 -0.00012687845
000200 4d e8 85 ba a9 0a 05 3b 00 00 00 00 a9 0a 05 3b
       -0.0010216326 0.0020300543 0.0 0.0020300543
000210 b4 8e 17 bb 7e ae 8f 39 54 22 26 3b 7b ae 8f bb
       -0.002312583 0.00027405092 0.002535005 -0.0043848134
000220 00 00 00 00 7b ae 8f bb 20 66 cc ba a8 9c 42 39
       0.0 -0.0043848134 -0.00155944 0.00018559641
000230 dd e7 ee 3a 9e 9c 42 bb 00 00 00 00 9e 9c 42 bb
       0.001822706 -0.0029695402 0.0 -0.0029695402
000240 ab 94 09 3b 86 93 7b b9 df 8a ce ba 74 93 7b 3b
       0.0020993154 -0.00023992182 -0.001575794 0.003838745
000250 00 00 00 00 74 93 7b 3b 39 8a 16 ba a8 41 8e 38
       0.0 0.003838745 -0.00057426427 6.783317e-05
000260 85 db 1f 3a a2 41 8e ba 00 00 00 00 a2 41 8e ba
       0.00060980796 -0.00108533 0.0 -0.00108533
000270 f0 fe 7c b7 ad be 06 36 4c fb bb 37 ae be 06 b8
       -1.5079728e-05 2.0078544e-06 2.2409156e-05 -3.2125674e-05
000280 00 00 00 00 ae be 06 b8 64 f8 07 38 7e 69 6e b6
       0.0 -3.2125674e-05 3.241784e-05 -3.5526168e-06
000290 a7 0c f4 b7 71 69 6e 38 00 00 00 00 71 69 6e 38
       -2.9092958e-05 5.684182e-05 0.0 5.684182e-05
0002a0 13 81 79 b7 cd 47 f7 35 03 89 ff 37 cb 47 f7 b7
       -1.4871609e-05 1.8423831e-06 3.046217e-05 -2.9478126e-05
0002b0 00 00 00 00 cb 47 f7 b7 1b aa 9c ba 9f 5a 14 39
       0.0 -2.9478126e-05 -0.0011952551 0.00014148139
0002c0 88 d5 bd 3a 98 5a 14 bb 00 00 00 00 98 5a 14 bb
       0.0014483193 -0.0022637006 0.0 -0.0022637006
0002d0 80 27 35 3a 63 a3 a8 b8 50 ab 3c ba 5a a3 a8 3a
       0.0006910488 -8.0412974e-05 -0.00071971584 0.0012866065
0002e0 00 00 00 00 5a a3 a8 3a 84 16 df ba f2 58 5d 39
       0.0 0.0012866065 -0.001702026 0.00021109337
0002f0 bd 0c ab 3a e7 58 5d bb 00 00 00 00 e7 58 5d bb
       0.0013050061 -0.0033774914 0.0 -0.0033774914
000300 bc 04 e6 3a 08 ab 52 b9 b3 e4 94 ba fb aa 52 3b
       0.0017549018 -0.00020090875 -0.0011359662 0.003214537
000310 00 00 00 00 fb aa 52 3b 05 e8 10 ba c2 66 89 38
       0.0 0.003214537 -0.00055277377 6.551809e-05
000320 87 3e 3f 3a bd 66 89 ba 00 00 00 00 bd 66 89 ba
       0.0007295389 -0.0010482889 0.0 -0.0010482889
000330 6c 4b 26 bb 24 e5 a0 39 1a e1 1a 3b 1c e5 a0 bb
       -0.0025374545 0.000306883 0.0023632706 -0.0049101245
000340 00 00 00 00 1c e5 a0 bb d7 3e 51 b9 2f 6c c2 37
       0.0 -0.0049101245 -0.00019955203 2.3176979e-05
000350 f7 cb 82 39 24 6c c2 b9 00 00 00 00 24 6c c2 b9
       0.00024947498 -0.00037083135 0.0 -0.00037083135
000360 1a 5b 05 b7 14 a5 87 35 42 9e 74 37 16 a5 87 b7
       -7.948629e-06 1.0106328e-06 1.4580381e-05 -1.6170128e-05
000370 00 00 00 00 16 a5 87 b7 34 67 a6 39 79 d8 21 b8
       0.0 -1.6170128e-05 0.0003173888 -3.8586997e-05
000380 12 a7 11 39 62 d8 21 3a 00 00 00 00 62 d8 21 3a
       0.00013890516 0.0006173906 0.0 0.0006173906
000390 2c 39 9f 3a b3 67 12 b9 75 dd 6f ba ac 67 12 3b
       0.0012147776 -0.00013962276 -0.0009150126 0.0022339625
0003a0 00 00 00 00 ac 67 12 3b 3a 8f a6 3a f1 75 14 b9
       0.0 0.0022339625 0.001270748 -0.00014158316
0003b0 2b a3 9a ba eb 75 14 3b 00 00 00 00 eb 75 14 3b
       -0.0011797895 0.0022653292 0.0 0.0022653292
0003c0 26 e9 4f b7 78 d9 f3 35 42 6b 23 37 6b d9 f3 b7
       -1.2392446e-05 1.8168203e-06 9.74053e-06 -2.90691e-05
0003d0 00 00 00 00 6b d9 f3 b7 6a a0 21 b7 b8 7b 0c 37
       0.0 -2.90691e-05 -9.633697e-06 8.373456e-06
0003e0 99 dd 09 b9 96 7b 0c b9 00 00 00 00 96 7b 0c b9
       -0.0001314789 -0.0001339748 0.0 -0.0001339748
0003f0 ed b6 85 ba cc a7 fe 38 ed f5 87 3a c0 a7 fe ba
       -0.0010201611 0.000121429184 0.0010372974 -0.0019428656

exp_avg_sq f4 [128, 6]
000000 9d 4e ab 30 48 aa e3 2d 99 ae 29 31 fb a9 e3 31
       1.2464231e-09 2.5882532e-11 2.4691984e-09 6.625894e-09
000010 00 00 00 00 fb a9 e3 31 13 c5 c5 35 14 b2 13 33
       0.0 6.625894e-09 1.4735e-06 3.4388066e-08
000020 7b a3 55 36 05 b2 13 37 00 00 00 00 05 b2 13 37
       3.1834631e-06 8.803331e-06 0.0 8.803331e-06
000030 95 4b d2 2f 2f 4c 31 2d 2a fc 88 30 32 4c 31 31
       3.8252482e-10 1.0078201e-11 9.966972e-10 2.5800202e-09
000040 00 00 00 00 32 4c 31 31 bf a1 f6 31 2a 15 03 2f
       0.0 2.5800202e-09 7.1779307e-09 1.19219e-10
000050 65 45 24 32 34 1b 03 33 00 00 00 00 34 1b 03 33
       9.561835e-09 3.0525555e-08 0.0 3.0525555e-08
000060 a7 7a 30 34 8c 98 93 31 8e 6b ca 34 93 98 93 35
       1.6435898e-07 4.2956056e-09 3.7703688e-07 1.0996758e-06
000070 00 00 00 00 93 98 93 35 c6 69 d4 30 4b ed 35 2d
       0.0 1.0996758e-06 1.5455093e-09 1.03413484e-11
000080 10 05 4d 30 16 fe 35 31 00 00 00 00 16 fe 35 31
       7.458576e-10 2.6483398e-09 0.0 2.6483398e-09
000090 14 e3 21 36 c8 a0 79 33 19 1c b2 36 00 a1 79 37
       2.4123046e-06 5.812106e-08 5.3080844e-06 1.4879042e-05
0000a0 00 00 00 00 00 a1 79 37 53 c7 77 32 49 cb c0 2f
       0.0 1.4879042e-05 1.4422613e-08 3.506904e-10
0000b0 3c 60 0f 33 2f cb c0 33 00 00 00 00 2f cb c0 33
       3.3382307e-08 8.9776556e-08 0.0 8.9776556e-08
0000c0 b9 fb 97 36 77 67 df 33 24 d3 1b 37 69 67 df 37
       4.529455e-06 1.0403067e-07 9.28788e-06 2.6631826e-05
0000d0 00 00 00 00 69 67 df 37 50 fd 10 37 ff 67 69 34
       0.0 2.6631826e-05 8.642048e-06 2.173765e-07
0000e0 d3 8a a7 37 f1 67 69 38 00 00 00 00 f1 67 69 38
       1.9972596e-05 5.5648332e-05 0.0 5.5648332e-05
0000f0 30 c7 72 36 e9 cc b4 33 30 c5 05 37 db cc b4 37
       3.6176752e-06 8.419176e-08 7.973329e-06 2.1553065e-05
000100 00 00 00 00 db cc b4 37 5d 47 a5 35 fa e8 07 33
       0.0 2.1553065e-05 1.2314227e-06 3.1644028e-08
000110 b5 62 4b 36 f4 e8 07 37 00 00 00 00 f4 e8 07 37
       3.0306812e-06 8.100866e-06 0.0 8.100866e-06
000120 0c d8 2b 31 c7 be 82 2e 03 f5 be 31 a7 be 82 32
       2.5006583e-09 5.9456044e-11 5.5575824e-09 1.522069e-08
000130 00 00 00 00 a7 be 82 32 2a 09 7e 36 55 f1 be 33
       0.0 1.522069e-08 3.7854284e-06 8.8914625e-08
000140 03 8d 05 37 4c f1 be 37 00 00 00 00 4c f1 be 37
       7.96025e-06 2.2762128e-05 0.0 2.2762128e-05
000150 73 fb 00 36 ec f7 4b 33 47 71 91 36 d8 f7 4b 37
       1.921985e-06 4.7490104e-08 4.334524e-06 1.21574485e-05
000160 00 00 00 00 d8 f7 4b 37 68 2f b9 35 17 ea 0a 33
       0.0 1.21574485e-05 1.3797371e-06 3.2343532e-08
000170 26 e0 49 36 0e ea 0a 37 00 00 00 00 0e ea 0a 37
       3.0081806e-06 8.279936e-06 0.0 8.279936e-06
000180 5d 52 e5 34 13 70 2f 32 58 4e 81 35 12 70 2f 36
       4.27145e-07 1.0211823e-08 9.63405e-07 2.6142266e-06
000190 00 00 00 00 12 70 2f 36 9e 31 9d 36 3b 33 f0 33
       0.0 2.6142266e-06 4.684741e-06 1.118519e-07
0001a0 51 4a 2d 37 1e 33 f0 37 00 00 00 00 1e 33 f0 37
       1.0328907e-05 2.8634033e-05 0.0 2.8634033e-05
0001b0 bf a4 91 35 ca 7d ec 32 e2 ae 1f 36 d0 7d ec 36
       1.0851289e-06 2.7531218e-08 2.3794641e-06 7.0479946e-06
0001c0 00 00 00 00 d0 7d ec 36 7f ac ce 33 b2 78 0d 31
       0.0 7.0479946e-06 9.6239994e-08 2.0586808e-09
0001d0 e2 f9 58 34 bb 78 0d 35 00 00 00 00 bb 78 0d 35
       2.0207474e-07 5.270228e-07 0.0 5.270228e-07
0001e0 78 a7 4a 34 4b 72 a7 31 52 3a e2 34 6c 72 a7 35
       1.8873641e-07 4.8733333e-09 4.2138214e-07 1.2475771e-06
0001f0 00 00 00 00 6c 72 a7 35 ca 69 e9 35 76 e8 30 33
       0.0 1.2475771e-06 1.7390641e-06 4.1189615e-08
000200 ec 26 7d 36 8b e8 30 37 00 00 00 00 8b e8 30 37
       3.7722593e-06 1.0544561e-05 0.0 1.0544561e-05
000210 20 12 d3 36 56 1b 1e 34 69 64 61 37 54 1b 1e 38
       6.2904e-06 1.4724841e-07 1.3434424e-05 3.7695587e-05
000220 00 00 00 00 54 1b 1e 38 f5 8d 49 36 ea e1 98 33
       0.0 3.7695587e-05 3.0033964e-06 7.119145e-08
000230 9a 73 de 36 df e1 98 37 00 00 00 00 df e1 98 37
       6.6295734e-06 1.8224991e-05 0.0 1.8224991e-05
000240 73 e9 34 37 1b 7a 98 34 a5 21 dc 37 0e 7a 98 38
       1.078319e-05 2.840105e-07 2.624171e-05 7.270659e-05
000250 00 00 00 00 0e 7a 98 38 7e a8 dc 34 91 07 1e 32
       0.0 7.270659e-05 4.1100787e-07 9.198531e-09
000260 fd f7 5d 35 15 08 1e 36 00 00 00 00 15 08 1e 36
       8.2689786e-07 2.354854e-06 0.0 2.354854e-06
000270 99 a6 44 30 a5 60 75 2d 3f 0c b7 30 29 61 75 31
       7.1541134e-10 1.3948097e-11 1.3318483e-09 3.5707421e-09
000280 00 00 00 00 29 61 75 31 c7 2a 1e 31 2c 03 80 2e
       0.0 3.5707421e-09 2.3016342e-09 5.8213295e-11
000290 7c c3 bd 31 08 03 80 32 00 00 00 00 08 03 80 32
       5.522848e-09 1.490254e-08 0.0 1.490254e-08
0002a0 3f cd a4 31 97 62 06 2f e6 8f 4e 32 8c 62 06 33
       4.796362e-09 1.2222255e-10 1.2023497e-08 3.1288934e-08
0002b0 00 00 00 00 8c 62 06 33 19 60 16 36 48 e2 66 33
       0.0 3.1288934e-08 2.2407678e-06 5.375685e-08
0002c0 7d e8 a8 36 44 e2 66 37 00 00 00 00 44 e2 66 37
       5.0338554e-06 1.376175e-05 0.0 1.376175e-05
0002d0 5e 55 17 35 00 ad 6d 32 ca 31 a5 35 f6 ac 6d 36
       5.637611e-07 1.3834551e-08 1.2307949e-06 3.5416429e-06
0002e0 00 00 00 00 f6 ac 6d 36 82 56 1b 37 71 0d 71 34
       0.0 3.5416429e-06 9.258862e-06 2.2449764e-07
0002f0 7b 7e ad 37 4e 0d 71 38 00 00 00 00 4e 0d 71 38
       2.0682104e-05 5.747127e-05 0.0 5.747127e-05
000300 c4 52 4d 37 18 76 ab 34 46 68 fe 37 0a 76 ab 38
       1.2238223e-05 3.1937157e-07 3.0327716e-05 8.175902e-05
000310 00 00 00 00 0a 76 ab 38 5f 51 4d 35 d2 2b 9f 32
       0.0 8.175902e-05 7.648686e-07 1.8529963e-08
000320 56 a8 ed 35 c9 2b 9f 36 00 00 00 00 c9 2b 9f 36
       1.7706868e-06 4.7436665e-06 0.0 4.7436665e-06
000330 9c 8e ff 36 18 7e 3d 34 ff e8 83 37 0a 7e 3d 38
       7.616194e-06 1.764787e-07 1.5724914e-05 4.5178494e-05
000340 00 00 00 00 0a 7e 3d 38 70 1b e0 33 07 a9 29 31
       0.0 4.5178494e-05 1.0435804e-07 2.4688818e-09
000350 09 6a 82 34 0d a9 29 35 00 00 00 00 0d a9 29 35
       2.4291538e-07 6.320341e-07 0.0 6.320341e-07
000360 1c d8 4f 30 58 37 a1 2d af db fe 30 e2 36 a1 31
       7.561327e-10 1.8328158e-11 1.854337e-09 4.691956e-09
000370 00 00 00 00 e2 36 a1 31 ab 95 99 36 ea f8 f9 33
       0.0 4.691956e-09 4.577179e-06 1.1640243e-07
000380 53 84 3a 37 e3 f8 f9 37 00 00 00 00 e3 f8 f9 37
       1.1117273e-05 2.979901e-05 0.0 2.979901e-05
000390 22 7d 89 36 5b 8f dc 33 60 8c 23 37 48 8f dc 37
       4.0974855e-06 1.02706245e-07 9.748241e-06 2.6292764e-05
0003a0 00 00 00 00 48 8f dc 37 c7 f5 0d 36 9d 00 73 33
       0.0 2.6292764e-05 2.1153699e-06 5.6578404e-08
0003b0 3c a9 a3 36 8e 00 73 37 00 00 00 00 8e 00 73 37
       4.87748e-06 1.4484058e-05 0.0 1.4484058e-05
0003c0 0e 85 cc 30 bb 85 15 2e 39 26 6b 31 f7 85 15 32
       1.488077e-09 3.3997454e-11 3.4218728e-09 8.7034016e-09
0003d0 00 00 00 00 f7 85 15 32 34 f5 71 35 a2 4e c4 32
       0.0 8.7034016e-09 9.0136314e-07 2.2853161e-08
0003e0 50 bd 08 36 97 4e c4 36 00 00 00 00 97 4e c4 36
       2.0375774e-06 5.8504042e-06 0.0 5.8504042e-06
0003f0 74 52 95 35 5e 85 db 32 e0 19 1a 36 77 85 db 36
       1.1125362e-06 2.5555604e-08 2.296285e-06 6.542246e-06

exp_avg f4 [128]
000000 ac 1b 22 b7 f2 cb 80 ba 7f 11 e3 36 42 85 43 b8
       -9.662395e-06 -0.0009826405 6.767164e-06 -4.661573e-05
000010 f5 80 57 39 ed df 9c b7 14 e6 9c 3a ab c2 91 b8
       0.00020552038 -1.8700923e-05 0.0011970424 -6.9503985e-05
000020 0e 57 06 bb 7c 10 01 3b 71 e9 d5 ba b1 b5 6f 39
       -0.0020498666 0.0019693663 -0.0016320181 0.00022860501
000030 99 53 33 b8 ba e1 cf ba 6b 51 15 ba 1e d2 80 ba
       -4.2754782e-05 -0.0015860118 -0.0005696031 -0.0009828245
000040 c5 d0 06 ba 6e e2 c3 ba f0 0a 57 3a e3 ca 96 b9
       -0.00051428034 -0.0014944801 0.0008203229 -0.00028761392
000050 e3 a8 5e 39 a8 0a 85 3a 7c ae 0f bb a3 9c c2 ba
       0.00021234485 0.001015027 -0.002192407 -0.0014847707
000060 71 93 fb 3a a1 41 0e ba ad be 86 b7 72 69 ee 37
       0.0019193721 -0.00054266496 -1.6062835e-05 2.8420913e-05
000070 cd 47 77 b7 9a 5a 94 ba 59 a3 28 3a e7 58 dd ba
       -1.4739065e-05 -0.0011318505 0.0006433032 -0.0016887457
000080 fc aa d2 3a c0 66 09 ba 1b e5 20 bb 25 6c 42 b9
       0.0016072686 -0.0005241446 -0.002455062 -0.00018541569
000090 13 a5 07 b7 62 d8 a1 39 ac 67 92 3a ea 75 94 3a
       -8.085061e-06 0.0003086953 0.0011169813 0.0011326645
0000a0 68 d9 73 b7 a1 7b 8c b8 bd a7 7e ba 42 02 80 ba
       -1.45345475e-05 -6.698748e-05 -0.0009714326 -0.0009766298
0000b0 78 e0 f6 3a 92 df 8c 3a 9d 03 1b bb 3f a4 ed b9
       0.0018835207 0.0010747781 -0.0023653277 -0.00045326535
0000c0 b2 44 c0 b8 14 64 95 ba f7 87 65 ba bf eb 36 b9
       -9.168069e-05 -0.0011397623 -0.0008755917 -0.00017444695
0000d0 2a 3b 91 36 ff 2b 31 39 fb 63 ac b9 0d fb 7d b7
       4.3282243e-06 0.00016896425 -0.00032880888 -1.5138427e-05
0000e0 23 ed 05 38 e8 32 8c 39 a1 4e ac ba 9d c4 fb ba
       3.193052e-05 0.0002674081 -0.0013145992 -0.0019208376
0000f0 52 e1 42 3a 1e cb d6 36 dd 94 8e b9 85 a7 b2 b8
       0.0007434088 6.401343e-06 -0.00027195262 -8.518904e-05
000100 0a 85 6f b7 53 7e 50 38 9c 96 ed 3a 04 76 12 3b
       -1.4276486e-05 4.9708713e-05 0.001812655 0.0022348175
000110 93 31 dc 38 82 0c 88 3a 13 f5 94 ba 87 bf 9d 38
       0.000104996514 0.0010379704 -0.0011364542 7.522018e-05
000120 9d 1f 40 b7 2d b7 05 b7 7e a5 8d ba b7 28 2f b8
       -1.1451452e-05 -7.970067e-06 -0.0010806767 -4.176117e-05
000130 45 30 0a b9 79 b2 0b b7 8f ad bd ba 51 f3 14 3b
       -0.00013178687 -8.3265995e-06 -0.001447128 0.0022728036
000140 43 a2 2f 3a b6 cb 48 3a d3 d1 2a 39 09 0e a4 3a
       0.0006699899 0.000765975 0.00016290629 0.001251639
000150 48 a9 94 b9 9b 2e a6 39 7d c0 ad 39 5a 91 6d 3a
       -0.00028354884 0.0003169671 0.00033140546 0.00090624916
000160 5f e0 fe ba 3f 0c 02 ba 2b 52 04 bb bf fa 0a 3b
       -0.001944553 -0.0004960931 -0.0020190577 0.0021206585
000170 ee 80 1f 38 7d ce 8b 37 c0 23 04 38 6d 1e 82 ba
       3.802863e-05 1.6666245e-05 3.1504547e-05 -0.000992728
000180 3a c5 fd b9 ba 47 9d 34 ac 48 8c b8 4b c3 39 ba
       -0.00048402866 2.9295717e-07 -6.6892564e-05 -0.0007086291
000190 7f 96 44 3a b9 1d a7 38 b5 fc 89 ba 71 35 5f 3a
       0.00074992323 7.968717e-05 -0.0010527583 0.00085147383
0001a0 a4 49 11 3a 9f 8c ae b8 d0 d7 77 ba f3 ae 61 39
       0.00055422843 -8.323159e-05 -0.0009454461 0.00021522846
0001b0 29 c2 d0 3a 48 09 15 bb a2 3c 23 37 fa 23 bf b6
       0.0015927005 -0.0022741128 9.729674e-06 -5.696432e-06
0001c0 8e 43 a4 36 1e 98 93 3a 91 8e b8 39 9a 79 06 37
       4.8954453e-06 0.0011260544 0.00035201435 8.015335e-06
0001d0 c2 6f 52 39 be 96 98 38 eb 30 f6 38 74 15 7a 37
       0.00020068794 7.276003e-05 0.00011739306 1.4906156e-05
0001e0 09 44 cc ba 44 c5 61 3a 3f a0 8e ba 9c 69 96 38
       -0.0015584241 0.0008612464 -0.0010881497 7.172229e-05
0001f0 24 17 ad ba c9 a9 f2 3a 25 26 9f b7 40 ff 9b 39
       -0.0013205749 0.0018513735 -1.897204e-05 0.0002975408

exp_avg_sq f4 [128]
000000 fe a9 e3 30 05 b2 13 36 35 4c 31 30 34 1b 03 32
       1.6564738e-09 2.2008328e-06 6.450052e-10 7.631389e-09
000010 92 98 93 34 17 fe 35 30 ff a0 79 36 2f cb c0 32
       2.7491893e-07 6.62085e-10 3.7197603e-06 2.2444139e-08
000020 69 67 df 36 f1 67 69 37 db cc b4 36 f4 e8 07 36
       6.6579564e-06 1.3912083e-05 5.3882663e-06 2.0252164e-06
000030 a8 be 82 31 4a f1 be 36 d8 f7 4b 36 0f ea 0a 36
       3.805173e-09 5.690531e-06 3.0393621e-06 2.0699842e-06
000040 12 70 2f 35 1d 33 f0 36 d0 7d ec 35 bb 78 0d 34
       6.5355664e-07 7.1585077e-06 1.7619986e-06 1.317557e-07
000050 6b 72 a7 34 8b e8 30 36 56 1b 1e 37 e0 e1 98 36
       3.1189424e-07 2.6361402e-06 9.4238985e-06 4.5562483e-06
000060 0e 7a 98 37 13 08 1e 35 2a 61 75 30 07 03 80 31
       1.8176648e-05 5.8871336e-07 8.926856e-10 3.7256345e-09
000070 8d 62 06 32 44 e2 66 36 f6 ac 6d 35 4c 0d 71 37
       7.822234e-09 3.4404375e-06 8.854107e-07 1.4367815e-05
000080 0a 76 ab 37 c9 2b 9f 35 0b 7e 3d 37 0b a9 29 34
       2.0439755e-05 1.1859166e-06 1.12946245e-05 1.5800849e-07
000090 e1 36 a1 30 e5 f8 f9 36 49 8f dc 36 8e 00 73 36
       1.1729889e-09 7.4497534e-06 6.5731915e-06 3.6210145e-06
0000a0 f8 85 15 31 97 4e c4 35 76 85 db 35 32 8a 39 37
       2.1758506e-09 1.4626011e-06 1.6355614e-06 1.1059035e-05
0000b0 3c f9 81 37 41 c2 c1 36 9f 4a 1d 37 bb b1 12 35
       1.5494057e-05 5.7744624e-06 9.375303e-06 5.464787e-07
0000c0 a6 c9 57 34 4b 93 6d 36 1a 8f a2 36 03 f1 aa 35
       2.0096795e-07 3.5401488e-06 4.8446354e-06 1.2736131e-06
0000d0 d7 06 7a 30 b5 74 3e 36 8d 07 31 35 3f a8 98 31
       9.095919e-10 2.8380139e-06 6.5948626e-07 4.4429096e-09
0000e0 71 4a 66 31 0f c0 20 35 08 85 6e 36 3d f8 d6 36
       3.351172e-09 5.9884127e-07 3.5542198e-06 6.4065957e-06
0000f0 86 f7 a6 35 94 9e 09 30 64 1a c2 33 e3 a1 92 32
       1.2440003e-06 5.006566e-10 9.0386294e-08 1.7070255e-08
000100 58 03 6e 31 89 95 a8 31 af 7c 16 37 23 c1 93 37
       3.463546e-09 4.9064437e-09 8.969727e-06 1.7613702e-05
000110 d6 2b bd 32 63 bc 82 36 17 a6 ae 36 d0 ea 76 36
       2.202243e-08 3.896233e-06 5.2049395e-06 3.6793535e-06
000120 01 5a a7 2f f3 0c b5 31 dc 23 0d 36 0b 70 d9 31
       3.0441075e-10 5.2692655e-09 2.103151e-06 6.328269e-09
000130 6e 94 0f 36 69 9d 5f 2f d5 fd b3 36 53 48 87 37
       2.1395058e-06 2.0337655e-10 5.3641656e-06 1.6126933e-05
000140 7b 6a 00 36 44 5c 8e 36 7e 91 80 34 83 6e 98 36
       1.9135466e-06 4.242671e-06 2.3947717e-07 4.5428183e-06
000150 84 5b 84 36 11 cc ea 34 ca be d4 35 de 6b e4 36
       3.9445604e-06 4.3734374e-07 1.5850758e-06 6.807487e-06
000160 9c 4d 19 37 ad 19 ca 35 ae 00 d1 36 32 cf 5f 37
       9.1375805e-06 1.5057645e-06 6.2287645e-06 1.3340077e-05
000170 28 be 14 31 08 07 05 31 80 a7 41 32 2b ed 5c 36
       2.1644926e-09 1.9358044e-09 1.1272164e-08 3.2920605e-06
000180 6f e7 d7 35 c0 7f fb 31 9d 34 23 32 27 9b cd 35
       1.6086104e-06 7.319585e-09 9.499812e-09 1.5318845e-06
000190 ea eb 15 36 5d fe 9a 32 32 f8 d8 35 85 21 f5 36
       2.234005e-06 1.804363e-08 1.6165488e-06 7.305471e-06
0001a0 5f 72 a3 35 0b ef fb 32 e4 3d b6 35 67 f2 a5 34
       1.2177733e-06 2.932895e-08 1.3578069e-06 3.0910016e-07
0001b0 ea 9b b9 36 17 31 09 37 5a 62 67 2f ba 3f 1e 30
       5.5315804e-06 8.177266e-06 2.1044269e-10 5.7570626e-10
0001c0 c1 dc 7e 30 02 91 28 36 14 c1 41 36 09 42 95 30
       9.271837e-10 2.5118356e-06 2.8871627e-06 1.0859945e-09
0001d0 ca 97 24 34 12 ad 53 32 0f 9d 13 33 c2 32 01 31
       1.5328911e-07 1.2321168e-08 3.436895e-08 1.8800823e-09
0001e0 ca 9e de 36 48 a1 31 36 6f fa fe 35 ff 9a 9b 32
       6.634601e-06 2.6468933e-06 1.899736e-06 1.8114859e-08
0001f0 77 7b e7 36 bb 5f 1c 37 b3 a3 33 31 72 bf 00 37
       6.8987097e-06 9.320614e-06 2.614098e-09 7.673969e-06
