CubeTest/results/ppo/MoveToGoal/MoveToGoal-1152.pt (torch, 149519 bytes, 12 tensors)

network_body._body_endoder.seq_layers.0.weight f4 [128, 6]
00000000: caef 9b3d 9cdc 083f 7b89 073e 4e40 f03e
00000010: 0f24 013e 4335 febd 5691 12bf b3e9 4bbf
00000020: be1e 32bf 3957 bc3e 3a91 b4bc b5b6 863e
00000030: 24fb b83e d269 7fbe 8e35 9d3d 8ed8 213e
00000040: cb4c 50bf 362c 1cbf a713 33bf f0dd 25be
00000050: 3c84 893c 8cab 01bf 66ac 84bd 1921 b2be
00000060: 566d d0bd 0b43 4e3e 08a7 f0be a806 ba3e
00000070: 71a6 bc3e 9781 c73e 0edf b7be 964a 19be
00000080: 5284 513e bb5f 7f3e d17c 58be 16c3 003f
00000090: 623f 043e c194 abbe da99 bdbe 2653 9abe
000000a0: 99e1 56be ea0b e43e 519e 2abe fd92 d2bd
000000b0: 9174 4fbf c9da 423f 40f3 24bf 6c56 dfbe
000000c0: 65b3 fabe cd95 ca3e ce66 46be f82f 18bc
000000d0: 5a04 a7be fc42 b63e 0051 8dbe 690d 98be
000000e0: 2156 b53e 4243 5b3e f1f3 4e3e 506e 7f3e
000000f0: 136b 323c a4d1 f5be 1f87 1cbf f955 d23d
00000100: 260a e4be 6620 58bd f2b1 853e f05b 98be
00000110: 9887 913d be11 9a3e b6d4 133e 1266 0ebf
00000120: 9e35 a1be 60ec 9dbd 2b21 c33e 11fa ca3e
00000130: c327 22bf 8515 f03d 7344 a03e 582e f33c
00000140: 764f 023f 1d0c 7fbe 5b59 56bf 9632 563e
00000150: e2ff 11be ca9a 7b3e 9bf7 b3bc 8619 edbb
00000160: 3df1 18bf d2c2 21be c18b cfbe dc4e 15bf
00000170: 93d7 37bf b4bd b33e 9cd7 10bf fba7 c53e
00000180: c942 b6bd f436 c93e f5e3 5b3d b6fc dc3e
00000190: 1d94 b83d 0df8 bcbe 9dce 48be 164b f13e
000001a0: 8026 01be d8a6 d5bd 8158 e3bc 00fc 12bf
000001b0: bad2 47bc 3238 b8bd f7c9 06bf 35b7 7ebf
000001c0: 5e72 e13e 62b6 fabe 5b2a e73d daa7 003f
000001d0: 1a14 9b3b e8eb 193f 2e28 02bf 6217 b13e
000001e0: 0395 343e ad9e 24be e01d 383e bda1 cc3e
000001f0: 402b 62bf 45eb 7c3e 6853 0f3f ef07 d5bd
00000200: 849f 673d 5aad 3cbe 1f91 a53e 43da 29bf
00000210: 4388 6e3e 14c7 a8be 4134 95be a871 d9be
00000220: dcba 78bd c054 7b3e 0778 fcbd f030 cabe
00000230: f0b6 8f3e a0f3 da3e 1732 73bf 9597 c13d
00000240: 621d 44bf 0007 3ebf 3398 ddbe f7b5 89be
00000250: 585a 41be baa8 04be 55ca b83d 6e07 e0be
00000260: 81f4 0fbd 5477 dbbc da9e e5bd 03bc ea3d
00000270: 4d8d 6abf 4026 033f 7c53 05bd ca58 53bd
00000280: 4817 8a3e 33fa a9bd 4dd2 853e 7d7c e03e
00000290: 23fa 02bd acde 193e 76bb c13e 9f8b 123f
000002a0: 1bd0 81be 4672 3f3f 062d e3be 9ecc 9cbe
000002b0: d4b6 fe3d ec51 c13e 6dae 973e d186 32be
000002c0: 1d65 fabd a02a 0a3f 0333 cb3e 62e4 803f
000002d0: 8917 d53b d66a 96be 2337 173e 365c c23e
000002e0: 9216 023f 3004 713f 97fc 69be e014 d13e
000002f0: 7fa5 513f 2bf0 8e3e 7ae8 6cbe 6239 033f
00000300: ceb3 97be be8d 703e 076f b7be e19c 22bf
00000310: 1402 2bbc cdfe d6be ffc3 79be de8b 98ba
00000320: e200 20be 8d34 7c3c ca95 fdbe f6a4 573e
00000330: 9c73 153f 61ed 95bd 3bb5 4fbe 3514 93be
00000340: 3c5a 823d 1270 f43e 084e c8be 6fbf 7a3f
00000350: a94c a33d a5a8 803d 548c c43c 320e f3be
00000360: b292 b5be 7e53 ddbe 0c0d abbc 4aaf 2a3e
00000370: 0ba6 a13e 80c0 31bf 25af ff3d 13ec 6cbd
00000380: 578f 7b3e ce39 2dbf deff 97be 309d 823d
00000390: a639 f6bd 255d d0bd 1b18 0a3e e72e 703c
000003a0: 6db8 3ebe 9b73 80be 034e 7c3e a86d ec3e
000003b0: a115 3d3f 3db1 40be bc25 9fbe 006b 643e
000003c0: f4b2 1ebd c67d 58be de30 003f 5e6b 903e
000003d0: 81cd f8be a408 b7bc 94f1 28bf 5082 4dbe
000003e0: f9e7 a23d 9172 743f 06be d1bd f577 4b3d
000003f0: c43b 923e 7519 bcbe 2a12 0abc 639d 143e
0.076140955 0.53461623 0.13236038 0.4692406 0.12611412 -0.124125026 -0.57253015 -0.7965347
-0.6957816 0.36785296 -0.022041906 0.2631127 0.36129105 -0.24942711 0.0767623 0.15805265
-0.81367177 -0.6100496 -0.6995186 -0.16197944 0.016786687 -0.50652385 -0.06478195 -0.34790877
-0.10177104 0.20142762 -0.47002435 0.36333203 0.36845735 0.38966057 -0.35912365 -0.14969859
0.20460632 0.24938862 -0.21141364 0.5029768 0.12914804 -0.33511928 -0.37031442 -0.30141562
-0.20984496 0.4454034 -0.16661955 -0.10281942 -0.8103724 0.7611509 -0.6443367 -0.43620622
-0.48964992 0.39567414 -0.19375154 -0.00928878 -0.32620507 0.3559798 -0.2760086 -0.2969773
0.35417274 0.21412376 0.20210244 0.24944425 0.010889786 -0.48011506 -0.6114368 0.10270304
-0.44538993 -0.052765273 0.26112324 -0.29757643 0.071059406 0.3009166 0.14436612 -0.55624497
-0.3148622 -0.077111006 0.38111243 0.3964391 -0.6334192 0.117228545 0.31302223 0.029685184
0.509025 -0.24906965 -0.83730096 0.20917735 -0.14257768 0.24570766 -0.021968653 -0.0072357086
-0.597431 -0.15796974 -0.4053631 -0.58323455 -0.71813315 0.3510567 -0.56578994 0.3860472
-0.08899457 0.39299738 0.053684194 0.43161553 0.09012625 -0.36907998 -0.19610067 0.471276
-0.12612343 -0.104322135 -0.027752163 -0.5741577 -0.012196237 -0.089950934 -0.52651924 -0.994983
0.44032568 -0.48967272 0.112873755 0.5025612 0.004732621 0.6012559 -0.5084256 0.34588152
0.17634968 -0.16076155 0.17980146 0.39967147 -0.88347244 0.24699123 0.5598664 -0.10401904
0.05654861 -0.18425503 0.3233728 -0.66348666 0.23294167 -0.32964385 -0.2914143 -0.42469525
-0.060725078 0.24544048 -0.12327581 -0.3949046 0.28069258 0.42763996 -0.94998306 0.0945274
-0.76607335 -0.7422943 -0.4328018 -0.2689664 -0.1888212 -0.12954989 0.09022967 -0.43755668
-0.035145286 -0.026790299 -0.11211939 0.11461642 -0.9162186 0.5123024 -0.03255032 -0.051598348
0.26970887 -0.08299675 0.2613701 0.43844977 -0.03197683 0.15026349 0.37838334 0.57244295
-0.25354084 0.7478374 -0.44370288 -0.3062486 0.124372154 0.37757814 0.29625264 -0.17434241
-0.12226317 0.5397129 0.39687356 1.0069697 0.0065030497 -0.29378384 0.14767127 0.37960976
0.5081569 0.94147015 -0.22850262 0.4083624 0.8189315 0.2791761 -0.23135558 0.51259434
-0.29629368 0.2349157 -0.35826895 -0.6352063 -0.010437507 -0.41991273 -0.24391173 -0.0011638363
-0.15625337 0.015393388 -0.49528342 0.21059021 0.5837953 -0.07320667 -0.20283978 -0.28726354
0.06364867 0.47741753 -0.39122033 0.97948354 0.07973606 0.062821664 0.023992695 -0.47471768
-0.35463482 -0.43227762 -0.020880245 0.1666843 0.31571993 -0.69434357 0.12484578 -0.057842325
0.24566399 -0.6766633 -0.296874 0.063776374 -0.12022714 -0.10174016 0.13485758 0.01465962
-0.1862504 -0.250882 0.24639134 0.4617741 0.7386113 -0.18817611 -0.31083477 0.22306442
-0.03874488 -0.21141729 0.50074565 0.28206915 -0.48594287 -0.022342987 -0.6599362 -0.20069242
0.079544015 0.95487314 -0.10241322 0.049674947 0.28561223 -0.36738172 -0.008427182 0.14513163

network_body._body_endoder.seq_layers.0.bias f4 [128]
00000000: 0000 0000 0000 0000 0000 0000 0000 0000
00000010: 0000 0000 0000 0000 0000 0000 0000 0000
00000020: 0000 0000 0000 0000 0000 0000 0000 0000
00000030: 0000 0000 0000 0000 0000 0000 0000 0000
00000040: 0000 0000 0000 0000 0000 0000 0000 0000
00000050: 0000 0000 0000 0000 0000 0000 0000 0000
00000060: 0000 0000 0000 0000 0000 0000 0000 0000
00000070: 0000 0000 0000 0000 0000 0000 0000 0000
00000080: 0000 0000 0000 0000 0000 0000 0000 0000
00000090: 0000 0000 0000 0000 0000 0000 0000 0000
000000a0: 0000 0000 0000 0000 0000 0000 0000 0000
000000b0: 0000 0000 0000 0000 0000 0000 0000 0000
000000c0: 0000 0000 0000 0000 0000 0000 0000 0000
000000d0: 0000 0000 0000 0000 0000 0000 0000 0000
000000e0: 0000 0000 0000 0000 0000 0000 0000 0000
000000f0: 0000 0000 0000 0000 0000 0000 0000 0000
00000100: 0000 0000 0000 0000 0000 0000 0000 0000
00000110: 0000 0000 0000 0000 0000 0000 0000 0000
00000120: 0000 0000 0000 0000 0000 0000 0000 0000
00000130: 0000 0000 0000 0000 0000 0000 0000 0000
00000140: 0000 0000 0000 0000 0000 0000 0000 0000
00000150: 0000 0000 0000 0000 0000 0000 0000 0000
00000160: 0000 0000 0000 0000 0000 0000 0000 0000
00000170: 0000 0000 0000 0000 0000 0000 0000 0000
00000180: 0000 0000 0000 0000 0000 0000 0000 0000
00000190: 0000 0000 0000 0000 0000 0000 0000 0000
000001a0: 0000 0000 0000 0000 0000 0000 0000 0000
000001b0: 0000 0000 0000 0000 0000 0000 0000 0000
000001c0: 0000 0000 0000 0000 0000 0000 0000 0000
000001d0: 0000 0000 0000 0000 0000 0000 0000 0000
000001e0: 0000 0000 0000 0000 0000 0000 0000 0000
000001f0: 0000 0000 0000 0000 0000 0000 0000 0000
0.0 0.0 0.0 0.0 0.0 0.0 0.0 0.0
0.0 0.0 0.0 0.0 0.0 0.0 0.0 0.0
0.0 0.0 0.0 0.0 0.0 0.0 0.0 0.0
0.0 0.0 0.0 0.0 0.0 0.0 0.0 0.0
0.0 0.0 0.0 0.0 0.0 0.0 0.0 0.0
0.0 0.0 0.0 0.0 0.0 0.0 0.0 0.0
0.0 0.0 0.0 0.0 0.0 0.0 0.0 0.0
0.0 0.0 0.0 0.0 0.0 0.0 0.0 0.0
0.0 0.0 0.0 0.0 0.0 0.0 0.0 0.0
0.0 0.0 0.0 0.0 0.0 0.0 0.0 0.0
0.0 0.0 0.0 0.0 0.0 0.0 0.0 0.0
0.0 0.0 0.0 0.0 0.0 0.0 0.0 0.0
0.0 0.0 0.0 0.0 0.0 0.0 0.0 0.0
0.0 0.0 0.0 0.0 0.0 0.0 0.0 0.0
0.0 0.0 0.0 0.0 0.0 0.0 0.0 0.0
0.0 0.0 0.0 0.0 0.0 0.0 0.0 0.0

network_body._body_endoder.seq_layers.2.weight f4 [128, 128]
00000000: 41b4 a93d 859f f73d bebe c83d dba6 353e
00000010: d444 99bd d47e f83b e3d2 c93d f5e0 ab3d
00000020: 43dc 2abd 6ec8 343d 587d 213d df86 eabc
00000030: dfaf ca3d 67eb 00be f754 4f3b b359 2dbd
00000040: 6300 713d 6848 a73b 5358 d9bd fcb1 c13d
00000050: c337 143e 4a92 cd3d b560 103e 07a5 023e
00000060: d6d0 d23c 077f 2fbe 6246 5a3d 5238 b33d
00000070: 54b8 803b 28b0 90bb 1f31 3a3d f290 393d
00000080: e2ce c3bd cecb 9ebd 3328 c53c 3d19 213d
00000090: b39e 833d 34c1 423c 9e9d dc3c c433 103e
000000a0: 12fc 99bd c48f 633b a73f b73d 02be 383d
000000b0: 4f42 96bd 7bd4 f23d 9e9d b7bd 0684 a53c
000000c0: 5320 c03d 1ecc 503d 4930 8f3e 9f8c ce3d
000000d0: 5427 113e 6e1c 8abd e315 a93d 6904 be3d
000000e0: c696 acbd c1d4 8bbd 0ddf 81bd 49a6 cdbd
000000f0: 60ca 05be a0eb d43d d617 ca3c f4ae 72bd
00000100: e303 eabd 7252 3bbd c9c9 a93d 9c6d bdbd
00000110: 1dda 113c a5e6 e3bc 00da 90bb 4503 ab3d
00000120: b0f4 54bc b8aa ab3d bca0 0b3e aa8b 943d
00000130: bd36 a6bd 22a4 f8bd 6614 e3bd 1e1d 6fbd
00000140: f897 6b3c 1430 f4bd 05d2 533d 7bf8 333e
00000150: 3917 613c e3b2 1f3c 2681 e0bd 7749 33bd
00000160: 25bf 583c 8e4e 863d e871 1abe 6a74 fabd
00000170: 6211 b13d 402a 10be 7b31 293d ed0c 373d
00000180: 0158 a4bd b9d3 96bd 12d3 8ebd 963c c2bc
00000190: 5d67 863d 862f 84bc d7d1 a03c 4992 e4bd
000001a0: 6408 95bc ab18 07be fffb cdbd a3e7 2cbd
000001b0: 8a18 2d3e 4010 273e d937 563c e353 de3c
000001c0: 4f61 8ebd 7c86 cf3d 7bdc 7dbe b31e cfbd
000001d0: 0afd c63b c166 2d3c fce6 dbbd dca1 cbbd
000001e0: 68f7 e03c d975 5cbe f457 673c d160 a93d
000001f0: f684 d13d f1e3 b6bc fd75 54be 5da5 19be
00000200: f48c 9fbc 4c7e 9fbd bb71 e4bd a5f3 cfbd
00000210: c6c8 3a3d ea78 f3bc c84f bd3c b14b bf3c
00000220: 80b2 8cbd 6eec 8ebc cc9d 80bc 92fc a1bc
00000230: 756a b13d e2ef aebc cd00 f83c 50c5 e6bc
00000240: 8238 29be 0175 9e3c a90a 44be 62ab efbc
00000250: 68b5 e6bd f160 82bd dfb6 4f3d b4c5 35bc
00000260: 328a 703d 1367 6ebd 2bce 4fbd b51a b2bc
00000270: 5e92 023e 8207 84bc 5ef0 033d 51b9 913d
00000280: dbfa 09bd 7f01 77bd 390b 803b b775 8cbc
00000290: 40f3 b1bd b43d 30be e4f1 203d 7d3f 1bbd
000002a0: 7ac5 943d f091 9f3d e38b 91bb d1fc b33d
000002b0: 8ec4 7bbd 8286 fabc f9ce 02be 4067 abbd
000002c0: d3b3 d7bd 886f 613e 6477 083d 145c 1dbd
000002d0: 8cdd 9f3c 7ce3 9f3c 2ed6 d7bc 967f b23d
000002e0: 289c ce3d 486b 0a3e a095 9c3c 7cdf 50bd
000002f0: 11b3 4f3d 9fec 823d 139c 143e a21e e73d
00000300: 092b bdbd bc56 543d 3eeb 803d 41a2 80bc
00000310: f177 9739 e272 39be acba 8f3c 17c1 933d
00000320: 397e 06be 7b90 41bc 7a04 06bd fb54 c03d
00000330: fb28 77bd a071 4e3d 22dd f63d fe87 b73d
00000340: 58ab 703c a3aa a93d 40f9 953d a42d c13d
00000350: 599e f7bd 5959 883d 138c f2bc 1ab5 30bd
00000360: 2b8e debd 381c fd3d 0564 07be de55 43bd
00000370: c75d d13d b8fb a03d 86eb 07be 7d28 fcbd
00000380: cfad 0cbd 1832 4e3c dee8 333e 5a2c bb3d
00000390: 2f53 61bd d8ef e13d ee8f bd3d bf26 213e
000003a0: bab9 ddbc d863 03be 0181 bc3d 8567 f73c
000003b0: c248 c0bd d3bb 41bd 4e50 a23d 2425 173d
000003c0: 2b85 223d 2ff9 b03d a230 efbd 0ce1 0b3b
000003d0: a5c5 b33d ab61 b6b9 0503 58bd e077 493e
000003e0: 29ae 753d 5b56 b6bc 7470 fabd 1e67 7d3d
000003f0: 1dec 22bd 6655 ef3d 49e5 4c3e ca90 28bb
0.08286334 0.12090973 0.09802006 0.17739432 -0.07483831 0.0075834785 0.098546766 0.083925165
-0.041713964 0.044136457 0.039426178 -0.028628765 0.09896826 -0.12589799 0.0031636336 -0.042321872
0.05883826 0.005105067 -0.1061255 0.09457776 0.14474396 0.10037668 0.14099391 0.12758265
0.025734346 -0.17138301 0.05328978 0.087509766 0.0039282236 -0.0044155307 0.045457 0.045304246
-0.09560944 -0.077537164 0.02406702 0.03933071 0.06426754 0.0118868835 0.026930626 0.14082247
-0.07518782 0.0034723142 0.089476876 0.04510308 -0.07336866 0.11856934 -0.0896561 0.020204555
0.09381165 0.05097591 0.27966526 0.10085415 0.14175159 -0.06743704 0.08256128 0.09278185
-0.08427195 -0.06827689 -0.06341372 -0.10041482 -0.13065481 0.103965044 0.024669569 -0.05924888
-0.114265226 -0.045732923 0.082904406 -0.09249422 0.0089021 -0.02781994 -0.004420519 0.08350233
-0.012997791 0.083821714 0.13635534 0.07253201 -0.08115909 -0.12140681 -0.11087875 -0.058377378
0.014379494 -0.11923233 0.051713962 0.17575257 0.013738447 0.00974724 -0.10962133 -0.043771233
0.013229166 0.06557952 -0.15082514 -0.122292355 0.08645894 -0.14078617 0.041306954 0.04469006
-0.08024598 -0.07364602 -0.06973852 -0.02371053 0.06562684 -0.016135942 0.01963131 -0.11160714
-0.018192478 -0.13193004 -0.1005783 -0.042213093 0.16903892 0.16314793 0.013074839 0.02713961
-0.06952154 0.10133073 -0.24791138 -0.10113277 0.006072645 0.0105835805 -0.10737416 -0.099429816
0.027461722 -0.2152933 0.014120091 0.082704194 0.102304384 -0.022325488 -0.20748134 -0.15004487
-0.019476391 -0.07787761 -0.11154505 -0.101538934 0.04560163 -0.029720742 0.023109332 0.023351522
-0.06869984 -0.017446723 -0.015700243 -0.019773755 0.08662883 -0.02135462 0.03027382 -0.028170258
-0.16525462 0.019342901 -0.19144692 -0.029256526 -0.11265069 -0.06366146 0.05071151 -0.011094499
0.058725543 -0.058203768 -0.050733726 -0.02174125 0.12751147 -0.016116861 0.032211654 0.071154244
-0.0336865 -0.06030416 0.003907588 -0.017145975 -0.086889744 -0.17211038 0.039293185 -0.037902344
0.07264228 0.07791507 -0.0044417246 0.08788455 -0.061466746 -0.030581716 -0.12774266 -0.08369303
-0.105323456 0.22015202 0.033316985 -0.03841789 0.019514821 0.019517653 -0.026347246 0.08715741
0.10088378 0.13517487 0.019114316 -0.05099438 0.05070788 0.06392788 0.14512663 0.112851396
-0.09236724 0.05184053 0.06294869 -0.015702369 0.00028890328 -0.1811023 0.017545067 0.07214563
-0.13134088 -0.011814232 -0.032719113 0.09391209 -0.060341816 0.05040133 0.120538965 0.08961485
0.014689289 0.082844995 0.07322931 0.094325334 -0.12090749 0.06657667 -0.029607808 -0.043141462
-0.1086696 0.12358898 -0.13221748 -0.04768931 0.10222965 0.078605115 -0.13273439 -0.1231241
-0.034345444 0.0125851855 0.175693 0.09139319 -0.05501097 0.11032075 0.09255968 0.15737437
-0.0270661 -0.12831056 0.09204293 0.03020073 -0.093888775 -0.047298264 0.07925473 0.036900654
0.03967778 0.08641278 -0.11679198 0.0021343855 0.08777932 -0.00034786513 -0.052737255 0.19674635
0.059980545 -0.022257974 -0.1222848 0.06186592 -0.039775956 0.1168621 0.2000934 -0.0025721067

network_body._body_endoder.seq_layers.2.bias f4 [128]
00000000: 0000 0000 0000 0000 0000 0000 0000 0000
00000010: 0000 0000 0000 0000 0000 0000 0000 0000
00000020: 0000 0000 0000 0000 0000 0000 0000 0000
00000030: 0000 0000 0000 0000 0000 0000 0000 0000
00000040: 0000 0000 0000 0000 0000 0000 0000 0000
00000050: 0000 0000 0000 0000 0000 0000 0000 0000
00000060: 0000 0000 0000 0000 0000 0000 0000 0000
00000070: 0000 0000 0000 0000 0000 0000 0000 0000
00000080: 0000 0000 0000 0000 0000 0000 0000 0000
00000090: 0000 0000 0000 0000 0000 0000 0000 0000
000000a0: 0000 0000 0000 0000 0000 0000 0000 0000
000000b0: 0000 0000 0000 0000 0000 0000 0000 0000
000000c0: 0000 0000 0000 0000 0000 0000 0000 0000
000000d0: 0000 0000 0000 0000 0000 0000 0000 0000
000000e0: 0000 0000 0000 0000 0000 0000 0000 0000
000000f0: 0000 0000 0000 0000 0000 0000 0000 0000
00000100: 0000 0000 0000 0000 0000 0000 0000 0000
00000110: 0000 0000 0000 0000 0000 0000 0000 0000
00000120: 0000 0000 0000 0000 0000 0000 0000 0000
00000130: 0000 0000 0000 0000 0000 0000 0000 0000
00000140: 0000 0000 0000 0000 0000 0000 0000 0000
00000150: 0000 0000 0000 0000 0000 0000 0000 0000
00000160: 0000 0000 0000 0000 0000 0000 0000 0000
00000170: 0000 0000 0000 0000 0000 0000 0000 0000
00000180: 0000 0000 0000 0000 0000 0000 0000 0000
00000190: 0000 0000 0000 0000 0000 0000 0000 0000
000001a0: 0000 0000 0000 0000 0000 0000 0000 0000
000001b0: 0000 0000 0000 0000 0000 0000 0000 0000
000001c0: 0000 0000 0000 0000 0000 0000 0000 0000
000001d0: 0000 0000 0000 0000 0000 0000 0000 0000
000001e0: 0000 0000 0000 0000 0000 0000 0000 0000
000001f0: 0000 0000 0000 0000 0000 0000 0000 0000
0.0 0.0 0.0 0.0 0.0 0.0 0.0 0.0
0.0 0.0 0.0 0.0 0.0 0.0 0.0 0.0
0.0 0.0 0.0 0.0 0.0 0.0 0.0 0.0
0.0 0.0 0.0 0.0 0.0 0.0 0.0 0.0
0.0 0.0 0.0 0.0 0.0 0.0 0.0 0.0
0.0 0.0 0.0 0.0 0.0 0.0 0.0 0.0
0.0 0.0 0.0 0.0 0.0 0.0 0.0 0.0
0.0 0.0 0.0 0.0 0.0 0.0 0.0 0.0
0.0 0.0 0.0 0.0 0.0 0.0 0.0 0.0
0.0 0.0 0.0 0.0 0.0 0.0 0.0 0.0
0.0 0.0 0.0 0.0 0.0 0.0 0.0 0.0
0.0 0.0 0.0 0.0 0.0 0.0 0.0 0.0
0.0 0.0 0.0 0.0 0.0 0.0 0.0 0.0
0.0 0.0 0.0 0.0 0.0 0.0 0.0 0.0
0.0 0.0 0.0 0.0 0.0 0.0 0.0 0.0
0.0 0.0 0.0 0.0 0.0 0.0 0.0 0.0

action_model._continuous_distribution.log_sigma f4 [1, 2]
00000000: 0000 0000 0000 0000
0.0 0.0

action_model._continuous_distribution.mu.weight f4 [2, 128]
00000000: e7cc 023d 17fe a7bb ed97 673b 3b12 52bc
00000010: 244c 09ba 18eb 383c 7de6 dbba 9b4f a33c
00000020: 1353 57bc 52a6 dd3c 5fd0 753c a726 1fbc
00000030: f77a 843c 4eaf 253c fad1 a4bc ca6f 633c
00000040: 17aa 833c ab29 8e3c 5551 f03c fa11 4fbc
00000050: 77a1 17bd b0e9 55bc 13f4 0a3c a82d 84bb
00000060: 5ffb 903b a7df 88bb cf0c fe3b 9e70 8e3b
00000070: 7d97 153d 7a5a f0bc b6ad c43c 09fc 913c
00000080: 6338 2fbc bae6 dc3c 6751 cebc 35e6 eebc
00000090: ab22 e9bb 0ff6 09bd 7a0f b1bb 3f8c 14bc
000000a0: 2b3a e7bb 8ab1 f9bc bcf8 823a 6b00 27bc
000000b0: b6f4 113c eb37 aabc fb70 5e3c d1d7 133b
000000c0: 6c20 1e3c 0abf e63c bb38 19bd 4f42 c93c
000000d0: 004d f23c 67d0 873c db2f 90bc 23c2 10bc
000000e0: 1335 84bc 0b5f 783c 2cbd 8c3c 2222 a63c
000000f0: 97e4 bbbc 500e 62bc 3d76 85bc 05a4 5d3c
00000100: 02cd 4c3d 58c6 6b3c a567 f939 e83d b13b
00000110: 1bc8 d93b 0376 b33a cb23 553c a3eb 9bbb
00000120: 8d90 763c d561 21bc d326 233c 091b 93bb
00000130: 9f5a 8cbc 7a97 663c 9710 0a3c d55c 073d
00000140: 3086 3ebc 5abb aebc 428c dc3c 23d3 bebc
00000150: d4c5 b43b bea5 473c 4c7c 4abb ffd6 41bb
00000160: dbad d2bc f202 6c3c 8f65 873b a00b 75bc
00000170: eab5 993c 977c 83bb 914e bebb 3efb 2cbc
00000180: 050b f0bb d7a8 4bbc d0e7 00bd d374 593c
00000190: 440b c43c 04c4 b43c 7a2f 483c 1171 013a
000001a0: 2331 833b c3c8 4b3c 034b 63bc 10c0 eebb
000001b0: 67e7 fdbb 7f19 98bc 70aa 20bb eee0 c7bc
000001c0: e940 3dbc 6b43 13bc 50dc 56ba 1589 14bc
000001d0: 95de dbbb 57bf 0dbd b7bb 283d adb7 74bc
000001e0: 4d4a 62bc 1907 a03b 7676 433c 25fb 9dbc
000001f0: 375e 35bc 5047 dcbc 52e9 56bc 33a1 e13a
00000200: 0eac b43c 1204 893c fd64 a03c abed f4ba
00000210: 8ff0 84bc a868 52bc f75a a23b 15a9 32bc
00000220: 1853 2fbc ab14 ad3b 95a3 3cbc 5e28 953c
00000230: 5ff2 613c e8e5 96bc 838b b43c b75b 03bc
00000240: 1fd7 c03c 5430 2c3c 275b 233c 8453 c83c
00000250: bed0 8fbc 8b6a 88b9 2d73 f7bc be45 203c
00000260: 0e60 b8bb 3312 9fbc 332c 21bc 79f6 233c
00000270: b8ea 0d3b 7580 f0bb ce56 9fbc c7b3 4f3c
00000280: ffa4 d0ba 5ad8 8aba 3621 423d 03ac ec3c
00000290: 05e5 5abc ff7d fc3a b018 d5bc c40f 2d3d
000002a0: 351e b93b bd31 1a3c b861 7abc 72e3 84bc
000002b0: 3a80 cdbc 451e ec3a f7ca bd3c c171 a1bb
000002c0: 3a03 17bc bbb1 bb3c eaac 41bc efd4 a0bc
000002d0: ce46 05bc ea42 593c 939e 3cbb 5b86 80bc
000002e0: 5f83 553c 63e5 59bb 95ef 5c3c 7392 463c
000002f0: ea82 693c 1fff 383b af06 d63c bac3 e139
00000300: f046 503b d48c aa3b 789a 1cbb adf1 0abc
00000310: 4829 7b3c 20df eb3c d737 32bc 37e2 86bc
00000320: 0aeb 0ebc 57d0 29bd a84b a5bc c206 c6ba
00000330: d7b2 94bc c1d3 05bd 8c31 ad3c ef1f b63c
00000340: c6dc bebc 57e7 f8bc 90e7 0d3c ff63 2fbc
00000350: d43d 3fbd 05a0 c5bc bdeb 013d f8f7 773c
00000360: 93d0 023b d753 33bc 78c2 003d 98f5 b8bc
00000370: a016 e0bb 9878 50bc 33d5 15bc a902 cabb
00000380: f3cc 973c db7f d0bc fcdd c8b9 b296 513c
00000390: 3352 7fbc 877c 7c3c 13bc b6bc cb8a 13bd
000003a0: cccb b9ba b486 b5ba c677 c8bc 6de2 5b3c
000003b0: 0b8e 07bd ebbc 943b 908f 473c c1e0 8e3a
000003c0: 29d6 163c 2793 9d3c 211c babc 6713 ecbb
000003d0: d8d7 9abb b3b8 e1bc 307b 8abb dba4 d83c
000003e0: 4d8a 373c 6b06 6bbb 874c 1bba 83db 9c3b
000003f0: 4948 ad3c 27ec 07bc f545 64bb 6011 bcbc
0.03193369 -0.0051267254 0.0035338358 -0.012821729 -0.0005237481 0.0112865195 -0.0016777065 0.01993542
-0.013142365 0.027056847 0.015003293 -0.009713805 0.016171915 0.010112597 -0.020119656 0.013881633
0.016072316 0.017353853 0.029335657 -0.012638563 -0.03701922 -0.013056204 0.008481043 -0.004033763
0.004424497 -0.004177052 0.0077529917 0.004346921 0.036521424 -0.029340018 0.024008613 0.017820375
-0.010694596 0.026965488 -0.0251853 -0.029162506 -0.0071147284 -0.033681925 -0.0054034563 -0.00906664
-0.0070564947 -0.030480165 0.0009992342 -0.010192971 0.008908441 -0.020778617 0.013576741 0.0022559057
0.009651285 0.028167266 -0.037407618 0.024567751 0.029577732 0.016578866 -0.017600944 -0.008835348
-0.016138589 0.015159379 0.017180048 0.020279948 -0.022936149 -0.013797358 -0.016291732 0.013527875
0.0500002 0.014390551 0.00047570202 0.005408991 0.006646169 0.0013691786 0.013009022 -0.0047583147
0.015049112 -0.009849985 0.009957987 -0.004489307 -0.017133055 0.014074201 0.008426807 0.033047516
-0.0116286725 -0.02132957 0.026922349 -0.023294037 0.005516747 0.012185512 -0.003089684 -0.002957761
-0.025717666 0.014404999 0.00413198 -0.014956385 0.018763501 -0.004012655 -0.0058077057 -0.010557948
-0.0073255324 -0.012430391 -0.031471074 0.013272482 0.023931153 0.022066124 0.012218351 0.00049378077
0.0040036603 0.012438002 -0.013872865 -0.007286079 -0.0077485326 -0.018566845 -0.0024515651 -0.024399247
-0.01155112 -0.008988242 -0.0008196281 -0.009065886 -0.0067098835 -0.034606304 0.041194644 -0.01493637
-0.01381166 0.0048836586 0.011930099 -0.019284794 -0.011069826 -0.026889473 -0.013117151 0.0017214179
0.022054698 0.016725574 0.019579405 -0.0018686553 -0.016227989 -0.012842335 0.0049546915 -0.01090457
-0.010700963 0.005282005 -0.01151361 0.018207725 0.013790696 -0.018420175 0.02203918 -0.008017472
0.023540078 0.010509569 0.009970463 0.024453886 -0.01755559 -0.00026019322 -0.030206287 0.009782253
-0.005626685 -0.019417858 -0.009837198 0.010007494 0.0021654796 -0.007339532 -0.019450571 0.01267714
-0.0015918313 -0.0010593042 0.047394954 0.028890615 -0.013360267 0.0019263624 -0.026012748 0.042251363
0.005649353 0.009411273 -0.015282087 -0.016221736 -0.025085557 0.0018014392 0.02316807 -0.0049268906
-0.009217078 0.022911897 -0.011821011 -0.019632785 -0.008134557 0.013260582 -0.002878104 -0.015689066
0.01303181 -0.0033248297 0.013484855 0.012119877 0.014252404 0.0028228236 0.026126234 0.00043061172
0.0031780563 0.0052047763 -0.0023895781 -0.008480472 0.015329666 0.028792918 -0.010877571 -0.01646529
-0.00872303 -0.041458454 -0.020177677 -0.0015108215 -0.018151684 -0.032672647 0.02114179 0.022232024
-0.023298632 -0.030383749 0.008661166 -0.010704993 -0.046689823 -0.024124155 0.03171896 0.015134804
0.0019960746 -0.010945282 0.03143546 -0.022578046 -0.0068386346 -0.012724064 -0.009145069 -0.006164868
0.018530345 -0.025451591 -0.00038312364 0.012792276 -0.015583563 0.015410549 -0.022306478 -0.036021035
-0.0014175116 -0.0013849349 -0.024471175 0.013420683 -0.033094447 0.0045391223 0.012180224 0.0010900722
0.009206333 0.019235207 -0.022718491 -0.0072044614 -0.0047254376 -0.027553892 -0.004226111 0.026445797
0.011202407 -0.003586198 -0.0005924184 0.00478691 0.021152632 -0.008296049 -0.0034831737 -0.022957504

action_model._continuous_distribution.mu.bias f4 [2]
00000000: 0000 0000 0000 0000
0.0 0.0

network_body._body_endoder.seq_layers.0.weight f4 [128, 6]
00000000: dc5c 03be c495 853e 1ed0 393d 950a 4e3b
00000010: a60d 30be dd20 8cbe ba22 9d3e d770 20bf
00000020: 4fd9 a5bd 3674 c9be 54fe 89bd c3ff fabe
00000030: 74c3 11bf 4656 b53e e5ce 03be f1ca 283e
00000040: 1eef ec3e 7eaa 0fbe bd96 b6be c22a d73d
00000050: 20a5 8e3d 9058 593e e3a4 11be 449c 2e3d
00000060: 02fd 913d e3eb f6be b5fd 09bf 2f0b 54bd
00000070: 5b4c 49be 5129 c5be 6d35 f5be 682c fe3e
00000080: 9157 d13d c1b9 d4be c4d2 d13e 93f6 6c3f
00000090: c2c8 303e 0652 2abf cb23 f3be cb99 a03d
000000a0: f5ff 45bd 150b 9e3e 85aa f0bd c3a0 6fbd
000000b0: 4eb8 a5be 5485 bd3e 31b8 33bf 6db5 7ebe
000000c0: 77b2 61bf 58f9 0a3f 4deb 613f d34e 7d3d
000000d0: 3c78 c73e 2eb8 e53e a7e5 2e3f f015 79be
000000e0: ce77 b03e 4feb 593f 869d babe 6cf0 cc3e
000000f0: d0ca 25be f63e b5be f1b6 913e 49af 953f
00000100: b3f1 6c3d c0fa f8be 8c20 203f b2df 29bd
00000110: cb4b 96bd f412 a5be 6c6f 7cbe 98c1 d4bd
00000120: d535 f4bd 5d34 413f c7ff d8bd 5667 1c3f
00000130: 5497 88bc 714e 17be d7a8 483e 4303 09bf
00000140: 03a6 913e b95b 883e d7ed a7bd 3954 5e3e
00000150: aaba 48be 7fb2 83bd b576 46be f7d6 dfbe
00000160: b085 4bbf f50a be3e ca0b 1ebf 72ba ec3d
00000170: 54df ea3d 4313 933d 93c5 73be 8f63 b3be
00000180: 7d1a 133e d563 c83e cf20 b73b 536e c2be
00000190: ab89 ccbe 7a7b d23e eb38 e03e 6e04 b53e
000001a0: 53d8 90be fbe0 c8bc 4da5 f4be 40c2 1cbd
000001b0: f122 b1be b265 2e3e 3fd8 b23e 86a0 0cbb
000001c0: bd26 0e3f 6d5c cdbe 2b25 073f 7cb2 17be
000001d0: bde7 443f a872 6ebd 93fc b83e 2f0f 5cbd
000001e0: dca6 20bd d314 383f bc58 7a3c 7b38 c73e
000001f0: 4dfa 593e fd65 ae3d ca2a 983e 12ce 1abe
00000200: fc23 09bf 4f00 a93e 54a0 cd3e 4fe7 7e3d
00000210: bc3b 45be b300 ba3e 5e4b b03e 9be3 a6bd
00000220: 8b9f 213e 1c63 d13d ab64 cf3e bc06 893e
00000230: 36c7 233e 7790 253e 0087 9bbe ef98 3e3c
00000240: 6c36 133d 1eb8 48bf 225a 8ebe e7cb 58be
00000250: c6ae 88be 415c 9f3e c897 3cbe 4fb4 febe
00000260: 143e dbbc 1029 89be 60fd edbe 576e d5be
00000270: b643 95bd b0d8 b03e 7a83 b2be 7eba 05bd
00000280: efb4 0d3f 97a5 08bf e480 f03c 8ec4 123e
00000290: 46d1 c23e cc13 f03e 8b60 003f bae8 8bbe
000002a0: edbb a83e f7e6 6c3e 9202 ebbd b9f7 d4bd
000002b0: fd6f 34bf c87b 60be 12e2 a43e d078 4ebf
000002c0: fa04 0fbf b67b 76be 78e7 42bf 59e7 f9bd
000002d0: 7579 6abf 9c96 e7bd a5f8 2fbe 3e16 80be
000002e0: a2ba bbbe 81cb 22be e98d c2be cd3e a2be
000002f0: 9518 42be 12c6 7dbe 857a a6be 598c 833e
00000300: 5b85 33be bdfe 7bbe 03ca cb3e 08f8 58bf
00000310: 381a 24bf 5498 ff3e bcda 98bd d70a fc3d
00000320: 28a9 11bf eace 95be 6e97 4bbd a85f 8abe
00000330: 7704 26bf 0cf2 e83e 1c61 77bf 8e06 a93e
00000340: 1857 9cbd 6f83 9dbe 48bc d63e a176 e43e
00000350: 95e7 413e aae4 f43d c9fb 9d3e 7b1b 373e
00000360: 7625 02bf 0a55 2d3e 09c2 7a3e b18a b13e
00000370: c664 5dbd ed4f d33e 869e c03e 7ef7 a3bd
00000380: fc8e edbe a784 ec3e 6f3e 053e 605d c53d
00000390: c8d9 e93e afc5 ac3e fa77 e33e c170 f8be
000003a0: c363 9dbe 4d43 193e c092 5c3e 9d7b 16bf
000003b0: 0232 23bf b006 c8be d8ee 8e3e 8d69 143f
000003c0: a98e e53d f871 8dbd dac4 b63e 6940 36be
000003d0: 29fe 5f3f d8bf fdbd 898f 733e 962c 3d3e
000003e0: 18c2 233e e233 eebd 2e1c 29bd 6ce5 b43e
000003f0: 1d8e 25be 0f16 e83c dddc 723e 0b28 8b3e
-0.12828392 0.26090825 0.04536449 0.0031439413 -0.17192706 -0.27368823 0.30690557 -0.6267218
-0.08098089 -0.39346474 -0.06737962 -0.49023256 -0.5693886 0.35417384 -0.12871893 0.16483666
0.46276182 -0.14029881 -0.3566188 0.10506202 0.06965089 0.2122519 -0.14223056 0.042629495
0.071283355 -0.48226842 -0.5390275 -0.051768478 -0.19658034 -0.38508084 -0.47892323 0.49643254
0.1022178 -0.4154797 0.40981114 0.9256374 0.17264083 -0.6653141 -0.47488245 0.07841834
-0.048339803 0.3086783 -0.11751274 -0.058502924 -0.32367176 0.37015784 -0.7020293 -0.24873896
-0.8816294 0.5428672 0.88249665 0.06184275 0.3895892 0.4486708 0.6831917 -0.24324775
0.34466404 0.8512468 -0.36448306 0.40027177 -0.16190648 -0.35399598 0.28459886 1.1694118
0.05784769 -0.48628807 0.6254966 -0.041473098 -0.07338675 -0.32241023 -0.24651879 -0.103884876
-0.1192433 0.75470525 -0.10595661 0.6109518 -0.016673721 -0.14776017 0.19595657 -0.535206
0.2844697 0.2663248 -0.08199661 0.21711816 -0.19602457 -0.0643053 -0.1938122 -0.43718693
-0.79500866 0.37117735 -0.6173674 0.11558999 0.11468378 0.07181408 -0.23805837 -0.35036895
0.14365573 0.39138666 0.005588628 -0.37974796 -0.39948782 0.4110983 0.43793425 0.35354942
-0.28290042 -0.024521342 -0.47782364 -0.03827119 -0.3459697 0.17030981 0.34930608 -0.0021457984
0.5552786 -0.40109578 0.5279109 -0.1481418 0.76916105 -0.058214813 0.361302 -0.053725418
-0.03922163 0.71906775 0.015279945 0.3891028 0.21286888 0.085155465 0.29720145 -0.15117672
-0.5357053 0.33008048 0.40161383 0.06223231 -0.19261068 0.36328658 0.344325 -0.08148881
0.15783517 0.10223982 0.4050649 0.2676295 0.15993962 0.1616839 -0.30376434 0.011633142
0.035940573 -0.7840594 -0.2780314 -0.21171533 -0.26695842 0.31125072 -0.18417275 -0.4974694
-0.026763 -0.2678914 -0.46482372 -0.41685745 -0.072883055 0.3454032 -0.34865934 -0.032648556
0.5535421 -0.5337767 0.029358335 0.14332792 0.38050288 0.46890104 0.5014731 -0.27325994
0.32955876 0.23134981 -0.114750996 -0.10398812 -0.7048338 -0.21922219 0.32203728 -0.80653095
-0.5586697 -0.2407063 -0.76134443 -0.12202329 -0.9159158 -0.11308023 -0.17184694 -0.2501697
-0.36665827 -0.15897943 -0.37998894 -0.31688538 -0.1895469 -0.24782589 -0.3251535 0.25693014
-0.1753134 -0.24608894 0.3980256 -0.84753466 -0.64102507 0.49920905 -0.07463595 0.12306755
-0.56898737 -0.29259425 -0.04970496 -0.27026105 -0.6485056 0.45497167 -0.9663255 0.33012813
-0.07633799 -0.30764338 0.41940522 0.44621757 0.18935998 0.11957677 0.3085616 0.17881577
-0.5083841 0.16926971 0.24488081 0.34676126 -0.054051183 0.41271916 0.37620944 -0.0800619
-0.4639815 0.46194956 0.13012098 0.096369505 0.45673966 0.3374457 0.44427472 -0.48523524
-0.30740175 0.1496708 0.21540356 -0.5878237 -0.6374818 -0.39067602 0.27916598 0.5797356
0.11208851 -0.069065034 0.3569706 -0.17798008 0.8749719 -0.12390107 0.23785223 0.1847404
0.1599201 -0.116309896 -0.04128664 0.35331285 -0.16167493 0.02833083 0.23717065 0.27178988

network_body._body_endoder.seq_layers.0.bias f4 [128]
00000000: 0000 0000 0000 0000 0000 0000 0000 0000
00000010: 0000 0000 0000 0000 0000 0000 0000 0000
00000020: 0000 0000 0000 0000 0000 0000 0000 0000
00000030: 0000 0000 0000 0000 0000 0000 0000 0000
00000040: 0000 0000 0000 0000 0000 0000 0000 0000
00000050: 0000 0000 0000 0000 0000 0000 0000 0000
00000060: 0000 0000 0000 0000 0000 0000 0000 0000
00000070: 0000 0000 0000 0000 0000 0000 0000 0000
00000080: 0000 0000 0000 0000 0000 0000 0000 0000
00000090: 0000 0000 0000 0000 0000 0000 0000 0000
000000a0: 0000 0000 0000 0000 0000 0000 0000 0000
000000b0: 0000 0000 0000 0000 0000 0000 0000 0000
000000c0: 0000 0000 0000 0000 0000 0000 0000 0000
000000d0: 0000 0000 0000 0000 0000 0000 0000 0000
000000e0: 0000 0000 0000 0000 0000 0000 0000 0000
000000f0: 0000 0000 0000 0000 0000 0000 0000 0000
00000100: 0000 0000 0000 0000 0000 0000 0000 0000
00000110: 0000 0000 0000 0000 0000 0000 0000 0000
00000120: 0000 0000 0000 0000 0000 0000 0000 0000
00000130: 0000 0000 0000 0000 0000 0000 0000 0000
00000140: 0000 0000 0000 0000 0000 0000 0000 0000
00000150: 0000 0000 0000 0000 0000 0000 0000 0000
00000160: 0000 0000 0000 0000 0000 0000 0000 0000
00000170: 0000 0000 0000 0000 0000 0000 0000 0000
00000180: 0000 0000 0000 0000 0000 0000 0000 0000
00000190: 0000 0000 0000 0000 0000 0000 0000 0000
000001a0: 0000 0000 0000 0000 0000 0000 0000 0000
000001b0: 0000 0000 0000 0000 0000 0000 0000 0000
000001c0: 0000 0000 0000 0000 0000 0000 0000 0000
000001d0: 0000 0000 0000 0000 0000 0000 0000 0000
000001e0: 0000 0000 0000 0000 0000 0000 0000 0000
000001f0: 0000 0000 0000 0000 0000 0000 0000 0000
0.0 0.0 0.0 0.0 0.0 0.0 0.0 0.0
0.0 0.0 0.0 0.0 0.0 0.0 0.0 0.0
0.0 0.0 0.0 0.0 0.0 0.0 0.0 0.0
0.0 0.0 0.0 0.0 0.0 0.0 0.0 0.0
0.0 0.0 0.0 0.0 0.0 0.0 0.0 0.0
0.0 0.0 0.0 0.0 0.0 0.0 0.0 0.0
0.0 0.0 0.0 0.0 0.0 0.0 0.0 0.0
0.0 0.0 0.0 0.0 0.0 0.0 0.0 0.0
0.0 0.0 0.0 0.0 0.0 0.0 0.0 0.0
0.0 0.0 0.0 0.0 0.0 0.0 0.0 0.0
0.0 0.0 0.0 0.0 0.0 0.0 0.0 0.0
0.0 0.0 0.0 0.0 0.0 0.0 0.0 0.0
0.0 0.0 0.0 0.0 0.0 0.0 0.0 0.0
0.0 0.0 0.0 0.0 0.0 0.0 0.0 0.0
0.0 0.0 0.0 0.0 0.0 0.0 0.0 0.0
0.0 0.0 0.0 0.0 0.0 0.0 0.0 0.0

network_body._body_endoder.seq_layers.2.weight f4 [128, 128]
00000000: 5b8b f03d 3f1b 5e3c f8d4 ab3d a601 43be
00000010: 653e 03ba 12f2 18bd 96bb 0fbc 846b 4ebc
00000020: 28a7 a6bc b415 443d 1bc9 483d b0f6 973d
00000030: 7cdb 283d 9e9d 87bc 89fe 5e3b 453f e5bc
00000040: fb0a 5b3d 2cfa ef3d fe38 0f3d 5642 49bd
00000050: 36a5 9c3d 8d04 b1bc dcf9 9dbb d25a bbbd
00000060: 30a5 d33d e4a4 b13d 9d62 033e cebb 90bc
00000070: 967a a6bd 22cd b9bd e8e0 b43d 9c98 153d
00000080: 1794 78bd 89be a8bd e936 8dbc 9f97 8f3d
00000090: 8036 123e e4a2 86bd f7b6 1a3e c6b3 893d
000000a0: 0d54 84bc a3d3 8cbd dd30 4bbd 4905 33bd
000000b0: 8784 98bd 7b6d a03d f2ee 963d 67dc 8a3d
000000c0: 0e36 64be 6b09 e2bd 1a45 103d 6a57 02bd
000000d0: a6db 6f3d f528 4f3d 2248 45bd acb0 95bc
000000e0: a963 cf3d cf6b e2bd dac6 983d 196f 103d
000000f0: 36a4 a03d f573 88bd 1365 43bd 17f8 b3bb
00000100: 5ff7 c7bc 5c25 9ebc 0963 98bd 26a7 1ebd
00000110: dd1d edbd b1f8 df3d 501f 373d a801 363d
00000120: 28c1 36bd 87b5 8e3c 4c30 983d fc2b b0bd
00000130: 4648 873d 50bb f73c d8b6 ce3c a22c a3ba
00000140: 8fbd aa3d 3785 53bc 6cdf 0abd 62dc 063d
00000150: 62b0 c2bd 1186 293d fbd5 803d 4097 553c
00000160: a8d4 9abc 590e 8f3d 3d88 493d d0b7 453c
00000170: a521 30bc 812d 9b3d 69a7 b0bd 92cc b23d
00000180: 19fa d0bc 8f90 123c 54c8 6abe a37a 0d3e
00000190: 9471 cbbd b15e 983d 6a29 193d 2be4 d93c
000001a0: c58e 8f3b 5722 b43d eae7 4f3e f1bb ad3d
000001b0: 8ecf 30be b479 c6bc 5a1c 0ebe d6e8 563e
000001c0: 80c2 97bc fff3 9b3c 2220 27bc d9c7 633c
000001d0: f21f 23bb 3211 7d3d a6ef 4c3d 78b5 1abd
000001e0: f074 af3b 4769 e5bd 4bf1 4bbd dac9 db3d
000001f0: 31b3 163d bec4 ca3a 1f87 543d 7ead 9c3d
00000200: ea85 903d 3dfc fa3d bb56 04be 711a fcbd
00000210: c790 f7bc 41db aabd cf6e d43d 9d70 b8bd
00000220: ffa3 2ebc dcd4 0fbe 9903 2bbc ea46 1f3c
00000230: 11fc dcbd d76e a9bc e586 d9bc c373 f23d
00000240: f2d9 06bd 14fe 72bb 7efa debd 848b cbbd
00000250: 5087 bb3c 282d d53c fa17 133e 9983 aabc
00000260: b035 80bd 2d40 e63d d51e 54bd 8015 263e
00000270: de0e b43d 6782 bb3d 3407 91bb 28c6 483d
00000280: 27b2 673e dd6a aabd 987e 57bd 68a3 6b3d
00000290: 22a1 ba3d d635 673e 68a2 20bd e692 e6bc
000002a0: 10eb 3abc 3b40 49bb abd6 babd 7a41 0b3b
000002b0: edbf 963d bfcc b03d 9f11 343d 93b4 303e
000002c0: 0e47 833d 2371 783c e5e9 afbd 9062 c1bc
000002d0: 0a32 d33d 2ef7 f73d ffe1 173d 1e40 03be
000002e0: 2f0c a8bd 7306 9c3d 05a7 a1bd 1a93 163d
000002f0: 1819 8fbd ee49 0c3e 9431 fcbd 8d92 c1bc
00000300: 7359 963d 7688 7b3a 2fb5 85bc 506e 2d3d
00000310: 31be a93d f35b 593c bb78 fc3d f27f 933d
00000320: 6a69 3c3d 2fc9 033e d8de 333d e62b 533d
00000330: 81ca a63c 14fc f53c 33da 193d 6155 f2bc
00000340: d2af 4dbd 6055 913d c6fe 9c3c 9f15 b03c
00000350: 9d09 1abd f1e3 cb3d 2fe6 edbc 5565 293d
00000360: 0131 103e b48c dc3d f6f8 2fbb 55fe 833c
00000370: 7767 5ebd f9b1 c0bd 2927 4c3b b42e fa3c
00000380: 6751 87bd 9ca6 51bd 8904 b93d 954b 0bbe
00000390: d272 e0bc 2933 c73b 2721 d63b 8298 a63a
000003a0: 3c0f aabd 8ff1 c5bd 71fd 6b3d 2d7d 00be
000003b0: d520 4f3d 0c14 30be f0b3 693e 9d7e c7bc
000003c0: d306 12bd 1c01 ba3d c474 5cbd 123c c83d
000003d0: 3c3a c3bc 5601 dfbc 3eb4 c43d 5a7c 4e3e
000003e0: 9a8f 81bd ea2a 3ebd d2b7 973d e536 9dbd
000003f0: 5850 a63d 00ea d6bd 815e 623d 1ee6 5fbb
0.1174533 0.013556301 0.0839023 -0.19043598 -0.0005006551 -0.03734023 -0.008772751 -0.012598876
-0.020343378 0.04787226 0.049019914 0.07420099 0.04122494 -0.01655465 0.0034026226 -0.02798427
0.05347727 0.117176384 0.03496646 -0.04913553 0.07648699 -0.021608615 -0.0048210453 -0.09148182
0.103342414 0.086740285 0.12830587 -0.017667677 -0.0812885 -0.09072329 0.0883196 0.036522493
-0.060688104 -0.08239467 -0.017238097 0.07011341 0.14278603 -0.06574038 0.15108858 0.06723742
-0.01615336 -0.06876304 -0.049607147 -0.043706212 -0.074471526 0.07833382 0.07369794 0.0678032
-0.22286245 -0.110369526 0.03522215 -0.031821646 0.058559082 0.05057617 -0.048164494 -0.01827272
0.101264305 -0.11055719 0.07459803 0.0352622 0.07843821 -0.06662742 -0.047703814 -0.005492221
-0.024409948 -0.019304924 -0.074407645 -0.038733624 -0.115779616 0.10936106 0.044707596 0.044435173
-0.044617802 0.017420543 0.07431087 -0.08602139 0.06605582 0.030240685 0.025233671 -0.0012449215
0.08336937 -0.012910179 -0.033904478 0.032925017 -0.095062986 0.04138762 0.062908135 0.013036549
-0.01890023 0.069851585 0.049202193 0.01206775 -0.010750209 0.075770386 -0.08625681 0.08730425
-0.02550988 0.008945598 -0.22927982 0.13816313 -0.09933773 0.07439936 0.03739301 0.026598057
0.004381033 0.08795612 0.20303312 0.084831126 -0.17266676 -0.024227954 -0.13878003 0.20987257
-0.018525362 0.019037245 -0.010200532 0.013902628 -0.0024890867 0.061783977 0.050033234 -0.03777072
0.005354516 -0.11201721 -0.04979066 0.107318595 0.036791984 0.0015470011 0.051886674 0.076502785
0.07056792 0.12255142 -0.1292371 -0.12309731 -0.030220402 -0.083426006 0.103726976 -0.09005854
-0.010659217 -0.14046043 -0.0104378695 0.009721497 -0.10790265 -0.020682735 -0.02655358 0.11838486
-0.032922693 -0.0037077712 -0.10887621 -0.0993872 0.02289167 0.026022509 0.14364615 -0.020814704
-0.0626024 0.11242709 -0.051787216 0.16219139 0.08791898 0.09155732 -0.0044259075 0.0490171
0.22626553 -0.08321164 -0.052610964 0.057528883 0.09112765 0.2257913 -0.039217383 -0.028146219
-0.011408582 -0.003070845 -0.09122976 0.0021248744 0.07360826 0.08632802 0.043962117 0.17256384
0.06410037 0.015163693 -0.08589534 -0.023606569 0.103122786 0.12107693 0.03708076 -0.12817428
-0.08205449 0.076184176 -0.078931846 0.03676138 -0.06987208 0.13700077 -0.12314144 -0.023629451
0.0734128 0.00095952244 -0.016321747 0.04234153 0.08288229 0.013266551 0.12327715 0.07202138
0.04599897 0.12869714 0.043913692 0.051555537 0.020360233 0.030027427 0.037561607 -0.029581727
-0.050216503 0.07096362 0.019164454 0.021494685 -0.037606824 0.09955586 -0.029040424 0.041356403
0.14081194 0.107690245 -0.0026851273 0.016112486 -0.05429789 -0.094089456 0.003115127 0.030539848
-0.06607323 -0.05118428 0.09034068 -0.13603051 -0.0273985 0.006079097 0.006534714 0.0012710246
-0.08303687 -0.09665214 0.057614747 -0.12547751 0.05056842 -0.17195147 0.22822547 -0.024352366
-0.03565104 0.09082243 -0.053822294 0.097770825 -0.02383148 -0.027222317 0.09604691 0.20164624
-0.06326218 -0.046427645 0.07408108 -0.07676486 0.08120793 -0.10493851 0.055265907 -0.003416426

network_body._body_endoder.seq_layers.2.bias f4 [128]
00000000: 0000 0000 0000 0000 0000 0000 0000 0000
00000010: 0000 0000 0000 0000 0000 0000 0000 0000
00000020: 0000 0000 0000 0000 0000 0000 0000 0000
00000030: 0000 0000 0000 0000 0000 0000 0000 0000
00000040: 0000 0000 0000 0000 0000 0000 0000 0000
00000050: 0000 0000 0000 0000 0000 0000 0000 0000
00000060: 0000 0000 0000 0000 0000 0000 0000 0000
00000070: 0000 0000 0000 0000 0000 0000 0000 0000
00000080: 0000 0000 0000 0000 0000 0000 0000 0000
00000090: 0000 0000 0000 0000 0000 0000 0000 0000
000000a0: 0000 0000 0000 0000 0000 0000 0000 0000
000000b0: 0000 0000 0000 0000 0000 0000 0000 0000
000000c0: 0000 0000 0000 0000 0000 0000 0000 0000
000000d0: 0000 0000 0000 0000 0000 0000 0000 0000
000000e0: 0000 0000 0000 0000 0000 0000 0000 0000
000000f0: 0000 0000 0000 0000 0000 0000 0000 0000
00000100: 0000 0000 0000 0000 0000 0000 0000 0000
00000110: 0000 0000 0000 0000 0000 0000 0000 0000
00000120: 0000 0000 0000 0000 0000 0000 0000 0000
00000130: 0000 0000 0000 0000 0000 0000 0000 0000
00000140: 0000 0000 0000 0000 0000 0000 0000 0000
00000150: 0000 0000 0000 0000 0000 0000 0000 0000
00000160: 0000 0000 0000 0000 0000 0000 0000 0000
00000170: 0000 0000 0000 0000 0000 0000 0000 0000
00000180: 0000 0000 0000 0000 0000 0000 0000 0000
00000190: 0000 0000 0000 0000 0000 0000 0000 0000
000001a0: 0000 0000 0000 0000 0000 0000 0000 0000
000001b0: 0000 0000 0000 0000 0000 0000 0000 0000
000001c0: 0000 0000 0000 0000 0000 0000 0000 0000
000001d0: 0000 0000 0000 0000 0000 0000 0000 0000
000001e0: 0000 0000 0000 0000 0000 0000 0000 0000
000001f0: 0000 0000 0000 0000 0000 0000 0000 0000
0.0 0.0 0.0 0.0 0.0 0.0 0.0 0.0
0.0 0.0 0.0 0.0 0.0 0.0 0.0 0.0
0.0 0.0 0.0 0.0 0.0 0.0 0.0 0.0
0.0 0.0 0.0 0.0 0.0 0.0 0.0 0.0
0.0 0.0 0.0 0.0 0.0 0.0 0.0 0.0
0.0 0.0 0.0 0.0 0.0 0.0 0.0 0.0
0.0 0.0 0.0 0.0 0.0 0.0 0.0 0.0
0.0 0.0 0.0 0.0 0.0 0.0 0.0 0.0
0.0 0.0 0.0 0.0 0.0 0.0 0.0 0.0
0.0 0.0 0.0 0.0 0.0 0.0 0.0 0.0
0.0 0.0 0.0 0.0 0.0 0.0 0.0 0.0
0.0 0.0 0.0 0.0 0.0 0.0 0.0 0.0
0.0 0.0 0.0 0.0 0.0 0.0 0.0 0.0
0.0 0.0 0.0 0.0 0.0 0.0 0.0 0.0
0.0 0.0 0.0 0.0 0.0 0.0 0.0 0.0
0.0 0.0 0.0 0.0 0.0 0.0 0.0 0.0

value_heads.value_heads.extrinsic.weight f4 [1, 128]
00000000: ae61 f63d feee 6c3d d137 eb3d dedd 4d3c
00000010: 7954 873d 14ab 143e 64c0 44bd e1f7 14be
00000020: 8054 973d bf10 0ebe c2d4 483e fa89 2c3d
00000030: 6e94 bb3d 15fc a7bd 9205 013e bef0 403e
00000040: fed8 e2bc 12fa 2e3e abfd f5bd b60c 92bd
00000050: 800e ecbd a01d 1abd 6d34 adbd 146b 5b3e
00000060: 4491 0cbd 0ed5 e53d acef 043d e1ff 0a3e
00000070: f504 e1bd e509 c5bd 3e67 52be 96bf 2f3e
00000080: 7d38 76bd 6145 3fbe 48b1 023e 1de3 85bd
00000090: 62d0 333e 46cb 243e 93a2 433e f5de 063e
000000a0: b538 593e e29e 393d c0cf 38bd c130 cd3d
000000b0: 7c62 05be 763e ee3d e63c fe3c 972a 05bd
000000c0: c655 9abd 47bb 823d 9cb7 38be 24b6 c33d
000000d0: 0e0b e2bc f578 55be 27a0 593e 94e1 3fbe
000000e0: 2c69 21be dc9f 1d3d 2903 dc3c ae60 2b3d
000000f0: f9dc bebc 43e3 3c3d c6f1 0b3e 11ef f3bc
00000100: 6dde aebc d005 373e 79c4 97bd 7820 b53c
00000110: f345 41bd 3c0b d4bd 94dd 9b3a 91dd 823d
00000120: 2dfa 483e 3e2c 533e 3eaf 56be 84f5 263e
00000130: a287 b1bd 1c3a 3a3e 8f0e f03d ef1a 53be
00000140: 88c4 1d3e 6635 593d 20c7 2c3e 7fbd 253e
00000150: 9bba b23d b0fd 093e f438 cc3d 7a0a 253e
00000160: 8f88 283e d1f3 003e c0c6 ebbb 3005 403e
00000170: f61b 5fbd 1523 153d 171e 213e 4940 b0bd
00000180: 98a9 93bd f528 23be 9c63 393e db64 3d3e
00000190: 2faa d3bb 2ba1 213e b3de cebc 8740 3e3e
000001a0: cce2 123d df1c b0bd 62f1 263e 76a1 3e3e
000001b0: 5bdf 043e 18d9 8abd 9ada cbbd 1308 12be
000001c0: 736c 573e ab00 3dbe 07e4 813d b2a4 cabd
000001d0: 8ccb aa3c b9dd 0e3d c95e 463e 977c 0d3e
000001e0: 54f2 4fbe 3c2e 15be 142e 1dbe 2c47 ed3c
000001f0: c557 2f3e 56e5 16be d1e9 3b3e d2bd a63d
0.1203035 0.05784511 0.114852555 0.012565104 0.06607909 0.14518386 -0.04803504 -0.14547683
0.07389164 -0.13873576 0.1961241 0.042123772 0.0915917 -0.08202378 0.12599781 0.18841836
-0.02769136 0.17087582 -0.12011274 -0.07131331 -0.11526203 -0.03762591 -0.08457265 0.21427566
-0.034318224 0.112222776 0.03245513 0.13574173 -0.109872736 -0.09621028 -0.20547196 0.17162928
-0.060112465 -0.1867881 0.1276294 -0.06537459 0.1755996 0.16093168 0.19104986 0.13170989
0.21213038 0.045317538 -0.04512 0.10019065 -0.1302585 0.11633007 0.031034898 -0.03251132
-0.07535891 0.063833766 -0.18038791 0.09556225 -0.027593162 -0.20846923 0.212525 -0.18738395
-0.15762776 0.038482532 0.026856976 0.041840248 -0.023298727 0.04611517 0.13666448 -0.029777082
-0.021346295 0.17873311 -0.07410521 0.022110209 -0.04718585 -0.10353705 0.0011891597 0.06389917
0.19626684 0.20622346 -0.20965287 0.16304594 -0.08668448 0.1818623 0.11721527 -0.20615743
0.15407002 0.05302944 0.16872835 0.16185568 0.087269984 0.1347568 0.099718004 0.16117278
0.16458343 0.12593009 -0.0071953237 0.18751979 -0.054470025 0.03641041 0.15734135 -0.086060114
-0.07210082 -0.15933593 0.18104404 0.18495505 -0.0064594964 0.15784137 -0.025252676 0.18579303
0.03586082 -0.08599257 0.16303018 0.1861628 0.12975828 -0.067796886 -0.09953804 -0.14260893
0.21037464 -0.18457286 0.06342321 -0.098946944 0.020849012 0.03487942 0.19372095 0.13817059
-0.20307285 -0.14568418 -0.15349609 0.028964601 0.17123325 -0.14735922 0.18350913 0.08141674
