CubeTest/results/ppo/MoveToGoal/MoveToGoal-448.onnx (onnx, 72461 bytes, 7 tensors)

action_model._continuous_distribution.log_sigma f4 [1, 2]
00000000: 0000 0000 0000 0000
0.0 0.0

action_model._continuous_distribution.mu.bias f4 [2]
00000000: 0000 0000 0000 0000
0.0 0.0

action_model._continuous_distribution.mu.weight f4 [2, 128]
00000000: 0a34 5bbd dbc8 113d 5f4c f03c fbfc d4bc
00000010: 7f9e 5b3c 821d 79bb 8892 ffbc dbf0 c6bc
00000020: dbb2 ca3b 55ac 053c ebf1 c43c 5855 093a
00000030: 8ce7 83bc ab78 a8bb deb0 3dbc 8868 1fbb
00000040: cf97 01bc edef 9c3c a3a1 12bd aa75 c3bc
00000050: e776 1b3b 8aa8 8d3c f620 0a3d 37ac 093a
00000060: fec5 8ebc f724 343c 3bd9 9abc c2f7 efba
00000070: 4f9c 99bc afdc 1d3d 30c3 f33b c2c4 1cbb
00000080: 1f79 873c 16fd 33bc 9ca4 c0bc 83ac 1c3d
00000090: 95b7 d33b 5fa8 e03c d5b8 203c b58d 023d
000000a0: 58d1 62bc f780 713c dfb6 59bc e203 6bbc
000000b0: 3731 6bbc 9b77 a9bc 4b54 de3a 53da fe3c
000000c0: fd80 793c 03c8 e53b a36d 04bc c810 bdbb
000000d0: 7be3 89bc 51e0 943b c8d8 fdbc d6f1 cabb
000000e0: 11fa 24bd d6f0 1d3d e215 523a fd10 f33b
000000f0: d7e5 ddbb 5c96 a33c 6236 db39 5849 cdbc
00000100: b01c 82bc c041 f03c ff3d 04bd 0f7a 6cbc
00000110: fe9e 1e3b a0d7 d03b ef20 933c 85be 073d
00000120: 201b 4dba 48b9 013c 5b13 9f3c 034d bcbc
00000130: f426 06bd 3b05 34bc 635e 06bd 1d6d 593c
00000140: b74e dfbb 3216 1c3c 29b4 cb3b a340 a63c
00000150: 98fb 003c 6076 393a 3c22 823b b7d1 a83b
00000160: 020d ba3b 3b7b 293c 689b 5ebc 482f ddbc
00000170: 68bf 5b3c 65ec 68bc 7504 9cbb bfce 973c
00000180: b7a0 3b3c 9821 b63c 5fb2 33bd aa60 423c
00000190: 9296 e63b f0ab d1bc 8f2c 9bbc 4741 943b
000001a0: 21cc 11bc 7875 b23c ae3b a73c 0393 033d
000001b0: 91d7 2abc 8fee e6b9 831a 14bd 2ff9 68bc
000001c0: 6f30 463c ce44 ac3c c370 94bc 7426 2e3d
000001d0: e897 e23c f098 62bb 0fa5 103d b444 16bb
000001e0: 7cbe aa3b c35f 82bc 5966 beba a716 b5bb
000001f0: bde7 7a3b 1bda 6a3b 6baa a9ba 22d7 1dbc
00000200: 7be8 963c b02e ec3c 8b66 51bc 5331 3abc
00000210: 3725 91ba fffc ba3b c51e e4bb 028d 833c
00000220: 2a9d 21bd 33d6 e13b f09d 5a3c b4c6 c6bc
00000230: 8097 dd3c 4737 1ebd 2675 003d 58e6 c1bc
00000240: 23b7 95bc b435 08bc b2cf febc 0719 993c
00000250: 7b52 e5bc 9e46 c0bb 646a 38ba dbdc 93bb
00000260: e771 483c 784f 64bc 642b 053c c45a 993c
00000270: 00b5 5ebc 27ce b43c 442f b3bb 9da8 45bc
00000280: f3ca 07bc ba54 ebbc db25 ba3b a211 593c
00000290: afd0 cc3b 6bb6 9bbb 9d77 2d3c 07ea ac3c
000002a0: babf 06bc c9ce 06bb 980d 65bc 1a80 f2bb
000002b0: ffe6 0dbc a464 c23c c0c0 eebc 7b59 583d
000002c0: 76ba c1bb f095 8b3c 1799 883b fcea 99bc
000002d0: 4705 6139 9f55 d0bc bf3b 083d 9789 49bc
000002e0: 40ab 0d3d 2a69 7d3c 8c25 093c 0f89 0e39
000002f0: d1b2 b1bc 16c5 c2bc 566d 05bd 33c9 37bc
00000300: e1f4 32bd b7cb ffbc 8aa1 25bc 5af7 96bc
00000310: cf2d e93c 88c7 69bb 47f2 023c 873c 843c
00000320: 2f8c 89bc 7fc2 953c 4ee8 9f3c 2b98 57bc
00000330: 052e 5cbb 363c 87bb 153b 3dbc 2366 153d
00000340: 08a3 30bb cf57 3d3b a306 f1bc 9345 0d3c
00000350: 5f69 19bb 68b5 0e3b 77e5 103c 3438 a8bb
00000360: 2b0d 0f3d 98cf d73b 3f32 96bc a758 803b
00000370: 4620 933c 8cec 84bc a5a9 7dbc 3363 66bc
00000380: 73bf d6bc 37a3 db3c 3fde fcbb df46 e73b
00000390: dfcc 033d d32d 943c 5b47 e33a f79d 843c
000003a0: 7b3d dcbc b926 b5bb 8a70 27bc 481e 5fbb
000003b0: cdaa 03bc e7e5 543c fc44 4bbc 2f94 733b
000003c0: 4f7a efbc eeeb 13bc a535 dbbc c747 ac3c
000003d0: 5c2c b7bc cf33 c53c e286 a53c e255 f83b
000003e0: 070d 0c3d b83d e1bb bd0c d4bc 1222 693b
000003f0: 649a 073a d403 19bc 45c4 8cbc f2b9 dabc
-0.053516425 0.03559194 0.029333292 -0.025999537 0.013404488 -0.0038011973 -0.031197801 -0.02428477
0.006185872 0.008158763 0.024041137 0.00052388525 -0.016101621 -0.005141338 -0.011577813 -0.002432378
-0.007909729 0.019157374 -0.03579868 -0.023859818 0.0023721994 0.01729228 0.03372284 0.0005251797
-0.017428394 0.010995141 -0.018902412 -0.001830809 -0.018751292 0.03854054 0.0074390396 -0.0023920988
0.016537247 -0.010985633 -0.023515992 0.038250457 0.0064610937 0.027424036 0.009809692 0.031873424
-0.013843857 0.01474022 -0.013288229 -0.014344187 -0.014354995 -0.020686915 0.0016962377 0.031109964
0.015228507 0.0070123686 -0.00808278 -0.0057698227 -0.016832104 0.004543342 -0.030987158 -0.00619338
-0.040277544 0.038559757 0.0008014125 0.0074177966 -0.006771784 0.019969158 0.00041811453 -0.025059387
-0.01588282 0.029328227 -0.032285687 -0.014433398 0.0024203653 0.0063733608 0.01796004 0.033140678
-0.00078241713 0.00791771 0.01941841 -0.02298594 -0.032751992 -0.010987575 -0.032804858 0.013270644
-0.0068148035 0.009526776 0.006216545 0.020294493 0.007872485 0.0007074829 0.003971366 0.005151953
0.00567782 0.010344322 -0.013586856 -0.027000085 0.013412334 -0.014216517 -0.0047612735 0.018531201
0.011451892 0.022232816 -0.04387128 0.011863867 0.0070369923 -0.025594682 -0.018942146 0.004524383
-0.008898766 0.02178453 0.0204142 0.032122623 -0.010427372 -0.0004404676 -0.036158096 -0.014219566
0.012096508 0.021028902 -0.018120175 0.04251714 0.027660325 -0.003457602 0.035313662 -0.0022929134
0.005210696 -0.015914803 -0.0014526352 -0.005526382 0.00382851 0.0035835567 -0.0012944465 -0.009633811
0.018421402 0.028830856 -0.012780796 -0.011364299 -0.0011073713 0.005706429 -0.006961676 0.016058449
-0.039456524 0.0068919896 0.013343319 -0.02426467 0.02704978 -0.038626935 0.03136172 -0.023669407
-0.018275803 -0.008313585 -0.031104896 0.018688692 -0.027993431 -0.005867793 -0.00070348964 -0.004512412
0.012234188 -0.013934962 0.008128021 0.018720038 -0.013592958 0.022070957 -0.005468281 -0.012064126
-0.008288133 -0.028726924 0.0056807823 0.013248833 0.006250463 -0.0047519705 0.0105876 0.021107687
-0.008224422 -0.002057003 -0.013980292 -0.007400525 -0.008661031 0.02372963 -0.029144645 0.05281971
-0.0059121205 0.01703927 0.0041686404 -0.018788807 0.00021459638 -0.025431452 0.033260103 -0.01230087
0.034587145 0.015466968 0.008370768 0.00013593234 -0.021691712 -0.023775619 -0.032574974 -0.011217403
-0.043690566 -0.031225068 -0.010109315 -0.018428493 0.028464226 -0.0035671908 0.007992334 0.016142143
-0.016790478 0.01828122 0.019519951 -0.013158838 -0.0033596766 -0.0041270507 -0.011549731 0.03647436
-0.0026952643 0.002889145 -0.02942211 0.008622545 -0.0023408753 0.0021775607 0.008843771 -0.005133653
0.034924667 0.0065860264 -0.018334506 0.003916818 0.017959725 -0.016226076 -0.015482341 -0.014061737
-0.026214337 0.026811225 -0.0077169235 0.007058009 0.032177802 0.018088257 0.0017339991 0.016188605
-0.026884785 -0.0055282977 -0.0102197025 -0.0034045149 -0.008036328 0.012994266 -0.012406584 0.0037167182
-0.029233126 -0.009028418 -0.026758978 0.02103032 -0.02236002 0.024072556 0.020205919 0.0075785974
0.03419211 -0.0068738125 -0.02588498 0.0035573286 0.00051728473 -0.009339292 -0.017183432 -0.026699994

network_body._body_endoder.seq_layers.0.bias f4 [128]
00000000: 0000 0000 0000 0000 0000 0000 0000 0000
00000010: 0000 0000 0000 0000 0000 0000 0000 0000
00000020: 0000 0000 0000 0000 0000 0000 0000 0000
00000030: 0000 0000 0000 0000 0000 0000 0000 0000
00000040: 0000 0000 0000 0000 0000 0000 0000 0000
00000050: 0000 0000 0000 0000 0000 0000 0000 0000
00000060: 0000 0000 0000 0000 0000 0000 0000 0000
00000070: 0000 0000 0000 0000 0000 0000 0000 0000
00000080: 0000 0000 0000 0000 0000 0000 0000 0000
00000090: 0000 0000 0000 0000 0000 0000 0000 0000
000000a0: 0000 0000 0000 0000 0000 0000 0000 0000
000000b0: 0000 0000 0000 0000 0000 0000 0000 0000
000000c0: 0000 0000 0000 0000 0000 0000 0000 0000
000000d0: 0000 0000 0000 0000 0000 0000 0000 0000
000000e0: 0000 0000 0000 0000 0000 0000 0000 0000
000000f0: 0000 0000 0000 0000 0000 0000 0000 0000
00000100: 0000 0000 0000 0000 0000 0000 0000 0000
00000110: 0000 0000 0000 0000 0000 0000 0000 0000
00000120: 0000 0000 0000 0000 0000 0000 0000 0000
00000130: 0000 0000 0000 0000 0000 0000 0000 0000
00000140: 0000 0000 0000 0000 0000 0000 0000 0000
00000150: 0000 0000 0000 0000 0000 0000 0000 0000
00000160: 0000 0000 0000 0000 0000 0000 0000 0000
00000170: 0000 0000 0000 0000 0000 0000 0000 0000
00000180: 0000 0000 0000 0000 0000 0000 0000 0000
00000190: 0000 0000 0000 0000 0000 0000 0000 0000
000001a0: 0000 0000 0000 0000 0000 0000 0000 0000
000001b0: 0000 0000 0000 0000 0000 0000 0000 0000
000001c0: 0000 0000 0000 0000 0000 0000 0000 0000
000001d0: 0000 0000 0000 0000 0000 0000 0000 0000
000001e0: 0000 0000 0000 0000 0000 0000 0000 0000
000001f0: 0000 0000 0000 0000 0000 0000 0000 0000
0.0 0.0 0.0 0.0 0.0 0.0 0.0 0.0
0.0 0.0 0.0 0.0 0.0 0.0 0.0 0.0
0.0 0.0 0.0 0.0 0.0 0.0 0.0 0.0
0.0 0.0 0.0 0.0 0.0 0.0 0.0 0.0
0.0 0.0 0.0 0.0 0.0 0.0 0.0 0.0
0.0 0.0 0.0 0.0 0.0 0.0 0.0 0.0
0.0 0.0 0.0 0.0 0.0 0.0 0.0 0.0
0.0 0.0 0.0 0.0 0.0 0.0 0.0 0.0
0.0 0.0 0.0 0.0 0.0 0.0 0.0 0.0
0.0 0.0 0.0 0.0 0.0 0.0 0.0 0.0
0.0 0.0 0.0 0.0 0.0 0.0 0.0 0.0
0.0 0.0 0.0 0.0 0.0 0.0 0.0 0.0
0.0 0.0 0.0 0.0 0.0 0.0 0.0 0.0
0.0 0.0 0.0 0.0 0.0 0.0 0.0 0.0
0.0 0.0 0.0 0.0 0.0 0.0 0.0 0.0
0.0 0.0 0.0 0.0 0.0 0.0 0.0 0.0

network_body._body_endoder.seq_layers.0.weight f4 [128, 6]
00000000: 9d05 f9bd 9cd4 46bf 0908 f3be 32a8 613f
00000010: b571 f03e b073 033f 0ecd 8cbe 2659 903e
00000020: fb69 2b3c 7844 b53e d685 053e be67 d63d
00000030: 4022 123d d3ef 86be fb2e b53e 881b 21be
00000040: ee83 3f3d 2e3d b9be 0df1 e43e 0715 2e3f
00000050: c6a8 d1bd cac1 8d3e 2e5c 57be e45a eebd
00000060: 9447 e9bc 72c8 c5be fd3d 15bf d782 96be
00000070: 3d6e 40bf 9f15 343f 28a9 9c3e 7dd9 99be
00000080: 0389 df3d 422f 9d3e d4ed 013f 3823 2bbf
00000090: 6793 e4be a9dd edbc 709d 623e 36bb 5ebf
000000a0: 8cf0 21bf 535c 943e 9c7d b9be 7dcf 973d
000000b0: 1245 f43e 0d4c c23c 8a31 803c 6a36 ac3e
000000c0: 18b9 41bf c99a 71be 96b2 153f 5564 2ebf
000000d0: 5384 a0be 05ee 01bf d8ab 9e3a 42a4 d13e
000000e0: 6956 803e 098a 8ab9 9328 3f3e e741 81be
000000f0: ef11 f73d f29d dc3c cbdb 9fbb 9b42 903e
00000100: 0c2a 493d ddba 0b3e 341e a83e e628 383e
00000110: b867 3abe 845b b9be 476a 833e a71e da3d
00000120: d67c 663e c130 8fbe 497e f53e f9e7 bebe
00000130: d2c5 d2bd 5941 073f 1ea5 cebd 2e0b 20bf
00000140: 66db 61bf 6ecc 4cbe 0b29 103f 6309 cdbe
00000150: 1440 6e3e e707 f2be bcdc 2cbc f489 5abf
00000160: 4385 9fbd 3fad 28be ab4d 0f3f 3954 d13d
00000170: df24 10bd 2045 4a3f a188 9dbf 5e71 663f
00000180: 4295 8cbd 613e 4ebe 66cc 083d ba2b 04bf
00000190: bdba 653e aa11 803e 080d 04be f55a 31be
000001a0: 8056 f8be 14da 21bf b426 34be c453 093f
000001b0: a437 373d bfc7 393e 84f4 a73c b822 92be
000001c0: 557b 88be d30d 043e c3dd 6b3e c72e 133f
000001d0: e5cc 13bf bf4c e43d f767 b4be cafd bcbd
000001e0: dc15 17bf 0478 ecbe c86e f93e e3c0 4c3f
000001f0: cbf9 083d 4cbc a8be f6c1 9cbd 3259 a53d
00000200: 26ed 3ebe b020 cfbe 52cc 99bd 6454 153f
00000210: 78c5 60bf 26bd a33e 14c5 9dbe 49e0 893e
00000220: 3ba9 a4be 0b80 02bf 7b04 4a3e 479c ff3d
00000230: 1c42 a4be cf8e c0bd 956a bfbe 3937 66be
00000240: a3fd c83e 10fd 4dbe 669d ff3e 880b 813e
00000250: a57a e33e be32 703e 5eea 743e 08e5 8fbe
00000260: b2ef 853d bc08 51be bd4e 0e3f 5f55 023e
00000270: b586 903e 67eb ae3e 4bb8 98bd b8ba 0a3f
00000280: d5ac 063f e6a3 01bf 405d 90bd ddcb afbe
00000290: a132 d7bd 2e02 0b3e 1467 9e3d f030 18bf
000002a0: 1eaf ac3d 9971 ccbe cef6 09bf fad7 d93e
000002b0: f15f 5c3d 6d82 863d c0e6 a1be e90f 5b3f
000002c0: 9f38 95be 3219 13be fb81 8a3e 313d b5be
000002d0: 0b41 1e3d 31e0 64be 82a8 8d3e ba5f a73e
000002e0: 3a53 3dbe e73a 453f 2c9f 9e3e 594e c23d
000002f0: 22e1 34be f78d cf3e a11b 733b f743 35bf
00000300: 9213 663e cbd1 963e c1ac f13e d9e8 a5be
00000310: 69df b6bd 437c f23e 9434 5a3e 5b8c 23bb
00000320: b06a 3f3e dad1 04bf 70fe 4c3f 2dc9 5cbf
00000330: 3dfd 183f 6763 cabc 10ba 6c3e 2024 123f
00000340: f938 e7be d66b ba3c 31c9 01bd 6525 9fbe
00000350: 3d6a 023f 4192 04be 2132 b6be 2da0 8cbd
00000360: b86f 0e3f 8f7a e3be e4f7 eb3e 0bfe 243e
00000370: 5c1e 25bf c84d 5e3e b58c 223c d6b6 a2be
00000380: 28f9 573d b67a a53d a73d 003f 9c54 fbbe
00000390: f0f4 d43e 0e9f 67be 924e dcbe bc15 3dbe
000003a0: 5946 0dbf 0a66 b8be 9321 8e3e 5897 fe3e
000003b0: 6d87 0cbe c997 bfbd aa54 a93e 02c3 443f
000003c0: d5c8 203f 3465 563e 9e3e ae3d 6f79 87be
000003d0: 2516 073f 744e cd3e 8e80 68be 0167 593e
000003e0: b444 013e 8f8e aebe 5d7d 9fbe 3d35 52be
000003f0: ae25 84be 7aff 2dbf d239 44bf df7c b2be
-0.12159274 -0.77668166 -0.47467068 0.8814727 0.46961752 0.513484 -0.27500194 0.28193015
0.010462279 0.354038 0.13039336 0.10469006 0.035677195 -0.26354846 0.35387406 -0.15733159
0.046756677 -0.3617949 0.44715157 0.68000835 -0.10237269 0.27686912 -0.21031258 -0.1163843
-0.028476514 -0.3862949 -0.5829771 -0.29396698 -0.7516821 0.7034549 0.30597806 -0.30048743
0.10914805 0.30700117 0.5075352 -0.66850615 -0.4464371 -0.02903636 0.2213037 -0.8700441
-0.6325767 0.28976688 -0.36228645 0.07412622 0.47708946 0.023717904 0.015648622 0.33635265
-0.75673056 -0.23594202 0.58475626 -0.68121845 -0.31350955 -0.50753814 0.0012105657 0.4094563
0.25065926 -0.00026424255 0.18667822 -0.25245592 0.120639674 0.026930783 -0.0048784963 0.28175816
0.049112365 0.13645501 0.32835543 0.17984352 -0.18203628 -0.36202633 0.2566702 0.10650378
0.22508559 -0.27966884 0.4794791 -0.37286356 -0.102916375 0.5283409 -0.10090087 -0.6251706
-0.882254 -0.19999859 0.56312627 -0.40046224 0.23266631 -0.47271654 -0.010550674 -0.8536675
-0.077890895 -0.16472338 0.55977887 0.10221142 -0.035191413 0.79011726 -1.2307321 0.90016735
-0.06864406 -0.20140983 0.033398055 -0.5162922 0.22434516 0.25013477 -0.12895596 -0.17319854
-0.48503494 -0.63223386 -0.17592889 0.5364344 0.044730797 0.18142603 0.020502336 -0.28542113
-0.26656595 0.12895899 0.23033814 0.5749325 -0.5773452 0.11147451 -0.3523557 -0.09228094
-0.5901773 -0.46185315 0.48717332 0.7998182 0.033441346 -0.3295616 -0.076541826 0.08073653
-0.18645152 -0.40454626 -0.07509674 0.58331895 -0.87801313 0.31980246 -0.3081442 0.26928928
-0.32160363 -0.5097663 0.19728272 0.124809794 -0.32081687 -0.094022386 -0.37386003 -0.22482003
0.3925601 -0.20116067 0.49924773 0.2520411 0.44429508 0.23456857 0.23917529 -0.28104424
0.06539859 -0.20413488 0.55588895 0.12727879 0.28227773 0.34163973 -0.07457026 0.5419116
0.5260747 -0.50640714 -0.07049036 -0.34335223 -0.105077036 0.1357505 0.07734504 -0.5944967
0.084318385 -0.39930418 -0.5389222 0.4254759 0.053802434 0.065678455 -0.3162136 0.8557115
-0.2914476 -0.1436508 0.27052292 -0.35398248 0.03863625 -0.22351147 0.27667624 0.3269022
-0.1848878 0.77043 0.30980814 0.094876 -0.17664006 0.40537998 0.0037095326 -0.7080683
0.22468403 0.29456934 0.47202113 -0.3240421 -0.08929331 0.4736043 0.2130912 -0.0024955485
0.18693042 -0.5188271 0.8007574 -0.8624447 0.5976141 -0.024705602 0.23117852 0.5708637
-0.45160654 0.022756498 -0.03168601 -0.31083217 0.50943357 -0.12946416 -0.3558512 -0.068664886
0.5563922 -0.44429442 0.46087563 0.16112535 -0.6449945 0.21709359 0.0099212425 -0.31780118
0.05272785 0.08080046 0.50094074 -0.4908799 0.41593122 -0.22619268 -0.43028694 -0.18465322
-0.55185467 -0.3601535 0.2775999 0.4972484 -0.13723536 -0.093551226 0.33072406 0.7686006
0.62806445 0.20937043 0.08508037 -0.26459834 0.52768165 0.40098917 -0.2270529 0.21230699
0.12623864 -0.3409314 -0.31150332 -0.20528121 -0.25809997 -0.6796795 -0.76650727 -0.34860894

network_body._body_endoder.seq_layers.2.bias f4 [128]
00000000: 0000 0000 0000 0000 0000 0000 0000 0000
00000010: 0000 0000 0000 0000 0000 0000 0000 0000
00000020: 0000 0000 0000 0000 0000 0000 0000 0000
00000030: 0000 0000 0000 0000 0000 0000 0000 0000
00000040: 0000 0000 0000 0000 0000 0000 0000 0000
00000050: 0000 0000 0000 0000 0000 0000 0000 0000
00000060: 0000 0000 0000 0000 0000 0000 0000 0000
00000070: 0000 0000 0000 0000 0000 0000 0000 0000
00000080: 0000 0000 0000 0000 0000 0000 0000 0000
00000090: 0000 0000 0000 0000 0000 0000 0000 0000
000000a0: 0000 0000 0000 0000 0000 0000 0000 0000
000000b0: 0000 0000 0000 0000 0000 0000 0000 0000
000000c0: 0000 0000 0000 0000 0000 0000 0000 0000
000000d0: 0000 0000 0000 0000 0000 0000 0000 0000
000000e0: 0000 0000 0000 0000 0000 0000 0000 0000
000000f0: 0000 0000 0000 0000 0000 0000 0000 0000
00000100: 0000 0000 0000 0000 0000 0000 0000 0000
00000110: 0000 0000 0000 0000 0000 0000 0000 0000
00000120: 0000 0000 0000 0000 0000 0000 0000 0000
00000130: 0000 0000 0000 0000 0000 0000 0000 0000
00000140: 0000 0000 0000 0000 0000 0000 0000 0000
00000150: 0000 0000 0000 0000 0000 0000 0000 0000
00000160: 0000 0000 0000 0000 0000 0000 0000 0000
00000170: 0000 0000 0000 0000 0000 0000 0000 0000
00000180: 0000 0000 0000 0000 0000 0000 0000 0000
00000190: 0000 0000 0000 0000 0000 0000 0000 0000
000001a0: 0000 0000 0000 0000 0000 0000 0000 0000
000001b0: 0000 0000 0000 0000 0000 0000 0000 0000
000001c0: 0000 0000 0000 0000 0000 0000 0000 0000
000001d0: 0000 0000 0000 0000 0000 0000 0000 0000
000001e0: 0000 0000 0000 0000 0000 0000 0000 0000
000001f0: 0000 0000 0000 0000 0000 0000 0000 0000
0.0 0.0 0.0 0.0 0.0 0.0 0.0 0.0
0.0 0.0 0.0 0.0 0.0 0.0 0.0 0.0
0.0 0.0 0.0 0.0 0.0 0.0 0.0 0.0
0.0 0.0 0.0 0.0 0.0 0.0 0.0 0.0
0.0 0.0 0.0 0.0 0.0 0.0 0.0 0.0
0.0 0.0 0.0 0.0 0.0 0.0 0.0 0.0
0.0 0.0 0.0 0.0 0.0 0.0 0.0 0.0
0.0 0.0 0.0 0.0 0.0 0.0 0.0 0.0
0.0 0.0 0.0 0.0 0.0 0.0 0.0 0.0
0.0 0.0 0.0 0.0 0.0 0.0 0.0 0.0
0.0 0.0 0.0 0.0 0.0 0.0 0.0 0.0
0.0 0.0 0.0 0.0 0.0 0.0 0.0 0.0
0.0 0.0 0.0 0.0 0.0 0.0 0.0 0.0
0.0 0.0 0.0 0.0 0.0 0.0 0.0 0.0
0.0 0.0 0.0 0.0 0.0 0.0 0.0 0.0
0.0 0.0 0.0 0.0 0.0 0.0 0.0 0.0

network_body._body_endoder.seq_layers.2.weight f4 [128, 128]
00000000: f215 1ebc d610 173d 0bc7 493d 4928 56bd
00000010: fc63 06bd d107 a23d 0884 3abd f9b0 533d
00000020: cff5 343d a440 b4bd 2dec 29be b8d0 5d3c
00000030: f0a9 1ebe e29c 6a39 5e36 ac3d 8732 51bc
00000040: 542c febc cb9c 8b3c 77d0 e33d c0fd 83bb
00000050: c135 fbbb d0f1 43bd 85e4 8f3d 4df4 4dbd
00000060: ca9f 9dbd 3099 38bd 5870 4e3d 8f6f 9a3b
00000070: 4b56 01bd a570 e33d ce08 073e 48fb 80bd
00000080: c494 acbc 23c7 21bc 4fd0 f6bc e07e 3abe
00000090: 3f30 3c3c ebfc ccbd 72f3 cebc 0ed9 0abd
000000a0: ed11 983d cf5c 8e3d 1b11 b0bc 04fc 7fbd
000000b0: c195 e53c aa98 7ebc c8c6 d7bd e3ee 69bd
000000c0: b185 c5bd 0143 c63d a4ca a43d c06a 303d
000000d0: ddc7 523e f487 8abd 75a9 8e3d 760c 67bd
000000e0: c3d1 cfbd 618a 9f3d 7746 bebe fbe4 963d
000000f0: 2747 f1b8 8b5e a7bd 636a 013d 0cc4 e53d
00000100: af39 b7bc 8c01 b9bb 454e 1e3d f11e 1fbe
00000110: ab4b 333d 7e6a fabd 39ee cc3c 5b55 a63d
00000120: 7e4f 0dbe cda7 4bbd ef30 6f3d bc86 883d
00000130: cdb8 43bd 4c8f bb3d bec4 a73a 01c3 c43c
00000140: 06cd abbc f7ca 71bb 9f71 0e3c 8587 313e
00000150: 96ad 4ebe b20f 8ebd e944 523d cee7 f7bd
00000160: b9fc 84bd 2cc6 8c3d bfba 6e3d 6e5a 7abd
00000170: d398 4c3d e826 353c 9466 e73d f3e6 54bd
00000180: f4f5 9f3d 2a43 a33d 8d7e bb3d 6bf4 51be
00000190: d010 a63d 57f4 983d 6e63 0d3d 5721 babc
000001a0: b654 e5bc 249b 113e 3903 2f3d 7c07 ecbc
000001b0: cc6b bb3d 64f1 beb9 f172 f03c 64bf 88bd
000001c0: 984d c93b 6a4f c03d a7d8 ecbb e769 27be
000001d0: 49da 76bd 6bb7 eabd 96a6 2ebe f52f 8bbc
000001e0: 5793 53bd 661d 823d 9196 4dbd 5a86 9ebd
000001f0: 9f84 a53d dca6 ed3b bb25 623c 02cd 11be
00000200: 32e6 87bd 621b e2bc 598b a33c bc65 30bd
00000210: 0f35 f13d 07e5 30bd 51c2 8fbc e0b7 12bd
00000220: 4216 a1bd 1cb0 283d 4c14 113e c066 d7bd
00000230: f2be 8abd 6a41 4dbc a95c 02be c396 4b3d
00000240: a501 c2bd 1e60 7b3d 7a05 2ebd 8f7f b4bd
00000250: 1a02 fcbd cb9c 3dbe 630c 7b3d 52a0 cebc
00000260: 3b22 0fbe c43f 553d 1ae1 24bd 3f3a b63d
00000270: a2ef 1dbd 0088 c03c 56b0 203e 966e f43d
00000280: 5c86 f23b 0958 ce3c 3cb4 333d e80a 983c
00000290: 30c5 7d3d e91d faba 12d0 f4bc 774b c03d
000002a0: c1a2 d4bd 172e 72bb 2614 bdbd b71a cabb
000002b0: 09dd 213e 3b6a 233d d774 5fbc 7631 34bb
000002c0: 927d 733d 0832 c33d 1865 b13d 77fa c43c
000002d0: f774 c63d 17d8 d0bb 327d 11bd 59de bb3d
000002e0: dbd4 5b3e e394 b9bd ac1f 9d3d 70c8 9c3d
000002f0: f38b dc3d 9ffd 283d 15bd 143d 4720 3abd
00000300: 1662 fb3c a135 5f3d 4fc0 31bd 4ab6 57bc
00000310: 8af1 b73c 7688 753d 5827 84bd 21ef 51bd
00000320: 553e 4f3d 7f3e e23d dfd6 f33d e73d 083e
00000330: 6eed a33d 040f 73bc 4872 b6bc b001 403d
00000340: 88d2 bb3d 9b55 853c 4866 b73c b2c5 813d
00000350: 860b 213c 835a 44bd e2e4 febd 8e57 133d
00000360: 69d4 153c 821d f73d 6902 843c a5a4 1b3e
00000370: 68d8 97bc 8b4f 2a3c 2980 65bd a849 97bd
00000380: 05b8 11be 915f 1a3a 8d4e 1b3e 5a99 c83d
00000390: 35f6 e73a 56c7 d4bd 4cd7 d93c c18e d13d
000003a0: 23fb e6bd d2f2 5d3c 4c47 b7ba 2559 cfbd
000003b0: e74e 46bd 8dd0 893d 2ef4 4f3d 94a6 313e
000003c0: b4b0 5b3c a703 633d f8c7 e53d 5543 2f3e
000003d0: 2399 ec3d a4c8 a83d a7cc 253c d544 793d
000003e0: 38b7 91bd f650 58bd cee9 d43d 6d48 baba
000003f0: 1fa7 81bd 9f74 0d3b 484a 52bc 95f5 5d3d
-0.009648787 0.03688129 0.049262088 -0.052284513 -0.032810196 0.07911647 -0.04553607 0.051682446
0.044179734 -0.08801392 -0.16594 0.013538532 -0.15494514 0.00022374422 0.08408807 -0.012768394
-0.031026997 0.017042538 0.11123746 -0.004028052 -0.00766632 -0.047838032 0.070260085 -0.05028181
-0.07696493 -0.045067966 0.050400108 0.004713006 -0.031576436 0.111054696 0.13186952 -0.06297928
-0.02106703 -0.009874138 -0.030128626 -0.18212461 0.011486112 -0.10009178 -0.025262568 -0.033898406
0.07425294 0.069512956 -0.021492532 -0.0624962 0.02802551 -0.015539328 -0.105359614 -0.057112586
-0.0964464 0.09680749 0.08046463 0.043070555 0.20584054 -0.06764212 0.06965915 -0.056408368
-0.10147431 0.077900656 -0.37163135 0.07367893 -0.00011505029 -0.081723295 0.0315956 0.112190336
-0.022366373 -0.0056459364 0.038648862 -0.15539147 0.043773334 -0.12227343 0.025015937 0.08121749
-0.13799855 -0.049720574 0.058396276 0.066663235 -0.04778366 0.09158191 0.0012799723 0.024018766
-0.020971786 -0.0036894658 0.008694082 0.17336853 -0.20183405 -0.069365874 0.05133525 -0.1210476
-0.064935155 0.06873736 0.058283564 -0.061121397 0.049950432 0.011056639 0.11298862 -0.051978063
0.07810584 0.07971795 0.09154997 -0.20503394 0.081086755 0.07468479 0.03451865 -0.022720976
-0.027994495 0.14219338 0.042727683 -0.028812163 0.0915142 -0.00036419474 0.029351683 -0.0667713
0.006143283 0.09390147 -0.0072279754 -0.16348992 -0.060266767 -0.114607655 -0.17055735 -0.016990641
-0.051654186 0.063532636 -0.05019242 -0.07740469 0.08081936 0.007252557 0.013802941 -0.1423836
-0.06635703 -0.027600948 0.019963907 -0.04306577 0.11777698 -0.043187167 -0.017548712 -0.035819888
-0.078655735 0.041183576 0.14167899 -0.10517645 -0.06774701 -0.012527803 -0.1273066 0.049704324
-0.0947297 0.06137096 -0.04248569 -0.08813392 -0.12305088 -0.18516843 0.06129111 -0.025222931
-0.13977902 0.052062765 -0.040253736 0.08897828 -0.03855861 0.02350235 0.15692267 0.11935155
0.007401271 0.025188463 0.043873057 0.018559888 0.06195563 -0.00190824 -0.029884372 0.09389394
-0.10382605 -0.0036953741 -0.09232359 -0.0061677354 0.15806974 0.03989623 -0.013638697 -0.0027495301
0.059445925 0.09531027 0.0866186 0.024045212 0.09690278 -0.006373416 -0.035519786 0.09173269
0.21467917 -0.09061601 0.076720566 0.07655418 0.10768881 0.041257497 0.036313135 -0.04544094
0.03068642 0.054494504 -0.04339629 -0.01316602 0.022454042 0.059944592 -0.06452817 -0.05125344
0.050596554 0.110470764 0.11906218 0.13304864 0.080042705 -0.014835123 -0.02227129 0.04687661
0.09171015 0.016276171 0.022387639 0.063365355 0.009829408 -0.04793788 -0.12446 0.03597217
0.009144881 0.12066175 0.01611443 0.15199526 -0.018535808 0.010394941 -0.056030426 -0.07387096
-0.14230354 0.00058888743 0.15166683 0.097948745 0.0017697277 -0.10389583 0.02659192 0.10232306
-0.11278369 0.013546662 -0.001398304 -0.10124425 -0.04841509 0.06729231 0.050769977 0.17348701
0.0134088285 0.055423405 0.11219782 0.17115529 0.11552646 0.08241394 0.010119594 0.06085666
-0.07115024 -0.052811585 0.10396157 -0.0014212258 -0.06330704 0.0021584404 -0.012835093 0.054189283
