CubeTest/results/ppo/MoveToGoal/MoveToGoal-499975.pt (torch, 439199 bytes, 36 tensors)

network_body._body_endoder.seq_layers.0.weight f4 [128, 6]
0	0xbecced40	-0.40024757
1	0x3edb8899	0.42877653
2	0xbe679feb	-0.22619598
3	0xbe6f3ac3	-0.2336226
4	0x3e065a35	0.13120349
5	0x3ec7c4a4	0.39017212
6	0xbf975be6	-1.182492
7	0xbebcd35a	-0.36879998
8	0x3f594d8a	0.8488394
9	0xbdf3284b	-0.1187292
10	0xbf568ed0	-0.83811665
11	0xbfa03765	-1.2516905
12	0x3d4390c0	0.047745466
13	0x3ead17e1	0.3380728
14	0xbe6376c8	-0.2221328
15	0x3dc21156	0.09475963
16	0x3f19fdce	0.601529
17	0xbf4cc4b4	-0.79987645
18	0x3f1151e6	0.5676559
19	0x3ea3ab53	0.31966648
20	0x3ed801d5	0.42188898
21	0xbd144a88	-0.03620389
22	0x3eee5142	0.4654637
23	0x3d8c451e	0.068491206
24	0xbeb54c24	-0.35409653
25	0x3e3feb96	0.18742213
26	0x3d09c6dd	0.033636916
27	0xbeacb0c8	-0.33728623
28	0xbead7ff4	-0.33886683
29	0xbf9655e1	-1.1744958
30	0xbec27f21	-0.37987617
31	0x3dcc1904	0.09965709
32	0xbe9801c5	-0.2968885
33	0x3f63b780	0.88951874
34	0x3cb107ef	0.021610228
35	0x3e446fdf	0.191833
36	0x3dcbe892	0.09956469
37	0xbd0126b0	-0.031531036
38	0x3f2ebb9f	0.6825504
39	0x3e0f54bc	0.13997167
40	0x3e8e0c59	0.27743796
41	0xbef1de63	-0.4723998
42	0x3ef4d88d	0.47821465
43	0xbe09cce6	-0.13457069
44	0xbf4e5f4d	-0.8061417
45	0x3e8482f2	0.25881153
46	0x3ec14402	0.37747198
47	0x3efe0624	0.4961406
48	0xbf67a444	-0.90485024
49	0xbec04946	-0.37555903
50	0x3ebc5896	0.36786336
51	0x3d834680	0.06409931
52	0x3f084653	0.53232306
53	0xbd1cc239	-0.038271163
54	0x3e086c16	0.13322482
55	0x3e929029	0.2862561
56	0xbed8af81	-0.423214
57	0x3f074772	0.5284339
58	0x3e9fd3f3	0.31216392
59	0x3eaa9bf5	0.3332211
60	0x3e7dc63e	0.24782655
61	0x3dc4bb71	0.09606064
62	0x3e6afa07	0.2294694
63	0x3df57656	0.119854614
64	0xbed32f2a	-0.4124692
65	0xbcf00ffa	-0.029304493
66	0xbe3d54dd	-0.18489404
67	0x3d13dd16	0.036099516
68	0xbd8ad034	-0.06777993
69	0x3f377497	0.71662277
70	0x3de6ec17	0.11275499
71	0xbbbc1436	-0.005739714
72	0x3ea9d48c	0.33169973
73	0xbf527334	-0.82207036
74	0x3cf99619	0.03046708
75	0x3e32369d	0.17403646
76	0x3e3c72ef	0.18403219
77	0x3eb6853a	0.3564852
78	0xbe7d2132	-0.24719694
79	0x3d7a99bf	0.06118178
80	0x3ea52234	0.32252657
81	0xbf234755	-0.6378072
82	0xbea39992	-0.31953102
83	0xbed2137e	-0.41030496
84	0x3e7539a6	0.23947772
85	0x3f07ea8f	0.53092283
86	0xbf05379d	-0.52037984
87	0x3eb7de64	0.35911858
88	0xbf09d107	-0.53834575
89	0x3f0090c0	0.5022087
90	0x3f74e93d	0.95668393
91	0xbeff5fbf	-0.49877736
92	0xbea7e0eb	-0.32788786
93	0xbe589e51	-0.21154143
94	0xbf3d1ad0	-0.7386904
95	0x3e8ca0d3	0.2746645
96	0x3cede0db	0.029037884
97	0xbf1f82be	-0.6230887
98	0xbd9d1d65	-0.07671622
99	0xbe3e6b42	-0.18595603
100	0x3d51ccb3	0.051220607
101	0x3f1c6798	0.6109557
102	0xbed541f5	-0.41651884
103	0x3d587265	0.05284347
104	0xbd97c1b4	-0.07409993
105	0xbeb4f197	-0.35340568
106	0x3e3d9d1c	0.18516964
107	0xbdbf9ec5	-0.09356455
108	0xbe82a2e3	-0.25514898
109	0x3f209984	0.62734246
110	0xbf3aa0b2	-0.7290145
111	0x3fa06ffe	1.2534177
112	0x3ec7dd52	0.39036041
113	0xbf01b141	-0.50661093
114	0x3e831513	0.25602016
115	0xbeaee01b	-0.34155354
116	0x3ea809fa	0.32820112
117	0x3e690cf5	0.22758849
118	0x3eb9feb9	0.3632715
119	0x3f454a6d	0.7706669
120	0xbe24eb44	-0.16105372
121	0xbe99711b	-0.29969105
122	0xbe9a0afd	-0.30086508
123	0x3f012c5d	0.5045832
124	0x3edb345a	0.4281338
125	0xbf20427d	-0.62601453
126	0x3f2a0eea	0.6642901
127	0xbe495a8f	-0.19663452
128	0xbea00f3a	-0.31261617
129	0x3e5ac6d7	0.21364914
130	0x3dda9a78	0.10673994
131	0xbee84ab8	-0.45369506
132	0x3f40bb40	0.7528572
133	0xbe573f0c	-0.21020144
134	0xbf2bf685	-0.67173034
135	0x3d9b83b3	0.07593479
136	0xbf37f041	-0.71850973
137	0xbdbc70b1	-0.09201182
138	0xbd95c056	-0.07312076
139	0x3e17ac46	0.14811811
140	0xbf110bf3	-0.5665886
141	0x3e359744	0.17733485
142	0xbdf894a1	-0.12137724
143	0xbe44dc7c	-0.19224733
144	0x3f0dbecb	0.5536925
145	0xbe87b111	-0.26502278
146	0x3dfc7734	0.12327424
147	0xbe41ab5c	-0.18913025
148	0xbdba73b3	-0.09104099
149	0xbe974ed3	-0.29552326
150	0x3ec7ef8a	0.3904994
151	0xbdb1716a	-0.0866421
152	0xbf21750b	-0.6306922
153	0xbf54fba6	-0.83196485
154	0x3f0a6089	0.5405355
155	0x3f2275dd	0.63461095
156	0xbf1f1013	-0.621339
157	0x3f2ff1c3	0.68728274
158	0x3f295452	0.6614429
159	0xbed8c624	-0.4233867
160	0xbd974c7f	-0.07387637
161	0x3f257698	0.64634085
162	0xbeaf47fb	-0.34234604
163	0x3e3359d3	0.17514734
164	0xbf316112	-0.6928874
165	0xbcea9445	-0.028635154
166	0xbeab7fa2	-0.33495814
167	0x3e160e0e	0.14653799
168	0x3e867f7e	0.26269144
169	0x3f8891e8	1.0669527
170	0xbeb0a826	-0.34503287
171	0xbf723c74	-0.94623494
172	0x3ed19a4f	0.4093804
173	0x3ec88eeb	0.39171538
174	0x3e708fec	0.23492402
175	0xbe7351b3	-0.23761635
176	0x3e7f2f4e	0.24920389
177	0xbf0dda80	-0.5541153
178	0xbf6e25e2	-0.93026555
179	0x3f9d203e	1.2275465
180	0xbf15c94b	-0.58510274
181	0xbe9f6fd3	-0.31140003
182	0x3dcf6ee1	0.1012857
183	0x3ee6045b	0.44925198
184	0x3dab999b	0.08378907
185	0x3dde4244	0.10852483
186	0x3e29acb6	0.1656979
187	0x3d37192d	0.044701744
188	0x3e219912	0.15781048
189	0xbebf576e	-0.3737139
190	0x3e30363f	0.17208193
191	0xbf22d02b	-0.6359889
192	0x3def9377	0.116980486
193	0xbe68f4d7	-0.22749649
194	0x3e1b7044	0.15179545
195	0x3f40a3a2	0.75249684
196	0x3d868937	0.065691404
197	0x3f180c6c	0.59393954
198	0xbd793197	-0.06083831
199	0xbd5592bd	-0.052141894
200	0x3d2809fc	0.041025147
201	0x3ed809be	0.42194933
202	0xbeb90870	-0.3613925
203	0xbf2cb1b5	-0.6745866
204	0x3eb5881d	0.3545541
205	0xbe0feea1	-0.14055873
206	0xbe542d02	-0.20720294
207	0xbf021a64	-0.5082152
208	0xbe989f5f	-0.2980909
209	0x3e0aaeff	0.13543318
210	0xbe1d7389	-0.15376104
211	0xbebd71a8	-0.37000775
212	0xbdd28757	-0.1027972
213	0x3e2d0e19	0.16899909
214	0x3f864b5c	1.0491748
215	0xbd656aac	-0.056009933
216	0x3dc46e7f	0.09591388
217	0x3f2c9e86	0.6742939
218	0x3e4e0fc4	0.20123202
219	0xbf1cb87f	-0.6121902
220	0xbe3248ae	-0.17410538
221	0x3ef925e2	0.48661715
222	0x3cdc6565	0.026903817
223	0x3f2b9cbc	0.6703603
224	0xbf817103	-1.0112613
225	0x3e6e2c2d	0.23259039
226	0xbf36aa64	-0.71353745
227	0xbf0bb9a4	-0.5458014
228	0xbf644d4d	-0.8918045
229	0xbe02b52c	-0.12764424
230	0x3f0f923a	0.560825
231	0x3f410581	0.75399023
232	0xbd8084d8	-0.06275338
233	0xbf1b9233	-0.6076996
234	0xbec94b03	-0.39315042
235	0xbd8d0f20	-0.068876505
236	0x3d8d613f	0.06903314
237	0x3e57d40c	0.21076983
238	0x3d4eae5f	0.050459262
239	0xbddd20f6	-0.107973024
240	0x3e4a6c15	0.19767793
241	0xbf7d5772	-0.98961556
242	0x3e10d9b9	0.14145555
243	0x3d10b1c4	0.03532578
244	0xbd3249aa	-0.043527283
245	0xbe3dda10	-0.18540215
246	0x3e84c924	0.25934708
247	0x3f02d9f0	0.51113796
248	0xbf518584	-0.81844354
249	0xbf16ba57	-0.5887808
250	0xbefb3d92	-0.49070412
251	0xbefc65b5	-0.49296346
252	0xbddfb9e6	-0.10924129
253	0x3c76a651	0.015054301
254	0x3f2372ab	0.63846844
255	0x3efdf442	0.49600416

network_body._body_endoder.seq_layers.0.bias f4 [128]
0	0xbb1f1cde	-0.002427868
1	0x3d96eea5	0.073697366
2	0x3c9ebc16	0.019376796
3	0x3ddcca48	0.107807696
4	0x3c456ce6	0.012049889
5	0x3c9abc26	0.018888544
6	0x3d131e5d	0.03591763
7	0x3dd55623	0.1041682
8	0x3cebf678	0.028804049
9	0x3cf200a6	0.029541325
10	0x3cab0b65	0.020879457
11	0x3d1bc7af	0.03803223
12	0x3d0e6c39	0.034771178
13	0x3d3f066e	0.04663699
14	0x3d023767	0.031791117
15	0xbd9afb3a	-0.07567449
16	0x3c688f25	0.014194285
17	0x3cbcb17b	0.023033848
18	0x3ca73fe0	0.0204162
19	0xbc110512	-0.0088513065
20	0x3cb4abbd	0.022054547
21	0xbcdba951	-0.026814135
22	0xbce929d0	-0.02846232
23	0x3cdda2d3	0.02705518
24	0xbc17392b	-0.0092299385
25	0xbd8b56a5	-0.068036355
26	0xbcca7565	-0.024714181
27	0x3ce83458	0.028345272
28	0xbcb86262	-0.02250785
29	0x3c851679	0.016246067
30	0x3c5a1a81	0.013311983
31	0x3c3c7aa3	0.011503848
32	0x3c527079	0.012844198
33	0xbccff84e	-0.025386956
34	0xbd8ac5b7	-0.06775992
35	0xbc156ed9	-0.009120666
36	0xbcc8b87d	-0.024502033
37	0x3c2abebe	0.010421453
38	0xbb030b9e	-0.0019995938
39	0x3c8a0ca2	0.016851727
40	0x3abc3397	0.0014358637
41	0x3d379b57	0.044825878
42	0x3b976d73	0.0046212017
43	0x3be9d417	0.007135879
44	0xbc41ac54	-0.011820871
45	0x3c8bdb8e	0.017072465
46	0x3c8ef203	0.017449385
47	0xba311b4f	-0.00067560835
48	0xb94b18ca	-0.00019368823
49	0xbcd72d8e	-0.02626684
50	0x3d036904	0.032082573
51	0xbbc13187	-0.0058957967
52	0x3cfe17ce	0.03101721
53	0x3c5c9da9	0.0134653235
54	0x3c4ae886	0.0123845395
55	0x3c2bf807	0.010496146
56	0x3c17f178	0.009273879
57	0x3dfe265d	0.12409661
58	0x3c886f6b	0.01665469
59	0x3cb4d9ee	0.022076573
60	0x3c47a511	0.012185351
61	0xbc457289	-0.012051233
62	0x3cfed0e9	0.031105476
63	0xbd0f4a8e	-0.03498321
64	0x3c6061af	0.013695165
65	0x3c6a62bd	0.014305768
66	0x3ce450fc	0.027870648
67	0xbb3ddece	-0.0028971913
68	0x3bdf91d1	0.0068228026
69	0x3da71e41	0.08160067
70	0x3d202d7d	0.03910588
71	0x3d4da96c	0.0502104
72	0xba4a15b5	-0.0007708923
73	0x3d2cef2a	0.042220272
74	0x3cc8ad86	0.024496805
75	0x3d0cc748	0.034369737
76	0x3ca27293	0.019830024
77	0x3c8c3b16	0.017118018
78	0x3cab4659	0.020907568
79	0x3c82ff80	0.015990973
80	0x3da83bba	0.08214517
81	0xbc72d1a5	-0.014820491
82	0x3d02a598	0.031896204
83	0x3a728a72	0.00092521973
84	0x3c6a9425	0.014317547
85	0x3cc4d6be	0.024028178
86	0x3d5104dd	0.05103003
87	0xbd2cf586	-0.042226337
88	0x3c483004	0.012218479
89	0x3c502151	0.012703256
90	0x3d011ebb	0.031523447
91	0x3d09f1d6	0.0336779
92	0x3c286d16	0.010279914
93	0x3d0a7310	0.03380114
94	0x3da50c3e	0.08058976
95	0x3b574c63	0.0032851927
96	0xbb91414a	-0.004432832
97	0x3c755896	0.014974734
98	0x3d5593f4	0.052143052
99	0x3d0dbd5d	0.03460442
100	0x3da0032a	0.078131035
101	0xbb60bbca	-0.0034291619
102	0xbbe81552	-0.0070826197
103	0x3d0375f1	0.0320949
104	0xbc83ed29	-0.016104298
105	0xbd6c8959	-0.057748172
106	0x3a63f362	0.00086956297
107	0xbb51ab67	-0.0031993033
108	0xbcc19780	-0.023631811
109	0xbc7b2f08	-0.015331037
110	0x3c15069a	0.009095812
111	0xbc62514d	-0.013813329
112	0xbd935b08	-0.07195097
113	0x3d84caaa	0.064839676
114	0x3c454fcc	0.012042951
115	0x3c8ab12f	0.01693019
116	0x3d9b452c	0.07581553
117	0x3c9b5c93	0.018965041
118	0x3c05d9c5	0.008169596
119	0x3d374d0e	0.04475122
120	0x3cb61344	0.022225983
121	0x3d20e7d8	0.039283603
122	0xbc2e3414	-0.010632534
123	0x3c63de5f	0.013907998
124	0xbc664d76	-0.014056554
125	0x3cec4309	0.028840559
126	0x3ce07bfe	0.027402874
127	0xbc5201aa	-0.01281778

network_body._body_endoder.seq_layers.2.weight f4 [128, 128]
0	0x3d1134b5	0.035450656
1	0xbd6504cf	-0.05591279
2	0xbb6edc11	-0.0036447088
3	0x3dce8e39	0.100857206
4	0x3d74129d	0.059588064
5	0x3d205fb5	0.039153773
6	0x3d8daf2c	0.06918177
7	0xbd1d053b	-0.038335066
8	0xbdd8411e	-0.10559295
9	0xbd071e25	-0.032987732
10	0x3e3e37d1	0.1857598
11	0xbd967cc3	-0.07348015
12	0xbd8dc9cd	-0.06923256
13	0x3ae46749	0.0017425801
14	0x3d1b36da	0.037894107
15	0xbd455860	-0.048179984
16	0xbe23837c	-0.15968126
17	0xbde7dcd8	-0.113214195
18	0xbb905501	-0.0044046645
19	0xbd1eaa60	-0.0387367
20	0xbd421adf	-0.047388908
21	0xbdf9ee35	-0.122036375
22	0xbdfbfb91	-0.12303842
23	0xbd18d0a8	-0.037308365
24	0xbda482f9	-0.080327936
25	0xbdf5a9b9	-0.11995263
26	0xbe1814c5	-0.14851673
27	0x3d15e03c	0.0365908
28	0xbd968c0e	-0.07350932
29	0xbdf7e091	-0.121033795
30	0x3d42dbcc	0.047572896
31	0x3bd5f086	0.006528917
32	0x3dc9daca	0.09856184
33	0x3d4ec934	0.05048485
34	0x3cd5c586	0.026095163
35	0xbd20ce62	-0.039259322
36	0x3d6709c9	0.056405816
37	0xbe438da6	-0.19097003
38	0x3de28438	0.11060375
39	0xbda8ddf2	-0.08245458
40	0xbb2139f8	-0.0024601202
41	0xbe038a8c	-0.1284582
42	0xbd0788fa	-0.033089615
43	0xbe1fd645	-0.15609081
44	0xbe332d96	-0.17497858
45	0x3cd3a2a4	0.025834389
46	0xbba92e54	-0.0051629934
47	0x3d041a95	0.032251913
48	0x3cf1ce15	0.029517213
49	0xbdc1c1bc	-0.0946078
50	0x3d3b2446	0.04568889
51	0xbdd10a17	-0.102070026
52	0xbc5aabf2	-0.013346659
53	0xbc5f1536	-0.013615897
54	0xbc94fe99	-0.018187808
55	0xbb97ec56	-0.0046363277
56	0xbde5ca13	-0.11220183
57	0x3e33515b	0.17511503
58	0x3d86e7a3	0.0658715
59	0x3e32189c	0.173922
60	0x3d74bc84	0.059750095
61	0xbc8849a2	-0.016636673
62	0x3bb41f0e	0.005496866
63	0xbd89bd82	-0.06725599
64	0x3e1b6956	0.15176901
65	0xbe0deeb5	-0.13860591
66	0x3d19c261	0.03753889
67	0xbda98e25	-0.08279065
68	0x3d6cdc80	0.057827473
69	0xbdd6767a	-0.10471816
70	0x3d3d1a06	0.046167396
71	0xbdbb9e40	-0.09161043
72	0xbde8e6bf	-0.11372136
73	0xbdd5c32a	-0.10437615
74	0x3cabbf56	0.02096526
75	0x3d8dc0d2	0.06921543
76	0xbd67ebfd	-0.05662154
77	0xbdda2513	-0.106516026
78	0xbe0b0afe	-0.13578412
79	0xbce86216	-0.028367084
80	0x3d1fd46b	0.039020937
81	0x3c7c3add	0.0153948935
82	0xbd0e12f7	-0.034686055
83	0xbc51d919	-0.012808108
84	0xbd19fca4	-0.037594453
85	0xbe5f40fe	-0.21802136
86	0x3e365180	0.17804527
87	0xbd48049f	-0.048832532
88	0xbbaa7c71	-0.005202823
89	0xbc0c1cbd	-0.008551774
90	0xbd15c3ef	-0.03656381
91	0x3db3f439	0.08786816
92	0x3d9866c8	0.07441479
93	0x3dd6c0e2	0.10486008
94	0xbce5c37f	-0.028047321
95	0xbd8ff6bf	-0.07029485
96	0xbe27ec5a	-0.16398755
97	0xbdd2d4a0	-0.10294461
98	0x3cc06954	0.023487724
99	0x3c1d5b1d	0.009604243
100	0xbdc030e8	-0.09384328
101	0xbe48fa8c	-0.19626826
102	0xbd7b8378	-0.061404675
103	0x3df8e0d1	0.12152255
104	0xbdc1d820	-0.09465051
105	0xbce06398	-0.02739124
106	0xbda29c40	-0.079399586
107	0xbd80acc7	-0.06282955
108	0xbe2718c7	-0.16318046
109	0x3d790d8a	0.060803927
110	0xbe1b78dd	-0.15182824
111	0x3d40920b	0.047014277
112	0xbdf7d007	-0.12100225
113	0xbdad14b6	-0.08451216
114	0xbde1e5bb	-0.11030146
115	0xbb69c69e	-0.0035671364
116	0xbdfb5915	-0.122728504
117	0x3d3fea89	0.04685453
118	0xbdc34446	-0.095345065
119	0x3dc1a330	0.09454954
120	0x3e915ece	0.28392643
121	0xbbc7582c	-0.006083509
122	0x3c27d538	0.010243706
123	0x3de43374	0.111426264
124	0xbd7473bb	-0.05968068
125	0xbe11bbfc	-0.14231867
126	0xbd71a523	-0.058995377
127	0x3dc2c14a	0.09509523
128	0x3dc14573	0.094370745
129	0xbde569db	-0.11201831
130	0xbe473352	-0.19453171
131	0x3e050f28	0.12994063
132	0x3c2f0cb8	0.010684185
133	0x3d1ed6bc	0.038779005
134	0x3d96e299	0.07367439
135	0x3d25d76a	0.040488638
136	0x3d255b29	0.04037014
137	0x3e447b16	0.19187579
138	0x3e323b84	0.17405516
139	0x3e709b4a	0.23496738
140	0x3d01bdbb	0.03167508
141	0xbda8bc14	-0.08238998
142	0x3dc78eaa	0.09744008
143	0xbdaa633e	-0.0831971
144	0x3dc41cf1	0.09575833
145	0xbeadd7ff	-0.33953854
146	0xbcb2c326	-0.02182157
147	0xbd174ce7	-0.036938574
148	0xbd7b4bd1	-0.0613516
149	0xbe8e6a12	-0.278153
150	0xbe1cf84d	-0.15329094
151	0xbdcf836e	-0.1013249
152	0xbda1feb6	-0.079099104
153	0x3c1fc5c5	0.009751742
154	0xbd029ee6	-0.03188982
155	0xbe063fbd	-0.13110252
156	0xbdd0500a	-0.10171516
157	0x3e0afa57	0.1357206
158	0x3d31b29c	0.043383226
159	0x3cf9b3e9	0.030481296
160	0x3e8d1a74	0.27559245
161	0x3d843664	0.06455687
162	0x3d00c4ed	0.031437803
163	0xbc76cc7a	-0.015063399
164	0x3d8801e3	0.06640985
165	0x3ddd806d	0.10815511
166	0xbe61066f	-0.2197511
167	0xbd69daf9	-0.057093594
168	0xbe05f06f	-0.1308
169	0xbcb9cb67	-0.022679998
170	0xb98a274b	-0.00026350687
171	0x3ce9b432	0.028528307
172	0xbd198105	-0.03747656
173	0xbd30f570	-0.043202817
174	0xbdd69b0d	-0.10478792
175	0xbda4e7d2	-0.08052029
176	0x3c16e2f5	0.009209384
177	0x3dbe546e	0.092934474
178	0x3dc900eb	0.09814628
179	0x3d922a26	0.071369454
180	0x3df8c254	0.1214644
181	0x3e2b85a5	0.167502
182	0xbb7c5692	-0.0038503748
183	0x3e479f73	0.19494419
184	0xbdae6e7d	-0.08517168
185	0x3e1cd8ea	0.15317121
186	0x3d2ea838	0.042640895
187	0xbe0a8a1a	-0.13529244
188	0xbd64c2ed	-0.05584996
189	0xbdb8e19e	-0.09027408
190	0x3cea8e24	0.028632231
191	0x3d2378b5	0.039910037
192	0x3d51256a	0.05106107
193	0x3e1d502e	0.15362617
194	0x3b2ecffd	0.0026674264
195	0xbdcdf900	-0.100572586
196	0xbd960b3a	-0.0732636
197	0x3dd69c49	0.10479028
198	0xbdfbdf3d	-0.12298439
199	0xbd765a84	-0.060144916
200	0x3bb1f4eb	0.005430808
201	0x3d520d50	0.051282227
202	0xbe33c649	-0.17556109
203	0xbdf5a9be	-0.119952664
204	0x3c80d1c6	0.015725028
205	0xbdbf8f2f	-0.09353482
206	0x3cd18c1e	0.025579508
207	0xbdf61bcd	-0.12017021
208	0x3d82c423	0.06385066
209	0xbd1c2140	-0.038117647
210	0x3d8e04eb	0.06934532
211	0x3e38973f	0.18026446
212	0x3d426ef8	0.04746911
213	0xbc303b86	-0.010756379
214	0xbcabf377	-0.020990117
215	0x3d013905	0.03154852
216	0xbc788eff	-0.015170812
217	0x3e8db361	0.27675918
218	0x3cbe098b	0.02319791
219	0xbd447f79	-0.04797313
220	0xbdb3d6c5	-0.087811984
221	0x3cd141e0	0.025544107
222	0x3b02962f	0.0019925942
223	0xbe13198f	-0.14365219
224	0xbe0e2359	-0.13880672
225	0x3c4ea79b	0.012613202
226	0x3dcc5745	0.09977583
227	0xbcef1cff	-0.029188631
228	0xbe72815f	-0.23682164
229	0xbd7ee15a	-0.06222663
230	0x3deca665	0.11555175
231	0xbc2093a5	-0.009800826
232	0xbdb4d9f7	-0.08830636
233	0xbbc9ac2a	-0.0061545568
234	0xbe114afb	-0.14188759
235	0xbde4c9a7	-0.11171275
236	0xbdb86f84	-0.09005645
237	0xbd9fadd2	-0.077968255
238	0x3d8e7023	0.06954982
239	0x3ba6ca0d	0.0050900043
240	0xbe3a959e	-0.18221137
241	0x3c908293	0.017640388
242	0x3e4ad0fd	0.19806285
243	0x3d810850	0.063004136
244	0x3e1b7f78	0.15185344
245	0x3d873a5f	0.0660293
246	0x3d2b66da	0.041846134
247	0xbe4a2571	-0.19740845
248	0xbe4fc6d2	-0.20290688
249	0x3bc84432	0.006111645
250	0xbd58a4ac	-0.05289142
251	0xbdc36772	-0.09541215
252	0xbd9af573	-0.07566347
253	0x3e1b6162	0.15173867
254	0xbdba901c	-0.09109518
255	0x3e6ee874	0.23330861

network_body._body_endoder.seq_layers.2.bias f4 [128]
0	0xbab4b049	-0.0013785447
1	0x3cc8ee14	0.024527587
2	0x3d1de5ed	0.038549352
3	0x3b16c017	0.0023002678
4	0x3cafec8c	0.021475099
5	0x3be8206d	0.0070839436
6	0xbc9f0d58	-0.019415542
7	0x3aa058d0	0.00122335
8	0xbc428ac4	-0.011873905
9	0x3d432fc8	0.04765299
10	0xbba41d48	-0.0050083734
11	0xbbb1be37	-0.0054242867
12	0x3d15637f	0.03647184
13	0x3c4ce7eb	0.012506465
14	0x3c1f2682	0.009713771
15	0x3c4f9922	0.012670787
16	0x3cbe72bb	0.023248067
17	0xbbe35b99	-0.0069384095
18	0xbba678fb	-0.00508034
19	0x3b69e2bd	0.0035688125
20	0x3d32b248	0.043627053
21	0x3c9d680c	0.019214652
22	0x3d2c76f3	0.042105626
23	0x3c994324	0.018708773
24	0x3c84a25b	0.016190698
25	0x3c019364	0.007908676
26	0x3c1aac1f	0.009440451
27	0x3c3b1de7	0.0114207035
28	0x3ccf6547	0.025316847
29	0x3d25cc55	0.04047807
30	0x3d3ac391	0.045596663
31	0x3c2c8402	0.01052952
32	0x3cc407ca	0.023929495
33	0xbae0f7cf	-0.0017163696
34	0xbcabbbd3	-0.020963585
35	0x39ed47f7	0.0004525778
36	0x3c2b1c29	0.010443726
37	0x3c4cb32b	0.012493889
38	0x3c925431	0.017862411
39	0xbc1f5bdc	-0.009726491
40	0x3c360430	0.011109397
41	0xbc6eeeb0	-0.014583275
42	0xbb894e05	-0.004190209
43	0x3c0f63e5	0.008751844
44	0x3c993860	0.01870364
45	0x3bca2661	0.006169126
46	0x3ce47696	0.027888577
47	0x3c15b976	0.009138456
48	0x3c0948aa	0.008379141
49	0x3c67acc3	0.014140311
50	0x3c801945	0.01563705
51	0x3bd7fbcd	0.0065912963
52	0x3c9b88eb	0.018986186
53	0x3c9e9e3b	0.01936256
54	0x3bba1845	0.0056791627
55	0x3c84728a	0.016167898
56	0xbc8eec0c	-0.01744654
57	0x3d024c49	0.031811032
58	0x3cb1570f	0.021647958
59	0x3b898efd	0.0041979537
60	0x3c3fdcbf	0.011710345
61	0x3be57117	0.0070020068
62	0x3d070cc6	0.032971166
63	0x3c32364a	0.010877201
64	0x3b8256ca	0.003977631
65	0x3c32aea7	0.010905898
66	0xbbe35815	-0.0069379904
67	0x39a0393c	0.0003056022
68	0xbc900099	-0.01757841
69	0xb9750328	-0.00023366197
70	0x3d149d3f	0.036282774
71	0x3d08b056	0.033371292
72	0xbb77ba4d	-0.0037800253
73	0x3cbbabc1	0.022909047
74	0x3c02f227	0.007992304
75	0x3d1bae85	0.03800823
76	0x3ce9fc7d	0.028562779
77	0x3c707949	0.014677354
78	0x3be84092	0.0070877755
79	0x3bbe5fb2	0.0058097476
80	0x3c00f385	0.00787056
81	0x3d26b7d5	0.04070266
82	0x3c3133a0	0.010815531
83	0x3c1db9c6	0.009626811
84	0x3ccf1c16	0.025281947
85	0x3c2783fb	0.010224338
86	0x3b53b881	0.0032306018
87	0x3bbc5110	0.005746968
88	0x3c2a2905	0.010385756
89	0x3cbd9a90	0.02314499
90	0x3c15e804	0.009149555
91	0xbc4f94ed	-0.012669784
92	0xbc76919c	-0.015049364
93	0x3ca9d132	0.020729635
94	0x3c068db9	0.0082125
95	0xbca193a2	-0.019723717
96	0x3c8320af	0.016006796
97	0xbc8e2352	-0.017350826
98	0x3d1eedb1	0.0388009
99	0x3ce37c34	0.027769186
100	0x3cbae00e	0.022811916
101	0x3c1986d2	0.009370523
102	0x3b55a64a	0.0032600337
103	0x3d29dad8	0.04146847
104	0x3a8bf83f	0.0010678841
105	0x3c8841a6	0.016632866
106	0x3b932598	0.0044905655
107	0x3b972f62	0.004613803
108	0x3d253136	0.040330134
109	0xbba0270c	-0.0048874673
110	0x3bf01a96	0.007327388
111	0x3cb76fb5	0.022392133
112	0x3d00fb7d	0.031489838
113	0x3cb0ee71	0.021598073
114	0x3c0ea9ab	0.008707444
115	0xba406709	-0.0007339572
116	0x3cfd55d6	0.030924719
117	0x3b48271d	0.0030540891
118	0xbc6f3efc	-0.014602419
119	0x3d451592	0.048116274
120	0x3c917928	0.017757967
121	0xbb776b66	-0.0037753223
122	0x3d25ac6f	0.04044765
123	0x38fc5b8d	0.00012033349
124	0xbc0b802d	-0.008514446
125	0xbbc05c95	-0.0058704116
126	0x3cbaf57a	0.02282213
127	0x3cdf7ae3	0.027280277

action_model._continuous_distribution.log_sigma f4 [1, 2]
0	0xbe2772ec	-0.16352433
1	0xbe05569f	-0.13021325

action_model._continuous_distribution.mu.weight f4 [2, 128]
0	0x3d3db772	0.046317525
1	0xbd99db87	-0.07512575
2	0xbd5d44f7	-0.054020848
3	0x3ce4dad1	0.027936371
4	0x3c47bf7d	0.01219165
5	0x3dc04d2c	0.09389719
6	0x3ca23049	0.019798415
7	0x3d2cf1da	0.042222835
8	0x3d19f6a3	0.037588727
9	0xbd082e59	-0.033247326
10	0x3cf3013a	0.02966367
11	0x3cd0688f	0.025440482
12	0xbd2ecedb	-0.04267774
13	0xbc96652e	-0.018358793
14	0xbcdc364f	-0.026881365
15	0x3d87510a	0.06607254
16	0xbd9589a3	-0.07301643
17	0x3b84c873	0.0040522157
18	0x3d062944	0.032754198
19	0x3cf33660	0.029689014
20	0xbd93007d	-0.071778275
21	0xbd648b3a	-0.05579684
22	0xbdabbc2f	-0.083855025
23	0x3d923e00	0.07140732
24	0x3be81a07	0.007083181
25	0x3ca6bc60	0.020353496
26	0x3d306fe7	0.04307547
27	0x3d813eed	0.0631083
28	0xbc893d6f	-0.016752927
29	0xbd9f98f9	-0.07792849
30	0xbd898249	-0.06714303
31	0x3ce1a1e2	0.027543012
32	0x3dcde183	0.100527786
33	0x3cc4b3d3	0.024011528
34	0x3c218850	0.00985916
35	0x3d324f4a	0.043532647
36	0x3d9ba0c9	0.07599027
37	0x3dd167a0	0.10224843
38	0x3dba54dd	0.09098218
39	0x3d625e92	0.05526597
40	0x3d798511	0.060917918
41	0x3d67f7d8	0.056632847
42	0xbb8a7450	-0.0042252913
43	0x3d98b559	0.07456464
44	0xbb1f16bc	-0.0024275025
45	0x3db2c36a	0.087286785
46	0xbd7db7c3	-0.061942827
47	0xbd713fd6	-0.05889877
48	0x3d9db331	0.07700194
49	0xbd47458f	-0.04865032
50	0xbc5d4904	-0.013506178
51	0x3c3c90c9	0.011509129
52	0xbb0bfc49	-0.002136009
53	0x3d1ce8c5	0.038307924
54	0x3b730f91	0.0037088136
55	0x3cbabb0b	0.022794267
56	0x3cb0a507	0.021563066
57	0xbc9039ab	-0.017605623
58	0xbd2f5a2e	-0.04281061
59	0x3c3615be	0.011113582
60	0xbd2d4044	-0.042297617
61	0x3d4a31d6	0.049363934
62	0xbd341021	-0.043960694
63	0x3c98b03a	0.018638719
64	0x3c946119	0.018112706
65	0xbd08c70a	-0.033392943
66	0x3d00892a	0.03138081
67	0x3d8743ee	0.066047534
68	0x3cd9be4c	0.026579998
69	0xbca5dd3c	-0.020247094
70	0xbdce60db	-0.100770675
71	0xbe08d721	-0.13363315
72	0x3d142fe9	0.036178503
73	0xbcd19139	-0.025581943
74	0x3cb900e2	0.022583429
75	0xbd8c0004	-0.068359405
76	0xbd88cf2a	-0.066801384
77	0xbd345250	-0.04402381
78	0xbcd30802	-0.025760654
79	0xbc9ef17e	-0.019402262
80	0xbc04e2c2	-0.008110704
81	0xbdad3c33	-0.08458748
82	0x3d84ada1	0.064784296
83	0xbd2c1558	-0.042012542
84	0xbd49b339	-0.049243186
85	0x3d767432	0.060169406
86	0x3d28a5cb	0.041173737
87	0x3b42ed00	0.0029743314
88	0x3d938eb1	0.072049506
89	0xbd435681	-0.04768992
90	0xbd40ae79	-0.04704139
91	0x3d4b5c7e	0.049648754
92	0x3ce11ddc	0.027480058
93	0x3da37111	0.0798055
94	0x3d96515f	0.07339739
95	0x3c7b17a0	0.015325457
96	0x3dc32e0a	0.09530266
97	0x3cea38e3	0.028591579
98	0xbda5f313	-0.08103003
99	0x3d44a365	0.048007388
100	0xbd27d5eb	-0.040975492
101	0x3cd43f79	0.025909172
102	0x3d7af487	0.061268356
103	0xbd93ea1b	-0.072223864
104	0xbcfe5ab0	-0.031049103
105	0x3ba1f312	0.0049423063
106	0x3d051582	0.032491215
107	0x3cd2262a	0.025652964
108	0xbe031097	-0.12799297
109	0x3d3830f1	0.04496855
110	0x3d7ad507	0.061238315
111	0xbd2f417c	-0.04278706
112	0xbd140b51	-0.036143605
113	0x3b1c1fe5	0.0023822722
114	0x3d6ff109	0.05857948
115	0x3be75319	0.0070594666
116	0xbdb1007f	-0.08642673
117	0x3cbe8b10	0.02325967
118	0x3d8d7c9c	0.06908533
119	0xbd83536d	-0.064123966
120	0x3d9b44ed	0.07581506
121	0x3d3acea3	0.04560722
122	0xbda18afb	-0.078878365
123	0x3d5627db	0.052284103
124	0x3d33b97d	0.043878067
125	0x3b232eb9	0.0024899675
126	0xbd4f9792	-0.050681658
127	0xbd392640	-0.045202494
128	0xbd084620	-0.03327
129	0xbcae90ba	-0.021309245
130	0xbd082415	-0.033237536
131	0xbc0015b0	-0.007817671
132	0x3db35684	0.08756736
133	0x3cdd17f7	0.026988966
134	0xbca7ab2d	-0.020467365
135	0x3c86c842	0.016452912
136	0xbbf36cad	-0.0074287266
137	0x3d0d7017	0.034530725
138	0x3d1451eb	0.036210936
139	0xbc8ca485	-0.017168293
140	0x3d4fc2ea	0.050722994
141	0x3c070436	0.00824075
142	0xbcb42530	-0.021990389
143	0x3d902cbe	0.07039784
144	0xbd2b50b2	-0.041825004
145	0x3ccda0e3	0.02510113
146	0xbbfcadbb	-0.00771114
147	0xbd64db38	-0.055873126
148	0x3d85c7e2	0.06532265
149	0xbd4d5e5e	-0.050138824
150	0x3d8dd30c	0.069250196
151	0x3d736c2b	0.05942933
152	0x3ccbd5e0	0.024882257
153	0x3d9aed21	0.0756476
154	0xbd04318f	-0.032273825
155	0x3c01b673	0.007917034
156	0xbde8a8f0	-0.11360347
157	0xbc208a31	-0.009798572
158	0xbd94dd09	-0.072687216
159	0xbd2a1d61	-0.041531924
160	0x3c9b57a4	0.018962689
161	0x3ce63c1f	0.02810484
162	0xbc953b0b	-0.01821663
163	0xbc64eab4	-0.013971973
164	0x3d8e1dba	0.06939264
165	0x3bdc17fa	0.0067167254
166	0x3d149b31	0.036280815
167	0x3c72df0a	0.0148236845
168	0x39d5cdd9	0.00040779894
169	0xbce923f1	-0.028459521
170	0xbab98a6d	-0.0014155634
171	0x3d84c7cd	0.064834215
172	0x3d31d851	0.043419186
173	0xbcc93963	-0.024563497
174	0xbd8f9fbb	-0.07012888
175	0x3d326438	0.043552607
176	0x3d1683a2	0.03674663
177	0xbcd42c67	-0.025900079
178	0x3dcf0e6b	0.10110172
179	0xbd1b37f1	-0.037895147
180	0xbd862b4a	-0.065512255
181	0xbda2405c	-0.07922432
182	0xbd52039e	-0.05127298
183	0x3d95f34c	0.07321796
184	0xbcadcc96	-0.021215718
185	0xbdb6529f	-0.089024775
186	0xbd2e2b60	-0.042521834
187	0xbd048fb6	-0.032363616
188	0x3cfc4948	0.030796662
189	0x3d467b0b	0.048457187
190	0x3d99cdc9	0.075099535
191	0x3d85b5a6	0.06528787
192	0xbd29117a	-0.041276433
193	0xbcabab3b	-0.020955672
194	0x3cbd1617	0.023081822
195	0xbbd6a027	-0.0065498534
196	0x3b0d4a1d	0.0021559068
197	0x3c227a48	0.009916849
198	0x3c9e8453	0.019350206
199	0xbd281ee9	-0.041045103
200	0x3b7fd8b5	0.003903908
201	0xbdb98cbd	-0.09060047
202	0x3d68ad91	0.05680615
203	0x3c2e10b0	0.010624096
204	0xbd56d1d8	-0.052446216
205	0xbd2dfaef	-0.042475637
206	0xbc766283	-0.015038135
207	0x3d236788	0.039893657
208	0xbd08e3bb	-0.033420306
209	0xbb839060	-0.0040150136
210	0x3d1714e6	0.036885165
211	0xbd133753	-0.035941433
212	0x3d699831	0.057029907
213	0xbd207bd6	-0.0391806
214	0x3b89d48a	0.004206245
215	0x3da71d83	0.08159926
216	0xbcb458e1	-0.022015037
217	0xbd4f49f2	-0.05060763
218	0x3db5009a	0.08838005
219	0x3c8e142d	0.017343605
220	0x3b94396c	0.004523447
221	0x3d4704ca	0.04858855
222	0xbd1215b4	-0.03566523
223	0x3ce1b0ed	0.027550185
224	0xbd54f28e	-0.05198913
225	0xbbaaf05b	-0.005216641
226	0x3d480098	0.04882869
227	0xbd841ddc	-0.06451008
228	0xbd8c89a7	-0.068621926
229	0xbd24c4b1	-0.040226642
230	0x3d42ab94	0.04752691
231	0x3d0b9efa	0.03408716
232	0x3c4039af	0.011732503
233	0x3d56b92c	0.052422687
234	0xbd39d711	-0.04537112
235	0xbd6e48cd	-0.058174897
236	0x3cd7c865	0.026340673
237	0x3c152426	0.009102857
238	0x3c8df92b	0.017330727
239	0xbd46cec3	-0.048537027
240	0x3d87d6ff	0.06632804
241	0x3dd4678c	0.103713125
242	0x3bce0fec	0.006288519
243	0x3b256cf2	0.0025241938
244	0x3d56e619	0.052465532
245	0xbd339571	-0.04384369
246	0xbc49f44f	-0.012326314
247	0x3d74455b	0.059636455
248	0xbd5128db	-0.051064353
249	0x3a536c04	0.0008065107
250	0x3c491319	0.01227262
251	0xbace9cab	-0.0015763243
252	0x3ca9baf0	0.020719022
253	0x3cc13b39	0.02358781
254	0xb8982ad7	-7.255904e-05
255	0x3ce1742d	0.027521217

action_model._continuous_distribution.mu.bias f4 [2]
0	0xbbf22462	-0.007389591
1	0xbb95d152	-0.004572072

exp_avg f4 [128, 6]
0	0xb95f5409	-0.00021298243
1	0xb84aa4f3	-4.8314174e-05
2	0x3a00ba3a	0.00049105624
3	0x3a4aa4e3	0.00077302585
4	0x00000000	0.0
5	0x3a4aa4e3	0.00077302585
6	0x3a80825f	0.0009804479
7	0x37d4f3b1	2.5385847e-05
8	0xba1ec7dc	-0.0006057003
9	0xb9d4f3ad	-0.00040617344
10	0x00000000	0.0
11	0xb9d4f3ad	-0.00040617344
12	0x3799e35e	1.8344897e-05
13	0x3654c924	3.170754e-06
14	0xb7abe38c	-2.0490748e-05
15	0xb854c916	-5.0732015e-05
16	0x00000000	0.0
17	0xb854c916	-5.0732015e-05
18	0x39bbcfbb	0.0003582219
19	0x38191450	3.649696e-05
20	0xb9a4c9f9	-0.00031431
21	0xba191446	-0.0005839508
22	0x00000000	0.0
23	0xba191446	-0.0005839508
24	0x34ddd2bd	4.131779e-07
25	0xb59ca315	-1.1670369e-06
26	0x3795c374	1.78532e-05
27	0x379ca2fb	1.8672543e-05
28	0x00000000	0.0
29	0x379ca2fb	1.8672543e-05
30	0x38870b3b	6.4393935e-05
31	0x368b4118	4.1501007e-06
32	0x38ac140a	8.205332e-05
33	0xb88b412b	-6.640175e-05
34	0x00000000	0.0
35	0xb88b412b	-6.640175e-05
36	0x3a7e463d	0.00096997974
37	0x38d7a5d6	0.00010282888
38	0xba9d7113	-0.0012011848
39	0xbad7a5c9	-0.0016452606
40	0x00000000	0.0
41	0xbad7a5c9	-0.0016452606
42	0x3a0de67e	0.0005413069
43	0x38483836	4.7736066e-05
44	0xb8b67738	-8.7006425e-05
45	0xba48383c	-0.0007637774
46	0x00000000	0.0
47	0xba48383c	-0.0007637774
48	0x39753f81	0.00023388678
49	0x375929c6	1.2943934e-05
50	0xb99c6c40	-0.0002983529
51	0xb95929af	-0.00020710261
52	0x00000000	0.0
53	0xb95929af	-0.00020710261
54	0x39e2feba	0.00043295865
55	0x3883eee1	6.2910614e-05
56	0xb9592f73	-0.00020712409
57	0xba83eedc	-0.0010065692
58	0x00000000	0.0
59	0xba83eedc	-0.0010065692
60	0x3a892c0f	0.0010465401
61	0x390dbd31	0.00013517287
62	0xba9e57d4	-0.0012080618
63	0xbb0dbd26	-0.0021627634
64	0x00000000	0.0
65	0xbb0dbd26	-0.0021627634
66	0x3972080d	0.00023081918
67	0x37de6c36	2.6514852e-05
68	0xb96af514	-0.00022407278
69	0xb9de6c26	-0.00042423717
70	0x00000000	0.0
71	0xb9de6c26	-0.00042423717
72	0x3a26fa26	0.00063696725
73	0x38b321e0	8.541695e-05
74	0xba1a9882	-0.0005897359
75	0xbab321d5	-0.0013666699
76	0x00000000	0.0
77	0xbab321d5	-0.0013666699
78	0x37ca3565	2.410514e-05
79	0x35e56cda	1.709351e-06
80	0xb76a0050	-1.394756e-05
81	0xb7e56cd3	-2.7349603e-05
82	0x00000000	0.0
83	0xb7e56cd3	-2.7349603e-05
84	0x39ac6bfc	0.0003288685
85	0x38377ad6	4.3745e-05
86	0xb708fa1f	-8.1644675e-06
87	0xba377ac9	-0.00069991924
88	0x00000000	0.0
89	0xba377ac9	-0.00069991924
90	0xb7456a84	-1.1766915e-05
91	0x358394c3	9.803556e-07
92	0x3676f0e0	3.6797064e-06
93	0xb78394a0	-1.5685626e-05
94	0x00000000	0.0
95	0xb78394a0	-1.5685626e-05
96	0x394cef72	0.00019544156
97	0x38037bca	3.134812e-05
98	0xb7c8ac2d	-2.3922034e-05
99	0xba037bc7	-0.00050156977
100	0x00000000	0.0
101	0xba037bc7	-0.00050156977
102	0x384e162b	4.9134873e-05
103	0xb7d47661	-2.5327494e-05
104	0x38e7d15c	0.000110539346
105	0x39d4764f	0.00040523938
106	0x00000000	0.0
107	0x39d4764f	0.00040523938
108	0xb98591ac	-0.0002547627
109	0xb8570447	-5.1263978e-05
110	0x3a5ac5ba	0.00083455036
111	0x3a570425	0.00082022167
112	0x00000000	0.0
113	0x3a570425	0.00082022167
114	0x39d49690	0.0004054797
115	0x38418f9d	4.6148536e-05
116	0xba08e736	-0.00052224414
117	0xba418f8b	-0.00073837553
118	0x00000000	0.0
119	0xba418f8b	-0.00073837553
120	0xb917e0e6	-0.00014484263
121	0xb7ede98b	-2.8361354e-05
122	0x398df0d8	0.00027073058
123	0x39ede983	0.00045378142
124	0x00000000	0.0
125	0x39ede983	0.00045378142
126	0x3774e30c	1.4596397e-05
127	0x369050ef	4.3009563e-06
128	0xb7f3bdb3	-2.9056193e-05
129	0xb89050e0	-6.881519e-05
130	0x00000000	0.0
131	0xb89050e0	-6.881519e-05
132	0xb48b144c	-2.5905535e-07
133	0x36180cb7	2.2657166e-06
134	0x360eeedf	2.129869e-06
135	0xb8180ca0	-3.6251382e-05
136	0x00000000	0.0
137	0xb8180ca0	-3.6251382e-05
138	0xb7c2dd52	-2.3229662e-05
139	0xb6c35372	-5.821167e-06
140	0x38d48877	0.00010134366
141	0x38c35355	9.3138464e-05
142	0x00000000	0.0
143	0x38c35355	9.3138464e-05
144	0x3755f82b	1.275357e-05
145	0x365a8f63	3.2567993e-06
146	0xb7e0a374	-2.6778995e-05
147	0xb85a8f51	-5.2108724e-05
148	0x00000000	0.0
149	0xb85a8f51	-5.2108724e-05
150	0xb7d08d7f	-2.4861421e-05
151	0x35422b39	7.233353e-07
152	0x36f8aa79	7.4108216e-06
153	0xb7422ae7	-1.157329e-05
154	0x00000000	0.0
155	0xb7422ae7	-1.157329e-05
156	0x3747a396	1.1899412e-05
157	0xb7cc2989	-2.4338036e-05
158	0xb89e51ae	-7.549241e-05
159	0x39cc297a	0.00038940815
160	0x00000000	0.0
161	0x39cc297a	0.00038940815
162	0xb8fcba9b	-0.000120510544
163	0xb8913aa0	-6.9250586e-05
164	0x3a851a3b	0.0010154912
165	0x3a913a8c	0.001108007
166	0x00000000	0.0
167	0x3a913a8c	0.001108007
168	0x378cf993	1.6805518e-05
169	0x364a91c9	3.0185204e-06
170	0xb7b1921e	-2.1168085e-05
171	0xb84a91bc	-4.829628e-05
172	0x00000000	0.0
173	0xb84a91bc	-4.829628e-05
174	0x3a16e924	0.00057567866
175	0x38a4dc27	7.861136e-05
176	0xba24064a	-0.00062570407
177	0xbaa4dc20	-0.0012577809
178	0x00000000	0.0
179	0xbaa4dc20	-0.0012577809
180	0x3882dca5	6.239981e-05
181	0xb7b8daef	-2.2036458e-05
182	0x38ed435a	0.00011313586
183	0x39b8dae5	0.00035258304
184	0x00000000	0.0
185	0x39b8dae5	0.00035258304
186	0x3818817b	3.6360212e-05
187	0x36a08b4c	4.784588e-06
188	0xb81b421c	-3.701645e-05
189	0xb8a08b3f	-7.655331e-05
190	0x00000000	0.0
191	0xb8a08b3f	-7.655331e-05
192	0x3a0ae716	0.0005298717
193	0x389fdc18	7.6227065e-05
194	0xba2bf568	-0.00065597007
195	0xba9fdc0a	-0.0012196314
196	0x00000000	0.0
197	0xba9fdc0a	-0.0012196314
198	0xb8d10aec	-9.967931e-05
199	0xb774d41c	-1.4592919e-05
200	0x38dddee4	0.00010579618
201	0x3974d412	0.00023348656
202	0x00000000	0.0
203	0x3974d412	0.00023348656
204	0xb75da523	-1.3211075e-05
205	0xb3b04039	-8.207321e-08
206	0x36d4cf7b	6.3422463e-06
207	0x35b03fb6	1.3131564e-06
208	0x00000000	0.0
209	0x35b03fb6	1.3131564e-06
210	0xb8f5ac1b	-0.000117145675
211	0xb7d378ab	-2.520935e-05
212	0x3968c89d	0.00022199978
213	0x39d37896	0.000403349
214	0x00000000	0.0
215	0x39d37896	0.000403349
216	0x38a9979a	8.086786e-05
217	0x372af924	1.0190797e-05
218	0xb9320ad2	-0.00016979434
219	0xb92af915	-0.00016305254
220	0x00000000	0.0
221	0xb92af915	-0.00016305254
222	0xb76c0a78	-1.4069134e-05
223	0xb58d6e02	-1.0537335e-06
224	0x37acd7f6	2.0604562e-05
225	0x378d6df7	1.6859716e-05
226	0x00000000	0.0
227	0x378d6df7	1.6859716e-05
228	0xb90b3bc6	-0.0001327834
229	0xb82e91dc	-4.1620675e-05
230	0xb581cfdd	-9.671745e-07
231	0x3a2e91e5	0.0006659313
232	0x00000000	0.0
233	0x3a2e91e5	0.0006659313
234	0x36e32f71	6.77065e-06
235	0xb803fde0	-3.1469273e-05
236	0x398453ae	0.00025239348
237	0x3a03fdcb	0.00050350715
238	0x00000000	0.0
239	0x3a03fdcb	0.00050350715
240	0x3904af6b	0.00012653849
241	0x379a0464	1.8360275e-05
242	0xb9372005	-0.00017464168
243	0xb99a0458	-0.00029376405
244	0x00000000	0.0
245	0xb99a0458	-0.00029376405
246	0x37c5bf78	2.357339e-05
247	0x361c9755	2.3333898e-06
248	0xb6babb79	-5.5650567e-06
249	0xb81c974f	-3.7334215e-05
250	0x00000000	0.0
251	0xb81c974f	-3.7334215e-05
252	0x39c27da7	0.00037096182
253	0x37eaf42d	2.8008677e-05
254	0xba129f1a	-0.0005593166
255	0xb9eaf408	-0.00044813775

exp_avg_sq f4 [128, 6]
0	0x378a120e	1.645929e-05
1	0x33b0aef5	8.227463e-08
2	0x36cd50b3	6.1188707e-06
3	0x37b0af2e	2.106241e-05
4	0x00000000	0.0
5	0x37b0af2e	2.106241e-05
6	0x38a50592	7.868851e-05
7	0x34cbdaff	3.7971037e-07
8	0x37f845e5	2.9596451e-05
9	0x38cbdaf2	9.720576e-05
10	0x00000000	0.0
11	0x38cbdaf2	9.720576e-05
12	0x33b8be2e	8.602761e-08
13	0x2fed1213	4.312289e-10
14	0x330dbe6c	3.300231e-08
15	0x33ed121c	1.10394666e-07
16	0x00000000	0.0
17	0x33ed121c	1.10394666e-07
18	0x35d5b53a	1.592248e-06
19	0x3210a6a1	8.41979e-09
20	0x352e4f49	6.4935426e-07
21	0x3610a6a9	2.155468e-06
22	0x00000000	0.0
23	0x3610a6a9	2.155468e-06
24	0x331582bd	3.481067e-08
25	0x2f3dd1ec	1.7264029e-10
26	0x325c0452	1.2806668e-08
27	0x333dd205	4.4196003e-08
28	0x00000000	0.0
29	0x333dd205	4.4196003e-08
30	0x3673ec31	3.6347303e-06
31	0x329faa36	1.858744e-08
32	0x35b9d10a	1.3844412e-06
33	0x369fab32	4.758499e-06
34	0x00000000	0.0
35	0x369fab32	4.758499e-06
36	0x37d28054	2.5093708e-05
37	0x340a78ad	1.2896153e-07
38	0x37293a7e	1.0086804e-05
39	0x380a78a9	3.3014137e-05
40	0x00000000	0.0
41	0x380a78a9	3.3014137e-05
42	0x37b73b8b	2.1843027e-05
43	0x33f4b822	1.1395629e-07
44	0x3708b2ea	8.147888e-06
45	0x37f4b7e6	2.9172701e-05
46	0x00000000	0.0
47	0x37f4b7e6	2.9172701e-05
48	0x3715df74	8.933119e-06
49	0x333f782d	4.4579952e-08
50	0x36651a8c	3.4139111e-06
51	0x373f782b	1.1412466e-05
52	0x00000000	0.0
53	0x373f782b	1.1412466e-05
54	0x385b5aa2	5.2298077e-05
55	0x348e44df	2.6499671e-07
56	0x37a72bf0	1.9928411e-05
57	0x388e4502	6.783941e-05
58	0x00000000	0.0
59	0x388e4502	6.783941e-05
60	0x383e5f3b	4.538822e-05
61	0x34786030	2.3131793e-07
62	0x37925672	1.744481e-05
63	0x3878602b	5.921737e-05
64	0x00000000	0.0
65	0x3878602b	5.921737e-05
66	0x35e21e07	1.6847051e-06
67	0x32151ef5	8.67998e-09
68	0x3530c4e9	6.585165e-07
69	0x36151e2d	2.2220295e-06
70	0x00000000	0.0
71	0x36151e2d	2.2220295e-06
72	0x380d31a4	3.366325e-05
73	0x3437e6f6	1.7127226e-07
74	0x37584fdb	1.2893196e-05
75	0x3837e6f2	4.3845685e-05
76	0x00000000	0.0
77	0x3837e6f2	4.3845685e-05
78	0x30fadf31	1.8253329e-09
79	0x2d32efd0	1.0171378e-11
80	0x304aa7ec	7.3725803e-10
81	0x3132f0ae	2.603922e-09
82	0x00000000	0.0
83	0x3132f0ae	2.603922e-09
84	0x3832b65a	4.2608335e-05
85	0x34692be7	2.1715788e-07
86	0x378788e3	1.6156997e-05
87	0x38692c1b	5.5592605e-05
88	0x00000000	0.0
89	0x38692c1b	5.5592605e-05
90	0x33e22438	1.0530533e-07
91	0x300c8236	5.1116744e-10
92	0x3327b45d	3.9046757e-08
93	0x340c819e	1.308567e-07
94	0x00000000	0.0
95	0x340c819e	1.308567e-07
96	0x37c24d0e	2.3162484e-05
97	0x33fc1993	1.17393164e-07
98	0x3714a247	8.859271e-06
99	0x37fc19e8	3.0052805e-05
100	0x00000000	0.0
101	0x37fc19e8	3.0052805e-05
102	0x37931150	1.7531827e-05
103	0x33b77d94	8.544444e-08
104	0x36d80e9e	6.4390033e-06
105	0x37b77d99	2.1873786e-05
106	0x00000000	0.0
107	0x37b77d99	2.1873786e-05
108	0x38359a1d	4.3297292e-05
109	0x346c5b09	2.2012331e-07
110	0x3788a8c2	1.6291047e-05
111	0x386c5b1a	5.635163e-05
112	0x00000000	0.0
113	0x386c5b1a	5.635163e-05
114	0x36df09fa	6.6470793e-06
115	0x33118351	3.3879875e-08
116	0x362f4b58	2.6120888e-06
117	0x371184ac	8.673564e-06
118	0x00000000	0.0
119	0x371184ac	8.673564e-06
120	0x369a3939	4.5962192e-06
121	0x32c52674	2.2951305e-08
122	0x35e2bb2c	1.6892786e-06
123	0x36c5266d	5.875531e-06
124	0x00000000	0.0
125	0x36c5266d	5.875531e-06
126	0x346bb17b	2.1950648e-07
127	0x3094fdb0	1.084052e-09
128	0x33b19fbe	8.271262e-08
129	0x3494fce1	2.7751142e-07
130	0x00000000	0.0
131	0x3494fce1	2.7751142e-07
132	0x34829aed	2.432711e-07
133	0x30a695a9	1.2120626e-09
134	0x33c755b7	9.282251e-08
135	0x34a694d0	3.1028185e-07
136	0x00000000	0.0
137	0x34a694d0	3.1028185e-07
138	0x3537f3b8	6.852747e-07
139	0x3170b9ed	3.5030283e-09
140	0x3486ddb7	2.5120764e-07
141	0x3570b9e5	8.967748e-07
142	0x00000000	0.0
143	0x3570b9e5	8.967748e-07
144	0x33c9aba5	9.391014e-08
145	0x2fff3ee2	4.642891e-10
146	0x33158421	3.4811936e-08
147	0x33ff3f12	1.1885835e-07
148	0x00000000	0.0
149	0x33ff3f12	1.1885835e-07
150	0x3450e65e	1.9455317e-07
151	0x30821364	9.464256e-10
152	0x33a014df	7.454377e-08
153	0x3482110b	2.4226787e-07
154	0x00000000	0.0
155	0x3482110b	2.4226787e-07
156	0x381bba79	3.7128546e-05
157	0x3447dd4c	1.8613827e-07
158	0x376da949	1.4165716e-05
159	0x3847dd43	4.7651363e-05
160	0x00000000	0.0
161	0x3847dd43	4.7651363e-05
162	0x38982485	7.254727e-05
163	0x34c3b38a	3.6452212e-07
164	0x37dcfdfc	2.6344314e-05
165	0x38c3b382	9.3317605e-05
166	0x00000000	0.0
167	0x38c3b382	9.3317605e-05
168	0x3388ee95	6.376391e-08
169	0x2fb01c59	3.2034356e-10
170	0x32cf9057	2.416361e-08
171	0x33b01c48	8.200783e-08
172	0x00000000	0.0
173	0x33b01c48	8.200783e-08
174	0x37cd2ca1	2.4458686e-05
175	0x340502dc	1.238763e-07
176	0x371ce8f9	9.352568e-06
177	0x380502dc	3.1712334e-05
178	0x00000000	0.0
179	0x380502dc	3.1712334e-05
180	0x3783d54b	1.571574e-05
181	0x33a52021	7.6892555e-08
182	0x36c541ba	5.878709e-06
183	0x37a5205c	1.9684601e-05
184	0x00000000	0.0
185	0x37a5205c	1.9684601e-05
186	0x33befcfd	8.893583e-08
187	0x2ff7ddf6	4.508675e-10
188	0x331253f3	3.4069625e-08
189	0x33f7ded8	1.1542369e-07
190	0x00000000	0.0
191	0x33f7ded8	1.1542369e-07
192	0x37cb8a2f	2.4263833e-05
193	0x34032426	1.2213476e-07
194	0x371ae41c	9.232226e-06
195	0x3803248c	3.126687e-05
196	0x00000000	0.0
197	0x3803248c	3.126687e-05
198	0x359cbf50	1.1678585e-06
199	0x31ca9b11	5.8966028e-09
200	0x34eebed6	4.4469806e-07
201	0x35ca9aec	1.5095261e-06
202	0x00000000	0.0
203	0x35ca9aec	1.5095261e-06
204	0x32beb4c5	2.2201116e-08
205	0x2eece688	1.0772988e-10
206	0x320e45e3	8.281378e-09
207	0x32ece0ac	2.7576185e-08
208	0x00000000	0.0
209	0x32ece0ac	2.7576185e-08
210	0x368ed8f4	4.2571864e-06
211	0x32b6ad66	2.1266441e-08
212	0x35d448f1	1.581646e-06
213	0x36b6ad63	5.4442075e-06
214	0x00000000	0.0
215	0x36b6ad63	5.4442075e-06
216	0x35c514e0	1.4683719e-06
217	0x32017654	7.535693e-09
218	0x351aa091	5.7603125e-07
219	0x36017682	1.9291479e-06
220	0x00000000	0.0
221	0x36017682	1.9291479e-06
222	0x33064089	3.1258e-08
223	0x2f2e3092	1.5842463e-10
224	0x3257ab54	1.2553603e-08
225	0x332e2f89	4.0555765e-08
226	0x00000000	0.0
227	0x332e2f89	4.0555765e-08
228	0x387960d7	5.9456415e-05
229	0x34a05ce9	2.9869923e-07
230	0x37be09ad	2.265427e-05
231	0x38a05d02	7.6467186e-05
232	0x00000000	0.0
233	0x38a05d02	7.6467186e-05
234	0x379490ad	1.7710345e-05
235	0x33ba0cf0	8.663653e-08
236	0x36da5629	6.5069366e-06
237	0x37ba0ce4	2.217893e-05
238	0x00000000	0.0
239	0x37ba0ce4	2.217893e-05
240	0x35a67161	1.2400961e-06
241	0x31d77582	6.2706826e-09
242	0x34fcd24e	4.7091675e-07
243	0x35d775bc	1.6053013e-06
244	0x00000000	0.0
245	0x35d775bc	1.6053013e-06
246	0x336ff1ce	5.5866444e-08
247	0x2f9e1c02	2.8759933e-10
248	0x32b4ad66	2.103361e-08
249	0x339e1c03	7.3625436e-08
250	0x00000000	0.0
251	0x339e1c03	7.3625436e-08
252	0x37ca67f7	2.4128689e-05
253	0x3402daca	1.2186788e-07
254	0x371d8af8	9.390285e-06
255	0x3802dae7	3.1198284e-05

exp_avg f4 [128]
0	0x39caa4d5	0.00038651252
1	0xb954f3b5	-0.00020308683
2	0xb7d4c912	-2.5366e-05
3	0xb9991446	-0.0002919754
4	0x371ca2fd	9.336273e-06
5	0xb80b4134	-3.3200908e-05
6	0xba57a5cc	-0.0008226305
7	0xb9c83838	-0.0003818886
8	0xb8d929ab	-0.000103551276
9	0xba03eedb	-0.00050328457
10	0xba8dbd27	-0.0010813818
11	0xb95e6c25	-0.00021211857
12	0xba3321d4	-0.0006833349
13	0xb7656cd4	-1.3674802e-05
14	0xb9b77ace	-0.00034995977
15	0xb70394aa	-7.842822e-06
16	0xb9837bc6	-0.00025078485
17	0x39547651	0.00020261972
18	0x39d7042a	0.00041011098
19	0xb9c18f8b	-0.00036918776
20	0x396de97b	0.0002268906
21	0xb81050e0	-3.4407596e-05
22	0xb7980cac	-1.8125713e-05
23	0x3843535d	4.656926e-05
24	0xb7da8f53	-2.6054366e-05
25	0xb6c22af6	-5.786652e-06
26	0x394c297c	0.0001947041
27	0x3a113a8d	0.0005540036
28	0xb7ca91bc	-2.414814e-05
29	0xba24dc24	-0.0006288907
30	0x3938dadf	0.00017629143
31	0xb8208b3e	-3.8276652e-05
32	0xba1fdc0c	-0.0006098158
33	0x38f4d414	0.00011674329
34	0x35303ff9	6.56582e-07
35	0x39537898	0.00020167453
36	0xb8aaf91a	-8.1526305e-05
37	0x370d6dfc	8.429863e-06
38	0x39ae91e2	0.00033296557
39	0x3983fdca	0.00025175355
40	0xb91a045a	-0.00014688206
41	0xb79c974f	-1.8667108e-05
42	0xb96af414	-0.00022406905
43	0xb96ee9d2	-0.00022784554
44	0x3770b21a	1.4346582e-05
45	0x3986ef91	0.00025736963
46	0xb9cbb39d	-0.00038853
47	0x3a1a44ba	0.0005884875
48	0x371d05a5	9.359243e-06
49	0xb5428dce	-7.2476985e-07
50	0x37a45c32	1.9593255e-05
51	0xb958ca32	-0.00020674689
52	0xba955ce4	-0.0011395481
53	0xb985891e	-0.00025469897
54	0x39e7eb8b	0.00044235247
55	0xb95874b9	-0.00020642848
56	0x3a05fc54	0.0005111147
57	0xba2a8ab9	-0.00065056566
58	0x36b08ee2	5.2618425e-06
59	0x390a61e4	0.00013197173
60	0x3a614865	0.00085938565
61	0xb6f37cbd	-7.256486e-06
62	0x3785bfb8	1.5944112e-05
63	0xb6fac156	-7.473088e-06
64	0xb9752878	-0.00023380097
65	0xb78b9881	-1.6641106e-05
66	0xba77590c	-0.0009435571
67	0xb9294e84	-0.00016146345
68	0xb5e3e896	-1.6980509e-06
69	0xba88b780	-0.0010430664
70	0xbaa1c0d6	-0.0012340795
71	0x378ea9c7	1.7006778e-05
72	0x39cb6e70	0.0003880146
73	0x39b17e2a	0.0003385407
74	0xb88e4e7a	-6.785705e-05
75	0x3a37626f	0.0006995564
76	0x3941500c	0.00018435734
77	0x3a0119a2	0.0004924779
78	0x393d004c	0.00018024555
79	0x3a0c5259	0.0005352847
80	0xb94245f7	-0.00018527346
81	0x3a3b4551	0.0007143813
82	0xb93ed808	-0.0001820029
83	0xba824c3d	-0.0009940934
84	0x392f9d22	0.00016747837
85	0xb8e60738	-0.00010968599
86	0xb7583bcf	-1.28885285e-05
87	0x37c04a7f	2.2922874e-05
88	0xb9c79ba7	-0.00038072208
89	0x367b5a46	3.745446e-06
90	0xba9f24d5	-0.0012141714
91	0xb882925a	-6.226143e-05
92	0xba70c6e6	-0.00091849116
93	0xb9ec377a	-0.0004505476
94	0x3795148b	1.777175e-05
95	0x3a13c79d	0.00056373497
96	0x39189f38	0.00014555163
97	0xba35f1e4	-0.00069406466
98	0xbaeba288	-0.0017977515
99	0xb8531bc6	-5.0332186e-05
100	0xb7d5fb54	-2.5508612e-05
101	0x39a53986	0.0003151411
102	0x3904c977	0.00012663552
103	0x39e6d173	0.0004402507
104	0x39c18c5f	0.00036916413
105	0xb7456f63	-1.1768049e-05
106	0xb8ab8cf4	-8.18017e-05
107	0x39728c81	0.0002313126
108	0x37b88be0	2.1999644e-05
109	0x381ed0ff	3.786478e-05
110	0x3705ff55	7.986867e-06
111	0xb514c3e9	-5.5419383e-07
112	0x36f9b04c	7.441302e-06
113	0xbadfefd9	-0.001708503
114	0xba1db87b	-0.00060165644
115	0xb850f638	-4.9820374e-05
116	0xb88389ac	-6.27221e-05
117	0xb9e9fc98	-0.0004462942
118	0x35a8a90c	1.2566175e-06
119	0x392a0e1e	0.00016217722
120	0x39ce76fd	0.00039380035
121	0xba238125	-0.00062372006
122	0x371ee984	9.4719035e-06
123	0x39b02eaa	0.00033604103
124	0xb777ba87	-1.47657765e-05
125	0xb9b357a7	-0.00034206847
126	0xb5be07a1	-1.4158323e-06
127	0xb68a45de	-4.120854e-06

exp_avg_sq f4 [128]
0	0x36b0af2e	5.2656023e-06
1	0x37cbdaf0	2.4301436e-05
2	0x32ed121e	2.759867e-08
3	0x3510a6a7	5.388669e-07
4	0x323dd205	1.1049001e-08
5	0x359fab31	1.1896246e-06
6	0x370a78a9	8.253534e-06
7	0x36f4b7e5	7.293175e-06
8	0x363f782b	2.8531165e-06
9	0x378e4503	1.6959855e-05
10	0x37786028	1.480434e-05
11	0x35151e2c	5.555073e-07
12	0x3737e6f1	1.096142e-05
13	0x3032f0af	6.5098055e-10
14	0x37692c1b	1.3898151e-05
15	0x330c819d	3.2714173e-08
16	0x36fc19e7	7.5132007e-06
17	0x36b77d9b	5.4684474e-06
18	0x376c5b1b	1.4087908e-05
19	0x361184ac	2.168391e-06
20	0x35c5266e	1.4688828e-06
21	0x3394fce0	6.937785e-08
22	0x33a694d2	7.7570476e-08
23	0x3470b9e5	2.241937e-07
24	0x32ff3f14	2.9714592e-08
25	0x3382110b	6.056697e-08
26	0x3747dd43	1.1912841e-05
27	0x37c3b383	2.3329403e-05
28	0x32b01c48	2.0501957e-08
29	0x370502da	7.928082e-06
30	0x36a5205c	4.9211503e-06
31	0x32f7ded7	2.885592e-08
32	0x3703248c	7.816718e-06
33	0x34ca9aeb	3.773815e-07
34	0x31ece0ac	6.8940462e-09
35	0x35b6ad65	1.3610521e-06
36	0x35017682	4.8228696e-07
37	0x322e2f89	1.0138941e-08
38	0x37a05d03	1.9116798e-05
39	0x36ba0ce4	5.5447326e-06
40	0x34d775b9	4.0132525e-07
41	0x329e1c03	1.8406359e-08
42	0x3702dae8	7.799572e-06
43	0x371ea785	9.456538e-06
44	0x365fd378	3.335268e-06
45	0x36921155	4.353157e-06
46	0x36821616	3.876873e-06
47	0x3742fe50	1.1622513e-05
48	0x324a3109	1.1769097e-08
49	0x33187282	3.5494402e-08
50	0x3280e6ed	1.5006174e-08
51	0x36b7672a	5.465835e-06
52	0x378f01c2	1.7047747e-05
53	0x3698a6e1	4.5493803e-06
54	0x37111762	8.648118e-06
55	0x367aebfc	3.7390264e-06
56	0x372ee6ca	1.0424943e-05
57	0x37104142	8.598263e-06
58	0x325ea488	1.2959511e-08
59	0x35aa734a	1.269954e-06
60	0x38084f75	3.2498927e-05
61	0x322270cb	9.455287e-09
62	0x369af2ee	4.6178384e-06
63	0x3216fa2c	8.788032e-09
64	0x3578544a	9.2509856e-07
65	0x32fa584c	2.9143983e-08
66	0x37837cdb	1.5674557e-05
67	0x35e5ec07	1.7130523e-06
68	0x2fd2ece9	3.8367112e-10
69	0x3773f093	1.4539942e-05
70	0x378df7ad	1.6923843e-05
71	0x370a5c3a	8.246914e-06
72	0x36971763	4.5028733e-06
73	0x372fdf1b	1.0482759e-05
74	0x33e2f9d7	1.0569391e-07
75	0x37dd6659	2.6392912e-05
76	0x3723a126	9.753077e-06
77	0x376304a8	1.35313385e-05
78	0x378759b7	1.613503e-05
79	0x37860931	1.5978325e-05
80	0x3553744c	7.877286e-07
81	0x37aac0bc	2.0355328e-05
82	0x353815c6	6.8577026e-07
83	0x37b6b9df	2.1782644e-05
84	0x35b8f2d8	1.3779745e-06
85	0x34a131b2	3.0024745e-07
86	0x3325e631	3.8626414e-08
87	0x32d0372d	2.4239478e-08
88	0x3754c1e7	1.2681331e-05
89	0x35962096	1.1185355e-06
90	0x37bb825c	2.235284e-05
91	0x330c5f8f	3.26832e-08
92	0x3740e933	1.1498388e-05
93	0x376182ef	1.344153e-05
94	0x31cfa7f7	6.0435883e-09
95	0x379f02bb	1.8955549e-05
96	0x378135c8	1.5403042e-05
97	0x36d89a3d	6.4552573e-06
98	0x383794fd	4.3769356e-05
99	0x331cd65c	3.651654e-08
100	0x359c2a21	1.1635167e-06
101	0x364ed371	3.0819467e-06
102	0x35b45bcd	1.3437763e-06
103	0x372f29d9	1.0440556e-05
104	0x367e82f7	3.792518e-06
105	0x320fd00e	8.371002e-09
106	0x341d5826	1.4653833e-07
107	0x3624c3f3	2.4551962e-06
108	0x31985cac	4.434318e-09
109	0x34079668	1.2627572e-07
110	0x316d2d58	3.4513814e-09
111	0x32cf7d52	2.415496e-08
112	0x31fd6732	7.375001e-09
113	0x37b3fd19	2.145632e-05
114	0x36b9103c	5.5153196e-06
115	0x33c51f95	9.179272e-08
116	0x33328d36	4.1572285e-08
117	0x36abc87a	5.1195357e-06
118	0x33088bb0	3.1792013e-08
119	0x366ae655	3.5002788e-06
120	0x372ce478	1.0305193e-05
121	0x368614c3	3.995928e-06
122	0x36be2b7b	5.667503e-06
123	0x370a11a9	8.229553e-06
124	0x32206f17	9.338485e-09
125	0x371408ed	8.823566e-06
126	0x2eee1572	1.08267964e-10
127	0x3335568a	4.2221053e-08
