CubeTest/results/ppo/MoveToGoal/MoveToGoal-2176.pt (torch, 145735 bytes, 11 tensors)

network_body._body_endoder.seq_layers.0.weight f4 [128, 1]
0	0xbebb3da5	-0.3657047
1	0xbfa0229e	-1.2510564
2	0xbe697731	-0.22799374
3	0xbef329d5	-0.47492853
4	0xbf35dd67	-0.7104096
5	0x3e74523a	0.23859492
6	0x3e1b8f25	0.15191324
7	0x3f928e7d	1.1449734
8	0xbeab3daa	-0.33445483
9	0xbfa9b4e3	-1.3258327
10	0x3f4bb69e	0.79575527
11	0xbc89c6d1	-0.016818436
12	0x3e927ec2	0.28612334
13	0x3e91f015	0.2850348
14	0x4009064f	2.14101
15	0x3b81471c	0.0039452445
16	0xbe1468a1	-0.14493038
17	0xbcbb311d	-0.022850567
18	0xbf4e0cb4	-0.80488133
19	0xbf7af219	-0.9802566
20	0x3f92dec7	1.1474236
21	0xbe1010ee	-0.14068958
22	0x3e7200f3	0.23633175
23	0x3ce4aaeb	0.027913531
24	0xbf6a26cb	-0.91465443
25	0x401a83e6	2.4143004
26	0xbeb53d65	-0.35398403
27	0x3f18ec4c	0.5973556
28	0x3eb44fc5	0.3521711
29	0xbf880608	-1.062684
30	0xbf116547	-0.5679516
31	0xbf474167	-0.7783417
32	0x3e8bd85a	0.273135
33	0xbcc6305f	-0.024192987
34	0x3e3ec500	0.18629837
35	0x3db98d81	0.09060193
36	0xbf97c41c	-1.1856723
37	0x3f90d1df	1.1314048
38	0xbe8875df	-0.26652429
39	0x3fc3a2e7	1.5284089
40	0xbf873ed6	-1.0566051
41	0xbfe18997	-1.7620114
42	0x3f0bf0fb	0.5466458
43	0x3e1da62f	0.15395425
44	0xbeee8fc4	-0.4659406
45	0x400cd150	2.2002754
46	0x3f60c93c	0.8780706
47	0xbef01afe	-0.46895593
48	0x3f27338c	0.6531303
49	0x3eaa8c5d	0.33310214
50	0xbf848381	-1.0352632
51	0xbf775f54	-0.96629834
52	0xbd59bfdb	-0.053161483
53	0xbea88bff	-0.3291931
54	0xbf3f094b	-0.74623555
55	0xbfba0786	-1.4533546
56	0x3ed298d2	0.41132218
57	0xbe34b491	-0.17647006
58	0xbfad8dde	-1.355892
59	0xbf407797	-0.7518248
60	0x3f3b7ac3	0.73234195
61	0xbf2728ea	-0.65296805
62	0xbf281b88	-0.6566701
63	0x3f61a1d7	0.88137573
64	0x3f157662	0.5838376
65	0x3bc47d73	0.0059964
66	0xbfdca361	-1.7237359
67	0x3f833387	1.02501
68	0xbe684cde	-0.22685573
69	0x3f4723bf	0.7778892
70	0x3fe9bd90	1.8260975
71	0x3f4fb77f	0.8113937
72	0x3ee1ec7b	0.44125733
73	0xbf3ed4c2	-0.7454339
74	0x3e544503	0.20729451
75	0xbf2c92b9	-0.6741138
76	0xbeadf81b	-0.33978352
77	0x3fbf19cc	1.4929748
78	0x3f1b3be6	0.6063827
79	0x3f815bab	1.01061
80	0x3f2e044f	0.67975324
81	0xbf89e765	-1.0773741
82	0x3ea256ff	0.31706998
83	0xbf6cce59	-0.9250236
84	0xbff860d4	-1.940455
85	0xbfb8a821	-1.4426309
86	0xbe4094d5	-0.18806775
87	0x3f1e00be	0.6171988
88	0x3d1425f9	0.036169026
89	0x3e7bfb0b	0.24607484
90	0x3f0dbb99	0.55364376
91	0x3c6e95cb	0.014562081
92	0x3c2e201a	0.010627771
93	0x3f3a3a56	0.72745264
94	0x3f6c9b29	0.92424256
95	0x3fc9125d	1.5708729
96	0xbeb04e12	-0.34434563
97	0x3dfcff60	0.123533964
98	0x3d8b5724	0.0680373
99	0xbe141025	-0.14459284
100	0x401cdebd	2.4510949
101	0x3ff60bfb	1.9222406
102	0xbf83deda	-1.0302384
103	0x3da34444	0.07972005
104	0xbeadd07c	-0.33948123
105	0x3f148371	0.58013064
106	0x3ea62994	0.32453597
107	0x3f9bcf64	1.2172666
108	0xbfac8b51	-1.3480016
109	0x3fc82118	1.56351
110	0xbe6e6b5d	-0.23283143
111	0xbe437a74	-0.19089681
112	0x3ebf5e10	0.37376451
113	0x3eaca1d7	0.33717224
114	0x3f782c01	0.96942145
115	0x40042dfd	2.065307
116	0xbe4b3e03	-0.19847874
117	0x3eb2ddf5	0.34934965
118	0x3e3fed0b	0.18742768
119	0x3dae4519	0.08509273
120	0xbef59bd7	-0.4797046
121	0xbff5015e	-1.9141042
122	0xbf998a3d	-1.1995312
123	0x3eb6a901	0.35675815
124	0x3fa09fce	1.2548769
125	0x3fe17e18	1.7616606
126	0x3f5cf878	0.86316633
127	0xbfd4ff12	-1.6640341

network_body._body_endoder.seq_layers.0.bias f4 [128]
0	0x00000000	0.0
1	0x00000000	0.0
2	0x00000000	0.0
3	0x00000000	0.0
4	0x00000000	0.0
5	0x00000000	0.0
6	0x00000000	0.0
7	0x00000000	0.0
8	0x00000000	0.0
9	0x00000000	0.0
10	0x00000000	0.0
11	0x00000000	0.0
12	0x00000000	0.0
13	0x00000000	0.0
14	0x00000000	0.0
15	0x00000000	0.0
16	0x00000000	0.0
17	0x00000000	0.0
18	0x00000000	0.0
19	0x00000000	0.0
20	0x00000000	0.0
21	0x00000000	0.0
22	0x00000000	0.0
23	0x00000000	0.0
24	0x00000000	0.0
25	0x00000000	0.0
26	0x00000000	0.0
27	0x00000000	0.0
28	0x00000000	0.0
29	0x00000000	0.0
30	0x00000000	0.0
31	0x00000000	0.0
32	0x00000000	0.0
33	0x00000000	0.0
34	0x00000000	0.0
35	0x00000000	0.0
36	0x00000000	0.0
37	0x00000000	0.0
38	0x00000000	0.0
39	0x00000000	0.0
40	0x00000000	0.0
41	0x00000000	0.0
42	0x00000000	0.0
43	0x00000000	0.0
44	0x00000000	0.0
45	0x00000000	0.0
46	0x00000000	0.0
47	0x00000000	0.0
48	0x00000000	0.0
49	0x00000000	0.0
50	0x00000000	0.0
51	0x00000000	0.0
52	0x00000000	0.0
53	0x00000000	0.0
54	0x00000000	0.0
55	0x00000000	0.0
56	0x00000000	0.0
57	0x00000000	0.0
58	0x00000000	0.0
59	0x00000000	0.0
60	0x00000000	0.0
61	0x00000000	0.0
62	0x00000000	0.0
63	0x00000000	0.0
64	0x00000000	0.0
65	0x00000000	0.0
66	0x00000000	0.0
67	0x00000000	0.0
68	0x00000000	0.0
69	0x00000000	0.0
70	0x00000000	0.0
71	0x00000000	0.0
72	0x00000000	0.0
73	0x00000000	0.0
74	0x00000000	0.0
75	0x00000000	0.0
76	0x00000000	0.0
77	0x00000000	0.0
78	0x00000000	0.0
79	0x00000000	0.0
80	0x00000000	0.0
81	0x00000000	0.0
82	0x00000000	0.0
83	0x00000000	0.0
84	0x00000000	0.0
85	0x00000000	0.0
86	0x00000000	0.0
87	0x00000000	0.0
88	0x00000000	0.0
89	0x00000000	0.0
90	0x00000000	0.0
91	0x00000000	0.0
92	0x00000000	0.0
93	0x00000000	0.0
94	0x00000000	0.0
95	0x00000000	0.0
96	0x00000000	0.0
97	0x00000000	0.0
98	0x00000000	0.0
99	0x00000000	0.0
100	0x00000000	0.0
101	0x00000000	0.0
102	0x00000000	0.0
103	0x00000000	0.0
104	0x00000000	0.0
105	0x00000000	0.0
106	0x00000000	0.0
107	0x00000000	0.0
108	0x00000000	0.0
109	0x00000000	0.0
110	0x00000000	0.0
111	0x00000000	0.0
112	0x00000000	0.0
113	0x00000000	0.0
114	0x00000000	0.0
115	0x00000000	0.0
116	0x00000000	0.0
117	0x00000000	0.0
118	0x00000000	0.0
119	0x00000000	0.0
120	0x00000000	0.0
121	0x00000000	0.0
122	0x00000000	0.0
123	0x00000000	0.0
124	0x00000000	0.0
125	0x00000000	0.0
126	0x00000000	0.0
127	0x00000000	0.0

network_body._body_endoder.seq_layers.2.weight f4 [128, 128]
0	0xbda87413	-0.082252644
1	0x3d3d4db6	0.04621669
2	0x3c3aa71f	0.011392384
3	0x3c95d0ef	0.018288104
4	0xbcda6fd9	-0.026664661
5	0x3ceaed63	0.028677648
6	0xbd9eb41d	-0.07749198
7	0xbe310b01	-0.17289354
8	0xbd104d69	-0.035230074
9	0xbdefcd29	-0.11709053
10	0x3d1457f9	0.03621671
11	0x3d74ea19	0.059793565
12	0x3e035ef9	0.12829198
13	0x3b87ee2a	0.0041482644
14	0xbcc73f98	-0.024322316
15	0xbd0148d5	-0.0315636
16	0xbd86ec39	-0.06588025
17	0x3b2b75b0	0.0026162677
18	0xbdcfeb79	-0.10152335
19	0xbd3a3525	-0.04546084
20	0x3d0b5380	0.03401518
21	0x3d9d6cc3	0.0768676
22	0xbd8a6dc8	-0.0675922
23	0x3c551cec	0.013007384
24	0x3d34fe6e	0.044187956
25	0xbdb639ae	-0.0889772
26	0xbcb58a25	-0.022160599
27	0x3d8a3185	0.06747726
28	0x3b1ea67a	0.0024208114
29	0x3e2e9842	0.17050269
30	0x3dcebc17	0.10094469
31	0xbe26b287	-0.1627904
32	0x3dbc6dc9	0.09200627
33	0x3d26642a	0.040622868
34	0xbdd5f910	-0.104478955
35	0x3e83b204	0.25721753
36	0xbd234338	-0.039859027
37	0xbdf1bf4d	-0.11804066
38	0x3da66d80	0.08126354
39	0xbcd07990	-0.02544859
40	0x3d8b8b68	0.06813699
41	0xbdfdebdf	-0.123985045
42	0xbd9ebcf5	-0.077508844
43	0x3dbd3457	0.09238499
44	0x3d8008cc	0.06251678
45	0x3c8df9b7	0.017330987
46	0x3e0fb567	0.14034043
47	0xbdc88ff5	-0.097930826
48	0x3d83a21d	0.06427405
49	0xbc47ae32	-0.0121875275
50	0x3cf835c5	0.030299077
51	0xbcba88cb	-0.022770306
52	0xbcca25a6	-0.024676155
53	0x3da6aa91	0.08138002
54	0xbe3f66dc	-0.18691581
55	0xbd4fb2ab	-0.0507075
56	0xbd5d6d37	-0.054059234
57	0x3b25eaf6	0.002531705
58	0x3dd49298	0.10379523
59	0x3b132c1e	0.0022456716
60	0xbe043cd3	-0.12913828
61	0x3d8277b7	0.0637049
62	0x3d413dc9	0.047178064
63	0x3ca43fb5	0.02004991
64	0x3c9db4cd	0.019251252
65	0xbc7fadee	-0.015605433
66	0xbd1a5b9c	-0.03768502
67	0x3e21c4e0	0.15797758
68	0xbe20c51c	-0.15700191
69	0xbc669896	-0.014074465
70	0xbc40e34f	-0.011772945
71	0x3d8e1fae	0.06939636
72	0xbdbf56f0	-0.09342754
73	0x3dc971d7	0.09836166
74	0x3df60471	0.12012566
75	0xbcdb9e82	-0.02680898
76	0xbca15989	-0.019696014
77	0xbe753bbb	-0.23948567
78	0xbda18ea7	-0.07888537
79	0x3da4236f	0.08014571
80	0xbd88330e	-0.06650363
81	0x3dbcea96	0.09224431
82	0xbe71a827	-0.23599301
83	0x3d2b9ccc	0.04189758
84	0xbbde1786	-0.0067777066
85	0xbe077d46	-0.13231382
86	0xbc3c1e1f	-0.011481791
87	0x3dd93d34	0.10607377
88	0x3e35a92a	0.17740312
89	0x3d87aaaf	0.06624352
90	0xbd1aa33f	-0.03775334
91	0x3d711965	0.05886211
92	0x3dc1c72b	0.094618164
93	0xbb02d4a0	-0.001996316
94	0xbd95f7ff	-0.07322692
95	0xbdf1b1f7	-0.11801522
96	0x3de49094	0.111603886
97	0xbda099e0	-0.07841849
98	0x3c28afa6	0.010295784
99	0x3d838d62	0.06423451
100	0x3d682b8e	0.056682162
101	0xbe34de69	-0.17662968
102	0xbd712636	-0.05887433
103	0x3d1bb0fb	0.03801058
104	0xbd714209	-0.058900867
105	0x3dce587a	0.10075469
106	0x3c579e42	0.01316029
107	0xbc9c5e42	-0.019087914
108	0x3cebeeda	0.028800417
109	0xbd47ecbf	-0.048809763
110	0xbccb968f	-0.024852065
111	0x3c0802b9	0.00830143
112	0x3d6871cf	0.05674916
113	0x3d1e1e8d	0.038603354
114	0xbd96aa40	-0.07356691
115	0xbcfdac30	-0.030965894
116	0x3e5c2845	0.21499737
117	0xbddfc44b	-0.10926112
118	0xbcc67de4	-0.024229951
119	0x3d83f04e	0.06442319
120	0xbdc2f9ed	-0.09520326
121	0x3d6c0cc4	0.05762936
122	0x3d82af0b	0.06381043
123	0xbdd1de8c	-0.102475256
124	0xbdccd37a	-0.100012735
125	0xbd599a49	-0.053125653
126	0x3d94a9df	0.07258963
127	0xbd4f22fc	-0.050570473
128	0xbd91ceeb	-0.071195446
129	0x3cc97f5b	0.02459686
130	0xbc945fcc	-0.018112086
131	0xbd39188d	-0.04518943
132	0x3d17b3f1	0.03703684
133	0x3d548dc4	0.05189301
134	0xbd79e9b7	-0.061013903
135	0x3dbe96c4	0.093061
136	0x3ddb7d03	0.107172035
137	0x3d2891c4	0.041154638
138	0x3be5e358	0.007015627
139	0xbd595eb9	-0.05306885
140	0xbd437451	-0.04771835
141	0x3d448aa1	0.04798377
142	0x3e4d607b	0.20056336
143	0xbdb56197	-0.088565044
144	0x3d93c7b8	0.07215828
145	0xbd985616	-0.074382946
146	0x3c8755f3	0.016520476
147	0x3c31f52a	0.010861674
148	0xbe07587b	-0.13217346
149	0x3d407124	0.0469829
150	0x3dd1ecf3	0.102502726
151	0xbd8878e0	-0.0666368
152	0xbd677f89	-0.05651811
153	0x3ca00029	0.019531326
154	0x3bcb8e22	0.006212012
155	0x3a2b25cb	0.0006528764
156	0xbe3896fd	-0.18026347
157	0xbc9a1477	-0.018808587
158	0x3bb41d0a	0.005496626
159	0xbe6afd16	-0.22948107
160	0xbca69367	-0.020333959
161	0x3e054b13	0.1301692
162	0x3e1df3c7	0.15425025
163	0xbe0adc6d	-0.13560648
164	0xbd4339e2	-0.047662623
165	0x3d197645	0.037466306
166	0x3dbdcdef	0.09267794
167	0xba7d909e	-0.0009672734
168	0xbdb448b8	-0.088029325
169	0xbcd65615	-0.026164094
170	0x3d0f614e	0.035004906
171	0x3cd8c407	0.02646066
172	0x3e0d5e9c	0.13805622
173	0xbd04c2de	-0.032412402
174	0x3d037230	0.03209132
175	0xbd1b8537	-0.03796884
176	0x3d3434b9	0.043995593
177	0xbe06b5a1	-0.13155223
178	0xbd5f63d4	-0.054538563
179	0x3b068df7	0.0020531395
180	0xbce5ee34	-0.028067686
181	0x3e0dad38	0.13835609
182	0x3d5c76f0	0.053824365
183	0xbd977f21	-0.07397295
184	0xbbe4d775	-0.0069836923
185	0x3dcf1de3	0.10113122
186	0xbc9d397b	-0.019192448
187	0x3d7de99d	0.06199037
188	0xbd93501d	-0.07193015
189	0x3db32424	0.08747128
190	0xbdcb2331	-0.099188216
191	0xbdf9e189	-0.122012205
192	0x3cb12d08	0.021627918
193	0x3df0b08b	0.11752423
194	0x3cb37bc7	0.021909608
195	0x3e252b27	0.16129743
196	0xbdb72e41	-0.08944369
197	0x3ca6f541	0.020380618
198	0xbd6ca861	-0.057777766
199	0x3d58a955	0.052895863
200	0x3d4d4f08	0.0501242
201	0x3e07b253	0.13251619
202	0x3d8fa8b8	0.070146024
203	0xbd21d016	-0.039505087
204	0xbd641ac7	-0.0556896
205	0x3d4eb35b	0.050464015
206	0xbe6fa1c1	-0.23401548
207	0x3d174428	0.036930233
208	0x3a92c5a2	0.0011197815
209	0xbdc20c6d	-0.09475026
210	0x3db6709b	0.089081965
211	0xbc5d2d3d	-0.013499555
212	0xbd025dea	-0.031827845
213	0xbccdafab	-0.02510818
214	0x3df3f9f8	0.11912912
215	0xbcb623f6	-0.022233944
216	0xbcb6c952	-0.022312794
217	0x3dda67b6	0.106643125
218	0xbb9ccf84	-0.00478548
219	0x3c3bacf6	0.011454811
220	0x3e102f68	0.14080584
221	0x3dac047d	0.083992936
222	0xbe50cee3	-0.20391421
223	0xbcd430cc	-0.025902174
224	0xbc96a6c3	-0.018390065
225	0xbdc95b87	-0.098319106
226	0x3be2d8a8	0.0069228
227	0x3d880446	0.0664144
228	0x3def185b	0.11674567
229	0x3d3fbad5	0.046809036
230	0xbdd33a0f	-0.10313808
231	0x3d2925c5	0.041295785
232	0xbcb9dabf	-0.022687314
233	0xbe3772de	-0.17914912
234	0xbd55d95f	-0.052209254
235	0x3d1981a6	0.037477158
236	0x3d8166d5	0.06318442
237	0xbcc3eb8c	-0.023916028
238	0x3d896a90	0.06709778
239	0x3e843750	0.2582345
240	0x3da015da	0.07816668
241	0xbd5c3bd5	-0.053767998
242	0xbdc8f02e	-0.09811436
243	0x3e210a23	0.15726523
244	0xbd367d40	-0.04455304
245	0xbc9d83c6	-0.019227874
246	0xbd522f9b	-0.05131493
247	0x3d6eefd3	0.058334183
248	0xbe2a46bd	-0.16628547
249	0x3cdbfded	0.02685448
250	0xbc14ac91	-0.009074346
251	0x3d9b9457	0.07596653
252	0x3c9b14fe	0.018930908
253	0x3e422aa9	0.18961586
254	0x3dd63227	0.104587846
255	0x3c8562af	0.016282408

network_body._body_endoder.seq_layers.2.bias f4 [128]
0	0x00000000	0.0
1	0x00000000	0.0
2	0x00000000	0.0
3	0x00000000	0.0
4	0x00000000	0.0
5	0x00000000	0.0
6	0x00000000	0.0
7	0x00000000	0.0
8	0x00000000	0.0
9	0x00000000	0.0
10	0x00000000	0.0
11	0x00000000	0.0
12	0x00000000	0.0
13	0x00000000	0.0
14	0x00000000	0.0
15	0x00000000	0.0
16	0x00000000	0.0
17	0x00000000	0.0
18	0x00000000	0.0
19	0x00000000	0.0
20	0x00000000	0.0
21	0x00000000	0.0
22	0x00000000	0.0
23	0x00000000	0.0
24	0x00000000	0.0
25	0x00000000	0.0
26	0x00000000	0.0
27	0x00000000	0.0
28	0x00000000	0.0
29	0x00000000	0.0
30	0x00000000	0.0
31	0x00000000	0.0
32	0x00000000	0.0
33	0x00000000	0.0
34	0x00000000	0.0
35	0x00000000	0.0
36	0x00000000	0.0
37	0x00000000	0.0
38	0x00000000	0.0
39	0x00000000	0.0
40	0x00000000	0.0
41	0x00000000	0.0
42	0x00000000	0.0
43	0x00000000	0.0
44	0x00000000	0.0
45	0x00000000	0.0
46	0x00000000	0.0
47	0x00000000	0.0
48	0x00000000	0.0
49	0x00000000	0.0
50	0x00000000	0.0
51	0x00000000	0.0
52	0x00000000	0.0
53	0x00000000	0.0
54	0x00000000	0.0
55	0x00000000	0.0
56	0x00000000	0.0
57	0x00000000	0.0
58	0x00000000	0.0
59	0x00000000	0.0
60	0x00000000	0.0
61	0x00000000	0.0
62	0x00000000	0.0
63	0x00000000	0.0
64	0x00000000	0.0
65	0x00000000	0.0
66	0x00000000	0.0
67	0x00000000	0.0
68	0x00000000	0.0
69	0x00000000	0.0
70	0x00000000	0.0
71	0x00000000	0.0
72	0x00000000	0.0
73	0x00000000	0.0
74	0x00000000	0.0
75	0x00000000	0.0
76	0x00000000	0.0
77	0x00000000	0.0
78	0x00000000	0.0
79	0x00000000	0.0
80	0x00000000	0.0
81	0x00000000	0.0
82	0x00000000	0.0
83	0x00000000	0.0
84	0x00000000	0.0
85	0x00000000	0.0
86	0x00000000	0.0
87	0x00000000	0.0
88	0x00000000	0.0
89	0x00000000	0.0
90	0x00000000	0.0
91	0x00000000	0.0
92	0x00000000	0.0
93	0x00000000	0.0
94	0x00000000	0.0
95	0x00000000	0.0
96	0x00000000	0.0
97	0x00000000	0.0
98	0x00000000	0.0
99	0x00000000	0.0
100	0x00000000	0.0
101	0x00000000	0.0
102	0x00000000	0.0
103	0x00000000	0.0
104	0x00000000	0.0
105	0x00000000	0.0
106	0x00000000	0.0
107	0x00000000	0.0
108	0x00000000	0.0
109	0x00000000	0.0
110	0x00000000	0.0
111	0x00000000	0.0
112	0x00000000	0.0
113	0x00000000	0.0
114	0x00000000	0.0
115	0x00000000	0.0
116	0x00000000	0.0
117	0x00000000	0.0
118	0x00000000	0.0
119	0x00000000	0.0
120	0x00000000	0.0
121	0x00000000	0.0
122	0x00000000	0.0
123	0x00000000	0.0
124	0x00000000	0.0
125	0x00000000	0.0
126	0x00000000	0.0
127	0x00000000	0.0

action_model._discrete_distribution.branches.0.weight f4 [5, 128]
0	0xbba8b902	-0.005149008
1	0xbb6cec72	-0.0036151675
2	0xbc7bac93	-0.015360969
3	0xbb60b1e8	-0.0034285728
4	0xbbfacf22	-0.0076540867
5	0x3b2de334	0.0026533129
6	0xbbaa8766	-0.005204129
7	0x3c410e93	0.01178326
8	0xbaaa8e28	-0.0013012337
9	0xb9aaca84	-0.00032575813
10	0xbbf7fb67	-0.0075678113
11	0x3c046eb8	0.008083038
12	0xbb63d83b	-0.0034766335
13	0x3c064c23	0.008196863
14	0xbbac94af	-0.005266748
15	0x3bea8af7	0.007157679
16	0x3cc26c6f	0.023733346
17	0xbada9215	-0.0016675616
18	0x3c331ee6	0.01093266
19	0xbac1ec4c	-0.0014795153
20	0x3aa4ba6a	0.0012567763
21	0xbbfdd9e2	-0.007746921
22	0xbbec914a	-0.0072194682
23	0x3bcefe6f	0.006316952
24	0xbc2cdab4	-0.01055019
25	0xbade7577	-0.0016972263
26	0x3b66f64d	0.0035242022
27	0xbac11f13	-0.0014733992
28	0x3b6c7bea	0.00360846
29	0xbbdc47ef	-0.0067224423
30	0x3c70d592	0.014699357
31	0x3ba87d20	0.005141869
32	0xbc3e54eb	-0.011616926
33	0xbbb00c84	-0.0053725857
34	0x3c257fca	0.010101268
35	0xbb37212f	-0.0027943363
36	0x3be800f8	0.0070801936
37	0xbc0c8ce9	-0.0085785175
38	0xbc1bb14c	-0.00950272
39	0x3b70c90f	0.0036740934
40	0x3b875c95	0.0041309097
41	0xbba861bb	-0.0051386035
42	0xbc51433d	-0.0127723785
43	0xbb621333	-0.0034496307
44	0xbbb832ce	-0.0056212908
45	0xba92956b	-0.0011183446
46	0x3b4218b8	0.0029616784
47	0x3c25feb0	0.010131523
48	0x3be001af	0.006836138
49	0x3b2e6de5	0.0026615795
50	0x3a9ecbaf	0.0012115146
51	0x3bded99b	0.006800843
52	0x3c062ce6	0.008189416
53	0xbb969c96	-0.004596303
54	0x3bef02d5	0.007294039
55	0x3bc9511b	0.0061437017
56	0x3b52b353	0.0032150343
57	0x3c1e23c9	0.0096520865
58	0x3ba63e99	0.00507338
59	0xbb864914	-0.004098067
60	0x3c13f4fb	0.009030576
61	0xb92f2dab	-0.00016706313
62	0x3c8fdefd	0.017562384
63	0x3c2ea0d5	0.0106584625
64	0xbad6ab50	-0.0016377959
65	0x3b1f735a	0.002433023
66	0x3c052843	0.008127275
67	0x3bdc9ed0	0.006732799
68	0xbbc8b98f	-0.006125636
69	0xbabc7ddd	-0.0014380772
70	0xb9730b67	-0.00023178534
71	0x3bf65e30	0.0075185522
72	0xbc083ec7	-0.008315749
73	0x3aa875e0	0.0012852512
74	0xbc9f318d	-0.019432807
75	0xbb671ce0	-0.0035265014
76	0x3ac16f95	0.0014757985
77	0x3bd78b20	0.0065778643
78	0xbc1a4bcf	-0.009417488
79	0xbc2aa2da	-0.010414803
80	0xbb7a3650	-0.0038179345
81	0xbc8b421f	-0.016999302
82	0xba97a242	-0.0011568742
83	0xbc3f46fb	-0.011674638
84	0xbafa5c6d	-0.0019101031
85	0x3bab132b	0.005220791
86	0xbb932c25	-0.0044913464
87	0x3bcbbccf	0.006217576
88	0x3b9956c3	0.0046795323
89	0x3c54641a	0.012963319
90	0xbcb2cc75	-0.021826008
91	0xbc8a3ced	-0.016874755
92	0xbb500f20	-0.0031747296
93	0x3c7f438f	0.015580072
94	0xbb88d204	-0.0041754264
95	0x3b54e59d	0.0032485493
96	0x3c3db2c9	0.01157827
97	0xb95d0fe3	-0.0002108212
98	0x3c9556a9	0.0182298
99	0x3a2ada3b	0.0006517504
100	0xbb010fc7	-0.0019693242
101	0x3bbe7337	0.0058120745
102	0xbb9d581f	-0.0048017646
103	0xbccecb28	-0.025243357
104	0xbc8aaeae	-0.016928997
105	0x3b1777ab	0.00231121
106	0xba073fd1	-0.00051593507
107	0xbbd0df00	-0.00637424
108	0x3c1bb5fe	0.00950384
109	0xbc2315b3	-0.009953904
110	0x3c8bfb34	0.017087556
111	0xba772e50	-0.00094292033
112	0x39e1dc82	0.00043079635
113	0x3a33a567	0.0006852955
114	0x3bdcaedf	0.0067347134
115	0xbc333b16	-0.01093938
116	0x3cad5e6c	0.021163188
117	0xbab1a88c	-0.0013554259
118	0x3ccd2963	0.025044149
119	0xbc64d3f5	-0.01396655
120	0xbca8510d	-0.02054646
121	0x3c688a37	0.014193109
122	0xbc53cc5d	-0.012927142
123	0xbbb53112	-0.0055295313
124	0x3ad4622d	0.0016203575
125	0x3c3791bd	0.01120418
126	0xbcc03564	-0.023462959
127	0xbbfeaa2b	-0.0077717504
128	0xbbe74ae7	-0.0070584896
129	0xbb49fa83	-0.0030819483
130	0x3bded6b0	0.006800495
131	0xbb6dd64f	-0.0036291068
132	0xbb9ea4c3	-0.0048414185
133	0xb96e134f	-0.00022704642
134	0x3be3dd82	0.006953896
135	0xba70e6d8	-0.0009189672
136	0xbc33b717	-0.010968945
137	0x3ab65f5b	0.0013913916
138	0xbc3b9736	-0.011449626
139	0xbc1935ec	-0.009351235
140	0xbb70c03d	-0.0036735677
141	0x3c3d4117	0.011551163
142	0xbbdd91c2	-0.0067617605
143	0xbbfdd713	-0.007746586
144	0xbaa485b9	-0.001255206
145	0x3c5df963	0.013548228
146	0xbb25fa35	-0.0025326137
147	0x39f377e5	0.000464379
148	0xbc069dd4	-0.00821634
149	0x3b9677dd	0.0045919255
150	0xba10d3bc	-0.0005524715
151	0x3a77b97d	0.0009449942
152	0xbb0828c7	-0.0020776258
153	0xbbb761d9	-0.005596381
154	0x3be78417	0.007065307
155	0xbb5130e8	-0.003192002
156	0x3be6fbab	0.007049044
157	0x3c571e6a	0.01312981
158	0x3ba1dece	0.0049398905
159	0xbadacc8a	-0.0016693037
160	0xbb035667	-0.0020040513
161	0xbb8f7732	-0.004378223
162	0x3bc9fef3	0.0061644255
163	0xbac98886	-0.001537577
164	0x3bd70f88	0.0065631308
165	0x3b8393ff	0.0040154452
166	0xbb9e415f	-0.00482957
167	0xbc2726f8	-0.010202162
168	0xbc5ce483	-0.013482216
169	0xbc5fc3fd	-0.013657567
170	0x3c8b9a1a	0.017041255
171	0x3b993f1f	0.004676714
172	0xbc6231fa	-0.013805861
173	0x3c0e5ffd	0.008689878
174	0x3c2c5ef0	0.010520682
175	0x3a86952a	0.0010267843
176	0xba49b54f	-0.00076945586
177	0x3bf223aa	0.0073895054
178	0xbbbe0788	-0.0057992376
179	0xbab36179	-0.0013685665
180	0x3bca4bee	0.0061736023
181	0xbc4c765d	-0.012479392
182	0xbb51eff8	-0.0032033902
183	0x3c06ae53	0.008220273
184	0xbb3da7d1	-0.0028939138
185	0x3a0305cf	0.0004998119
186	0x3c69963d	0.014257011
187	0x3c58cdeb	0.013232688
188	0x3b854b5b	0.004067821
189	0xbb3fb888	-0.0029254276
190	0xbb427293	-0.0029670342
191	0xbbaf02e4	-0.0053409208
192	0xbbbc370b	-0.0057438663
193	0xbbe1f410	-0.0068955496
194	0xbb9b2870	-0.004735045
195	0xbb15c573	-0.0022853285
196	0xbbf1ff92	-0.0073852027
197	0xbb1f1cd5	-0.002427866
198	0xbb6f7fc0	-0.003654465
199	0x3c893f82	0.016753916
200	0xbc0ab57b	-0.00846612
201	0xbc13ac13	-0.009013194
202	0x3c55300a	0.013011942
203	0x3c175d29	0.00923852
204	0xb92f9878	-0.000167461
205	0x3b6394e2	0.0034726192
206	0x3c13849a	0.009003783
207	0x3b5d1b03	0.0033738024
208	0xbace9cad	-0.0015763246
209	0xbc181c59	-0.009284102
210	0xba64f047	-0.0008733314
211	0x3b3548ca	0.0027661794
212	0xbba0bf8d	-0.004905647
213	0x3b112d61	0.0022152292
214	0x3c02aa93	0.007975238
215	0xbbbd9935	-0.005786086
216	0x3c4c2038	0.012458853
217	0x3aa47c7b	0.0012549305
218	0x3cacd33a	0.021096814
219	0x3c52cc55	0.012866099
220	0x3c5555ff	0.013020991
221	0xbc5595ef	-0.013036235
222	0x3ba7fe1c	0.0051267277
223	0x3ba9e8da	0.005185229
224	0xbb10091b	-0.0021978084
225	0xbc6b04f7	-0.014344445
226	0xb7f3bb45	-2.9055062e-05
227	0xbb53dc55	-0.0032327373
228	0x3aa33c1f	0.001245383
229	0xbc77baaa	-0.015120188
230	0x3bfdf938	0.0077506565
231	0x3a0ebcf2	0.0005445025
232	0xbbc7d5d4	-0.0060984883
233	0x3bcdc648	0.0062797405
234	0xbbac694a	-0.005261575
235	0x3bba05b0	0.0056769475
236	0xbbaf3606	-0.0053470163
237	0xbb8298a8	-0.003985483
238	0x3b96844e	0.0045934087
239	0xbc0ca471	-0.008584128
240	0x3c1b1748	0.009466
241	0xbc005cff	-0.007834672
242	0xb6e21818	-6.7381297e-06
243	0xbbf55eb3	-0.0074880957
244	0x3c26288f	0.010141506
245	0x3c1232ad	0.008923215
246	0xbbd60e78	-0.0065324865
247	0xbb448a5a	-0.002998969
248	0xbb46d417	-0.0030338818
249	0x3a703065	0.0009162485
250	0x3c7a01cb	0.015259217
251	0x3a516148	0.00079872133
252	0xbb5d46a8	-0.0033764038
253	0xbb49865b	-0.0030750248
254	0x3a463dc5	0.0007562305
255	0xbc06fd5f	-0.008239119

action_model._discrete_distribution.branches.0.bias f4 [5]
0	0x00000000	0.0
1	0x00000000	0.0
2	0x00000000	0.0
3	0x00000000	0.0
4	0x00000000	0.0

network_body._body_endoder.seq_layers.0.weight f4 [128, 1]
0	0x3e7645f7	0.24050127
1	0xbf867585	-1.0504614
2	0x3e284d0d	0.16435643
3	0xbeeb16ad	-0.45915738
4	0x3ee22427	0.44168207
5	0x3e800c7a	0.2500952
6	0xbeb5e8f2	-0.35529286
7	0x3f8b5e3b	1.0888132
8	0x3f9b2297	1.2119931
9	0x3f8da543	1.1066059
10	0x3f9093e8	1.1295137
11	0xbfd3c2b1	-1.654379
12	0x3e3b49a4	0.1828981
13	0x3e1b09cf	0.1514046
14	0xbd085e8c	-0.033293292
15	0x3f16d510	0.5891886
16	0x3ea440f0	0.32080793
17	0xbe0cfca5	-0.13768251
18	0x3f7ae577	0.98006386
19	0x3ff96d57	1.9486493
20	0xbff53c92	-1.915911
21	0xbf83b374	-1.028914
22	0xbfd7f833	-1.6872619
23	0xbf63ec99	-0.89032894
24	0x3ecad085	0.39612213
25	0xbf6768d1	-0.9039431
26	0xbfbac142	-1.4590228
27	0xbf812548	-1.0089502
28	0x3f7b0652	0.9805652
29	0xbfa3fda4	-1.281178
30	0x3ebe01a9	0.37110642
31	0xbf511f01	-0.81687933
32	0xbf226090	-0.6342859
33	0x3f718317	0.9434065
34	0xbf12ade3	-0.5729658
35	0x3e8a2f27	0.269891
36	0x3ebdfb1a	0.37105638
37	0xbe96b15a	-0.29432184
38	0x3f474552	0.7784015
39	0xbfb1f796	-1.3903682
40	0xbeb3b9e7	-0.3510277
41	0x3f2bc15d	0.67091924
42	0xbf973da6	-1.1815689
43	0x3dee5e5a	0.1163909
44	0xbfaf3505	-1.3688055
45	0x3eebb575	0.46036878
46	0x3e78e844	0.24307352
47	0x400a20aa	2.1582437
48	0x3ec31045	0.3809835
49	0xbeb0de04	-0.34544384
50	0x3f8330cc	1.0249267
51	0x3f94f53d	1.1637341
52	0xbf529b30	-0.8226805
53	0xbcc77c89	-0.024351375
54	0xbf26ea80	-0.6520157
55	0xbcda7870	-0.026668757
56	0x3f9c05c6	1.2189262
57	0x3eff8a0f	0.49910018
58	0xbd7a9ce2	-0.06118477
59	0x3fd9b2a8	1.7007647
60	0xbf953106	-1.1655586
61	0xbf2e970e	-0.6819924
62	0xbf9a0141	-1.2031633
63	0x3ff4c788	1.9123392
64	0x3ecccba2	0.3999911
65	0xbf134c36	-0.57538164
66	0x3ef58399	0.47951964
67	0xbf85e23b	-1.0459665
68	0xbea38850	-0.31939936
69	0x3f645591	0.89193064
70	0xbfc8bef2	-1.5683272
71	0x403104ae	2.7659106
72	0xbf71199d	-0.9417971
73	0x3efb3f53	0.4907175
74	0xbfac7065	-1.34718
75	0xbf91fe75	-1.1405779
76	0x3ece266a	0.40263683
77	0xbefc888c	-0.49322927
78	0x3f1a8098	0.6035247
79	0xbf2f429b	-0.68461007
80	0xbff02761	-1.8762017
81	0x3fa6c188	1.3027811
82	0xbfa8d813	-1.3190941
83	0x3f02b69c	0.5105989
84	0x3eaed8e7	0.34149858
85	0xbf1e0a4a	-0.6173445
86	0x3f89d187	1.0767068
87	0x3cfdf26d	0.030999387
88	0xbf257754	-0.64635205
89	0x3f32a071	0.69776064
90	0xbeffc06f	-0.49951503
91	0xbf0ca7dd	-0.5494364
92	0x3f3396db	0.7015206
93	0xc0120379	-2.281462
94	0x3ec8ccfd	0.39218894
95	0x3e5096b1	0.20369984
96	0xbfbfcb75	-1.4983965
97	0x3e333d77	0.17503916
98	0x3e74b3d7	0.23896728
99	0xbf0a169d	-0.53940755
100	0xbf8dab86	-1.106797
101	0xbf72b6da	-0.9481026
102	0x3f8fbcc6	1.1229484
103	0x3ec37844	0.38177693
104	0x3ed617c6	0.41815013
105	0x3f25e00a	0.6479498
106	0x3f7a1925	0.9769462
107	0xbf26ab3c	-0.6510503
108	0xbeb19a3e	-0.3468799
109	0xbf8fbc40	-1.1229324
110	0xbe5fbc13	-0.21849088
111	0xc03d6105	-2.9590466
112	0x3f5a6920	0.8531666
113	0xbf480675	-0.7813485
114	0x3f0e5a67	0.55606693
115	0xbf28cccc	-0.65937495
116	0xbf886a6b	-1.0657476
117	0x3e41656f	0.1888635
118	0x3ed36c42	0.41293532
119	0x3edb8973	0.42878303
120	0x3eaffa1a	0.343705
121	0x3dd3c95e	0.10341142
122	0xbf85e07e	-1.0459135
123	0x3e8f9b6e	0.2804827
124	0x3fc6c965	1.5530211
125	0x3f4c2ec2	0.79758847
126	0xc007e60f	-2.1234167
127	0x3eeb9296	0.46010274

network_body._body_endoder.seq_layers.0.bias f4 [128]
0	0x00000000	0.0
1	0x00000000	0.0
2	0x00000000	0.0
3	0x00000000	0.0
4	0x00000000	0.0
5	0x00000000	0.0
6	0x00000000	0.0
7	0x00000000	0.0
8	0x00000000	0.0
9	0x00000000	0.0
10	0x00000000	0.0
11	0x00000000	0.0
12	0x00000000	0.0
13	0x00000000	0.0
14	0x00000000	0.0
15	0x00000000	0.0
16	0x00000000	0.0
17	0x00000000	0.0
18	0x00000000	0.0
19	0x00000000	0.0
20	0x00000000	0.0
21	0x00000000	0.0
22	0x00000000	0.0
23	0x00000000	0.0
24	0x00000000	0.0
25	0x00000000	0.0
26	0x00000000	0.0
27	0x00000000	0.0
28	0x00000000	0.0
29	0x00000000	0.0
30	0x00000000	0.0
31	0x00000000	0.0
32	0x00000000	0.0
33	0x00000000	0.0
34	0x00000000	0.0
35	0x00000000	0.0
36	0x00000000	0.0
37	0x00000000	0.0
38	0x00000000	0.0
39	0x00000000	0.0
40	0x00000000	0.0
41	0x00000000	0.0
42	0x00000000	0.0
43	0x00000000	0.0
44	0x00000000	0.0
45	0x00000000	0.0
46	0x00000000	0.0
47	0x00000000	0.0
48	0x00000000	0.0
49	0x00000000	0.0
50	0x00000000	0.0
51	0x00000000	0.0
52	0x00000000	0.0
53	0x00000000	0.0
54	0x00000000	0.0
55	0x00000000	0.0
56	0x00000000	0.0
57	0x00000000	0.0
58	0x00000000	0.0
59	0x00000000	0.0
60	0x00000000	0.0
61	0x00000000	0.0
62	0x00000000	0.0
63	0x00000000	0.0
64	0x00000000	0.0
65	0x00000000	0.0
66	0x00000000	0.0
67	0x00000000	0.0
68	0x00000000	0.0
69	0x00000000	0.0
70	0x00000000	0.0
71	0x00000000	0.0
72	0x00000000	0.0
73	0x00000000	0.0
74	0x00000000	0.0
75	0x00000000	0.0
76	0x00000000	0.0
77	0x00000000	0.0
78	0x00000000	0.0
79	0x00000000	0.0
80	0x00000000	0.0
81	0x00000000	0.0
82	0x00000000	0.0
83	0x00000000	0.0
84	0x00000000	0.0
85	0x00000000	0.0
86	0x00000000	0.0
87	0x00000000	0.0
88	0x00000000	0.0
89	0x00000000	0.0
90	0x00000000	0.0
91	0x00000000	0.0
92	0x00000000	0.0
93	0x00000000	0.0
94	0x00000000	0.0
95	0x00000000	0.0
96	0x00000000	0.0
97	0x00000000	0.0
98	0x00000000	0.0
99	0x00000000	0.0
100	0x00000000	0.0
101	0x00000000	0.0
102	0x00000000	0.0
103	0x00000000	0.0
104	0x00000000	0.0
105	0x00000000	0.0
106	0x00000000	0.0
107	0x00000000	0.0
108	0x00000000	0.0
109	0x00000000	0.0
110	0x00000000	0.0
111	0x00000000	0.0
112	0x00000000	0.0
113	0x00000000	0.0
114	0x00000000	0.0
115	0x00000000	0.0
116	0x00000000	0.0
117	0x00000000	0.0
118	0x00000000	0.0
119	0x00000000	0.0
120	0x00000000	0.0
121	0x00000000	0.0
122	0x00000000	0.0
123	0x00000000	0.0
124	0x00000000	0.0
125	0x00000000	0.0
126	0x00000000	0.0
127	0x00000000	0.0

network_body._body_endoder.seq_layers.2.weight f4 [128, 128]
0	0x3d91b3da	0.07114382
1	0xbd61cf29	-0.055129204
2	0x3e3f7904	0.18698508
3	0x398cb425	0.000268371
4	0x3c927a99	0.017880725
5	0x3e10699d	0.14102788
6	0x3dad1450	0.0845114
7	0x3d90c627	0.070690446
8	0xbda4302c	-0.080170006
9	0x3c8cec8a	0.017202634
10	0x3d47f010	0.048812926
11	0x3e4306fa	0.1904563
12	0x3d910454	0.07080904
13	0x3cc06553	0.023485815
14	0xbdc8ee9d	-0.09811137
15	0xbd302249	-0.043001447
16	0x3d17e27b	0.037081223
17	0x3d438d82	0.047742374
18	0x3ca9e849	0.020740645
19	0xbda269c0	-0.079303265
20	0xbe2a5e27	-0.16637479
21	0x3df4d09c	0.119538516
22	0xbe05e34f	-0.13074993
23	0xbccccc90	-0.024999887
24	0xbc2b4584	-0.010453586
25	0x3e384993	0.17996816
26	0x3c0c6637	0.008569292
27	0x3e0c3dd4	0.1369546
28	0x3d87119d	0.06595156
29	0x3d575fae	0.05258148
30	0xbd3249b8	-0.043527335
31	0x3a498781	0.0007687733
32	0x3dedd432	0.11612739
33	0xbd285d88	-0.041104823
34	0x3d9beab3	0.07613125
35	0x3c9a752e	0.018854704
36	0x3d9080e2	0.070558324
37	0x3d730985	0.05933525
38	0x3c6015bd	0.013677058
39	0x3e20c550	0.15700269
40	0x3d8f6dac	0.0700334
41	0xbdb51304	-0.088415176
42	0xbc16f913	-0.009214657
43	0xbe0940a5	-0.13403566
44	0x3d0a81af	0.033815082
45	0x3e3eb0f6	0.18622193
46	0x3e061eaf	0.13097642
47	0x3db6046a	0.08887561
48	0x3e1ed295	0.15510018
49	0xbe1248f1	-0.14285637
50	0x3db827ad	0.089919426
51	0x3d7f95cd	0.06239872
52	0x3deb62c0	0.114934444
53	0xbd8163a3	-0.06317832
54	0xbdfae3c7	-0.12250476
55	0xbbe1653e	-0.006878524
56	0xbd83da71	-0.06438149
57	0xbe2b8aab	-0.16752116
58	0x3da27747	0.079329066
59	0xbdc5d8ff	-0.09660529
60	0xbd5fdea5	-0.05465569
61	0x3e611285	0.21979721
62	0x3e007dee	0.12548038
63	0x3d5840f9	0.052796338
64	0xbd87d998	-0.066332996
65	0xbcf95769	-0.030437188
66	0x3cbe4f4e	0.023231175
67	0xbd68e68c	-0.05686049
68	0xbe0cfdee	-0.13768741
69	0x3cf6ece4	0.030142255
70	0xbd9c41f0	-0.07629764
71	0xbc2d01bd	-0.0105594965
72	0x3e281d07	0.16417323
73	0x3d94c26a	0.07263644
74	0x3e1a6289	0.1507665
75	0xbc316d6b	-0.01082931
76	0x3d64fa3d	0.05590271
77	0x3c4c7294	0.012478489
78	0x3b9f4ddd	0.004861577
79	0x3d529970	0.05141586
80	0x3d2029bc	0.0391023
81	0xbc163c66	-0.009169674
82	0xbc4e56a5	-0.0125939
83	0x3d1ea89f	0.03873503
84	0xbc6ace49	-0.014331409
85	0x3d8dc4f8	0.069223344
86	0x3c8330f4	0.016014554
87	0x3d74e537	0.05978891
88	0x3d7281e9	0.059205923
89	0x3c52d9e7	0.012869335
90	0x3de0b67d	0.10972307
91	0xbd443c1e	-0.047908895
92	0x3aff9a16	0.0019500877
93	0x3e2caede	0.16863582
94	0xbc74ae18	-0.014934085
95	0xbe291b0c	-0.16514224
96	0x3cd41039	0.025886642
97	0xbc80c33e	-0.015718099
98	0x3d11f925	0.035637993
99	0xbd4891e8	-0.048967272
100	0xbe134036	-0.14379963
101	0xbe2bb5db	-0.16768591
102	0x3b87d2ab	0.0041449866
103	0xbd0a2e7d	-0.03373574
104	0xbcb3e9ae	-0.021962013
105	0x3e25f780	0.16207695
106	0xbd46d208	-0.048540145
107	0xbd13bf04	-0.03607084
108	0xbdb018b9	-0.085984655
109	0xbe03d2be	-0.1287336
110	0xbc27aee8	-0.010234572
111	0xbd9d91ba	-0.07693811
112	0xbcf0c4a5	-0.029390642
113	0xbd034c0b	-0.032054942
114	0xbdbffc72	-0.09374322
115	0xbc56a947	-0.013101882
116	0xbc0d315c	-0.008617725
117	0x3e15529a	0.14582291
118	0x3c9ac72e	0.018893804
119	0xba4551a0	-0.00075271167
120	0xbd982227	-0.07428389
121	0x3d865b38	0.06560367
122	0x3d30a30a	0.043124236
123	0x3cd80947	0.026371611
124	0xbe83299c	-0.25617683
125	0xbd10e89f	-0.035378095
126	0x3e19889f	0.14993523
127	0xbdecc58f	-0.11561119
128	0xbce66fa7	-0.028129412
129	0xbd8bebfb	-0.06832119
130	0xbbd154fe	-0.0063883057
131	0xbd83f61a	-0.064434245
132	0x3d8ff9a5	0.07030038
133	0xbba0f5a1	-0.0049120937
134	0x3d80badd	0.06285641
135	0x3dc0d1f7	0.094150476
136	0xbe1cf5e8	-0.15328181
137	0xbda408e6	-0.0800951
138	0xbd8f8a1f	-0.070087664
139	0x3dbb0160	0.09131122
140	0xbdf86621	-0.121288545
141	0x3df965b3	0.12177601
142	0xbde56061	-0.112000234
143	0xbd09c9df	-0.033639785
144	0x3d3118a9	0.04323641
145	0xbcaf73ac	-0.021417461
146	0x3dcbc8b5	0.09950391
147	0x3de78318	0.11304301
148	0xbb1b0f16	-0.0023660115
149	0x3e0ce60e	0.13759634
150	0x3939ada2	0.00017707658
151	0xbdd1447e	-0.10218142
152	0x3dcdf9d9	0.1005742
153	0x3d8b24bc	0.06794116
154	0xbdbf2d36	-0.09334795
155	0xbcf1013e	-0.029419538
156	0x3e4f9010	0.20269799
157	0xbd2ae875	-0.041725595
158	0x3d930b45	0.07179884
159	0x3d85cb89	0.06532962
160	0xbd88b37e	-0.066748604
161	0x3ba048f3	0.0048915087
162	0xbcb02ed7	-0.02150671
163	0xbdce48ba	-0.10072465
164	0xbd1be7de	-0.038062923
165	0xbca013b1	-0.01954064
166	0x3dc2fab0	0.09520471
167	0x3ce79953	0.028271353
168	0x3d32d3e5	0.04365911
169	0xbc7d8d9f	-0.01547566
170	0xbcd14b2d	-0.025548542
171	0x3dea4f0e	0.1144086
172	0xbc87fd3a	-0.01660024
173	0x3d8b88c7	0.068131976
174	0x3d84e13b	0.06488272
175	0x3a55545c	0.00081378757
176	0x3e79725d	0.24360032
177	0xbd7a11d6	-0.061052166
178	0x3d595be9	0.053066168
179	0xbdfd97a2	-0.12382437
180	0x3d98c656	0.074597046
181	0xbd4143f9	-0.047183964
182	0x3ba292f5	0.0049613663
183	0xbdad3e74	-0.084591776
184	0xbe00a20f	-0.1256182
185	0xbcb928da	-0.022602487
186	0xbdea9e25	-0.11455945
187	0x3d4aec38	0.049541682
188	0x3c2e0bbf	0.010622918
189	0x3de3f2aa	0.11130269
190	0x3d5c5996	0.053796373
191	0xbe166e20	-0.14690447
192	0xbc5a35fd	-0.013318536
193	0xbd4cc252	-0.049990006
194	0xbc8483f5	-0.016176203
195	0x3df56348	0.11981827
196	0x3d61967a	0.055075146
197	0x3de9e94e	0.114214525
198	0xbceb7b80	-0.028745413
199	0x3c3e0479	0.011597746
200	0xbd4a4052	-0.049377747
201	0x3e3381a4	0.17529923
202	0xbddf8af4	-0.10915175
203	0x3d061432	0.032734104
204	0xbabf40ff	-0.0014591514
205	0xbe279ba5	-0.16367967
206	0x3dc85960	0.09782672
207	0x39888cdd	0.00026044893
208	0xbd5611ef	-0.052263197
209	0x3cf252c8	0.029580489
210	0xbdec8d05	-0.11550335
211	0x3d09d5c5	0.033651132
212	0x3d2cffc5	0.04223611
213	0xbdb93aad	-0.09044395
214	0x3da0f035	0.07858316
215	0xbcf6769e	-0.030085858
216	0x3dfaec80	0.1225214
217	0x3da40010	0.080078244
218	0xbdf324be	-0.118722424
219	0xbdbef168	-0.09323388
220	0x3d3d6513	0.04623897
221	0x3c56ffa2	0.013122471
222	0x3c631678	0.013860337
223	0x3c7ce7b2	0.0154361
224	0x3d96c061	0.07360912
225	0xbda296ea	-0.07938941
226	0x3d696c76	0.056988202
227	0x3ce782ac	0.028260551
228	0x3ddee4d8	0.10883492
229	0x3c9f9813	0.019481694
230	0x3bd8c1de	0.0066149076
231	0x3c80badb	0.0157141
232	0xbc7061bf	-0.014671742
233	0x3da0c16c	0.07849392
234	0xbc48a88d	-0.012247217
235	0x3df0be6c	0.1175507
236	0x3d6fb2c4	0.058520094
237	0x3d8c02d5	0.06836478
238	0xbdd74825	-0.10511807
239	0x3d7d72c6	0.061877035
240	0x3d859489	0.065224715
241	0x3dc23799	0.09483261
242	0x3c0ff44b	0.008786271
243	0x3da090d4	0.07840124
244	0xbc474846	-0.012163227
245	0x3e150da5	0.14555986
246	0xbc959488	-0.018259302
247	0xbe3a5bf0	-0.18199134
248	0xbe543b96	-0.20725855
249	0xbd0018ef	-0.03127378
250	0x3a95721a	0.0011401803
251	0xbe291649	-0.16512407
252	0xbd5617ee	-0.052268915
253	0xbe40f964	-0.18845135
254	0x3c4a3db0	0.012343809
255	0xbdb87ba1	-0.09007955

network_body._body_endoder.seq_layers.2.bias f4 [128]
0	0x00000000	0.0
1	0x00000000	0.0
2	0x00000000	0.0
3	0x00000000	0.0
4	0x00000000	0.0
5	0x00000000	0.0
6	0x00000000	0.0
7	0x00000000	0.0
8	0x00000000	0.0
9	0x00000000	0.0
10	0x00000000	0.0
11	0x00000000	0.0
12	0x00000000	0.0
13	0x00000000	0.0
14	0x00000000	0.0
15	0x00000000	0.0
16	0x00000000	0.0
17	0x00000000	0.0
18	0x00000000	0.0
19	0x00000000	0.0
20	0x00000000	0.0
21	0x00000000	0.0
22	0x00000000	0.0
23	0x00000000	0.0
24	0x00000000	0.0
25	0x00000000	0.0
26	0x00000000	0.0
27	0x00000000	0.0
28	0x00000000	0.0
29	0x00000000	0.0
30	0x00000000	0.0
31	0x00000000	0.0
32	0x00000000	0.0
33	0x00000000	0.0
34	0x00000000	0.0
35	0x00000000	0.0
36	0x00000000	0.0
37	0x00000000	0.0
38	0x00000000	0.0
39	0x00000000	0.0
40	0x00000000	0.0
41	0x00000000	0.0
42	0x00000000	0.0
43	0x00000000	0.0
44	0x00000000	0.0
45	0x00000000	0.0
46	0x00000000	0.0
47	0x00000000	0.0
48	0x00000000	0.0
49	0x00000000	0.0
50	0x00000000	0.0
51	0x00000000	0.0
52	0x00000000	0.0
53	0x00000000	0.0
54	0x00000000	0.0
55	0x00000000	0.0
56	0x00000000	0.0
57	0x00000000	0.0
58	0x00000000	0.0
59	0x00000000	0.0
60	0x00000000	0.0
61	0x00000000	0.0
62	0x00000000	0.0
63	0x00000000	0.0
64	0x00000000	0.0
65	0x00000000	0.0
66	0x00000000	0.0
67	0x00000000	0.0
68	0x00000000	0.0
69	0x00000000	0.0
70	0x00000000	0.0
71	0x00000000	0.0
72	0x00000000	0.0
73	0x00000000	0.0
74	0x00000000	0.0
75	0x00000000	0.0
76	0x00000000	0.0
77	0x00000000	0.0
78	0x00000000	0.0
79	0x00000000	0.0
80	0x00000000	0.0
81	0x00000000	0.0
82	0x00000000	0.0
83	0x00000000	0.0
84	0x00000000	0.0
85	0x00000000	0.0
86	0x00000000	0.0
87	0x00000000	0.0
88	0x00000000	0.0
89	0x00000000	0.0
90	0x00000000	0.0
91	0x00000000	0.0
92	0x00000000	0.0
93	0x00000000	0.0
94	0x00000000	0.0
95	0x00000000	0.0
96	0x00000000	0.0
97	0x00000000	0.0
98	0x00000000	0.0
99	0x00000000	0.0
100	0x00000000	0.0
101	0x00000000	0.0
102	0x00000000	0.0
103	0x00000000	0.0
104	0x00000000	0.0
105	0x00000000	0.0
106	0x00000000	0.0
107	0x00000000	0.0
108	0x00000000	0.0
109	0x00000000	0.0
110	0x00000000	0.0
111	0x00000000	0.0
112	0x00000000	0.0
113	0x00000000	0.0
114	0x00000000	0.0
115	0x00000000	0.0
116	0x00000000	0.0
117	0x00000000	0.0
118	0x00000000	0.0
119	0x00000000	0.0
120	0x00000000	0.0
121	0x00000000	0.0
122	0x00000000	0.0
123	0x00000000	0.0
124	0x00000000	0.0
125	0x00000000	0.0
126	0x00000000	0.0
127	0x00000000	0.0

value_heads.value_heads.extrinsic.weight f4 [1, 128]
0	0x3e51b42a	0.20478883
1	0x3ddc246d	0.10749135
2	0xbdc5cf78	-0.09658712
3	0x3e1d2693	0.15346746
4	0xbc8a9433	-0.01691637
5	0xbdb036ee	-0.08604227
6	0x3e264931	0.16238858
7	0xbe3b25b1	-0.18276097
8	0xbc7f6cfc	-0.015589949
9	0x3d669ac0	0.056299925
10	0xbe1a0a17	-0.15042911
11	0xbe259661	-0.16170646
12	0x3e34833b	0.17628185
13	0x3e385309	0.18000425
14	0x3e574b71	0.21024872
15	0xbe1a5c93	-0.15074377
16	0x3e2d9698	0.16951978
17	0x3dc4a714	0.0960218
18	0xbe4fd73a	-0.20296946
19	0x3d569088	0.05238393
20	0x3e4c450c	0.19948214
21	0x3e1e868c	0.15481013
22	0x3e564032	0.20922926
23	0x3d3c3df4	0.04595752
24	0xbd436547	-0.047704007
25	0x3df55bad	0.119803764
26	0x3d8af5a1	0.06785131
27	0x3e131630	0.14363933
28	0xbe5b7ef2	-0.21435145
29	0xbe093b7b	-0.13401596
30	0x3e17f350	0.1483891
31	0x3e2fc37d	0.17164417
32	0x3e21eddf	0.15813397
33	0xbe3db84f	-0.1852734
34	0xbc8aa57b	-0.01692461
35	0xbdbb2d6c	-0.09139523
36	0x3ba91c45	0.0051608407
37	0x3d157ecc	0.036497876
38	0x3e31d2b4	0.17365533
39	0x3e538722	0.20657018
40	0xbd7437e8	-0.05962363
41	0x3e1810ed	0.14850207
42	0xbdeb19e3	-0.11479547
43	0x3c6e331c	0.014538553
44	0xbdf6472e	-0.12025295
45	0x3d714284	0.058901325
46	0x3d4d6c52	0.05015213
47	0xbe2d425a	-0.16919842
48	0x3e0d98dd	0.13827844
49	0x3dba4cc4	0.09096673
50	0x3e56f3f3	0.20991497
51	0xbd6ba472	-0.057529874
52	0x3d951eb0	0.07281244
53	0xbe21e71e	-0.1581082
54	0xbd1e9b7d	-0.038722504
55	0x3e126328	0.14295638
56	0xbe10070d	-0.1406519
57	0xbd5023cd	-0.050815392
58	0xbe23764d	-0.15963097
59	0xbdbcd9c8	-0.09221226
60	0xbc58933f	-0.0132187
61	0xbe55d220	-0.20880938
62	0xbc51951d	-0.012791899
63	0xbd89a62b	-0.06721147
64	0x3aea5741	0.0017878787
65	0xbd669585	-0.056294937
66	0xbc52c067	-0.012863255
67	0xbc9d6f2c	-0.01921805
68	0x3e27322a	0.1632773
69	0x3e23972d	0.15975638
70	0xbe063552	-0.13106278
71	0x3e1fe0ec	0.15613145
72	0x3e40d361	0.18830635
73	0xbe107f3f	-0.1411104
74	0xbe16e37a	-0.14735213
75	0x3e10a78e	0.14126417
76	0x3d80e7ee	0.06294237
77	0xbdfcc9d9	-0.12343187
78	0xbd85b77b	-0.06529137
79	0xbe31ed0c	-0.17375582
80	0x3e3783d6	0.17921385
81	0x3e50c2bf	0.2038679
82	0xbdb90e0d	-0.09035883
83	0xbca36960	-0.019947708
84	0xbe50f582	-0.20406154
85	0x3d0bd079	0.034134362
86	0xbe4a0dab	-0.19731776
87	0xbd8c07de	-0.06837438
88	0x3d922c6d	0.0713738
89	0x3d8a0824	0.06739834
90	0xbaa3daf3	-0.0012501165
91	0xbe287545	-0.16450985
92	0xbd7b1e69	-0.0613083
93	0x3cb9f05a	0.022697616
94	0x3db1d0fc	0.08682439
95	0xbd6686c3	-0.056280863
96	0xbdf0615f	-0.11737322
97	0xbddb860c	-0.10718927
98	0xbe0cf10d	-0.13763829
99	0xbcea2d56	-0.028586071
100	0xbe5b413f	-0.21411608
101	0x3d5f8ada	0.05457578
102	0x3e0067c7	0.12539588
103	0x3e13e687	0.14443408
104	0xbd0145be	-0.031560652
105	0x3e03e1f1	0.12879159
106	0x3e06dbd6	0.13169798
107	0x3e003162	0.12518838
108	0x3dff1410	0.124549985
109	0x3dd08c3c	0.101829976
110	0x3cd26cac	0.025686584
111	0xbde437d1	-0.11143459
112	0x3cdbfe41	0.026854636
113	0xbdb85ef5	-0.090024866
114	0x3dbb894f	0.09157049
115	0x3e3c5de8	0.18395197
116	0x3e5917f2	0.2120054
117	0xbe100df6	-0.14067826
118	0x3e51c0a5	0.20483644
119	0x3d5b54cc	0.053547665
120	0x3d8dc455	0.06922213
121	0x3e3901ad	0.18067046
122	0xbdec869e	-0.11549114
123	0x3db254c9	0.08707578
124	0x3e3b600b	0.18298356
125	0xbdde586e	-0.108567104
126	0xbe229de7	-0.15880547
127	0xbe0d596e	-0.13803646
