CubeTest/results/ppo/MoveToGoal/MoveToGoal-1088.onnx (onnx, 72461 bytes, 7 tensors)

action_model._continuous_distribution.log_sigma f4 [1, 2]
0.0 0.0
00000000: 0000 0000 0000 0000

action_model._continuous_distribution.mu.bias f4 [2]
0.0 0.0
00000000: 0000 0000 0000 0000

action_model._continuous_distribution.mu.weight f4 [2, 128]
0.019861257 0.029646074 0.017117899 0.004090821 -0.018426424 0.022547396 -0.010971027 0.0039951378
0.010258536 0.012934672 -0.014449859 0.020815706 -0.003759954 -0.01668515 0.00698458 -0.0081113
0.0061218436 -0.029166607 -0.0064296736 -0.003038345 0.017998232 -0.0006873543 0.007282705 0.00781786
0.019374168 -0.0055658314 -0.00025874257 0.001630376 -0.029206276 -0.012255563 -0.0012764761 -0.012729487
0.01998576 0.011247812 0.0042610345 -0.0023989896 -0.024829239 0.0035462913 0.01855269 0.0030151112
0.004169904 0.0037513927 -0.005164458 0.0014951495 -0.0026679377 -0.0024628823 -0.029761827 0.022667076
-0.042460676 -0.03386375 0.015536849 0.007670385 -0.0041317577 0.00658695 -0.022660842 0.0019332679
-0.011984299 0.00225546 0.008330192 -0.003563119 -0.019557681 -0.031088183 -0.021597894 -0.008480403
0.010211128 -0.010657773 -0.0033119004 -0.004356788 0.01837131 -0.0058470457 -0.048225638 0.011521543
-0.00160537 -0.03886625 -0.011024653 0.015860489 0.009133647 -0.028972883 0.015173788 -0.017069655
0.016420338 -0.040997416 0.011928718 -0.021164805 0.012612696 0.0022195305 0.012107752 0.006616469
0.0022794695 -0.002936266 -0.002962215 -0.031634156 0.011765587 -0.01023999 0.025029568 0.020028928
-0.03171739 -0.017865404 -0.03475633 -0.03541928 0.017411707 0.01739065 -0.005773334 0.0076550166
0.008728831 -0.03190903 -0.024079552 0.019201113 -0.031106094 0.0038787741 0.03557538 -0.0013763601
0.027774036 0.01185606 0.03444479 0.00065411156 -0.00045065075 0.029589195 0.024241619 0.028289234
0.020040592 0.009373538 0.0029899168 0.0042495476 0.0058317124 0.0018108407 0.009163298 -0.029097227
-0.014555591 -0.01246888 0.026124353 -0.008731791 0.011177303 -0.012459813 0.01443543 -0.030149186
-0.005932013 0.004092617 -0.022075832 -0.024869679 0.019623825 0.0022586996 -0.013052431 -0.0023235313
0.038647007 -0.012497297 0.006160085 -0.030332332 -0.0006125656 0.004732044 0.009049679 -0.0060785916
-0.02214269 -0.01119977 0.007809069 0.0053202123 0.012226613 0.004442305 -0.015914349 -0.0019549555
-0.006347167 -0.028244374 0.00022028021 0.009899805 -0.008165292 -0.008105639 0.018485736 -0.010810875
0.018032482 -0.02337726 0.0077205817 0.019001147 0.022855563 0.015125562 0.018632362 -0.012740703
0.032111432 0.025843728 0.015786745 0.0040749083 -0.04207559 0.014986283 0.0004654785 0.01895834
-0.030871017 0.003872261 -0.0015372451 -0.022837179 0.0051846043 0.013542187 0.0016270066 0.017818632
-0.0030381978 0.009904048 0.013109043 -0.0016525319 0.027063115 -0.008065681 -0.048211325 -0.020353682
-0.014033291 -0.024502823 0.0337694 -0.012663796 -0.007353706 -0.010323183 -0.0041954857 -0.009967483
-0.027689984 0.00077268406 0.0036127863 0.022233175 -0.0052185548 0.0067297467 0.0019295964 0.03358192
-0.0039723134 -0.000755385 0.032922532 -0.024574693 -0.002691591 -0.020675391 0.0017875404 0.008195533
0.010218661 0.027050707 -0.0010550985 -0.012232731 0.018864168 0.031532746 -0.008193237 -0.028046181
-0.010453035 0.034076855 0.020178514 0.014881149 -0.006904214 -0.007868673 0.024019659 -0.013965947
0.005982843 0.00032041484 -0.015519241 0.016545976 -0.0012207 -0.007859476 0.014753166 -0.0070172907
0.00029334862 -0.0014183427 -0.01937594 -0.0012178126 0.014322038 0.0012220197 0.0040331776 -0.03190283
00000000: 13b4 a23c 53dc f23c d63a 8c3c 4b0c 863b
00000010: 03f3 96bc 51b5 b83c d3bf 33bc a5e9 823b
00000020: 6b13 283c f2eb 533c 1abf 6cbc b385 aa3c
00000030: 8f69 76bb 4caf 88bc e7de e43b 42e5 04bc
00000040: bf99 c83b cfee eebc 03b0 d2bb f81e 47bb
00000050: 0771 933c 912f 34ba c2a3 ee3b 7b16 003c
00000060: 93b6 9e3c 9461 b6bb d7a7 87b9 57b2 d53a
00000070: 0042 efbc 8fcb 48bc 6e4f a7ba 578f 50bc
00000080: 2db9 a33c be48 383c 26a0 8b3b 5e38 1dbb
00000090: b066 cbbc e568 683b d0fb 973c 2c99 453b
000000a0: b1a3 883b edd9 753b 9d3a a9bb e4f8 c33a
000000b0: 91d8 2ebb 4f68 21bb 13cf f3bc 4eb0 b93c
000000c0: 3feb 2dbd b7b4 0abd 458e 7e3c da57 fb3b
000000d0: b263 87bb 57d7 d73b 3ba3 b9bc b565 fd3a
000000e0: cb59 44bc 57d0 133b 5c7b 083c 3883 69bb
000000f0: 6e37 a0bc a5ac febc 11ee b0bc 63f1 0abc
00000100: 934c 273c f19d 2ebc 780c 59bb 63c3 8ebb
00000110: 6e7f 963c 9398 bfbb 3f88 45bd dbc4 3c3c
00000120: 476b d2ba 3832 1fbd bfa0 34bc dbed 813c
00000130: 4ba5 153c 8a58 edbc 7b9b 783c a9d5 8bbc
00000140: f283 863c e8ec 27bd ab70 433c d061 adbc
00000150: 7ba5 4e3c 8b75 113b 985f 463c f7ce d83b
00000160: 2763 153b 5e6e 40bb b921 42bb d192 01bd
00000170: 73c4 403c a2c5 27bc cf0a cd3c b513 a43c
00000180: 18ea 01bd 785a 92bc a75c 0ebd cf13 11bd
00000190: ffa2 8e3c d676 8e3c 3c2e bdbb efd6 fa3b
000001a0: 5f03 0f3c 0bb3 02bd 7b42 c5bc a74b 9d3c
000001b0: 35d2 febc 0833 7e3b 7db7 113d fb66 b4ba
000001c0: 6086 e33c eb3f 423c fb15 0d3d af78 2b3a
000001d0: 5245 ecb9 0a65 f23c 5c96 c63c d3be e73c
000001e0: 2b2c a43c 7893 193c 7bf2 433b ca3f 8b3b
000001f0: f317 bf3b bb59 ed3a a821 163c 4f5d eebc
00000200: 937a 6ebc 464a 4cbc bd02 d63c c90f 0fbc
00000210: 0221 373c 3e24 4cbc 9582 6c3c 6dfb f6bc
00000220: 5561 c2bb 5c1b 863b 60d8 b4bc 7fbb cbbc
00000230: 25c2 a03c b106 143b ddd9 55bc 6346 18bb
00000240: 534c 1e3d 76c1 4cbc 8ada c93b 837b f8bc
00000250: 9594 20ba 430f 9b3b 1b45 143c ec2e c7bb
00000260: 9664 b5bc 3d7f 37bc 38e3 ff3b 2d55 ae3b
00000270: 2252 483c c190 913b cf5e 82bc b61e 00bb
00000280: e5fb cfbb bf60 e7bc 05fb 6639 cb32 223c
00000290: b8c7 05bc 84cd 04bc 666f 973c 1920 31bc
000002a0: dbb8 933c ab81 bfbc effc fc3b 4ba8 9b3c
000002b0: 973b bb3c 35d1 773c e5a2 983c 62be 50bc
000002c0: 4787 033d 3ab6 d33c 3453 813c cf86 853b
000002d0: 7457 2cbd 0789 753c 770b f439 854e 9b3c
000002e0: 37e5 fcbc c2c5 7d3b 637d c9ba 0915 bbbc
000002f0: 9de3 a93b 0de0 5d3c 4841 d53a 61f8 913c
00000300: 801c 47bb 9744 223c 50c7 563c c599 d8ba
00000310: 77b3 dd3c eb25 04bc 3d79 45bd c4bc a6bc
00000320: e3eb 65bc 25ba c8bc c851 0a3d cf7b 4fbc
00000330: 5bf7 f0bb 9122 29bc 497a 89bb a74e 23bc
00000340: 1bd6 e2bc f38d 4a3a 7fc4 6c3b 5922 b63c
00000350: 6900 abbb 3585 dc3b 83ea fc3a 328d 093d
00000360: 2e2a 82bb 0705 46ba c7d9 063d de50 c9bc
00000370: 6765 30bb 705f a9bc e74b ea3a 8f46 063c
00000380: 2c6c 273c 7299 dd3c 3b4b 8aba cb6b 48bc
00000390: 0789 9a3c 7b28 013d ed3c 06bc 1bc1 e5bc
000003a0: 3543 2bbc 2c94 0b3d 694d a53c 10d0 733c
000003b0: bf3c e2bb 9beb 00bc e0c4 c43c 6dd1 64bc
000003c0: ba0b c43b 5afd a739 6a44 7ebc 6d8b 873c
000003d0: e5ff 9fba 08c5 00bc 43b7 713c 4df1 e5bb
000003e0: 96cc 9939 afe7 b9ba 4bba 9ebc 039f 9fba
000003f0: fba6 6a3c 2d2c a03a bf28 843b 8bac 02bd

network_body._body_endoder.seq_layers.0.bias f4 [128]
0.0 0.0 0.0 0.0 0.0 0.0 0.0 0.0
0.0 0.0 0.0 0.0 0.0 0.0 0.0 0.0
0.0 0.0 0.0 0.0 0.0 0.0 0.0 0.0
0.0 0.0 0.0 0.0 0.0 0.0 0.0 0.0
0.0 0.0 0.0 0.0 0.0 0.0 0.0 0.0
0.0 0.0 0.0 0.0 0.0 0.0 0.0 0.0
0.0 0.0 0.0 0.0 0.0 0.0 0.0 0.0
0.0 0.0 0.0 0.0 0.0 0.0 0.0 0.0
0.0 0.0 0.0 0.0 0.0 0.0 0.0 0.0
0.0 0.0 0.0 0.0 0.0 0.0 0.0 0.0
0.0 0.0 0.0 0.0 0.0 0.0 0.0 0.0
0.0 0.0 0.0 0.0 0.0 0.0 0.0 0.0
0.0 0.0 0.0 0.0 0.0 0.0 0.0 0.0
0.0 0.0 0.0 0.0 0.0 0.0 0.0 0.0
0.0 0.0 0.0 0.0 0.0 0.0 0.0 0.0
0.0 0.0 0.0 0.0 0.0 0.0 0.0 0.0
00000000: 0000 0000 0000 0000 0000 0000 0000 0000
00000010: 0000 0000 0000 0000 0000 0000 0000 0000
00000020: 0000 0000 0000 0000 0000 0000 0000 0000
00000030: 0000 0000 0000 0000 0000 0000 0000 0000
00000040: 0000 0000 0000 0000 0000 0000 0000 0000
00000050: 0000 0000 0000 0000 0000 0000 0000 0000
00000060: 0000 0000 0000 0000 0000 0000 0000 0000
00000070: 0000 0000 0000 0000 0000 0000 0000 0000
00000080: 0000 0000 0000 0000 0000 0000 0000 0000
00000090: 0000 0000 0000 0000 0000 0000 0000 0000
000000a0: 0000 0000 0000 0000 0000 0000 0000 0000
000000b0: 0000 0000 0000 0000 0000 0000 0000 0000
000000c0: 0000 0000 0000 0000 0000 0000 0000 0000
000000d0: 0000 0000 0000 0000 0000 0000 0000 0000
000000e0: 0000 0000 0000 0000 0000 0000 0000 0000
000000f0: 0000 0000 0000 0000 0000 0000 0000 0000
00000100: 0000 0000 0000 0000 0000 0000 0000 0000
00000110: 0000 0000 0000 0000 0000 0000 0000 0000
00000120: 0000 0000 0000 0000 0000 0000 0000 0000
00000130: 0000 0000 0000 0000 0000 0000 0000 0000
00000140: 0000 0000 0000 0000 0000 0000 0000 0000
00000150: 0000 0000 0000 0000 0000 0000 0000 0000
00000160: 0000 0000 0000 0000 0000 0000 0000 0000
00000170: 0000 0000 0000 0000 0000 0000 0000 0000
00000180: 0000 0000 0000 0000 0000 0000 0000 0000
00000190: 0000 0000 0000 0000 0000 0000 0000 0000
000001a0: 0000 0000 0000 0000 0000 0000 0000 0000
000001b0: 0000 0000 0000 0000 0000 0000 0000 0000
000001c0: 0000 0000 0000 0000 0000 0000 0000 0000
000001d0: 0000 0000 0000 0000 0000 0000 0000 0000
000001e0: 0000 0000 0000 0000 0000 0000 0000 0000
000001f0: 0000 0000 0000 0000 0000 0000 0000 0000

network_body._body_endoder.seq_layers.0.weight f4 [128, 6]
-0.96781063 -0.31399262 -0.3896049 0.8563317 0.46041834 -0.18627287 -0.88715327 -0.48970658
0.10859698 0.27708167 -0.17863397 -0.13004334 0.2814187 -0.2828588 -0.45222443 0.8725634
-0.6780802 -0.034764964 0.60231763 0.36115834 -0.17501172 -0.13819927 0.050351243 0.33751976
0.039293576 -0.37937847 -0.6608567 0.3484285 -0.11111193 0.011712738 -0.17319368 0.2647331
0.41270098 0.040550053 -0.08759161 0.18185036 -0.3082754 0.08624563 -0.7052117 0.18082461
0.46082044 0.046121314 0.045521535 0.37633607 0.5239029 -0.15252082 -0.12406206 -0.9907082
0.05437617 -0.076765805 -0.2611988 0.44792172 -0.09589464 0.34456074 -0.43605536 0.38959247
-0.27411202 0.7497129 -0.24922748 0.33476037 -0.5281899 0.08991886 0.39717025 0.41316566
0.76250124 -0.2865055 0.36823747 0.48299706 0.75202537 0.36199862 -0.1935468 0.461185
-0.25752535 0.00060652365 -0.015176177 0.23845923 -0.11812528 -0.21369298 0.52266043 0.52178746
0.052942593 0.5315311 0.9049508 -0.10612582 0.015615709 -0.19063897 0.9815754 0.20810525
0.35558525 0.6251952 -0.6385494 0.29223198 0.54716074 0.09353579 0.11436529 -0.20010704
0.1332348 -0.12557624 -0.17457296 -0.38383526 -0.18868835 0.3907715 -0.26031926 -0.6645339
0.39759368 0.23319377 -0.42397782 0.35998422 0.24367255 -0.014230541 -0.5592177 -0.25819284
0.11898115 -0.618879 0.28235173 0.37107232 -0.1927905 -0.018078264 -0.16206504 -0.4262696
-0.31906655 -0.3514278 -0.40875876 -0.31120694 0.19723459 -0.107551165 0.20508736 0.09036154
0.15104683 0.19698821 -0.419468 -0.6269017 -0.2788205 0.18228796 -0.2242929 -0.029787842
-0.2785302 -0.27186254 0.524272 0.49573356 -0.12545833 0.49381247 -0.25585046 -0.12226098
-1.222455 -0.12028295 0.13721943 -0.1214678 0.7629593 0.12309253 0.36048168 0.2733632
-0.51350665 0.2553045 0.5088376 -0.47354135 0.27779084 0.22846505 -0.17413953 -0.1476202
-0.49906796 -0.34894904 0.06670558 0.050900288 0.01319787 -0.19971365 0.574373 -0.0054578027
-0.14721456 0.42456976 0.18405636 -0.1818082 -0.25118005 -0.4106294 -0.5518776 0.9924492
-0.07895203 -0.49649632 -0.10568878 -0.1417684 -0.027233725 0.3199097 0.5656224 0.33649617
-0.12131805 0.29645506 -0.10583942 0.30058855 -0.7918716 0.33995366 0.33231726 0.13805358
0.02292396 0.17316373 0.37681216 -0.32130903 -0.07029739 0.35863695 0.2213837 -0.73978454
-0.033230793 0.23684195 0.0556926 -0.11000584 0.23905617 0.4192721 -0.7851065 -0.02154776
0.027187187 0.3108704 0.36024237 0.24105665 -0.17916931 -0.6548564 -0.05198266 -0.310122
-0.3616257 -0.0067827557 -0.32430324 -0.5039847 0.3037039 -0.34114698 0.4200875 0.10599465
0.0831407 -0.15981825 -0.15171383 0.68177676 0.3997533 -0.098368734 -0.18779258 0.28370765
0.37992015 0.12922946 -0.2156612 -0.4917025 0.31072113 -0.199119 -0.5050158 0.9953864
0.20012535 0.30726695 0.39936835 0.10367842 0.3948418 -0.20306872 -0.15129715 -0.043951076
-0.8357725 0.04277289 -0.19766092 0.38844684 0.2092919 0.23587717 -0.342927 0.3913582
00000000: 70c2 77bf a4c3 a0be 4b7a c7be 8e38 5b3f
00000010: f4bb eb3e 51be 3ebe 7a1c 63bf d2ba fabe
00000020: 1868 de3d a6dd 8d3e d3eb 36be 152a 05be
00000030: 1d16 903e ded2 90be f689 e7be 5160 5f3f
00000040: aa96 2dbf b565 0ebd 7d31 1a3f bfe9 b83e
00000050: 4636 33be 1c84 0dbe 1b3d 4e3d 64cf ac3e
00000060: 4df2 203d e53d c2be e82d 29bf 3865 b23e
00000070: a78e e3bd c9e6 3f3c af59 31be 198b 873e
00000080: 8b4d d33e d017 263d 3b63 b3bd fb36 3a3e
00000090: 46d6 9dbe 8da1 b03d c188 34bf 162a 393e
000000a0: a8f0 eb3e b4e9 3c3d ca74 3a3d 1faf c03e
000000b0: 801e 063f 6b2e 1cbe 4014 febd 0d9f 7dbf
000000c0: 8cb9 5e3d 6437 9dbd d9bb 85be ff55 e53e
000000d0: 6964 c4bd 446a b03e a642 dfbe aa78 c73e
000000e0: 6958 8cbe 2fed 3f3f 7d35 7fbe b665 ab3e
000000f0: 7437 07bf 6127 b83d e659 cb3e 738a d33e
00000100: 4833 433f d9b0 92be 9f89 bc3e 644b f73e
00000110: bc84 403f e257 b93e 2231 46be 7120 ec3e
00000120: 5dda 83be 1dff 1e3a 80a5 78bc a82e 743e
00000130: abeb f1bd 55d2 5abe 13cd 053f dd93 053f
00000140: 55da 583d 6c12 083f dbaa 673f 7e58 d9bd
00000150: 08d9 7f3c dd36 43be 8748 7b3f 8b19 553e
00000160: 450f b63e cb0c 203f f977 23bf 6e9f 953e
00000170: ba12 0c3f b18f bf3d 5938 ea3d dce8 4cbe
00000180: b46e 083e 0f97 00be 41c3 32be 0e86 c4be
00000190: 8537 41be 3413 c83e 9148 85be e51e 2abf
000001a0: 6691 cb3e 59ca 6e3e 9f13 d9be da4f b83e
000001b0: 4c85 793e 3727 69bc e428 0fbf da31 84be
000001c0: 64ac f33d db6e 1ebf 6890 903e 31fd bd3e
000001d0: df6a 45be de18 94bc 61f4 25be 0240 dabe
000001e0: b15c a3be 58ee b3be d448 d1be 8456 9fbe
000001f0: ddf7 493e c943 dcbd 6c02 523e 790f b93d
00000200: 05ac 1a3e 47b7 493e 82c4 d6be a17c 20bf
00000210: 90c1 8ebe b2a9 3a3e 0aad 65be a205 f4bc
00000220: 839b 8ebe 9131 8bbe b136 063f cad0 fd3e
00000230: 2678 00be fdd4 fc3e d5fe 82be f763 fabd
00000240: 6879 9cbf e856 f6bd 4083 0c3e 1cc4 f8bd
00000250: 4d51 433f f017 fc3d 0e91 b83e 43f6 8b3e
00000260: 2c75 03bf 45b7 823e 2e43 023f 0374 f2be
00000270: 9a3a 8e3e bef2 693e a251 32be c029 17be
00000280: d685 ffbe 73a9 b2be ef9c 883d d27c 503d
00000290: e13b 583c bc81 4cbe 1c0a 133f 5ed7 b2bb
000002a0: 6abf 16be 3561 d93e 4579 3c3e ee2b 3abe
000002b0: ac9a 80be 043e d2be da47 0dbf 2711 7e3f
000002c0: 9ab1 a1bd c434 febe 5c73 d8bd bc2b 11be
000002d0: 4319 dfbc 34cb a33e a1cc 103f 3a49 ac3e
000002e0: 9975 f8bd f5c8 973e 56c2 d8bd bee6 993e
000002f0: 19b8 4abf 680e ae3e 7d25 aa3e eb5d 0d3e
00000300: 07cb bb3c d551 313e 86ed c03e 9e82 a4be
00000310: 14f8 8fbd 439f b73e 69b2 623e 8562 3dbf
00000320: 031d 08bd b286 723e ec1d 643d be4a e1bd
00000330: 24cb 743e d5aa d63e bdfc 48bf ee84 b0bc
00000340: aab7 de3c 682a 9f3e b071 b83e 8ed7 763e
00000350: 2978 37be aba4 27bf c5eb 54bd 50c8 9ebe
00000360: 0127 b9be e141 debb 130b a6be 2405 01bf
00000370: 147f 9b3e d1aa aebe b515 d73e b913 d93d
00000380: ac45 aa3d 65a7 23be df5a 1bbe ec88 2e3f
00000390: 77ac cc3e 8c75 c9bd b34c 40be 2142 913e
000003a0: e584 c23e ba54 043e 4ad6 5cbe 6ec0 fbbe
000003b0: d716 9f3e dae5 4bbe b748 01bf a5d1 7e3f
000003c0: a9ed 4c3e 1852 9d3e 027a cc3e 5a55 d43d
000003d0: b428 ca3e 3ff1 4fbe a4ed 1abe 0b06 34bd
000003e0: 30f5 55bf a032 2f3d a067 4abe 81e2 c63e
000003f0: 9e50 563e c989 713e 2194 afbe 1a60 c83e

network_body._body_endoder.seq_layers.2.bias f4 [128]
0.0 0.0 0.0 0.0 0.0 0.0 0.0 0.0
0.0 0.0 0.0 0.0 0.0 0.0 0.0 0.0
0.0 0.0 0.0 0.0 0.0 0.0 0.0 0.0
0.0 0.0 0.0 0.0 0.0 0.0 0.0 0.0
0.0 0.0 0.0 0.0 0.0 0.0 0.0 0.0
0.0 0.0 0.0 0.0 0.0 0.0 0.0 0.0
0.0 0.0 0.0 0.0 0.0 0.0 0.0 0.0
0.0 0.0 0.0 0.0 0.0 0.0 0.0 0.0
0.0 0.0 0.0 0.0 0.0 0.0 0.0 0.0
0.0 0.0 0.0 0.0 0.0 0.0 0.0 0.0
0.0 0.0 0.0 0.0 0.0 0.0 0.0 0.0
0.0 0.0 0.0 0.0 0.0 0.0 0.0 0.0
0.0 0.0 0.0 0.0 0.0 0.0 0.0 0.0
0.0 0.0 0.0 0.0 0.0 0.0 0.0 0.0
0.0 0.0 0.0 0.0 0.0 0.0 0.0 0.0
0.0 0.0 0.0 0.0 0.0 0.0 0.0 0.0
00000000: 0000 0000 0000 0000 0000 0000 0000 0000
00000010: 0000 0000 0000 0000 0000 0000 0000 0000
00000020: 0000 0000 0000 0000 0000 0000 0000 0000
00000030: 0000 0000 0000 0000 0000 0000 0000 0000
00000040: 0000 0000 0000 0000 0000 0000 0000 0000
00000050: 0000 0000 0000 0000 0000 0000 0000 0000
00000060: 0000 0000 0000 0000 0000 0000 0000 0000
00000070: 0000 0000 0000 0000 0000 0000 0000 0000
00000080: 0000 0000 0000 0000 0000 0000 0000 0000
00000090: 0000 0000 0000 0000 0000 0000 0000 0000
000000a0: 0000 0000 0000 0000 0000 0000 0000 0000
000000b0: 0000 0000 0000 0000 0000 0000 0000 0000
000000c0: 0000 0000 0000 0000 0000 0000 0000 0000
000000d0: 0000 0000 0000 0000 0000 0000 0000 0000
000000e0: 0000 0000 0000 0000 0000 0000 0000 0000
000000f0: 0000 0000 0000 0000 0000 0000 0000 0000
00000100: 0000 0000 0000 0000 0000 0000 0000 0000
00000110: 0000 0000 0000 0000 0000 0000 0000 0000
00000120: 0000 0000 0000 0000 0000 0000 0000 0000
00000130: 0000 0000 0000 0000 0000 0000 0000 0000
00000140: 0000 0000 0000 0000 0000 0000 0000 0000
00000150: 0000 0000 0000 0000 0000 0000 0000 0000
00000160: 0000 0000 0000 0000 0000 0000 0000 0000
00000170: 0000 0000 0000 0000 0000 0000 0000 0000
00000180: 0000 0000 0000 0000 0000 0000 0000 0000
00000190: 0000 0000 0000 0000 0000 0000 0000 0000
000001a0: 0000 0000 0000 0000 0000 0000 0000 0000
000001b0: 0000 0000 0000 0000 0000 0000 0000 0000
000001c0: 0000 0000 0000 0000 0000 0000 0000 0000
000001d0: 0000 0000 0000 0000 0000 0000 0000 0000
000001e0: 0000 0000 0000 0000 0000 0000 0000 0000
000001f0: 0000 0000 0000 0000 0000 0000 0000 0000

network_body._body_endoder.seq_layers.2.weight f4 [128, 128]
-0.043170575 0.0011272049 -0.06592379 0.018109469 -0.050603174 0.044112295 0.0047957855 0.08907137
-0.019049825 0.0072223656 0.13457522 0.022367807 -0.06716849 0.14385374 0.0051005934 -0.034028966
0.025841594 -0.036271837 -0.10251988 -0.12301273 -0.059241403 0.021816846 -0.06631108 0.06708568
-0.11799449 0.20366149 -0.03253159 -0.009067282 -0.03364338 0.0016115461 0.06410762 -0.065008804
-0.012868433 -0.035376165 -0.08669168 -0.12534748 0.029631631 -0.036207024 -0.02161589 0.016064672
-0.00049670466 0.06188056 0.07541277 -0.093015745 0.09796861 -0.02960445 0.027994812 0.03356224
0.020508038 0.031356573 -0.014912821 0.01642491 -0.012753333 -0.04920967 -0.16365801 -0.017910687
0.059596345 0.10401405 0.074848354 -0.06925655 -0.05682443 -0.0006640303 -0.07682571 -0.084718406
-0.03888566 0.07378176 0.034617305 -0.102444485 0.09024085 -0.1663099 -0.008484991 -0.17322174
-0.014182693 0.027115345 -0.038480386 -0.15567155 0.17073755 -0.06937093 -0.03357977 -0.013687729
0.0953075 0.12311547 0.08430229 0.023978198 0.067753054 -0.14845262 -0.13394742 -0.0071721864
0.12735485 -0.07620308 0.14395864 0.006306283 -0.11902249 0.032418516 -0.040038284 -0.062459078
0.08339514 -0.017418066 -0.03106611 -0.013084785 0.051654227 0.043830987 0.040738273 -0.017880032
-0.01643 0.08958032 0.08184557 -0.00010405457 0.10539992 0.033378012 0.029809557 -0.013699237
-0.008149123 -0.0010335179 0.10051904 -0.008449541 -0.026703605 0.027178813 0.036000848 -0.008317974
-0.009088714 0.12628824 0.14172085 0.02723391 0.09169886 0.08153051 -0.032653525 0.05201323
0.10245327 0.025875207 -0.17329559 0.10003176 0.19059353 0.013079908 0.017063016 0.08897891
0.1151351 0.07183828 -0.012880773 0.01873395 0.12276145 -0.096329406 -0.027271422 -0.043820374
-0.014050041 0.044444066 -0.08067002 0.099342436 0.16197029 -0.04054835 0.021437246 0.15559866
-0.0031283067 -0.051848188 0.06931865 0.024061661 -0.028849958 0.033721462 -0.07275136 0.07679121
-0.13283914 -0.0011316009 -0.15528533 0.062016863 0.11300639 -0.07965315 -0.10349481 -0.17161734
-0.13139877 -0.03763495 0.07860386 -0.18833281 -0.09665891 -0.08205782 0.040527027 -0.17391345
0.016711522 -0.074187405 -0.0062916055 0.06468725 0.031733777 -0.061477896 0.05060036 0.0019339871
0.066963844 0.014707695 0.05249865 0.09932657 -0.06995505 0.0041834163 -0.05624833 -0.08967181
-0.0073299278 0.042455338 0.08148861 0.118612416 0.0071620587 -0.074605 -0.03825113 0.19336845
0.02775253 0.005886788 -0.10363606 0.049852025 -0.05341651 0.11633261 0.067217566 0.013218776
0.23445849 -0.025219647 -0.030042473 0.048034646 -0.050989192 0.1350832 -0.03950193 -0.13300276
0.030932775 0.022523507 0.071696386 -0.08192277 0.16230199 0.14954223 0.13241854 0.106861226
-0.07554852 -0.08251644 0.11869551 0.063096024 0.07445587 0.091967285 0.016461238 0.0061062467
0.067685686 0.19710907 0.13563377 -0.033838883 -0.053613335 0.020529348 0.08766248 0.18771486
-0.016191846 0.017879495 -0.08150278 -0.14587912 0.0461304 0.08301028 0.03676785 -0.07642319
-0.04938588 -0.07195605 -0.011658219 -0.06864369 -0.038402203 0.07383429 -0.16952193 -0.008965866
00000000: a1d3 30bd b8be 933a 0d03 87bd 4f5a 943c
00000010: 4645 4fbd 18af 343d f725 9d3b 0d6b b63d
00000020: 610e 9cbc 98a9 ec3b 16ce 093e b13c b73c
00000030: a28f 89bd 654e 133e e122 a73b f561 0bbd
00000040: c0b1 d33c c791 14bd f1f5 d1bd 19ee fbbd
00000050: 1da7 72bd 3eb9 b23c 1ace 87bd 3864 893d
00000060: 18a7 f1bd a38c 503e d83f 05bd f08e 14bc
00000070: a4cd 09bd 843a d33a db4a 833d 5623 85bd
00000080: 1fd6 52bc 99e6 10bd 688b b1bd 175b 00be
00000090: 09be f23c d14d 14bd cf13 b1bc 0f9a 833c
000000a0: 4935 02ba 7876 7d3d 0372 9a3d 0a7f bebd
000000b0: c4a3 c83d 0885 f2bc 6055 e53c 8f78 093d
000000c0: 7900 a83c c06f 003d e854 74bc 888d 863c
000000d0: 5bf3 50bc 1490 49bd f795 27be 6fb9 92bc
000000e0: 4c1b 743d 5105 d53d 184a 993d 61d6 8dbd
000000f0: bcc0 68bd 5212 2eba cc56 9dbd d880 adbd
00000100: 9246 1fbd e41a 973d e0ca 0d3d 6ace d1bd
00000110: 32d0 b83d 244d 2abe a204 0bbc 0a61 31be
00000120: 875e 68bc 0021 de3c 9c9d 1dbd 5d68 1fbe
00000130: d3d5 2e3e 5912 8ebd f18a 09bd 7f42 60bc
00000140: 9430 c33d f723 fc3d aea6 ac3d ed6d c43c
00000150: 1dc2 8a3d f703 18be 8329 09be a904 ebbb
00000160: 4f69 023e 5c10 9cbd e569 133e f0a4 ce3b
00000170: 10c2 f3bd 47c9 043d 2fff 23bd 17d5 7fbd
00000180: 12cb aa3d 55b0 8ebc 5b7e febc 9161 56bc
00000190: 6293 533d 1f88 333d 2ddd 263d 2579 92bc
000001a0: 3598 86bc e375 b73d a69e a73d df37 dab8
000001b0: eadb d73d 62b7 083d 2c33 f43c c472 60bc
000001c0: e683 05bc 1b77 87ba eddc cd3d f26f 0abc
000001d0: 85c1 dabc 1aa6 de3c a075 133d 1d48 08bc
000001e0: d4e8 14bc b451 013e 451f 113e a619 df3c
000001f0: 9dcc bb3d 78f9 a63d b4bf 05bd d30b 553d
00000200: 05d3 d13d 3ef8 d33c 6674 31be 74dd cc3d
00000210: f32a 433e 1c4d 563c bdc7 8b3c 933a b63d
00000220: f4cb eb3d f31f 933d e109 53bc f177 993c
00000230: 5b6a fb3d 5a48 c5bd 5168 dfbc fe7c 33bd
00000240: 2532 66bc fb0a 363d 5336 a5bd 0c74 cb3d
00000250: 8adb 253e 0716 26bd 2a9d af3c 4155 1f3e
00000260: 4704 4dbb c45e 54bd f0f6 8d3d f61c c53c
00000270: bf56 ecbc 841f 0a3d aafe 94bd b644 9d3d
00000280: fc06 08be 3a52 94ba 1e03 1fbe 6505 7e3d
00000290: e56f e73d 3121 a3bd 16f5 d3bd 75bc 2fbe
000002a0: 668d 06be 1b27 1abd 10fb a03d 51da 40be
000002b0: 1bf5 c5bd ee0d a8bd abff 253d 5e16 32be
000002c0: 9ae6 883c 91ef 97bd d029 cebb c07a 843d
000002d0: 47fb 013d 3fd0 7bbd 5342 4f3d d77d fd3a
000002e0: 5724 893d 8bf8 703c d308 573d bb6b cb3d
000002f0: 9844 8fbd 0a15 893b a664 66bd dba5 b7bd
00000300: e42f f0bb a6e5 2d3d 80e3 a63d 11eb f23d
00000310: b4af ea3b 82ca 98bd 38ad 1cbd 6102 463e
00000320: 4659 e33c f5e5 c03b 253f d4bd a331 4c3d
00000330: 45cb 5abd cb3f ee3d 5da9 893d 9193 583c
00000340: e315 703e 6f99 cebc a21b f6bc fabf 443d
00000350: 0bda 50bd 4053 0a3e c7cc 21bd e031 08be
00000360: bb66 fd3c 3883 b83c 8ed5 923d 20c7 a7bd
00000370: 7e32 263e 9921 193e ba98 073e 0fda da3d
00000380: 2fb9 9abd 61fe a8bd a216 f33d 7d38 813d
00000390: 527c 983d 5859 bc3d b8d9 863c e916 c83b
000003a0: cb9e 8a3d f6d6 493e 94e3 0a3e a49a 0abd
000003b0: a899 5bbd 2a2d a83c 6388 b33d 5338 403e
000003c0: c3a4 84bc 0578 923c eeea a6bd 5661 15be
000003d0: 3bf3 3c3d 4b01 aa3d e399 163d c383 9cbd
000003e0: d948 4abd b25d 93bd 1d02 3fbc 1095 8cbd
000003f0: a14b 1dbd 6f36 973d 2897 2dbe 91e5 12bc
