CubeTest/results/ppo/MoveToGoal/MoveToGoal-1600.pt (torch, 145735 bytes, 11 tensors)

network_body._body_endoder.seq_layers.0.weight f4 [128, 1]
00000000: 85c3 c6bd 4ac4 023e 0491 cabe ff90 dbbf
00000010: 6423 06bf c400 7b3e abcf 04c0 ec56 cbbf
00000020: 8e67 63bb 0945 68bf a480 bb3e e89a eabc
00000030: 6322 64be 5f7a 4b3f 0aa8 413f b108 563f
00000040: 9a47 fcbe 6d11 d43c 2766 573f c156 b23f
00000050: a6d7 403f 303c 4bbe a79c 853f 483a dfbf
00000060: a253 92bd 6e4c 9ebf 49e6 163f 7c1c 19bf
00000070: 8a30 313f 37ea 2cbf f95a dc3f 9bfa 0340
00000080: 6053 e63e 7a72 44bf 1ada 2840 c3ba 82bf
00000090: d5c3 dc3d da9c a83f c9f9 f0be a984 2bc0
000000a0: 4b9c f1be f98c e53e d45d 173f 7ac4 2a40
000000b0: 5fde a2bc a947 fa3d 9a36 23bf 38d5 413f
000000c0: 86d4 c43e a7c2 ee3f 106e 233e 51a3 1bbf
000000d0: 16e2 6b3e 8969 273f 63ad 333f d75e 203f
000000e0: eb5b f03e 33fd cdbf 6ee0 353f c1a6 18c0
000000f0: 6e80 cabf 9592 da3f 63a9 e13e ad3b c93f
00000100: 2ff7 0e3f 5f56 aabe 1f69 113f 4de7 aabf
00000110: 12cd 04bf 84cc 86be db58 bbbd 2943 d9bd
00000120: 0526 7ebe 279b 3f3e d021 0840 add5 9a3f
00000130: 15c6 d53f 82aa 013f 6d3b eb3e 683e 0940
00000140: cc34 523f cea3 47bf 3d2b 893e 6f98 433d
00000150: f948 a03f c1e7 73bf a135 d33e 68b5 d4bf
00000160: dc1f b63f 201f a53f f614 3abf c474 b13f
00000170: 0df4 d9be 6bd1 8d3f 234c fc3e 5d04 823f
00000180: 6daa e03f a647 e33f dc73 45bf 16b7 303f
00000190: b23a 713f 3d8e 753e 58ad 43bf 6bb4 2bbe
000001a0: 0357 c73f c350 29bf bd02 27bd c209 823f
000001b0: 5166 193d 882e 113f ab53 ed3f 43d6 61be
000001c0: 3ec5 2e3f ed69 103f 7b50 52be 7bfb 93be
000001d0: 8e75 4bbe 159e ddbe 8198 93bf ebd9 a43d
000001e0: 3701 d3be f3d0 153f 6a90 8dbf 7ad1 edbe
000001f0: 06fc 82bf e8a6 f2bf 4e0d 2540 d4d7 733f
-0.09705261 0.12770191 -0.39563763 -1.7153624 -0.5239775 0.24512011 -2.075175 -1.5885901
-0.0034699175 -0.9073034 0.36621583 -0.028638318 -0.22278742 0.794836 0.7564703 0.8360701
-0.49273378 0.025887216 0.8414025 1.3932725 0.75329053 -0.19847178 1.0438432 -1.7439661
-0.07144858 -1.2367074 0.5894514 -0.5980909 0.6921469 -0.67544883 1.7215263 2.0621707
0.44985485 -0.7673718 2.6383119 -1.0213245 0.107795395 1.3172867 -0.4706557 -2.679972
-0.47189555 0.44834116 0.59127545 2.668242 -0.019881425 0.12220699 -0.6375519 0.7571597
0.38443393 1.8653153 0.15959954 -0.60796076 0.23035464 0.6539541 0.7018644 0.62644714
0.46945128 -1.6092895 0.7104558 -2.3851779 -1.5820444 1.7075983 0.44074544 1.5721337
0.5584592 -0.3326902 0.5680103 -1.3351837 -0.5187541 -0.26327908 -0.09147807 -0.10608513
-0.24819191 0.1871153 2.1270638 1.2096459 1.6701075 0.506508 0.45943776 2.144434
0.8211181 -0.7798432 0.267908 0.047752794 1.252227 -0.95275503 0.41251853 -1.6617861
1.4228473 1.2900124 -0.72688234 1.3863759 -0.42569008 1.1079534 0.49276838 1.0157582
1.755201 1.775624 -0.7712991 0.69029367 0.94230187 0.23980041 -0.76436377 -0.16768043
1.5573429 -0.6613886 -0.040774096 1.0159228 0.037451092 0.56711626 1.8541158 -0.2205439
0.6826972 0.5641163 -0.20538513 -0.28902802 -0.19869062 -0.4328467 -1.1530915 0.08049377
-0.41211864 0.58521956 -1.1059697 -0.4644888 -1.0233161 -1.8957186 2.578937 0.952512

network_body._body_endoder.seq_layers.0.bias f4 [128]
00000000: 0000 0000 0000 0000 0000 0000 0000 0000
00000010: 0000 0000 0000 0000 0000 0000 0000 0000
00000020: 0000 0000 0000 0000 0000 0000 0000 0000
00000030: 0000 0000 0000 0000 0000 0000 0000 0000
00000040: 0000 0000 0000 0000 0000 0000 0000 0000
00000050: 0000 0000 0000 0000 0000 0000 0000 0000
00000060: 0000 0000 0000 0000 0000 0000 0000 0000
00000070: 0000 0000 0000 0000 0000 0000 0000 0000
00000080: 0000 0000 0000 0000 0000 0000 0000 0000
00000090: 0000 0000 0000 0000 0000 0000 0000 0000
000000a0: 0000 0000 0000 0000 0000 0000 0000 0000
000000b0: 0000 0000 0000 0000 0000 0000 0000 0000
000000c0: 0000 0000 0000 0000 0000 0000 0000 0000
000000d0: 0000 0000 0000 0000 0000 0000 0000 0000
000000e0: 0000 0000 0000 0000 0000 0000 0000 0000
000000f0: 0000 0000 0000 0000 0000 0000 0000 0000
00000100: 0000 0000 0000 0000 0000 0000 0000 0000
00000110: 0000 0000 0000 0000 0000 0000 0000 0000
00000120: 0000 0000 0000 0000 0000 0000 0000 0000
00000130: 0000 0000 0000 0000 0000 0000 0000 0000
00000140: 0000 0000 0000 0000 0000 0000 0000 0000
00000150: 0000 0000 0000 0000 0000 0000 0000 0000
00000160: 0000 0000 0000 0000 0000 0000 0000 0000
00000170: 0000 0000 0000 0000 0000 0000 0000 0000
00000180: 0000 0000 0000 0000 0000 0000 0000 0000
00000190: 0000 0000 0000 0000 0000 0000 0000 0000
000001a0: 0000 0000 0000 0000 0000 0000 0000 0000
000001b0: 0000 0000 0000 0000 0000 0000 0000 0000
000001c0: 0000 0000 0000 0000 0000 0000 0000 0000
000001d0: 0000 0000 0000 0000 0000 0000 0000 0000
000001e0: 0000 0000 0000 0000 0000 0000 0000 0000
000001f0: 0000 0000 0000 0000 0000 0000 0000 0000
0.0 0.0 0.0 0.0 0.0 0.0 0.0 0.0
0.0 0.0 0.0 0.0 0.0 0.0 0.0 0.0
0.0 0.0 0.0 0.0 0.0 0.0 0.0 0.0
0.0 0.0 0.0 0.0 0.0 0.0 0.0 0.0
0.0 0.0 0.0 0.0 0.0 0.0 0.0 0.0
0.0 0.0 0.0 0.0 0.0 0.0 0.0 0.0
0.0 0.0 0.0 0.0 0.0 0.0 0.0 0.0
0.0 0.0 0.0 0.0 0.0 0.0 0.0 0.0
0.0 0.0 0.0 0.0 0.0 0.0 0.0 0.0
0.0 0.0 0.0 0.0 0.0 0.0 0.0 0.0
0.0 0.0 0.0 0.0 0.0 0.0 0.0 0.0
0.0 0.0 0.0 0.0 0.0 0.0 0.0 0.0
0.0 0.0 0.0 0.0 0.0 0.0 0.0 0.0
0.0 0.0 0.0 0.0 0.0 0.0 0.0 0.0
0.0 0.0 0.0 0.0 0.0 0.0 0.0 0.0
0.0 0.0 0.0 0.0 0.0 0.0 0.0 0.0

network_body._body_endoder.seq_layers.2.weight f4 [128, 128]
00000000: 732a d53c ce2a 12bd 08c1 3cbe ef87 153d
00000010: 3bcc 223e 5509 e33d d804 733c 0b4f ab3d
00000020: 5de3 7d3d 578b 053d 17a8 6b3c 0624 063d
00000030: 12f4 68bd ddd3 403d 47bf 113d 81e9 003e
00000040: d4a8 a03c c549 59be 19c1 86bc 7005 fa3d
00000050: f727 59bd 61fa a63d a8f1 ec39 144a 68bc
00000060: 3703 273d 1646 103e 1105 dcbd cf81 cf3c
00000070: e971 e5bd 4994 66bd 0bb4 a33b 34ab 943b
00000080: 2f41 59bc 53f1 ba3d 6e7c c93c 2d25 fabd
00000090: e87b 8bbd a2a9 7e3d c8e1 b03d ec43 18bc
000000a0: 04f1 123e 2fa3 a63d 89be f9bc 71e8 9e3c
000000b0: 7b91 263d bf89 753c 51a5 e5bb 6ecd a8bd
000000c0: ce8c 52bd d2e0 103c 3662 79bd daf0 04be
000000d0: 2586 f2bb 1b6e bc3c d241 853d 7467 133d
000000e0: 0aa2 283d 8482 c5bd 615f 893d 4127 cb3d
000000f0: 4f12 0cbd 8a07 5d3d 7a4e 863d 6440 933c
00000100: 8aa8 83bd fddd 4f3d 75b6 29bd 468e e7bd
00000110: 963a d43d 91b1 cf3b f51d 553e 689d 013c
00000120: 9aba bdbc a6ea a53b 1773 ebbd 44f7 cabd
00000130: 45de 61bd d84e 32bc 1a19 acbd 1e1a 6e3d
00000140: 0d32 9f3d ea8f 063d f30d 0cbe 48c9 e0bc
00000150: 177c 08be b99f cfbd bbe1 ffbc 659c ac3d
00000160: 606d d03d 795b 093e 8e78 353d bb80 6f3d
00000170: 713e fcbd 183d 833c 002d 173d c63e 9a3b
00000180: 408b d0bb ac1e dd3d 77cd a5bb d156 a83c
00000190: dc88 cb3d 3bd1 b3bd 972e 8c3c c92e 9e3d
000001a0: 0635 3f3c e17b bebc 883e 8e3c a039 13be
000001b0: 6aac e73c c6b3 3dbe d99f 48be 5894 0e3d
000001c0: 77c0 09bd e7e2 173e edd0 30bc c192 863d
000001d0: 4fa4 483d ebe9 c5bd 2610 873c ac26 01bd
000001e0: e700 07be 861d bb3c 3b5b 79bd a4be 07be
000001f0: 2bae 42bd 1f85 50bd 9901 82bd 4698 da3c
00000200: 5d97 5c3d d3b0 a7bd 4978 4f3b 528b 6abd
00000210: 4776 fdbc 686a fbbc da0e e6bd 2343 3dbd
00000220: 83fa 64bd 7f0f 383c 3db2 05bd a253 623d
00000230: de72 71bd 66b8 273e 28be f83c 22f7 433d
00000240: 4b32 b33d 4852 9d3c e105 663d de08 84bd
00000250: 1a2c 4f3d 4ca6 a63d ed46 083d c303 03bc
00000260: 69b3 1e3e d782 13be 6a42 0bbd 6c14 c43c
00000270: c8e9 08bd 5a35 edbd 910e 573d b680 e3bd
00000280: 0f95 bfbd be5c 093e 20b7 b13d 6c5e 54bc
00000290: e8da fbbd 05ff 253e 840f c23d 36b1 47bd
000002a0: 6a42 803d 7a59 c8bc 880a 683d e28c 6f3e
000002b0: f9bc 89bd 9a1d 33be a614 93bd 66ea 523d
000002c0: 2311 a4ba a54e a0bd 919b ee3d 9615 923d
000002d0: 89cc 753d 2bee 003e 0527 b9bd 1f2c a43d
000002e0: c637 0a3e 315e 91bc cd5b 8dbb 7973 0c3d
000002f0: 7853 0a3b c627 4a3d 7e83 48be 4dd5 80bd
00000300: 97fc 593e 37d8 80bd a738 05bc 28e4 09bd
00000310: b987 ec3d da36 86bd 7488 3f3c fedb 103e
00000320: 5fb3 693e 1413 243e 3a72 1cbd 3d66 3e3c
00000330: cdf5 c33a c314 e5bc 87e9 603e 6213 5fbc
00000340: 33df edbd d2ab 913d 7ff8 333c d06e cbbb
00000350: 545f 8ebc bf81 0cbd 9b10 90bd be5e 81bc
00000360: e096 b2bb 6708 5b3d ea14 ba3a b74a 07bd
00000370: 08c6 57bd 649d 023e 7a5c a7bd 7db6 113d
00000380: 2cdc cfbd 6acb 93bd 0fbb b73d 4003 f53d
00000390: 02dc 4a3e b66d 61bd fa9e e2bb f2ad 303d
000003a0: 6317 f83c 63a9 28be c214 43bd 6d9c 2a3d
000003b0: 4a45 2d3e b5cc ed3d 59a2 013d 01d7 9a3c
000003c0: f8f7 48bd e440 ff3c 9765 4cbe 83e0 0b3d
000003d0: c0df 7bbe 6f90 63bd fd65 9dbd 88a0 d53d
000003e0: 9960 0a3d 8258 66bd 4cff 6bbd e152 983c
000003f0: 4165 e13c a796 11be 3af2 5abd 78b3 54bd
0.026021218 -0.035685353 -0.1843301 0.03650659 0.1589822 0.11085764 0.014832698 0.083646856
0.06198441 0.032603588 0.014383337 0.0327492 -0.05687339 0.04707705 0.035582807 0.12589075
0.019611754 -0.21219547 -0.016449498 0.12208068 -0.05301663 0.08153225 0.00045193476 -0.014177818
0.04077455 0.14089236 -0.10743154 0.025330452 -0.11203367 -0.05629376 0.004995828 0.0045370106
-0.01326017 0.0912806 0.024595466 -0.12214122 -0.068107426 0.062173493 0.08636814 -0.009293538
0.14349753 0.081365936 -0.030486362 0.019397946 0.040666085 0.0149864545 -0.0070082326 -0.082423076
-0.051403813 0.008842664 -0.060884677 -0.12982503 -0.007401245 0.023001721 0.06506695 0.035987332
0.041170157 -0.096440345 0.06707645 0.099195965 -0.034197148 0.053962268 0.06557937 0.01797504
-0.06428631 0.050748814 -0.04143377 -0.113064334 0.10362737 0.0063383062 0.20812209 0.007911064
-0.023160268 0.0050633727 -0.11496561 -0.099104434 -0.055143613 -0.010883056 -0.08403225 0.058130376
0.07773218 0.03285209 -0.13677196 -0.027439728 -0.13328587 -0.101378866 -0.031235566 0.084282674
0.101771116 0.134138 0.044304423 0.058472376 -0.12316597 0.016020343 0.03690815 0.00470719
-0.006364256 0.10796866 -0.0050598937 0.02054921 0.09938213 -0.08780142 0.01711206 0.07723767
0.011670357 -0.02325243 0.017363802 -0.14377451 0.028280456 -0.1852561 -0.19592227 0.03480944
-0.033630814 0.1483265 -0.010791999 0.0657096 0.048984822 -0.09663757 0.016487192 -0.03153102
-0.13183938 0.022841226 -0.06087802 -0.13256317 -0.04752938 -0.050908204 -0.06347961 0.026683938
0.05385529 -0.081880234 0.003165739 -0.057261772 -0.030940188 -0.030690387 -0.112333015 -0.046206605
-0.05590297 0.011234163 -0.032640684 0.05525554 -0.058947437 0.16378936 0.030364111 0.047843106
0.08749827 0.019204274 0.05615795 -0.06447004 0.050579168 0.08137187 0.033270765 -0.007996502
0.15498127 -0.1440538 -0.033998884 0.02393552 -0.033426076 -0.11582442 0.052504126 -0.11108534
-0.093546025 0.13414285 0.086775064 -0.012961965 -0.122976124 0.16210563 0.094756156 -0.048752986
0.062626675 -0.024456728 0.05665067 0.23393586 -0.06725497 -0.17491761 -0.07181673 0.05149307
-0.0012517314 -0.078275 0.11650766 0.071330234 0.060009513 0.12590854 -0.090406455 0.08016228
0.13497838 -0.01774511 -0.004313922 0.03428981 0.002110688 0.049354337 -0.1958141 -0.06290684
0.21287762 -0.0629124 -0.008131183 -0.033664852 0.115493245 -0.06553431 0.011690248 0.1414642
0.22822331 0.16022903 -0.038194872 0.011621055 0.0014950574 -0.027964002 0.21964084 -0.013615461
-0.116148375 0.0711285 0.010984539 -0.0062082782 -0.01737944 -0.034303423 -0.07034417 -0.015792247
-0.0054501146 0.05347481 0.0014196907 -0.033030238 -0.05267909 0.12755352 -0.081719354 0.035574425
-0.10149416 -0.072165325 0.089712255 0.119635105 0.19810489 -0.05503627 -0.006915924 0.043134637
0.03028459 -0.16470866 -0.047627218 0.041653086 0.16920963 0.116113104 0.031648967 0.01890135
-0.049064606 0.031158872 -0.19960628 0.034149658 -0.24597073 -0.055557664 -0.07685468 0.104310095
0.03378353 -0.05623675 -0.057616517 0.018594207 0.027514102 -0.14217626 -0.05345366 -0.051928967

network_body._body_endoder.seq_layers.2.bias f4 [128]
00000000: 0000 0000 0000 0000 0000 0000 0000 0000
00000010: 0000 0000 0000 0000 0000 0000 0000 0000
00000020: 0000 0000 0000 0000 0000 0000 0000 0000
00000030: 0000 0000 0000 0000 0000 0000 0000 0000
00000040: 0000 0000 0000 0000 0000 0000 0000 0000
00000050: 0000 0000 0000 0000 0000 0000 0000 0000
00000060: 0000 0000 0000 0000 0000 0000 0000 0000
00000070: 0000 0000 0000 0000 0000 0000 0000 0000
00000080: 0000 0000 0000 0000 0000 0000 0000 0000
00000090: 0000 0000 0000 0000 0000 0000 0000 0000
000000a0: 0000 0000 0000 0000 0000 0000 0000 0000
000000b0: 0000 0000 0000 0000 0000 0000 0000 0000
000000c0: 0000 0000 0000 0000 0000 0000 0000 0000
000000d0: 0000 0000 0000 0000 0000 0000 0000 0000
000000e0: 0000 0000 0000 0000 0000 0000 0000 0000
000000f0: 0000 0000 0000 0000 0000 0000 0000 0000
00000100: 0000 0000 0000 0000 0000 0000 0000 0000
00000110: 0000 0000 0000 0000 0000 0000 0000 0000
00000120: 0000 0000 0000 0000 0000 0000 0000 0000
00000130: 0000 0000 0000 0000 0000 0000 0000 0000
00000140: 0000 0000 0000 0000 0000 0000 0000 0000
00000150: 0000 0000 0000 0000 0000 0000 0000 0000
00000160: 0000 0000 0000 0000 0000 0000 0000 0000
00000170: 0000 0000 0000 0000 0000 0000 0000 0000
00000180: 0000 0000 0000 0000 0000 0000 0000 0000
00000190: 0000 0000 0000 0000 0000 0000 0000 0000
000001a0: 0000 0000 0000 0000 0000 0000 0000 0000
000001b0: 0000 0000 0000 0000 0000 0000 0000 0000
000001c0: 0000 0000 0000 0000 0000 0000 0000 0000
000001d0: 0000 0000 0000 0000 0000 0000 0000 0000
000001e0: 0000 0000 0000 0000 0000 0000 0000 0000
000001f0: 0000 0000 0000 0000 0000 0000 0000 0000
0.0 0.0 0.0 0.0 0.0 0.0 0.0 0.0
0.0 0.0 0.0 0.0 0.0 0.0 0.0 0.0
0.0 0.0 0.0 0.0 0.0 0.0 0.0 0.0
0.0 0.0 0.0 0.0 0.0 0.0 0.0 0.0
0.0 0.0 0.0 0.0 0.0 0.0 0.0 0.0
0.0 0.0 0.0 0.0 0.0 0.0 0.0 0.0
0.0 0.0 0.0 0.0 0.0 0.0 0.0 0.0
0.0 0.0 0.0 0.0 0.0 0.0 0.0 0.0
0.0 0.0 0.0 0.0 0.0 0.0 0.0 0.0
0.0 0.0 0.0 0.0 0.0 0.0 0.0 0.0
0.0 0.0 0.0 0.0 0.0 0.0 0.0 0.0
0.0 0.0 0.0 0.0 0.0 0.0 0.0 0.0
0.0 0.0 0.0 0.0 0.0 0.0 0.0 0.0
0.0 0.0 0.0 0.0 0.0 0.0 0.0 0.0
0.0 0.0 0.0 0.0 0.0 0.0 0.0 0.0
0.0 0.0 0.0 0.0 0.0 0.0 0.0 0.0

action_model._discrete_distribution.branches.0.weight f4 [5, 128]
00000000: e3de 5fba aca3 ccbb fb67 87bb bf40 c63b
00000010: a7e8 c13c c9da a23c 0786 983c e10e 833c
00000020: 4ce6 983a e562 003c 08ad 1c3c 734e 91bb
00000030: 2b9d 563b 9371 68bb c5a5 c5bb 3a2d b33c
00000040: 6dae 73bc 80f8 22bb cb26 073c 77d1 293c
00000050: ef17 833b 0f9b 2fbb b700 91b8 9555 56bb
00000060: 0794 833c 973c 4bbc bbbd 093c 9abc a13b
00000070: 1bbc 3bbb c8eb e1bb f320 9abb 2582 8abc
00000080: 225f 7bbb 73c0 093b 5f01 32bc 9fd1 7fbb
00000090: a5c0 df3b 5004 123c 1834 d03b d064 8cbc
000000a0: 85ca 203b 9093 13bb cb87 463c 47c1 463b
000000b0: 8cd9 473a 9970 ca3c 5576 3c3b 8d3f d1bb
000000c0: afda 8dbc d34f 3dbb d7b4 8d3b 93c7 5abc
000000d0: bb4b 8ebc 5095 853b 307a e939 3565 563a
000000e0: b307 5abb 1b46 4dbb 0479 97bc 8cf5 2ebc
000000f0: 38ec 5bbc 0db8 ebbb b2b7 373a 6d95 f23b
00000100: f9a3 113c e72c a63b 07ca 493c 8b91 083b
00000110: 45aa 7d3c 2f6f a23b d7ad af39 c9f8 233b
00000120: f99a 8c3c a88f 0abb 4f2e 76bb c8f5 db3b
00000130: 76dd 103b 6796 41bc 7faa 643b 07b1 3aba
00000140: 44e6 aa3a c3fd 953c 99a2 04bc f36f 2dbb
00000150: 2bd8 b8bb 586d debb 059f 0b3c 3b7f dbb8
00000160: 9f62 b1bb 7d44 913b 7f05 2a3c fb55 5b3c
00000170: d7c1 56bb 5759 42bc 6653 c83b 5349 13bb
00000180: e61e c53b 1bc3 c63b 3f61 0d3c 3cd4 203b
00000190: 9f55 efbb 5500 fcbb 55aa 85bb 93dd 89bb
000001a0: f6ac a9bb 7dec 19bc f848 afbb 735b 443c
000001b0: 911e 13bb 9fd9 2fbc 036e 9b3b 60cb cf3a
000001c0: e7eb 77bb ab2b e63a b12c 2cbc 73bc 33bc
000001d0: 85a0 743c 6f03 da38 a370 253c b0e7 dfbb
000001e0: 28ea cd3b be8f 163c f069 d839 8ad8 f3ba
000001f0: af6a 94bb d7c4 fcbc df06 f83b 45da 51bc
00000200: 0944 123c 9d10 76bb 5970 0d3b 464b c3bb
00000210: 2bc1 bdbb 1d63 633b d859 0b3c 1761 6abb
00000220: 8d71 eb3a f509 7ebb 4d89 e43b abcf 92bb
00000230: 4f2e 4c3c 5dad f2bb 4a18 aa3b 1db0 9dbb
00000240: 0186 0639 2180 a03c 4668 283b 2873 09bc
00000250: 7dfa 87bc 2b1e 2d3c 7a2c 7c3c f27e f1ba
00000260: fcad 863b c549 dfbb 9b48 bf3a f408 3c3c
00000270: 9727 1cbc f096 efbb a875 e9bb f0dd bb3b
00000280: 7512 42bc 5914 933b 2e35 1b3c 1830 60bc
00000290: 518d ae3b c75b af3b 0112 963c 5954 18bc
000002a0: 0cb4 b13b 43eb 023c e94e 283c 585d 373b
000002b0: 8895 93bc 7333 71bb 8794 bfbb d7e5 233b
000002c0: 2f06 103c 7217 e1bb c543 bd3b ea4f f03b
000002d0: cffd 4b3b de9d c13a 0a07 5abc 8841 2abc
000002e0: 2a2b 25bc e246 1d3a eb27 a3bc 1427 05bc
000002f0: eb58 f1bb 7190 3dbc c78e d5b9 a3c4 8f3b
00000300: 9f25 033a 4390 823c 029c d33b 0b06 73bb
00000310: b0c1 31bc c5d5 5d3c 648f 153c 8f60 903c
00000320: 5e4d 8abb 3d73 b83b ce7e 1d3c d101 29bc
00000330: 6a22 633b 3976 12bc 376d fcbb bfdb e03b
00000340: 06e9 b93b 4393 d6bb 0b41 483b 3b87 493b
00000350: 3436 9f3a e650 9fbb d1c4 873b ac2b b7bb
00000360: 0b09 f5bb c605 abba 9b7d 0c3c 8b92 903b
00000370: ff65 8c3b 4acc c0bb 6756 53bc 2830 1d3c
00000380: 5f57 863c 0669 85ba 6f2c 03bb e2a3 323c
00000390: 134b fabb 70cd 933b 79f5 2bbb 1511 78bb
000003a0: bb42 2e3c d316 3ebc b76e 0b3c 3343 c0bb
000003b0: e01d d23a 53aa a23b d49e 963a 0f80 473b
000003c0: 2ba0 88bb 4d3c 563a 01f6 8fba 7ff3 e03b
000003d0: cac3 e0bb 4f88 8e3c c3ab 2bbc 4583 cfbb
000003e0: 51a0 483a c3e1 da3b 3ba9 2bbc d3a2 e0bb
000003f0: e47a 2e3c cbba 863b 9762 083b 8295 3c3b
-0.00085399876 -0.006245097 -0.0041322685 0.006050199 0.023670508 0.019879716 0.018618597 0.015998306
0.0011665314 0.007836078 0.009562738 -0.0044344007 0.0032747488 -0.0035468086 -0.006031724 0.021872152
-0.014873129 -0.0024867356 0.008248995 0.010364882 0.004000656 -0.0026795303 -6.914272e-05 -0.003270482
0.016061796 -0.012404582 0.008407052 0.004935813 -0.0028646055 -0.0068945624 -0.004703635 -0.01690776
-0.0038356264 0.002101925 -0.010864585 -0.0039034856 0.006828385 0.008912161 0.0063538663 -0.017137915
0.0024534774 -0.0022518374 0.0121173365 0.0030327605 0.00076236646 0.024711894 0.0028757055 -0.0063857497
-0.01731619 -0.002888669 0.0043245363 -0.013353246 -0.017370095 0.0040766373 0.0004453226 0.0008178533
-0.003326875 -0.0031322304 -0.018490322 -0.01067866 -0.013423018 -0.0071935714 0.0007008269 0.007403067
0.008889192 0.0050712707 0.0123162335 0.0020838703 0.01548249 0.004957102 0.00033508122 0.0025020114
0.01716374 -0.0021142755 -0.0037564223 0.006712649 0.0022104657 -0.011815644 0.0034891663 -0.0007121716
0.0013038595 0.01830948 -0.008095407 -0.0026464432 -0.0056410036 -0.006787937 0.0085218 -0.00010466432
-0.005413368 0.0044332133 0.010377287 0.013387199 -0.0032769346 -0.011862121 0.0061134575 -0.0022474125
0.0060156463 0.006065739 0.008629142 0.0024540564 -0.007303908 -0.0076904693 -0.004079143 -0.004207322
-0.0051780893 -0.009394762 -0.0053492747 0.011984694 -0.002244864 -0.010733037 0.004743339 0.0015853457
-0.0037829818 0.0017560621 -0.010508702 -0.010970223 0.014930849 0.000103956896 0.0100976555 -0.006833039
0.006284017 0.009189544 0.0004127766 -0.0018603962 -0.0045293192 -0.03085558 0.0075691785 -0.012808387
0.008927354 -0.0037546523 0.0021581857 -0.005959901 -0.0057908497 0.0034696527 0.008505307 -0.0035763436
0.0017962918 -0.003876326 0.0069743753 -0.0044803224 0.012462213 -0.0074059204 0.0051908838 -0.004812254
0.00012829156 0.019592347 0.0025696917 -0.008389272 -0.016598934 0.010566275 0.015391463 -0.0018424673
0.004110096 -0.006814214 0.0014593782 0.011476744 -0.009530923 -0.0073116943 -0.0071246214 0.005733244
-0.011845221 0.0044885096 0.009473128 -0.013683341 0.005326905 0.005351517 0.018319132 -0.009297454
0.0054230746 0.007990661 0.01027272 0.0027979221 -0.018015638 -0.0036804348 -0.0058465633 0.0025008821
0.008790537 -0.00686925 0.005775901 0.0073337452 0.0031126624 0.001477178 -0.013307342 -0.0103916
-0.010081092 0.0005999637 -0.019916495 -0.008126993 -0.007365336 -0.011570082 -0.00040732903 0.0043874546
0.00050028594 0.01593793 0.0064578066 -0.003708246 -0.010849401 0.013539736 0.009128425 0.017624168
-0.0042206487 0.005628972 0.009612752 -0.0103153745 0.0034657964 -0.008939319 -0.007703449 0.0068621333
0.0056735305 -0.0065483167 0.0030556347 0.003075077 0.0012146891 -0.0048619388 0.0041433354 -0.005589923
-0.0074778846 -0.0013047985 0.008574869 0.0044120005 0.00428462 -0.005883728 -0.012899018 0.009594001
0.016399084 -0.0010178394 -0.0020015498 0.0109033305 -0.007638344 0.004510574 -0.0026238842 -0.0037851979
0.010636027 -0.011602121 0.008510283 -0.005867386 0.0016030632 0.004964152 0.0011491426 0.003044132
-0.004169484 0.00081724377 -0.0010983349 0.0068649645 -0.0068592774 0.017398981 -0.010477963 -0.006332787
0.00076532835 0.006679745 -0.010477359 -0.0068553477 0.010649417 0.004111623 0.0020810717 0.0028775637

action_model._discrete_distribution.branches.0.bias f4 [5]
00000000: 0000 0000 0000 0000 0000 0000 0000 0000
00000010: 0000 0000
0.0 0.0 0.0 0.0 0.0

network_body._body_endoder.seq_layers.0.weight f4 [128, 1]
00000000: 5bb6 dcbe 2877 b1bf 00cd df3f b164 043f
00000010: 0a67 38bf 9ee3 b53e cdf7 85bf da16 1fbf
00000020: 42bb 89bd b281 cb3f 20c3 bf3f 6808 ddbf
00000030: db25 94bf b2f6 2fbe dd8e 70be 900b cc3f
00000040: 6546 acbf af8e 0d3e 5b87 9e3e a447 0540
00000050: b2de 5e3e 9c04 abbf e194 3c3f caaa dbbe
00000060: a9a2 31bf f7f5 1f3f 56ea 1e3f 1c9b 44bf
00000070: a756 5f3e 45db 94bf c132 2c3f dc63 b73e
00000080: 7089 e83d d6ef e73f 45ea 27c0 ecb6 463f
00000090: 9933 89be 9949 c23f ac7e 1a3f b546 223f
000000a0: 31c0 0f3f 825a 2ebe 7e00 31be 87c6 8bbe
000000b0: 3037 b83f 88bf 143f 2c4c 243f 2ad1 023f
000000c0: 2219 52bf 5b2e 18bf 076b 7fbf 899c 493f
000000d0: 2ed0 1b3e c1fd 06bf 79d8 74be 621e 083f
000000e0: 1831 d43f 9a61 5f3f f32f b9bf 9007 193e
000000f0: c9ae 8abf 057b 473d c9f2 1ebe d483 a63f
00000100: 1abe debe 26bc e3be bb76 973f 94ef 8ebf
00000110: a3e2 753f f878 b33f 785a 92bf 7a84 96be
00000120: 58df a23f 89a0 ae3f 533a aabf 042a 943d
00000130: 00fa 1ebe 9530 6c3e 45dd 613f 0751 d23f
00000140: cce5 853f 349e 753b 7043 bbbe 9b69 8b3f
00000150: 704c a33f aa3c aebf 78ee f4be 9b30 08c0
00000160: 71f3 ea3f a8a8 00bf 146c ca3f 4afb 5cbf
00000170: 3504 ca3e 4ea5 49bf 319e 8a3f 40cd 2740
00000180: eee0 50bf 4758 a33e babf 2bbf 98d2 ccbe
00000190: 1ef3 133f 470b 6c3f 91cd b0be 40e5 30bd
000001a0: c0c6 533f ea8f 093f 521e 11bf d71a 983f
000001b0: 1e86 0dbe 5cc2 4dbe 6c9e 893f 9598 90bf
000001c0: 65cf 69bc abd3 343f d696 253f b72d aa3e
000001d0: 3f86 e7bf db88 f7be 97d0 c33e 8d73 a1bf
000001e0: 164f 9cbf 128e 6ebf afd7 243f fef0 96bf
000001f0: 0625 163f 1b15 8cbf 1ed8 013f cb46 9cbf
-0.43107876 -1.3864489 1.7484436 0.5171614 -0.72032225 0.3552522 -1.0466248 -0.62144244
-0.0672517 1.5898955 1.4981422 -1.726819 -1.1574053 -0.1718395 -0.23491998 1.5941029
-1.3458983 0.1382396 0.30962643 2.0824976 0.21764639 -1.3360782 0.7366467 -0.4290374
-0.69388825 0.6248469 0.6207632 -0.7679918 0.21810399 -1.1629416 0.67264944 0.35818374
0.11354339 1.8120067 -2.6236737 0.77622867 -0.26797178 1.517871 0.60349536 0.6338914
0.56152636 -0.17026713 -0.17285344 -0.27299902 1.4391842 0.58104753 0.6417873 0.5110041
-0.820696 -0.5944573 -0.99772686 0.7875448 0.15216133 -0.5273095 -0.23910703 0.5317136
1.6577482 0.87258303 -1.4467758 0.14944291 -1.083459 0.048701305 -0.15522303 1.3008981
-0.4350441 -0.44479483 1.1833109 -1.1166863 0.96048945 1.4021292 -1.1433859 -0.29397947
1.2724409 1.3642741 -1.3299049 0.07234576 -0.15525055 0.23065408 0.88228256 1.6430978
1.0460753 0.003747833 -0.36574888 1.0891603 1.2757702 -1.3612263 -0.47838187 -2.1279666
1.8355542 -0.5025735 1.5814233 -0.86320937 0.39456335 -0.7876786 1.0829526 2.6219025
-0.81593215 0.31903288 -0.67089427 -0.4000442 0.5779284 0.9220471 -0.34531835 -0.04318738
0.82725143 0.5373522 -0.5668689 1.1883191 -0.13820693 -0.20093673 1.0751472 -1.1296564
-0.014270638 0.7063548 0.6468328 0.33238003 -1.8087844 -0.483466 0.3824508 -1.2613388
-1.2211635 -0.9318553 0.6439161 -1.1792295 0.58650243 -1.0943941 0.50720394 -1.2209104

network_body._body_endoder.seq_layers.0.bias f4 [128]
00000000: 0000 0000 0000 0000 0000 0000 0000 0000
00000010: 0000 0000 0000 0000 0000 0000 0000 0000
00000020: 0000 0000 0000 0000 0000 0000 0000 0000
00000030: 0000 0000 0000 0000 0000 0000 0000 0000
00000040: 0000 0000 0000 0000 0000 0000 0000 0000
00000050: 0000 0000 0000 0000 0000 0000 0000 0000
00000060: 0000 0000 0000 0000 0000 0000 0000 0000
00000070: 0000 0000 0000 0000 0000 0000 0000 0000
00000080: 0000 0000 0000 0000 0000 0000 0000 0000
00000090: 0000 0000 0000 0000 0000 0000 0000 0000
000000a0: 0000 0000 0000 0000 0000 0000 0000 0000
000000b0: 0000 0000 0000 0000 0000 0000 0000 0000
000000c0: 0000 0000 0000 0000 0000 0000 0000 0000
000000d0: 0000 0000 0000 0000 0000 0000 0000 0000
000000e0: 0000 0000 0000 0000 0000 0000 0000 0000
000000f0: 0000 0000 0000 0000 0000 0000 0000 0000
00000100: 0000 0000 0000 0000 0000 0000 0000 0000
00000110: 0000 0000 0000 0000 0000 0000 0000 0000
00000120: 0000 0000 0000 0000 0000 0000 0000 0000
00000130: 0000 0000 0000 0000 0000 0000 0000 0000
00000140: 0000 0000 0000 0000 0000 0000 0000 0000
00000150: 0000 0000 0000 0000 0000 0000 0000 0000
00000160: 0000 0000 0000 0000 0000 0000 0000 0000
00000170: 0000 0000 0000 0000 0000 0000 0000 0000
00000180: 0000 0000 0000 0000 0000 0000 0000 0000
00000190: 0000 0000 0000 0000 0000 0000 0000 0000
000001a0: 0000 0000 0000 0000 0000 0000 0000 0000
000001b0: 0000 0000 0000 0000 0000 0000 0000 0000
000001c0: 0000 0000 0000 0000 0000 0000 0000 0000
000001d0: 0000 0000 0000 0000 0000 0000 0000 0000
000001e0: 0000 0000 0000 0000 0000 0000 0000 0000
000001f0: 0000 0000 0000 0000 0000 0000 0000 0000
0.0 0.0 0.0 0.0 0.0 0.0 0.0 0.0
0.0 0.0 0.0 0.0 0.0 0.0 0.0 0.0
0.0 0.0 0.0 0.0 0.0 0.0 0.0 0.0
0.0 0.0 0.0 0.0 0.0 0.0 0.0 0.0
0.0 0.0 0.0 0.0 0.0 0.0 0.0 0.0
0.0 0.0 0.0 0.0 0.0 0.0 0.0 0.0
0.0 0.0 0.0 0.0 0.0 0.0 0.0 0.0
0.0 0.0 0.0 0.0 0.0 0.0 0.0 0.0
0.0 0.0 0.0 0.0 0.0 0.0 0.0 0.0
0.0 0.0 0.0 0.0 0.0 0.0 0.0 0.0
0.0 0.0 0.0 0.0 0.0 0.0 0.0 0.0
0.0 0.0 0.0 0.0 0.0 0.0 0.0 0.0
0.0 0.0 0.0 0.0 0.0 0.0 0.0 0.0
0.0 0.0 0.0 0.0 0.0 0.0 0.0 0.0
0.0 0.0 0.0 0.0 0.0 0.0 0.0 0.0
0.0 0.0 0.0 0.0 0.0 0.0 0.0 0.0

network_body._body_endoder.seq_layers.2.weight f4 [128, 128]
00000000: 1724 c8bd ff56 d93d cfc9 8abc 0db0 3fbc
00000010: 0575 b43d 377e 0f3e 22a2 ac3c 0b33 87bd
00000020: 5bb1 0a3e a7b1 25bd 5840 84bd 083c 22bd
00000030: 1e32 4cbe 59ba 333d 98cb 1ebe f409 873c
00000040: da76 08bb 3087 49bb 2a64 b43d 6582 083e
00000050: 701a d3ba 6a43 763d bbe8 2e3d e9b9 ae3d
00000060: 5903 213d 1b49 79bd 13c9 b7bd 0e61 cdbc
00000070: 19a1 15bd bfa1 e4bd e263 8c3d 24ad 1dbd
00000080: 17c7 383e 9959 f73c a977 01bd dadb a53c
00000090: df61 c7bc a0f7 c3bd 0651 ca3d 811a eabd
000000a0: 03ec efbd 20dc 953b f38d eebc 6645 d0bc
000000b0: c503 02be 0150 353d 93b7 ecbd 4942 603d
000000c0: e5da 963c c119 44bd 2630 b53d fa9f 3abe
000000d0: d786 c3bc 81fb 8dbd fc55 053e b3d2 0b3d
000000e0: 34bc 2f3c 219b 0e3d 1ef6 8b3d 3c91 503d
000000f0: 8047 6bbe a687 963d 0d34 d43c e4fe 39be
00000100: f866 f63d 6382 e3b9 4a02 a53d 716d cabd
00000110: 416b a63c 72c9 303d 590d 07be 1118 6e3d
00000120: c0c6 5e3d d0c3 ce3c 2220 8bbd af0b 4bbd
00000130: efba 0bbd 60dc acbd 4d1e 91bd b5f8 40bd
00000140: 15be 03be fd9a 11bd d54e 5fbe e735 fb3d
00000150: 2364 983d 2295 10be f576 ea3c b52b ec3d
00000160: 4974 c7bd c0ea 09bc bcb3 1ebe 166b a7bd
00000170: 7b8f 54bd f23a 35be ea69 c4bc bf07 373d
00000180: 7a74 81bd f3e6 d83d 0770 08bc f99f 0cbe
00000190: bf7f 11be 8a62 c0bd 27f2 a73d beb6 313e
000001a0: 84e4 ecbd 1ad1 34bd df0c 303d a4b6 893d
000001b0: bf2f 633d a30b d4bc f007 06be f13d b53d
000001c0: 3da6 1c3c 7ff6 51bd e0a5 72bd 0e70 00be
000001d0: cc4d 143e 4975 a6bd af6f 08bb 0eb5 e9bc
000001e0: dace 333d b401 433d e5b0 053b fef1 8fbd
000001f0: 5f9c 173d 5622 7b3d 4c10 7c3d a86d 903c
00000200: 5dad ac3d c0f4 db3d 1be8 0e3d 25b0 913d
00000210: 5b0b 00bd 123e 593e e3d4 a4bd 6467 15be
00000220: 7919 8abd bf1f 5dbd 8f53 363d 3f7e a7bd
00000230: 73d3 d23d 1a28 0e3d 00c0 f13b e898 5bbd
00000240: d929 4dbd 5b1c 85bd 3f4f 29bd 9869 013e
00000250: c7af 763c efd8 7abe 6808 14bd 7d2c 633d
00000260: 164d acbd d58d 1f3d 7773 053d 701d ccbd
00000270: 76ff 8b3d 3925 80be 65e4 9fbd e9dd e23c
00000280: ed9a 28bc fdb8 dabc 8206 863d 1a72 0bbd
00000290: 8218 6cbc a94b a53c feb7 483d be66 85bd
000002a0: 5c3a 0b3e 63ab a53d cb1a 93bd 70d7 44bd
000002b0: d5c0 e53d fb5b d7bc 66c5 223e d910 483d
000002c0: 9416 16be c71b 4c3c b108 253e 3b1d 50bd
000002d0: 5259 d6bc 4090 e33d c0f7 d13d 2233 b6bd
000002e0: 5a96 f13c b8c7 9b3c b717 4e3c e97d 323d
000002f0: 7fc3 a13d 1c84 d2bd 4992 a8bc 27d7 18be
00000300: 9e28 3fbe e091 103e 9ee6 e7bd c0ad 523d
00000310: d19e 87bd f6d4 3dbe 9af6 0c3d 43b3 0d3e
00000320: 927e 153e 5b9a 07bd 9913 0bbd 54d6 16be
00000330: b208 043e 29a7 7a3d 395f 023e a54f 34bd
00000340: 7d8e 8c3d 7f8b d03a 13cc 08bd a958 8c3d
00000350: c059 e4bc ad95 cfbb 4d89 17bd 7d26 bdbc
00000360: 0beb 813d 9ce9 623e cdca 46be 7082 ae3d
00000370: c0d1 4b3e b260 bf3c ab9c 1c3e 96ad ab3b
00000380: 55fa 4e3e bd77 003e ff8b 1cbc 9e53 1c3e
00000390: e753 d0bd f280 d7bc e902 ebbd 0b9d 94bc
000003a0: cddf b63c 6f8b abbd 8c8b 4bbd 1b93 61bd
000003b0: a6c9 5fbd 80fc 1cbe af1b 4bbd 212c 86bd
000003c0: b004 fc3d 7f04 b83d b70e d7bd 7b4a bbbb
000003d0: 13b5 9dbd 53af abbc 73ff 84bd a926 2d3c
000003e0: 0666 f73a fdcd 373e 3401 23bc 50f6 633e
000003f0: d947 c23b 70ed 11bd 3ec8 31bd 1cc2 edbd
-0.097725086 0.10612296 -0.016941933 -0.011699689 0.08811382 0.14012991 0.021073405 -0.066015325
0.13544218 -0.040452626 -0.06457585 -0.03960803 -0.19940993 0.043878887 -0.15507352 0.016484238
-0.0020822794 -0.0030750744 0.08808167 0.13330992 -0.0016105901 0.060122885 0.042702418 0.08531553
0.039309833 -0.060860734 -0.08973899 -0.025070693 -0.036530588 -0.11163663 0.06854989 -0.038495198
0.18044697 0.03019409 -0.031608257 0.020246435 -0.02433866 -0.09568715 0.09878735 -0.114308365
-0.117149375 0.00457336 -0.029120421 -0.025423717 -0.1269675 0.04426575 -0.115584515 0.054750714
0.018414924 -0.047876123 0.08847074 -0.18225089 -0.023868008 -0.06932736 0.13021082 0.034136485
0.010726023 0.03481591 0.068340525 0.050919756 -0.22976494 0.07350092 0.025903726 -0.1816364
0.120313585 -0.0004339396 0.08057077 -0.098841555 0.020314815 0.043160863 -0.13188685 0.05812842
0.05438876 0.025239855 -0.06793238 -0.04957169 -0.03411382 -0.08440471 -0.070858575 -0.047112186
-0.1286548 -0.0355482 -0.21807416 0.122661404 0.074409746 -0.1411939 0.028621176 0.11531774
-0.097389765 -0.008417785 -0.1549825 -0.08174722 -0.051894646 -0.17698267 -0.023976285 0.04468512
-0.06321044 0.10590925 -0.008327491 -0.137329 -0.14208888 -0.09393795 0.08200484 0.17354867
-0.115670234 -0.044144727 0.042981025 0.06724289 0.055465456 -0.025884455 -0.13088965 0.08849705
0.009561119 -0.051260468 -0.059240222 -0.12542745 0.14482802 -0.08127839 -0.0020818522 -0.028528716
0.04389844 0.047609046 0.0020399627 -0.07028578 0.03701436 0.061312042 0.06153898 0.017630413
0.08431504 0.10740042 0.03488932 0.07113675 -0.03126083 0.21215084 -0.080484174 -0.14590222
-0.0674314 -0.053985354 0.04451328 -0.081783764 0.10294237 0.034706213 0.0073776245 -0.05361262
-0.050088737 -0.06499549 -0.04133534 0.12637937 0.015056557 -0.24496816 -0.03614083 0.05546235
-0.084131405 0.03895362 0.03258082 -0.09966552 0.06835835 -0.250284 -0.07807235 0.027693706
-0.010290843 -0.026699537 0.0654421 -0.034044363 -0.01441014 0.02017768 0.049003594 -0.06513737
0.13596481 0.0808933 -0.07182845 -0.04805702 0.112184204 -0.026288977 0.15895614 0.048844192
-0.1465705 0.0124577945 0.16116597 -0.050809126 -0.026165638 0.11111498 0.10252333 -0.088964716
0.029490639 0.019016132 0.012578896 0.04357711 0.07898616 -0.10279104 -0.020577567 -0.14925824
-0.18667838 0.14118147 -0.113232836 0.051435232 -0.06622089 -0.1853827 0.034414865 0.13837914
0.14599064 -0.03310619 -0.033954237 -0.14730197 0.12893942 0.061194573 0.12731637 -0.044021267
0.06863115 0.0015910714 -0.033397745 0.06852848 -0.027874827 -0.0063349814 -0.036996175 -0.023089642
0.06343659 0.22159427 -0.194133 0.08520973 0.19904232 0.023361538 0.15294139 0.005239199
0.20212682 0.12545677 -0.009554862 0.15266272 -0.10172253 -0.026306603 -0.114751644 -0.01814129
0.022323513 -0.08376204 -0.04969363 -0.05507193 -0.054635666 -0.15330696 -0.049586948 -0.06551386
0.123055816 0.089852326 -0.105008535 -0.005715666 -0.07700553 -0.020957625 -0.064940356 0.010568299
0.001887501 0.17949672 -0.009949017 0.2226193 0.005928975 -0.03562683 -0.043403856 -0.11609289

network_body._body_endoder.seq_layers.2.bias f4 [128]
00000000: 0000 0000 0000 0000 0000 0000 0000 0000
00000010: 0000 0000 0000 0000 0000 0000 0000 0000
00000020: 0000 0000 0000 0000 0000 0000 0000 0000
00000030: 0000 0000 0000 0000 0000 0000 0000 0000
00000040: 0000 0000 0000 0000 0000 0000 0000 0000
00000050: 0000 0000 0000 0000 0000 0000 0000 0000
00000060: 0000 0000 0000 0000 0000 0000 0000 0000
00000070: 0000 0000 0000 0000 0000 0000 0000 0000
00000080: 0000 0000 0000 0000 0000 0000 0000 0000
00000090: 0000 0000 0000 0000 0000 0000 0000 0000
000000a0: 0000 0000 0000 0000 0000 0000 0000 0000
000000b0: 0000 0000 0000 0000 0000 0000 0000 0000
000000c0: 0000 0000 0000 0000 0000 0000 0000 0000
000000d0: 0000 0000 0000 0000 0000 0000 0000 0000
000000e0: 0000 0000 0000 0000 0000 0000 0000 0000
000000f0: 0000 0000 0000 0000 0000 0000 0000 0000
00000100: 0000 0000 0000 0000 0000 0000 0000 0000
00000110: 0000 0000 0000 0000 0000 0000 0000 0000
00000120: 0000 0000 0000 0000 0000 0000 0000 0000
00000130: 0000 0000 0000 0000 0000 0000 0000 0000
00000140: 0000 0000 0000 0000 0000 0000 0000 0000
00000150: 0000 0000 0000 0000 0000 0000 0000 0000
00000160: 0000 0000 0000 0000 0000 0000 0000 0000
00000170: 0000 0000 0000 0000 0000 0000 0000 0000
00000180: 0000 0000 0000 0000 0000 0000 0000 0000
00000190: 0000 0000 0000 0000 0000 0000 0000 0000
000001a0: 0000 0000 0000 0000 0000 0000 0000 0000
000001b0: 0000 0000 0000 0000 0000 0000 0000 0000
000001c0: 0000 0000 0000 0000 0000 0000 0000 0000
000001d0: 0000 0000 0000 0000 0000 0000 0000 0000
000001e0: 0000 0000 0000 0000 0000 0000 0000 0000
000001f0: 0000 0000 0000 0000 0000 0000 0000 0000
0.0 0.0 0.0 0.0 0.0 0.0 0.0 0.0
0.0 0.0 0.0 0.0 0.0 0.0 0.0 0.0
0.0 0.0 0.0 0.0 0.0 0.0 0.0 0.0
0.0 0.0 0.0 0.0 0.0 0.0 0.0 0.0
0.0 0.0 0.0 0.0 0.0 0.0 0.0 0.0
0.0 0.0 0.0 0.0 0.0 0.0 0.0 0.0
0.0 0.0 0.0 0.0 0.0 0.0 0.0 0.0
0.0 0.0 0.0 0.0 0.0 0.0 0.0 0.0
0.0 0.0 0.0 0.0 0.0 0.0 0.0 0.0
0.0 0.0 0.0 0.0 0.0 0.0 0.0 0.0
0.0 0.0 0.0 0.0 0.0 0.0 0.0 0.0
0.0 0.0 0.0 0.0 0.0 0.0 0.0 0.0
0.0 0.0 0.0 0.0 0.0 0.0 0.0 0.0
0.0 0.0 0.0 0.0 0.0 0.0 0.0 0.0
0.0 0.0 0.0 0.0 0.0 0.0 0.0 0.0
0.0 0.0 0.0 0.0 0.0 0.0 0.0 0.0

value_heads.value_heads.extrinsic.weight f4 [1, 128]
00000000: 55d8 063e d426 6cbd 571c 0fbe 7122 8cbd
00000010: fb86 3d3d 6d60 053e ad7c ae3d 4279 87bd
00000020: 3819 60bd a961 38be ee0d 14be bab9 73bd
00000030: ffdc 6f3d e19e c23d 9596 18be d8da 3c3e
00000040: 8807 08bd 0903 18be 39ec 59be 8fd8 42bd
00000050: 4714 05be 53dd eebc c8cc d93d 3b37 453e
00000060: b4cd 4bbc 5785 163e 03ec 51bd 414c a3bd
00000070: 9521 c93d 2f5a 003d 5593 113d f92b 50be
00000080: addd d7bd d5a5 e9bd 2e3b 773d 0560 4ebe
00000090: ffd5 8dbd 1048 3b3e 5131 30be 0851 50be
000000a0: 19ce 103e 78c3 5ebd e939 fcbd ea1b 3d3e
000000b0: a4e0 393e 6fbf 13be 037b 223d 6f3c 48be
000000c0: 3810 3ebe f27e a5bd 9ca6 81bd ab9c 1f3d
000000d0: ac20 c33d 681c 2abe 236b a8bd 2ad4 6dbc
000000e0: e3ef 483e 1923 11be 27b8 eebd 56eb 433e
000000f0: 4718 07be 1b1f 243e e7f6 93bd 5e93 55bc
00000100: 0824 35be 47d0 23be b4b5 243e 0da3 f73d
00000110: ef8b 223e e837 053e 4dcd 393e 529e 2a3e
00000120: 6a5e 10be e07c 473e 0dd6 16be 2082 dbbd
00000130: 5b19 fb3d bb22 bfbd a720 40be 9ecf 7bbc
00000140: 528e 13bd 70a4 1d3e adf3 3e3e ddbc 083e
00000150: 1688 313e 6d77 c9bd a315 09bc 5388 e9bb
00000160: 417f 28be ea17 e2bc 263b 78ba 995c 05bd
00000170: 355b 18be 34e6 393e f8a7 a13d c0f4 4ebd
00000180: 8cb0 d63d 1e3d 153e 755b 4abe 4999 0c3c
00000190: 4494 b63d 317e 463e c1e2 713b 39f2 01bd
000001a0: 7954 40bd a26e 093e 2821 e93d aa34 c53d
000001b0: 293b 8ebd e464 93bd b169 143d dce5 9f3c
000001c0: 5087 713b 06fa 1e3e ac05 5b3d ab2f 5cbe
000001d0: 83be 0b3e deac 7ebd 7bb7 03be faae 09be
000001e0: e275 083e 84ba 0f3e 7a99 b7bd 1e1c 87bc
000001f0: 5e7d 053e 6a16 d8bd d3d4 3f3d d5dc 5a3c
0.13168462 -0.057654217 -0.13975655 -0.06842507 0.046271306 0.13025065 0.08519874 -0.06614925
-0.05471155 -0.18006004 -0.14458439 -0.059503295 0.058560368 0.0950296 -0.14901192 0.18442857
-0.033210307 -0.14844908 -0.21281518 -0.047569808 -0.12996016 -0.02915827 0.10634762 0.1925935
-0.01243918 0.14699303 -0.05125047 -0.07973529 0.098208584 0.031336006 0.035540897 -0.20329274
-0.10540328 -0.11408583 0.060359173 -0.20153816 -0.06925582 0.18289208 -0.17206313 -0.20343411
0.1414112 -0.054385632 -0.12315733 0.1846768 0.181521 -0.14428495 0.039668094 -0.19554304
-0.18560874 -0.080808535 -0.06330606 0.03896777 0.09527716 -0.16612399 -0.0822356 -0.014515916
0.1962276 -0.14173545 -0.11656218 0.19132742 -0.13192855 0.16027491 -0.07224827 -0.013035623
-0.17689526 -0.1599742 0.16084939 0.12091646 0.15873693 0.13009608 0.18144722 0.16661957
-0.14098516 0.1948123 -0.14730091 -0.10718179 0.122606955 -0.09332796 -0.18762456 -0.015369324
-0.0360244 0.15394759 0.18647642 0.13353296 0.17337069 -0.09837232 -0.008366975 -0.007126847
-0.16454794 -0.027599294 -0.0009469263 -0.03255901 -0.14878543 0.18154222 0.078933656 -0.05052638
0.104828924 0.14574096 -0.1976145 0.008581468 0.08914998 0.19384076 0.0036908838 -0.031725142
-0.04695556 0.1342111 0.11383277 0.096291855 -0.06944878 -0.07196978 0.036233608 0.019518785
0.0036854334 0.15525064 0.053472206 -0.21502559 0.13646893 -0.062176578 -0.12862961 -0.13445655
0.13326219 0.14035994 -0.0896482 -0.0164929 0.13036105 -0.1055115 0.046833824 0.0133583145
