CubeTest/results/ppo/MoveToGoal/MoveToGoal-3712.pt (torch, 149519 bytes, 12 tensors)

network_body._body_endoder.seq_layers.0.weight f4 [128, 6]
0	0x3d7c55da	0.061605312
1	0x3e885f00	0.2663498
2	0xbe80118f	-0.25013396
3	0xbdafd194	-0.08584896
4	0x3e64e789	0.22353949
5	0xbe2b3e1a	-0.16722909
6	0x3ef6c4f6	0.48197144
7	0x3ebe0827	0.37115595
8	0xbf1015b8	-0.5628314
9	0x3e39fdf2	0.18163279
10	0x3ec163f4	0.3777157
11	0xbd49845e	-0.0491985
12	0x3ed9a303	0.4250718
13	0x3f19eca7	0.6012673
14	0xbdc6a5fe	-0.09699629
15	0xbde6ab83	-0.11263182
16	0x3f780b2c	0.96892047
17	0xbda91015	-0.082550205
18	0xbe0d74ef	-0.13814138
19	0xbe94521f	-0.28968903
20	0x3f0bce45	0.5461162
21	0xbe74a532	-0.23891142
22	0xbf00e71a	-0.50352633
23	0xbdd25895	-0.10270802
24	0x3ddf2ef8	0.108976305
25	0x3e2f2a1d	0.17105909
26	0xbe9f96e3	-0.31169805
27	0x3ef6b57b	0.48185334
28	0xbec2259a	-0.37919313
29	0x3e515167	0.20441209
30	0xbe9e4458	-0.30911517
31	0xbed91c3f	-0.42404363
32	0xbea7095a	-0.32624322
33	0xbc13b7bc	-0.009015974
34	0x3d3e23f1	0.046420995
35	0x3ecee91d	0.40412226
36	0x3ecad89b	0.39618382
37	0x3ebe443e	0.3716144
38	0x3e94201f	0.28930756
39	0xbea5e9d7	-0.32404968
40	0x3e23a751	0.15981795
41	0xbee405eb	-0.44535765
42	0x3edc0b98	0.42977595
43	0xbd8c2e97	-0.06844824
44	0xbec7cb10	-0.39022112
45	0xbdcbba36	-0.09947626
46	0xbdcfef05	-0.10153011
47	0xbe8fecfe	-0.28110498
48	0xbe005866	-0.12533721
49	0x3a38d733	0.000705111
50	0x3f12534f	0.5715837
51	0xbe81ed7a	-0.25376493
52	0x3e4cb8f5	0.1999243
53	0x3f47414f	0.7783403
54	0xbd9831c6	-0.074313685
55	0xbde4c066	-0.111695096
56	0xbe36b116	-0.1784099
57	0xbf46455d	-0.7744959
58	0x3e93c713	0.2886282
59	0xbe623062	-0.22088769
60	0xbf46c520	-0.7764454
61	0xbeb84e6c	-0.3599733
62	0x3ef269fe	0.4734649
63	0xbe66f766	-0.22555313
64	0xbe3d8aba	-0.18509951
65	0xbf0dc0a1	-0.55372053
66	0x3eab8556	0.33500165
67	0xbf4f4b8c	-0.8097465
68	0x3e74a56b	0.23891227
69	0x3eb1e13c	0.34742153
70	0xbf440c94	-0.7658169
71	0x3d70f0a1	0.05882323
72	0xbe96b79f	-0.29436967
73	0xbeef0b6f	-0.4668841
74	0xbdc5568c	-0.09635648
75	0x3e3644b6	0.17799649
76	0xbe543c29	-0.20726074
77	0xbe84b456	-0.25918835
78	0xbe76b552	-0.24092606
79	0xbe5235f9	-0.20528401
80	0xbe8f8ff7	-0.28039524
81	0xbf115fb4	-0.56786656
82	0x3cfc4b4d	0.030797625
83	0xbdb12539	-0.08649678
84	0x3f1bf47e	0.6091994
85	0x3f36fb70	0.71477413
86	0x3e3810f3	0.17975216
87	0xbf2de200	-0.67922974
88	0xbf02a639	-0.51034886
89	0xbe9f2fa0	-0.31091022
90	0x3d5f3fb5	0.054504115
91	0x3ef77621	0.48332313
92	0x3e0a2dbc	0.13494009
93	0xbd77b234	-0.060472682
94	0xbf061bb0	-0.52386
95	0x3e2a9a1b	0.16660349
96	0xbf4f2472	-0.80914986
97	0x3e36fc93	0.17869787
98	0x3dc1baba	0.094594434
99	0xbed32ea2	-0.41246516
100	0xbe7d3145	-0.24725826
101	0xbf128809	-0.57238823
102	0xbe26199b	-0.16220705
103	0x3f2b3152	0.6687213
104	0xbef44b4e	-0.47713703
105	0xbebc733c	-0.36806667
106	0xbf0b8d67	-0.5451264
107	0x3e4da835	0.20083697
108	0x3d154708	0.036444694
109	0xbcdc58b2	-0.026897762
110	0xbd4cd43e	-0.050007097
111	0xbefc7db5	-0.49314657
112	0x3d927c9c	0.071526736
113	0x3f1ce8bf	0.6129264
114	0x3e6bdc36	0.23033223
115	0x3eb8a3f1	0.36062577
116	0xbe253fd2	-0.16137627
117	0x3d0a7f79	0.033812974
118	0xbf2a259b	-0.6646363
119	0xbe1c57b2	-0.15267828
120	0xbebf2d81	-0.37339404
121	0xbe843176	-0.25818986
122	0xbecfef5a	-0.40612298
123	0xbf201034	-0.62524724
124	0x3f203fcf	0.62597364
125	0x3d662816	0.056190573
126	0x3f157eb0	0.58396435
127	0xbebf4c3b	-0.37362847
128	0xbf13af5e	-0.57689464
129	0xbeb0394a	-0.34418708
130	0x3de22210	0.11041653
131	0xbf742764	-0.95372605
132	0x3f24c82b	0.6436793
133	0x3e85328c	0.26015127
134	0xbe11f3a7	-0.14253102
135	0x3e483b37	0.19553839
136	0x3f1d2e40	0.61398697
137	0xbe35eb60	-0.1776557
138	0xbebe7b3f	-0.37203404
139	0x3e924ae6	0.28572768
140	0x3e875322	0.26430613
141	0xbf3e442f	-0.7432279
142	0xbef76b2d	-0.48323956
143	0x3ee8916c	0.45423448
144	0xbe84569f	-0.25847337
145	0xbf3a483f	-0.7276649
146	0x3f5be272	0.85892403
147	0x3e59ccb1	0.2126949
148	0x3f2295ca	0.6350981
149	0xbf10f03d	-0.56616575
150	0x3e9a703c	0.30163753
151	0x3e909d4d	0.2824501
152	0x3e0fc0a8	0.14038336
153	0xbc0309d3	-0.007997948
154	0x3f46e34f	0.77690595
155	0x3dbf683b	0.09346052
156	0xbebea599	-0.37235716
157	0x393596dd	0.00017317706
158	0xbcbe5024	-0.023231573
159	0xbd5faf0b	-0.054610293
160	0x3cd2333a	0.025659192
161	0xbe323b64	-0.17405468
162	0x3ecb0154	0.3964945
163	0xbfb95920	-1.4480324
164	0xbf4276f2	-0.75962746
165	0x3f3bcb78	0.73357344
166	0xbf11aa49	-0.5690046
167	0xbe355b09	-0.17710508
168	0xbe22ff9c	-0.1591782
169	0xbf094e65	-0.53635246
170	0x3c942ee8	0.018088773
171	0x3ea9abb0	0.331388
172	0xbe21e218	-0.15808904
173	0x3f674f52	0.9035541
174	0x3f3ca8cc	0.73695064
175	0x3e8074e4	0.2508918
176	0x3d092bb9	0.033488963
177	0x3e2c4377	0.16822611
178	0x3d807351	0.06271995
179	0xbf3e31cb	-0.7429473
180	0x3eea6e1a	0.45787126
181	0xbe3f7cb9	-0.18699922
182	0x3e2a9e79	0.16662015
183	0x3e6e5959	0.23276271
184	0xbf187ce2	-0.59565556
185	0xbe72252f	-0.23646997
186	0x3e4ab5b3	0.19795875
187	0x3d1f2744	0.038855806
188	0xbedb9284	-0.4288522
189	0x3e24b21b	0.16083567
190	0xbf131642	-0.5745584
191	0x3f5254a4	0.821604
192	0xbf20432e	-0.6260251
193	0x3ee461a3	0.4460574
194	0x3ebb4b84	0.3658105
195	0x3e5e0ea2	0.2168527
196	0xbeff0529	-0.49808624
197	0x3f609282	0.87723553
198	0xbeb3558f	-0.35026214
199	0x3f1b9c8a	0.60785735
200	0x3e02d7e5	0.1277767
201	0x3ef35ff7	0.47534153
202	0xbed3dd93	-0.41379985
203	0x3ede703a	0.43444997
204	0xbd0e73d2	-0.034778424
205	0x3eed6d8f	0.4637265
206	0xbe1b52ca	-0.151683
207	0x3ec6a45a	0.38797265
208	0x3f4a7e7b	0.79099244
209	0x3ea4bf79	0.32177332
210	0x3dab93b4	0.083777815
211	0x3eca533a	0.39516622
212	0x3d7fcfea	0.06245414
213	0x3f0e382d	0.5555447
214	0x3e234e75	0.15947898
215	0x3c519571	0.012791977
216	0x3e198167	0.1499077
217	0x3f8b0263	1.0860103
218	0xbcf59b92	-0.029981408
219	0x3e91daac	0.28487146
220	0xbe87abdd	-0.2649831
221	0x3ebfa954	0.37433875
222	0xbe8e7a8c	-0.2782787
223	0x3f2c48e4	0.6729872
224	0xbeb40685	-0.35161224
225	0xbed5ec6e	-0.41781944
226	0xbed3eabd	-0.4139003
227	0x3efa8fd2	0.4893785
228	0x3df8b9c0	0.12144804
229	0xbd9e5c53	-0.07732453
230	0x3d991d3d	0.0747628
231	0x3e7b83be	0.24561974
232	0xbefc760f	-0.49308822
233	0xbeccf28b	-0.40028796
234	0xbe40556a	-0.18782583
235	0xbe51e2e6	-0.20496711
236	0xbf237eae	-0.6386517
237	0xbf0e13bc	-0.5549886
238	0xbe54afae	-0.20770141
239	0x3e843df4	0.25828516
240	0xbed159ba	-0.40888768
241	0x3dc69440	0.09696245
242	0x3e078626	0.13234767
243	0x3e73344c	0.23750418
244	0xbf5085d2	-0.81454194
245	0x3f7ed31d	0.99540883
246	0x3f07d001	0.53051764
247	0x3db271e0	0.08713126
248	0x3f192b49	0.5983167
249	0x3e93efb2	0.2889381
250	0xbf01ee7e	-0.50754535
251	0xbe5cb7ed	-0.21554537
252	0xbdfb7f75	-0.1228017
253	0x3f617995	0.88076144
254	0xbe3ce1b8	-0.1844548
255	0x3de748c0	0.11293173

network_body._body_endoder.seq_layers.0.bias f4 [128]
0	0x00000000	0.0
1	0x00000000	0.0
2	0x00000000	0.0
3	0x00000000	0.0
4	0x00000000	0.0
5	0x00000000	0.0
6	0x00000000	0.0
7	0x00000000	0.0
8	0x00000000	0.0
9	0x00000000	0.0
10	0x00000000	0.0
11	0x00000000	0.0
12	0x00000000	0.0
13	0x00000000	0.0
14	0x00000000	0.0
15	0x00000000	0.0
16	0x00000000	0.0
17	0x00000000	0.0
18	0x00000000	0.0
19	0x00000000	0.0
20	0x00000000	0.0
21	0x00000000	0.0
22	0x00000000	0.0
23	0x00000000	0.0
24	0x00000000	0.0
25	0x00000000	0.0
26	0x00000000	0.0
27	0x00000000	0.0
28	0x00000000	0.0
29	0x00000000	0.0
30	0x00000000	0.0
31	0x00000000	0.0
32	0x00000000	0.0
33	0x00000000	0.0
34	0x00000000	0.0
35	0x00000000	0.0
36	0x00000000	0.0
37	0x00000000	0.0
38	0x00000000	0.0
39	0x00000000	0.0
40	0x00000000	0.0
41	0x00000000	0.0
42	0x00000000	0.0
43	0x00000000	0.0
44	0x00000000	0.0
45	0x00000000	0.0
46	0x00000000	0.0
47	0x00000000	0.0
48	0x00000000	0.0
49	0x00000000	0.0
50	0x00000000	0.0
51	0x00000000	0.0
52	0x00000000	0.0
53	0x00000000	0.0
54	0x00000000	0.0
55	0x00000000	0.0
56	0x00000000	0.0
57	0x00000000	0.0
58	0x00000000	0.0
59	0x00000000	0.0
60	0x00000000	0.0
61	0x00000000	0.0
62	0x00000000	0.0
63	0x00000000	0.0
64	0x00000000	0.0
65	0x00000000	0.0
66	0x00000000	0.0
67	0x00000000	0.0
68	0x00000000	0.0
69	0x00000000	0.0
70	0x00000000	0.0
71	0x00000000	0.0
72	0x00000000	0.0
73	0x00000000	0.0
74	0x00000000	0.0
75	0x00000000	0.0
76	0x00000000	0.0
77	0x00000000	0.0
78	0x00000000	0.0
79	0x00000000	0.0
80	0x00000000	0.0
81	0x00000000	0.0
82	0x00000000	0.0
83	0x00000000	0.0
84	0x00000000	0.0
85	0x00000000	0.0
86	0x00000000	0.0
87	0x00000000	0.0
88	0x00000000	0.0
89	0x00000000	0.0
90	0x00000000	0.0
91	0x00000000	0.0
92	0x00000000	0.0
93	0x00000000	0.0
94	0x00000000	0.0
95	0x00000000	0.0
96	0x00000000	0.0
97	0x00000000	0.0
98	0x00000000	0.0
99	0x00000000	0.0
100	0x00000000	0.0
101	0x00000000	0.0
102	0x00000000	0.0
103	0x00000000	0.0
104	0x00000000	0.0
105	0x00000000	0.0
106	0x00000000	0.0
107	0x00000000	0.0
108	0x00000000	0.0
109	0x00000000	0.0
110	0x00000000	0.0
111	0x00000000	0.0
112	0x00000000	0.0
113	0x00000000	0.0
114	0x00000000	0.0
115	0x00000000	0.0
116	0x00000000	0.0
117	0x00000000	0.0
118	0x00000000	0.0
119	0x00000000	0.0
120	0x00000000	0.0
121	0x00000000	0.0
122	0x00000000	0.0
123	0x00000000	0.0
124	0x00000000	0.0
125	0x00000000	0.0
126	0x00000000	0.0
127	0x00000000	0.0

network_body._body_endoder.seq_layers.2.weight f4 [128, 128]
0	0xbd2a6a12	-0.041605063
1	0x3ccd13de	0.025033887
2	0xbd2bb52a	-0.04192082
3	0x3cf70b33	0.030156707
4	0x3d82a571	0.06379212
5	0xbd9cd2bc	-0.07657382
6	0x3c69d4cf	0.014271929
7	0x3d7b6732	0.06137771
8	0x3d9aaf17	0.07552927
9	0xbc76c605	-0.01506186
10	0xbcf5d171	-0.030007096
11	0xbcd3ef60	-0.025870979
12	0xbe2c6a04	-0.16837317
13	0xbddb98d1	-0.10722507
14	0xbe08bead	-0.13353987
15	0x3e2ed3a6	0.17072925
16	0x3dfe3994	0.12413326
17	0xbcbb0a41	-0.022832038
18	0xbbafaf42	-0.0053614685
19	0xbd11781a	-0.03551493
20	0xbd900e19	-0.07033939
21	0x3d68757a	0.05675266
22	0x3e0cd721	0.1375394
23	0xbdd9cc0c	-0.10634622
24	0x3b5f997f	0.003411859
25	0x3d1ecae8	0.038767725
26	0xbe0f49a8	-0.13992941
27	0xbd9f8cf7	-0.07790559
28	0x3daa6d37	0.08321612
29	0xbd43b28b	-0.047777694
30	0xbde7cdac	-0.11318526
31	0x3dfa57b0	0.12223756
32	0x38e27d7c	0.00010799893
33	0xbdc1de85	-0.0946627
34	0xbcb89e1f	-0.022536336
35	0x3b92b389	0.0044769687
36	0x3d88d3ee	0.066810474
37	0xbcdf095d	-0.027226144
38	0xbd86a4ac	-0.065743774
39	0x3c1536fe	0.009107349
40	0xbc930337	-0.017945869
41	0x3b8b0a30	0.004243158
42	0xbcae7801	-0.021297457
43	0xbd8a09d1	-0.067401536
44	0xbafaab40	-0.0019124523
45	0xbe13e083	-0.14441113
46	0xbd27af35	-0.040938575
47	0x3ddf4dbe	0.109035
48	0xbc3f1e93	-0.011665004
49	0x3e669624	0.22518212
50	0xbe7aa465	-0.24476774
51	0x3e59ad10	0.21257424
52	0xbe0c04cb	-0.13673703
53	0x3d15c33a	0.036563136
54	0x3cb59aae	0.022168484
55	0xbc15b985	-0.00913847
56	0x3dd1d65e	0.102459654
57	0xbe3b17c8	-0.1827079
58	0x3d34dacf	0.044153985
59	0xbc822d16	-0.01589064
60	0xbc0efeff	-0.008727788
61	0xbdf8f3e3	-0.12155893
62	0x3e2f83ff	0.17140196
63	0xbd05c28a	-0.03265623
64	0x3d4b441d	0.049625505
65	0x3dd0599b	0.10173341
66	0x3d13b312	0.036059447
67	0x3da792d5	0.08182303
68	0x3e1de222	0.15418294
69	0xbdf62ae1	-0.12019897
70	0xbe513d4e	-0.20433542
71	0x3bd13292	0.0063842023
72	0x3cb3f9ca	0.021969695
73	0x3cd260ea	0.025680978
74	0x3c915bf4	0.017744042
75	0x3d343605	0.04399683
76	0x3da07a56	0.07835834
77	0xbb428ebd	-0.002968713
78	0xbda06344	-0.078314334
79	0xbc96b32f	-0.018395988
80	0x3db13b73	0.08653917
81	0x3d16b846	0.03679683
82	0x3c20151e	0.00977066
83	0xbd3b8be4	-0.045787707
84	0x3c93aef2	0.018027756
85	0x3d3c14c6	0.04591825
86	0x3cab4876	0.020908576
87	0x3d2efead	0.042723347
88	0x3d90e670	0.070752025
89	0xbd017fd3	-0.031616043
90	0xbccc128e	-0.024911191
91	0xbd149217	-0.036272135
92	0xbd5aa85e	-0.053383224
93	0xbe84754e	-0.25870746
94	0xbcf7471b	-0.030185273
95	0xbcbaaea1	-0.022788348
96	0xbc320cf7	-0.010867349
97	0xbdd602a8	-0.104497254
98	0x3a171136	0.00057627575
99	0xbd696fbb	-0.05699132
100	0xbd5f7c2d	-0.054561783
101	0xbe0c441c	-0.13697857
102	0x3d822f7c	0.06356713
103	0x3ccb80b7	0.02484165
104	0x3d9587bc	0.0730128
105	0x3e506b5e	0.20353457
106	0xbdf2bd48	-0.11852509
107	0xbc604512	-0.013688343
108	0xbc6e8dda	-0.014560187
109	0xbd03a09d	-0.032135595
110	0xbd895bcc	-0.06706962
111	0xbcc84e68	-0.02445145
112	0x3de08e27	0.109646134
113	0xbc1761d1	-0.00923963
114	0xbc57e3fb	-0.013176913
115	0x3d3af2ed	0.04564183
116	0x3dbb8a5b	0.091572486
117	0xbdb1ec4f	-0.086876504
118	0x3cb48f4f	0.022040991
119	0x3db84d65	0.08999137
120	0x3d7a8e6f	0.06117099
121	0xbe3c0954	-0.18362933
122	0x3d780754	0.060553864
123	0xbc6f929d	-0.014622358
124	0xbd142601	-0.036169056
125	0xbd9c4850	-0.0763098
126	0x3b4e1d8b	0.0031450714
127	0xbd6d3175	-0.057908494
128	0xbd9d9311	-0.07694066
129	0x3c3bc2d9	0.0114600295
130	0xbd3fc6c7	-0.04682043
131	0x3e249c98	0.16075361
132	0x3d877842	0.06614734
133	0x3e11ae33	0.14226608
134	0x3d9c87a8	0.07643062
135	0x3dc2a922	0.09504916
136	0x3b99a35a	0.0046886625
137	0x3e5af0cc	0.21380919
138	0xbde150b0	-0.11001718
139	0xbd03914f	-0.032121
140	0xbd180d63	-0.03712214
141	0xbd1b1f4f	-0.037871655
142	0xbd2968cf	-0.04135972
143	0xbdf695be	-0.1204028
144	0xbbdd9975	-0.0067626783
145	0x3c844c71	0.016149731
146	0x3cfe1f96	0.03102092
147	0x3cea9856	0.028637093
148	0x3db0111c	0.08597013
149	0xbd842bc0	-0.06453657
150	0xbd5db6a7	-0.05412927
151	0x3dd17a37	0.10228389
152	0x3d9d33ba	0.07675882
153	0xbd2e5cae	-0.042568855
154	0x3db369ac	0.0876039
155	0xbd752a96	-0.059855066
156	0x3dc39a90	0.09550965
157	0x3d8b2cfb	0.06795689
158	0x3d1db712	0.038504668
159	0xbcc7ef4b	-0.024406096
160	0xbce8317a	-0.028343905
161	0x3dd5b834	0.104355246
162	0x3c6791cb	0.014133881
163	0xbd9ff9d4	-0.07811323
164	0x3dac3b73	0.084097765
165	0xbd012907	-0.031533267
166	0x3c6c2931	0.014414118
167	0xbdce9d78	-0.100886285
168	0xbe5246b8	-0.2053479
169	0xbd9c01a9	-0.07617504
170	0x3de08821	0.109634645
171	0xbc105fca	-0.0088119
172	0xbdec2682	-0.11530782
173	0x3d8a1c9a	0.067437366
174	0xbddd4bc1	-0.108054645
175	0xbd896a9c	-0.06709787
176	0xbd892d73	-0.06698122
177	0xbe1e5e7c	-0.1546573
178	0x3db4d20c	0.08829126
179	0xbdf88eb3	-0.12136593
180	0xbe4e4fe0	-0.20147657
181	0xbde8f5c4	-0.11375001
182	0xbc941192	-0.018074784
183	0xbd0c96af	-0.03432339
184	0xbdf367d3	-0.11885037
185	0xbd5db391	-0.054126326
186	0x3dbc71f8	0.09201425
187	0xbd216ab4	-0.0394084
188	0xbd812fec	-0.063079685
189	0x3e1ebdb9	0.15502061
190	0x3d3e58ed	0.046471525
191	0xbc8e6dac	-0.01738628
192	0xbd286c5e	-0.041118972
193	0xbb5a80ab	-0.0033340852
194	0x3e0862bb	0.13318913
195	0x3c36dc3f	0.011160909
196	0xbcd8b71a	-0.026454497
197	0xbde4b953	-0.1116816
198	0xbd3d21e7	-0.04617491
199	0xbcab3f6d	-0.020904267
200	0x3c0428c1	0.008066357
201	0xbdb561ca	-0.088565424
202	0x3d1f6c67	0.03892174
203	0x3d2f04ce	0.04272919
204	0x3c2f8e39	0.010715061
205	0x3d5b1216	0.053484045
206	0x3dfd361a	0.12363835
207	0xbd19cc4f	-0.03754836
208	0xbe105886	-0.14096269
209	0xbb3468b2	-0.0027528224
210	0xbdce3c75	-0.10070125
211	0x3d6c50e0	0.057694316
212	0x3cc60510	0.024172336
213	0x3e33190c	0.17490023
214	0xbe1f0829	-0.15530457
215	0x3e21dedc	0.1580767
216	0x3be03630	0.006842397
217	0xbbcf191d	-0.0063201324
218	0xbd8beeb0	-0.068326354
219	0x3e3557b4	0.17709237
220	0x3c1904b7	0.009339503
221	0xbd075716	-0.033042036
222	0x3d1faae4	0.038981333
223	0x3d16125e	0.03663861
224	0x3d688de9	0.05677596
225	0x3e4bc923	0.19900946
226	0x3ac707d2	0.0015184826
227	0xbd82edaf	-0.06392991
228	0xbd381798	-0.044944376
229	0x3d90dfa9	0.0707391
230	0x3dca32aa	0.09872945
231	0x3e07feae	0.13280746
232	0xbd95422d	-0.07288013
233	0x3d400de8	0.046888262
234	0x3e8d3b19	0.2758415
235	0x3c75e2ac	0.015007656
236	0xbd220071	-0.039551202
237	0xbd4f7911	-0.050652567
238	0x3cb494c6	0.022043597
239	0xbcb2438c	-0.021760724
240	0x3de4a76a	0.11164744
241	0xbdc8bb11	-0.09801305
242	0xbd17876b	-0.03699438
243	0x3ce434d6	0.027857225
244	0x3e05df71	0.13073517
245	0x3d80a6ff	0.06281852
246	0x3e42bb0e	0.19016668
247	0xbcf6b5df	-0.03011602
248	0xbd1cb6bb	-0.038260203
249	0xbdec85f5	-0.11548988
250	0x3e95b47f	0.2923927
251	0xbd2a7b21	-0.04162133
252	0xbe26998e	-0.16269514
253	0xbd0457c7	-0.032310273
254	0xbdee5b64	-0.11638525
255	0xbd034ca8	-0.032055527

network_body._body_endoder.seq_layers.2.bias f4 [128]
0	0x00000000	0.0
1	0x00000000	0.0
2	0x00000000	0.0
3	0x00000000	0.0
4	0x00000000	0.0
5	0x00000000	0.0
6	0x00000000	0.0
7	0x00000000	0.0
8	0x00000000	0.0
9	0x00000000	0.0
10	0x00000000	0.0
11	0x00000000	0.0
12	0x00000000	0.0
13	0x00000000	0.0
14	0x00000000	0.0
15	0x00000000	0.0
16	0x00000000	0.0
17	0x00000000	0.0
18	0x00000000	0.0
19	0x00000000	0.0
20	0x00000000	0.0
21	0x00000000	0.0
22	0x00000000	0.0
23	0x00000000	0.0
24	0x00000000	0.0
25	0x00000000	0.0
26	0x00000000	0.0
27	0x00000000	0.0
28	0x00000000	0.0
29	0x00000000	0.0
30	0x00000000	0.0
31	0x00000000	0.0
32	0x00000000	0.0
33	0x00000000	0.0
34	0x00000000	0.0
35	0x00000000	0.0
36	0x00000000	0.0
37	0x00000000	0.0
38	0x00000000	0.0
39	0x00000000	0.0
40	0x00000000	0.0
41	0x00000000	0.0
42	0x00000000	0.0
43	0x00000000	0.0
44	0x00000000	0.0
45	0x00000000	0.0
46	0x00000000	0.0
47	0x00000000	0.0
48	0x00000000	0.0
49	0x00000000	0.0
50	0x00000000	0.0
51	0x00000000	0.0
52	0x00000000	0.0
53	0x00000000	0.0
54	0x00000000	0.0
55	0x00000000	0.0
56	0x00000000	0.0
57	0x00000000	0.0
58	0x00000000	0.0
59	0x00000000	0.0
60	0x00000000	0.0
61	0x00000000	0.0
62	0x00000000	0.0
63	0x00000000	0.0
64	0x00000000	0.0
65	0x00000000	0.0
66	0x00000000	0.0
67	0x00000000	0.0
68	0x00000000	0.0
69	0x00000000	0.0
70	0x00000000	0.0
71	0x00000000	0.0
72	0x00000000	0.0
73	0x00000000	0.0
74	0x00000000	0.0
75	0x00000000	0.0
76	0x00000000	0.0
77	0x00000000	0.0
78	0x00000000	0.0
79	0x00000000	0.0
80	0x00000000	0.0
81	0x00000000	0.0
82	0x00000000	0.0
83	0x00000000	0.0
84	0x00000000	0.0
85	0x00000000	0.0
86	0x00000000	0.0
87	0x00000000	0.0
88	0x00000000	0.0
89	0x00000000	0.0
90	0x00000000	0.0
91	0x00000000	0.0
92	0x00000000	0.0
93	0x00000000	0.0
94	0x00000000	0.0
95	0x00000000	0.0
96	0x00000000	0.0
97	0x00000000	0.0
98	0x00000000	0.0
99	0x00000000	0.0
100	0x00000000	0.0
101	0x00000000	0.0
102	0x00000000	0.0
103	0x00000000	0.0
104	0x00000000	0.0
105	0x00000000	0.0
106	0x00000000	0.0
107	0x00000000	0.0
108	0x00000000	0.0
109	0x00000000	0.0
110	0x00000000	0.0
111	0x00000000	0.0
112	0x00000000	0.0
113	0x00000000	0.0
114	0x00000000	0.0
115	0x00000000	0.0
116	0x00000000	0.0
117	0x00000000	0.0
118	0x00000000	0.0
119	0x00000000	0.0
120	0x00000000	0.0
121	0x00000000	0.0
122	0x00000000	0.0
123	0x00000000	0.0
124	0x00000000	0.0
125	0x00000000	0.0
126	0x00000000	0.0
127	0x00000000	0.0

action_model._continuous_distribution.log_sigma f4 [1, 2]
0	0x00000000	0.0
1	0x00000000	0.0

action_model._continuous_distribution.mu.weight f4 [2, 128]
0	0x3be75eb2	0.007060849
1	0xbbcb377f	-0.006201684
2	0xbcc6bf2e	-0.024261083
3	0x3c90b6f9	0.017665373
4	0x3acccb4a	0.001562455
5	0xbaebc71b	-0.0017988415
6	0x3bda46af	0.006661258
7	0xbc906a85	-0.017628917
8	0xba4c0902	-0.00077833247
9	0xbc27f77e	-0.010251878
10	0x3b1c1c2b	0.00238205
11	0xbcdd4545	-0.02701057
12	0xbc3256cd	-0.010884953
13	0xbc5faef3	-0.013652551
14	0xbc7cf277	-0.0154386675
15	0xba4db3b5	-0.0007846908
16	0x3c9c783a	0.019100297
17	0xbc40ecb1	-0.011775182
18	0xbcebf287	-0.02880217
19	0xbbb1e486	-0.0054288534
20	0x3bd79c3a	0.006579903
21	0xbc780b8a	-0.01513947
22	0x3c8425ef	0.01613137
23	0x3b655bd0	0.0034997351
24	0x3bf72a1f	0.007542863
25	0xbcdd3a13	-0.027005231
26	0xbb4479a7	-0.0029979737
27	0x3c1a8ae2	0.009432526
28	0xbc7f7fad	-0.015594405
29	0xbbf4c5df	-0.007469877
30	0xbb5f8ec2	-0.003411219
31	0xbb45bd2a	-0.0030172565
32	0xbc262ce4	-0.010142539
33	0xbc714245	-0.014725273
34	0xbc93d10e	-0.018044021
35	0x3c918bd1	0.017766865
36	0xbc904a51	-0.017613562
37	0x3c9548b7	0.01822315
38	0x3c7f2b1d	0.015574244
39	0x3c1180fd	0.008880851
40	0xbc0c4f1d	-0.008563784
41	0xbbe9c202	-0.0071337232
42	0x3d0526ed	0.032507826
43	0xbc7fe333	-0.015618133
44	0xbbb95108	-0.0056554116
45	0x3c2378e5	0.009977554
46	0x3b45c9a0	0.0030179992
47	0x3b33d627	0.0027440877
48	0x3c597c5f	0.013274281
49	0xbd0ee264	-0.03488387
50	0xbbb6d5eb	-0.0055797
51	0xbd3b7f5d	-0.04577576
52	0xbc5496fa	-0.012975449
53	0x3b3a7e1b	0.0028456512
54	0x3c68a94b	0.014200519
55	0x3bcfabc2	0.006337614
56	0x3bfb9160	0.007677242
57	0x3c70a3fa	0.014687533
58	0x3cb60aba	0.022221912
59	0xbcea79e2	-0.028622571
60	0xbc2e7b93	-0.01064958
61	0xbbb5fdd7	-0.0055539417
62	0xbb92e8d7	-0.004483323
63	0xbc408641	-0.011750759
64	0xbc272867	-0.010202504
65	0x3b659a07	0.0035034434
66	0xbcb5fea7	-0.022216154
67	0x3ba372ce	0.004988051
68	0xbc78617d	-0.015159962
69	0x3ae89ac5	0.001774632
70	0xbc21f4bb	-0.009885008
71	0xbd01441f	-0.031559106
72	0x3be8569f	0.007090404
73	0xba159589	-0.00057061814
74	0xbd1fc5bb	-0.03900693
75	0xb91a5662	-0.00014718765
76	0x3be58dc3	0.0070054247
77	0xbd030d95	-0.031995375
78	0x3c76a99f	0.015055089
79	0x3b2c88b9	0.002632661
80	0x3cb57fa4	0.02215559
81	0x3c235d08	0.009970911
82	0xbd1eff0d	-0.038817454
83	0x392b110e	0.00016314184
84	0x3bcef8db	0.006316287
85	0x3d0044f2	0.03131575
86	0x3d36f91d	0.044671167
87	0xbbb152e5	-0.005411493
88	0xbd07e772	-0.033179708
89	0x3cf2494d	0.029575968
90	0x3b87eccd	0.004148102
91	0xbc63d9c7	-0.013906903
92	0xbc371577	-0.011174551
93	0x3cb601fe	0.022217747
94	0xbc19c398	-0.009385012
95	0xbbd3b118	-0.00646032
96	0xbcb3d291	-0.021950992
97	0x3cca5265	0.024697492
98	0xbb605552	-0.0034230542
99	0xbb4ae463	-0.0030958883
100	0xbb183c19	-0.002322918
101	0x3bd8adaf	0.0066125016
102	0x3b8dbe14	0.0043256376
103	0xbc3b0d33	-0.011416721
104	0xbb9306e7	-0.004486907
105	0xbc77256d	-0.015084607
106	0xbb3729f0	-0.002794858
107	0xbcc3c653	-0.02389828
108	0x3c0a0583	0.008424166
109	0x3ce82a30	0.028340429
110	0x3c8366ee	0.016040292
111	0x3b415d9b	0.0029505256
112	0xbc50bc62	-0.012740226
113	0x3c0d3b29	0.008620062
114	0xb94182fb	-0.00018454708
115	0x3d05ca05	0.032663364
116	0xbbff5813	-0.0077924817
117	0x3cae8e89	0.0213082
118	0x3b4b9dd6	0.003106942
119	0xbc7bb75d	-0.015363541
120	0x3b3bb6eb	0.0028642963
121	0x3c3ee882	0.011652114
122	0x39455da1	0.00018822264
123	0xbc3ceff0	-0.011531815
124	0x3c449673	0.0119987605
125	0xbcc8a5ab	-0.02449306
126	0xbcf22715	-0.029559651
127	0x3c4a4bd2	0.0123471785
128	0xbc92565b	-0.017863443
129	0x3cf2a577	0.029619915
130	0xbbb23643	-0.0054385974
131	0xbd0c9647	-0.034323003
132	0x3b7cd91a	0.003858155
133	0x3cc7e375	0.024400452
134	0xbb36ada3	-0.0027874492
135	0x3c4697fb	0.012121196
136	0xbc8f4cf1	-0.017492743
137	0xbad32f2b	-0.001611208
138	0x3aa1b616	0.0012337591
139	0xbc8cf510	-0.017206699
140	0x3c41d888	0.01183141
141	0x3c20157b	0.009770746
142	0xbbee2a2f	-0.0072682123
143	0xbc3e63fb	-0.011620517
144	0x3b726492	0.0036986214
145	0xbc442fe0	-0.011974305
146	0x3b420634	0.0029605748
147	0xbb5d853b	-0.0033801335
148	0xbd44de02	-0.048063286
149	0x3b40b415	0.0029404212
150	0xbb4dcdab	-0.0031403105
151	0xbc416147	-0.011802978
152	0xbc31ff5f	-0.010864108
153	0xbcbf6e99	-0.023368167
154	0xbc0009d7	-0.007814846
155	0xbc519b1a	-0.012793327
156	0x3bcb6fb1	0.006208383
157	0x3bae158d	0.0053126276
158	0xbcbc3da8	-0.022978619
159	0xbbe00eda	-0.006837708
160	0xbbc5aa7e	-0.006032287
161	0x3bae9f56	0.005329053
162	0xbd2d466f	-0.0423035
163	0xbbdb8468	-0.0066991337
164	0xb9d7da58	-0.00041170674
165	0xbb68460a	-0.0035442137
166	0x3ca00ad8	0.01953642
167	0xbab472e3	-0.0013767149
168	0xbc840668	-0.016116336
169	0x3b9d38b9	0.0047980216
170	0x3c37ee4a	0.011226246
171	0x3a601738	0.0008548382
172	0x3bb08ed8	0.005388122
173	0x3baff294	0.0053694937
174	0x3d285e73	0.0411057
175	0xbc2167f5	-0.009851445
176	0x3bcb3962	0.006201909
177	0xbbc80c08	-0.00610495
178	0xbd21a350	-0.039462388
179	0x3cb08e09	0.021552103
180	0x3c1d7fa2	0.00961295
181	0xbbd772db	-0.006574971
182	0x3c57e980	0.013178229
183	0xb98826bf	-0.0002596881
184	0xbce91b58	-0.028455421
185	0xbd5e633b	-0.054293852
186	0xbca19131	-0.019722553
187	0xbc08fd35	-0.0083611505
188	0xbb4451a4	-0.0029955888
189	0x3c7db5af	0.015485211
190	0xbb7a897f	-0.0038228927
191	0xbbb47407	-0.0055069956
192	0xbc91714e	-0.017754223
193	0xbb2d5453	-0.0026447966
194	0x3c2e259a	0.010629082
195	0x3c9bb7e7	0.01900859
196	0xbd0b8b90	-0.034068644
197	0xbb2a0e49	-0.0025948456
198	0x3ab2a656	0.0013629894
199	0x3c5c53ed	0.013447744
200	0xbc2cf084	-0.01055539
201	0xbbcba3a7	-0.0062145772
202	0x3d254322	0.040347226
203	0xbc84aa9a	-0.01619463
204	0xbcd88073	-0.026428437
205	0x3d4fba15	0.05071457
206	0xbb9a3a37	-0.004706647
207	0xbbbdf8c4	-0.0057974774
208	0x3cac2f49	0.021018641
209	0x3c68f4ef	0.014218553
210	0xbccf67ed	-0.02531811
211	0xbc5c34c8	-0.013440318
212	0x3c1d9f35	0.009620477
213	0x3ca999e0	0.020703256
214	0xbc5bac7f	-0.0134078255
215	0x3b3b2265	0.0028554436
216	0x3cb458c7	0.022014989
217	0x3c8e2e8f	0.017356185
218	0xbbbfdca8	-0.0058551617
219	0xbcaaf527	-0.02086885
220	0xbc724345	-0.014786546
221	0xbc2800cb	-0.010254095
222	0xbcb47029	-0.022026138
223	0xbcb4720f	-0.022027044
224	0xbc4243eb	-0.011857013
225	0x3bf7c005	0.0075607323
226	0x3ac090b8	0.0014691567
227	0x3cc8e98f	0.024525432
228	0x3c8d37ca	0.017238516
229	0xbcaa8a5a	-0.020817924
230	0xbc01c013	-0.007919329
231	0x3cc792af	0.024361936
232	0xbcdedfeb	-0.027206382
233	0x3d066e58	0.032820076
234	0xbc110229	-0.008850613
235	0xbd19504b	-0.03743009
236	0x3b56c818	0.0032773074
237	0x3c5656ad	0.013082189
238	0xba9cbddb	-0.0011958437
239	0x3cc204b6	0.023683887
240	0xbaa7c79f	-0.0012800581
241	0x3d0c4dfa	0.03425405
242	0xbba3e5ed	-0.0050017745
243	0xbc6aa17d	-0.014320728
244	0x3c3351f0	0.010944828
245	0xbca8790f	-0.020565538
246	0xbac970c7	-0.0015368693
247	0xbc6be93b	-0.014398868
248	0x3cea8c0b	0.02863123
249	0x3c620b95	0.013796707
250	0xbc8a5bb2	-0.016889427
251	0xbcd89568	-0.02643843
252	0x3d0dc0bd	0.034607638
253	0xbcf0a99a	-0.029377747
254	0x3ca83493	0.020532882
255	0x3b99d9d3	0.004695156

action_model._continuous_distribution.mu.bias f4 [2]
0	0x00000000	0.0
1	0x00000000	0.0

network_body._body_endoder.seq_layers.0.weight f4 [128, 6]
0	0x3ed6550f	0.4186177
1	0xbe917676	-0.2841069
2	0xbf920530	-1.1407833
3	0x3e64b8f8	0.22336185
4	0x3da39704	0.07987788
5	0x3f12a857	0.57288116
6	0x3ec0a072	0.3762241
7	0xbeff9c3c	-0.49923885
8	0x3f37ade1	0.71749693
9	0xbd25ec96	-0.04050883
10	0xbd2dc7c1	-0.04242683
11	0x3f6f8a5e	0.93570507
12	0xbdaf2ce1	-0.08553482
13	0xbe14d62d	-0.14534827
14	0x3f07eaf9	0.53092915
15	0x3ea36614	0.31913817
16	0xbee17049	-0.4403098
17	0xbe285a03	-0.16440587
18	0xbd5b21d2	-0.05349905
19	0x3f22763b	0.63461655
20	0xbe0f264c	-0.13979453
21	0x3f1eef85	0.6208423
22	0x3e90c3b3	0.28274307
23	0xbc8a7064	-0.016899295
24	0x3e29f6ef	0.16598104
25	0xbe50f102	-0.20404437
26	0xbdb01288	-0.085972846
27	0xbed2812e	-0.4111418
28	0xbee50482	-0.44730002
29	0xbed39fd8	-0.4133289
30	0x3ea3b702	0.3197556
31	0xbe92463a	-0.28569204
32	0x3f493fb2	0.78612816
33	0x3f741979	0.9535137
34	0x3e8f957f	0.28043744
35	0x3ed4b382	0.41543204
36	0x3f1f7e1e	0.62301815
37	0xbd895364	-0.067053586
38	0xbef3d459	-0.47622946
39	0x3f0e6285	0.5561908
40	0xbd3c471e	-0.04596626
41	0xbda52096	-0.08062856
42	0xbe132f57	-0.14373527
43	0xbbf0b9f6	-0.007346387
44	0x3d452813	0.04813392
45	0x3e979cb1	0.29611734
46	0x3dbd7089	0.0924998
47	0xbed80266	-0.4218933
48	0x3db79b0f	0.08965122
49	0x3f182778	0.59435225
50	0xbe594584	-0.21217924
51	0x3e1d2583	0.15346341
52	0x3d9add78	0.07561773
53	0xbecc028c	-0.39845693
54	0x3f502416	0.8130506
55	0xbe81dad4	-0.25362265
56	0xbeac0171	-0.3359485
57	0x3cbe5a56	0.023236435
58	0x3ef65f55	0.48119608
59	0x3f193b0c	0.59855723
60	0x3f172b4c	0.5905044
61	0x3e97c972	0.29645878
62	0xbe46c918	-0.19412649
63	0xbec5ef6d	-0.3865923
64	0xbedb3da8	-0.42820477
65	0x3ec44a79	0.38338068
66	0x3f51a307	0.81889385
67	0xbecddf20	-0.40209293
68	0xbf263f1b	-0.6494004
69	0x3eeccd97	0.46250603
70	0xbe5df661	-0.21676017
71	0xbf0ae56e	-0.5425633
72	0x3f0462a6	0.51713026
73	0xbed1d43a	-0.4098223
74	0xbdda460b	-0.10657891
75	0x3d8c4f50	0.06851065
76	0xbf4b3751	-0.7938128
77	0x3e4500bd	0.19238563
78	0x3e559a52	0.2085965
79	0x3e9af4b7	0.30264828
80	0xbe5b6156	-0.2142385
81	0x3d8bfb11	0.068349965
82	0x3f7a7b62	0.9784452
83	0xbc874d5c	-0.01651638
84	0xbea58012	-0.32324272
85	0x3f0fa43c	0.56109977
86	0xbe872a15	-0.26399294
87	0x3e9694fa	0.29410535
88	0xbec93c96	-0.39304036
89	0xbeb22aaa	-0.34798175
90	0x3e72a6a9	0.23696388
91	0xbe93d5a8	-0.28873944
92	0x3f479d49	0.77974373
93	0x3ee15760	0.44011974
94	0x3d51b968	0.051202208
95	0xbd15c174	-0.036561444
96	0x3ea66b0d	0.32503548
97	0x3e8b1416	0.27163762
98	0xbe216fd1	-0.15765311
99	0x3e6d79ef	0.23191045
100	0xbe73de0c	-0.23815173
101	0xbeea2865	-0.45733944
102	0x3eb69223	0.35658368
103	0x3ec6ca5b	0.3882626
104	0xbb040691	-0.0020145515
105	0x3d4ec1a4	0.05047764
106	0xbef9e7d7	-0.48809692
107	0xbe351e9c	-0.17687458
108	0x3e20d256	0.15705237
109	0xbe991864	-0.2990142
110	0xbc32a59d	-0.010903743
111	0xbeb92bed	-0.36166325
112	0xbe05b476	-0.13057122
113	0x3da8ff28	0.08251792
114	0xbf794a14	-0.9737866
115	0x3f1eec55	0.62079364
116	0xbe4248fd	-0.18973155
117	0xbec73aa9	-0.38911942
118	0x3f0036e5	0.5008376
119	0x3d67146c	0.05641596
120	0xbf1e31a3	-0.6179449
121	0xbe1c8afa	-0.1528739
122	0xbd7cacdc	-0.06168829
123	0x3dcb5f4b	0.09930285
124	0x3f03efd5	0.5153783
125	0x3e857805	0.2606813
126	0x3df2b314	0.11850563
127	0x3e99ded4	0.30052817
128	0x3e2b0762	0.16702035
129	0x3eeefeb8	0.4667871
130	0x3d99d216	0.07510774
131	0xbf2253d6	-0.63409173
132	0xbe83ac6d	-0.25717488
133	0x3edffeec	0.43749177
134	0xbe850d45	-0.25986686
135	0xbe03f37f	-0.12885855
136	0x3ea88c6b	0.3291963
137	0xbec89081	-0.39172748
138	0xbee22002	-0.44165045
139	0x3c36c3c2	0.011155071
140	0x3dae4cdf	0.08510756
141	0xbedc6a90	-0.4305005
142	0x3f233934	0.6375916
143	0xbf49ef4e	-0.78880775
144	0x3f0b70c6	0.54468954
145	0x3ec7b973	0.39008674
146	0x3edbd5b8	0.42936492
147	0x3ec1fab9	0.378866
148	0x3ddc825b	0.10767051
149	0xbe81249b	-0.2522324
150	0xbcba54d9	-0.022745537
151	0xbe07eec8	-0.13274682
152	0xbe319334	-0.1734131
153	0x3f10bca0	0.5653782
154	0xbed45397	-0.41470024
155	0xbe274afb	-0.16337197
156	0x3eadb738	0.33928847
157	0x3ead642d	0.3386549
158	0x3e804ed3	0.25060138
159	0xbf1b210d	-0.60597306
160	0xbd4410eb	-0.047867697
161	0xbe612539	-0.21986856
162	0xbd8faba6	-0.07015161
163	0xbed4ceb0	-0.4156394
164	0x3ee451ad	0.44593564
165	0xbee577db	-0.44818005
166	0x3e549b8e	0.20762464
167	0xbea492a9	-0.32143143
168	0xbe7ae70d	-0.24502201
169	0x3e8ffaad	0.28120938
170	0xbe403816	-0.18771395
171	0xbee6e1cd	-0.45094147
172	0xbd1f080b	-0.03882603
173	0xbe20cf95	-0.15704186
174	0x3ee1191c	0.4396447
175	0x3ed6e3d8	0.41970706
176	0xbd0520e9	-0.03250209
177	0x3dd1f75d	0.10252259
178	0xbdb54a9d	-0.08852122
179	0xbd8116c2	-0.06303169
180	0xbcc292ac	-0.02375158
181	0xbee626ed	-0.44951573
182	0xbf4ff279	-0.8122936
183	0x3d03b2a0	0.032152772
184	0x3f1816d5	0.5940984
185	0x3f13594a	0.5755812
186	0x3ee24395	0.44192186
187	0xbe6418df	-0.22275113
188	0x3f6dbc8e	0.92865837
189	0x3e2fca8d	0.1716711
190	0xbecef4b3	-0.40421066
191	0xbf081eae	-0.53171813
192	0xbf3051e5	-0.6887496
193	0x3e3c733b	0.18403332
194	0xbee1f9e3	-0.4413596
195	0xbf2ae988	-0.6676259
196	0x3e7e2d69	0.2482201
197	0xbe3441ca	-0.17603222
198	0x3e8f1ca6	0.27951545
199	0xbd71ebb0	-0.05906266
200	0xbe95be9d	-0.2924699
201	0xbe04681d	-0.12930341
202	0x3ca2ca10	0.019871742
203	0xbec34fad	-0.38146725
204	0xbe4269b8	-0.18985641
205	0xbeaac732	-0.333551
206	0x3dd1f18a	0.10251148
207	0x3f1d7f6e	0.6152257
208	0x3ca509b5	0.02014623
209	0xbe0eec68	-0.1395737
210	0x3dea4def	0.11440646
211	0xbeb13619	-0.34611586
212	0xbe2ad1dc	-0.16681617
213	0x3eb9d53e	0.36295503
214	0xbeef1b30	-0.4670043
215	0x3f01e264	0.5073607
216	0x3d1fc389	0.039004836
217	0x3ef2504f	0.47326896
218	0xbef154f3	-0.47135124
219	0x3e11f12f	0.1425216
220	0xbc87e0ec	-0.016586743
221	0x3e543bca	0.20725933
222	0x3ebbc63a	0.36674672
223	0xbe91d5f2	-0.2848354
224	0xbe5d72d7	-0.21625839
225	0x3e079a18	0.13242376
226	0x3f28c4ce	0.659253
227	0x3e5598f2	0.20859125
228	0xbdcc8f35	-0.09988252
229	0x3eab4413	0.33450374
230	0xbeee5bd7	-0.46554443
231	0xbe9ab248	-0.30214143
232	0x3cdcd604	0.02695752
233	0x3e9c659b	0.3054627
234	0x3f4ddd28	0.8041558
235	0xbe2d82ac	-0.16944379
236	0xbcd17d9f	-0.025572596
237	0x3ec899e7	0.39179918
238	0xbf73c1e4	-0.9521773
239	0x3e883ef8	0.2661054
240	0xbf480b67	-0.781424
241	0xbe283ba7	-0.16429006
242	0x3ebc2bd0	0.36752176
243	0xbeb36e71	-0.35045198
244	0xbe734968	-0.23758471
245	0x3e7d02e4	0.24708134
246	0x3c3280f0	0.010894999
247	0x3cea93f8	0.02863501
248	0xbcdf2629	-0.027239876
249	0x3c4eef00	0.012630224
250	0xbe073a84	-0.13205916
251	0xbdbfd133	-0.093660735
252	0x3e9062a9	0.28200272
253	0xbeaa8d74	-0.33311045
254	0x3f41cbf3	0.75701827
255	0x3c8a6c11	0.016897233

network_body._body_endoder.seq_layers.0.bias f4 [128]
0	0x00000000	0.0
1	0x00000000	0.0
2	0x00000000	0.0
3	0x00000000	0.0
4	0x00000000	0.0
5	0x00000000	0.0
6	0x00000000	0.0
7	0x00000000	0.0
8	0x00000000	0.0
9	0x00000000	0.0
10	0x00000000	0.0
11	0x00000000	0.0
12	0x00000000	0.0
13	0x00000000	0.0
14	0x00000000	0.0
15	0x00000000	0.0
16	0x00000000	0.0
17	0x00000000	0.0
18	0x00000000	0.0
19	0x00000000	0.0
20	0x00000000	0.0
21	0x00000000	0.0
22	0x00000000	0.0
23	0x00000000	0.0
24	0x00000000	0.0
25	0x00000000	0.0
26	0x00000000	0.0
27	0x00000000	0.0
28	0x00000000	0.0
29	0x00000000	0.0
30	0x00000000	0.0
31	0x00000000	0.0
32	0x00000000	0.0
33	0x00000000	0.0
34	0x00000000	0.0
35	0x00000000	0.0
36	0x00000000	0.0
37	0x00000000	0.0
38	0x00000000	0.0
39	0x00000000	0.0
40	0x00000000	0.0
41	0x00000000	0.0
42	0x00000000	0.0
43	0x00000000	0.0
44	0x00000000	0.0
45	0x00000000	0.0
46	0x00000000	0.0
47	0x00000000	0.0
48	0x00000000	0.0
49	0x00000000	0.0
50	0x00000000	0.0
51	0x00000000	0.0
52	0x00000000	0.0
53	0x00000000	0.0
54	0x00000000	0.0
55	0x00000000	0.0
56	0x00000000	0.0
57	0x00000000	0.0
58	0x00000000	0.0
59	0x00000000	0.0
60	0x00000000	0.0
61	0x00000000	0.0
62	0x00000000	0.0
63	0x00000000	0.0
64	0x00000000	0.0
65	0x00000000	0.0
66	0x00000000	0.0
67	0x00000000	0.0
68	0x00000000	0.0
69	0x00000000	0.0
70	0x00000000	0.0
71	0x00000000	0.0
72	0x00000000	0.0
73	0x00000000	0.0
74	0x00000000	0.0
75	0x00000000	0.0
76	0x00000000	0.0
77	0x00000000	0.0
78	0x00000000	0.0
79	0x00000000	0.0
80	0x00000000	0.0
81	0x00000000	0.0
82	0x00000000	0.0
83	0x00000000	0.0
84	0x00000000	0.0
85	0x00000000	0.0
86	0x00000000	0.0
87	0x00000000	0.0
88	0x00000000	0.0
89	0x00000000	0.0
90	0x00000000	0.0
91	0x00000000	0.0
92	0x00000000	0.0
93	0x00000000	0.0
94	0x00000000	0.0
95	0x00000000	0.0
96	0x00000000	0.0
97	0x00000000	0.0
98	0x00000000	0.0
99	0x00000000	0.0
100	0x00000000	0.0
101	0x00000000	0.0
102	0x00000000	0.0
103	0x00000000	0.0
104	0x00000000	0.0
105	0x00000000	0.0
106	0x00000000	0.0
107	0x00000000	0.0
108	0x00000000	0.0
109	0x00000000	0.0
110	0x00000000	0.0
111	0x00000000	0.0
112	0x00000000	0.0
113	0x00000000	0.0
114	0x00000000	0.0
115	0x00000000	0.0
116	0x00000000	0.0
117	0x00000000	0.0
118	0x00000000	0.0
119	0x00000000	0.0
120	0x00000000	0.0
121	0x00000000	0.0
122	0x00000000	0.0
123	0x00000000	0.0
124	0x00000000	0.0
125	0x00000000	0.0
126	0x00000000	0.0
127	0x00000000	0.0

network_body._body_endoder.seq_layers.2.weight f4 [128, 128]
0	0x3de3298e	0.1109191
1	0x3e116174	0.14197332
2	0x3d9c001d	0.07617209
3	0x3bd4ac6c	0.006490281
4	0xbd3fc03e	-0.046814196
5	0x3d1d9996	0.03847655
6	0x3e04c5dd	0.12966104
7	0xbc0c13f8	-0.008549683
8	0x3d64ede6	0.05589094
9	0x3bebe929	0.0071994257
10	0xbd5ea0f2	-0.05435271
11	0xbd64a606	-0.055822395
12	0x3d72acd9	0.05924687
13	0xbe0eebc0	-0.13957119
14	0xbdb9e264	-0.09076384
15	0xbce84d4c	-0.02835717
16	0xbd1b7351	-0.03795177
17	0x3dd80e3c	0.1054959
18	0xbddf0cf7	-0.10891145
19	0x3daf4676	0.08558361
20	0xbdd3041a	-0.10303517
21	0x3dd066d9	0.10175867
22	0x3d644eb3	0.055739116
23	0xbd9fbb43	-0.07799389
24	0x3d0034e7	0.03130045
25	0xbbea192d	-0.0071441145
26	0xbe657717	-0.2240871
27	0x3e0b5fe8	0.13610804
28	0xbdc2071d	-0.09474013
29	0xbd97f3b8	-0.074195325
30	0xbe2d1413	-0.16902189
31	0xbe240c13	-0.16020231
32	0xbe002c56	-0.12516913
33	0xbd1ca593	-0.03824384
34	0x3d35819e	0.044313066
35	0xbdca04e3	-0.09864213
36	0xbc9c4a2b	-0.019078335
37	0x3d7672ac	0.060167953
38	0xbd2891c9	-0.041154657
39	0xbd9e73a2	-0.07736899
40	0x3dd5ea92	0.10445131
41	0x3e03e4e7	0.12880288
42	0x3d2efc46	0.042721055
43	0x3d9f141b	0.07767507
44	0xbdb11f47	-0.08648544
45	0xbbabf806	-0.0052480726
46	0xbd931127	-0.07181006
47	0xbc55b5cd	-0.013043833
48	0x3dba5292	0.0909778
49	0x3c73da71	0.014883623
50	0xbe242a1f	-0.16031693
51	0x3db559be	0.088550076
52	0xbdaf0baf	-0.0854715
53	0xbcf654fa	-0.030069817
54	0x3db40ff1	0.08792103
55	0xbe16f539	-0.14741983
56	0xbc8f2249	-0.017472403
57	0x3df2ef99	0.11862106
58	0xbc32d080	-0.010913968
59	0x3d99d57e	0.075114235
60	0x3b4ce13a	0.0031262175
61	0x3e1caed9	0.15301074
62	0xbd49a46b	-0.049229067
63	0xbcd47806	-0.025936138
64	0x3e3fde1a	0.18737069
65	0x3cd0f1bb	0.025505891
66	0x3d0e9e37	0.034818854
67	0xbde69af4	-0.11260024
68	0x3bb21ade	0.0054353317
69	0xbc4e0889	-0.012575277
70	0x3eb42813	0.35186824
71	0x3dd153ea	0.102210835
72	0xbe081654	-0.13289768
73	0x3dc4c1fd	0.09607313
74	0x3dbd0b4f	0.092306726
75	0x3b82e601	0.0039947038
76	0xbd1648c4	-0.03669049
77	0xbdda5734	-0.10661164
78	0x3bcab9d0	0.0061867014
79	0xbe189845	-0.14901836
80	0xbba65193	-0.0050756424
81	0x3d0a11e3	0.033708464
82	0x3d8a8b68	0.06764871
83	0x3d8db243	0.06918766
84	0x3d9b5057	0.07583683
85	0xbb23dee5	-0.0025004682
86	0xbdb8230c	-0.0899106
87	0x3d2ae204	0.04171945
88	0x3dada98a	0.08479603
89	0xbe02d440	-0.1277628
90	0x3d8332fa	0.064062074
91	0xbe2f4149	-0.17114748
92	0x3d479b74	0.048732236
93	0x3cdf2855	0.027240911
94	0xbc5b8f9d	-0.013400939
95	0x3dcca336	0.099920675
96	0xbd21cb8f	-0.03950077
97	0xbddaaec4	-0.10677865
98	0x3d63a686	0.05557873
99	0x3d4cd853	0.05001099
100	0x3cd01e34	0.025405027
101	0x3d177bf3	0.03698344
102	0xbc0a9d50	-0.008460358
103	0x3db78ca2	0.089623705
104	0xbccf52c8	-0.025308028
105	0xbd48486c	-0.048897192
106	0x3dcdfe26	0.100582406
107	0x3d235f1c	0.039885625
108	0x3b9f1627	0.0048549357
109	0xbb47dcdd	-0.0030496635
110	0x3b993f4f	0.0046767364
111	0x3e4145ea	0.18874326
112	0x3be08079	0.0068512526
113	0x3d41d4b6	0.047321998
114	0xbd163ff3	-0.03668208
115	0xbba27e74	-0.004958922
116	0xbda83e62	-0.082150236
117	0xbdb36afd	-0.08760641
118	0xbe099670	-0.13436294
119	0x3d9f113e	0.077669606
120	0x3e1e43f8	0.15455616
121	0xbb8083d5	-0.0039219656
122	0x3d9d7afa	0.076894715
123	0xbd3f88b2	-0.046761222
124	0x3e3e2ebe	0.18572518
125	0xbbdc2188	-0.0067178644
126	0xbd3d2cff	-0.04618549
127	0xbe02f182	-0.1278744
128	0x3d3c4794	0.0459667
129	0x3c811186	0.015755426
130	0x3db34ec5	0.087552585
131	0xbd9d459a	-0.07679291
132	0xbd3b8826	-0.04578414
133	0xbd781a9e	-0.06057226
134	0x3d0f732a	0.03502194
135	0x3dc1ce95	0.094632305
136	0xbc487a14	-0.012236137
137	0xbc7da168	-0.015480377
138	0x39e0137b	0.00042739123
139	0xbdad8c2e	-0.08474003
140	0x3c9235fd	0.01784801
141	0xbbd2ad97	-0.006429385
142	0xbcd03787	-0.025417103
143	0x3da1b5ba	0.0789599
144	0xbe1ae9f4	-0.15128309
145	0xbe0a8f7c	-0.13531297
146	0x3dafd2f8	0.08585161
147	0x3dfe7da7	0.1242631
148	0x3cb51702	0.022105698
149	0xbd01829d	-0.031618703
150	0x3de62650	0.11237776
151	0x3da58721	0.080824144
152	0x3b12a93d	0.0022378706
153	0xbde9e681	-0.11420918
154	0x3dcc126e	0.09964453
155	0x3d786525	0.060643334
156	0xbdefbf03	-0.117063545
157	0x3db3e21b	0.087833606
158	0x3dbad2ec	0.091222614
159	0xbe382c88	-0.17985737
160	0xbe2579a3	-0.16159682
161	0x3d9e3b75	0.07726184
162	0xbd62d38d	-0.05537753
163	0xbd0c5db3	-0.034269046
164	0x3df6450f	0.12024891
165	0x3cae3978	0.021267638
166	0x3c61f2b3	0.013790774
167	0x3d3382f8	0.043826073
168	0xbbc40ea6	-0.0059831915
169	0xbe0e84f1	-0.139179
170	0xbc5b9490	-0.013402119
171	0x3c68f3a2	0.014218243
172	0xbce74cbc	-0.028234832
173	0x3dbbdafd	0.09172628
174	0xbe0b7a34	-0.13620836
175	0xbe5211d8	-0.2051462
176	0x3d24d3ff	0.040241238
177	0x3dedd315	0.11612526
178	0xbd3d0f10	-0.046156943
179	0x3c9be57d	0.019030327
180	0x3c1b6985	0.009485607
181	0x3d3901f9	0.045167897
182	0x3e39d4a0	0.18147516
183	0xbe1c6e34	-0.15276414
184	0x3e509e60	0.20372915
185	0x3d393aa1	0.04522193
186	0x3ca7f9f3	0.020504927
187	0x3e15e6f6	0.14638886
188	0x3d5cc47e	0.053898327
189	0x3d4c6069	0.04989663
190	0x3cf391b4	0.029732563
191	0x3dbb5009	0.09146125
192	0x3dea12c1	0.11429358
193	0x3e149d85	0.14513214
194	0xbd7867e3	-0.06064595
195	0xbd667437	-0.056263175
196	0xbdc5a6c7	-0.09650951
197	0x3deec0e8	0.11657888
198	0x3c5bd3e9	0.013417223
199	0x3adccf19	0.0016846388
200	0xbd5c5f59	-0.053801868
201	0xbb7b6499	-0.0038359521
202	0xbd736cfc	-0.059430107
203	0xbd29149b	-0.041279417
204	0xbdcdbe81	-0.10046101
205	0xbd8a56ca	-0.06754835
206	0xbd022872	-0.031776853
207	0x3dc429fd	0.09578321
208	0x3c87122c	0.016488157
209	0x3d63b4bc	0.055592284
210	0xbd3882d6	-0.04504665
211	0xbd88b369	-0.06674845
212	0x3dce73b2	0.10080661
213	0xbd9200ce	-0.0712906
214	0xbdafdf6e	-0.08587538
215	0x3da313f2	0.07962789
216	0xbdce135c	-0.10062286
217	0x3e0dc42f	0.1384437
218	0x3d198298	0.03747806
219	0xbd1fd61a	-0.039022543
220	0x3c9052b0	0.017617553
221	0xbd2a8225	-0.04162802
222	0xbd425688	-0.047445804
223	0xbdd74d99	-0.105128475
224	0x3d8461f8	0.064639986
225	0xbe052454	-0.1300214
226	0x3d21c6b4	0.03949614
227	0x3e1d89ab	0.15384547
228	0xbccdf847	-0.025142802
229	0x3dd1dcf9	0.10247225
230	0x3e2fdfe1	0.17175247
231	0x3d5e4398	0.05426368
232	0xbe101e75	-0.14074118
233	0xbddd60c0	-0.10809469
234	0x3cb68820	0.022281706
235	0x3e7d467a	0.24733916
236	0xbd48cd01	-0.049023632
237	0x3bcb464a	0.0062034475
238	0xbdfe2e83	-0.12411215
239	0x3d6d6fea	0.057968058
240	0x3d109830	0.035301387
241	0x3d46c7d5	0.04853042
242	0xbd7abc8e	-0.061214976
243	0xbdf046d3	-0.11732259
244	0x3e14d773	0.14535312
245	0xbe10c657	-0.1413816
246	0x3d043b25	0.032282967
247	0x3df31b12	0.118703976
248	0xbd765c9b	-0.06014691
249	0x3c054cba	0.008135969
250	0x3cf52bc5	0.029928098
251	0x3d922861	0.07136608
252	0x3d929772	0.07157792
253	0xba538cd5	-0.0008069997
254	0x3cb181c7	0.021668328
255	0xbdb45482	-0.08805181

network_body._body_endoder.seq_layers.2.bias f4 [128]
0	0x00000000	0.0
1	0x00000000	0.0
2	0x00000000	0.0
3	0x00000000	0.0
4	0x00000000	0.0
5	0x00000000	0.0
6	0x00000000	0.0
7	0x00000000	0.0
8	0x00000000	0.0
9	0x00000000	0.0
10	0x00000000	0.0
11	0x00000000	0.0
12	0x00000000	0.0
13	0x00000000	0.0
14	0x00000000	0.0
15	0x00000000	0.0
16	0x00000000	0.0
17	0x00000000	0.0
18	0x00000000	0.0
19	0x00000000	0.0
20	0x00000000	0.0
21	0x00000000	0.0
22	0x00000000	0.0
23	0x00000000	0.0
24	0x00000000	0.0
25	0x00000000	0.0
26	0x00000000	0.0
27	0x00000000	0.0
28	0x00000000	0.0
29	0x00000000	0.0
30	0x00000000	0.0
31	0x00000000	0.0
32	0x00000000	0.0
33	0x00000000	0.0
34	0x00000000	0.0
35	0x00000000	0.0
36	0x00000000	0.0
37	0x00000000	0.0
38	0x00000000	0.0
39	0x00000000	0.0
40	0x00000000	0.0
41	0x00000000	0.0
42	0x00000000	0.0
43	0x00000000	0.0
44	0x00000000	0.0
45	0x00000000	0.0
46	0x00000000	0.0
47	0x00000000	0.0
48	0x00000000	0.0
49	0x00000000	0.0
50	0x00000000	0.0
51	0x00000000	0.0
52	0x00000000	0.0
53	0x00000000	0.0
54	0x00000000	0.0
55	0x00000000	0.0
56	0x00000000	0.0
57	0x00000000	0.0
58	0x00000000	0.0
59	0x00000000	0.0
60	0x00000000	0.0
61	0x00000000	0.0
62	0x00000000	0.0
63	0x00000000	0.0
64	0x00000000	0.0
65	0x00000000	0.0
66	0x00000000	0.0
67	0x00000000	0.0
68	0x00000000	0.0
69	0x00000000	0.0
70	0x00000000	0.0
71	0x00000000	0.0
72	0x00000000	0.0
73	0x00000000	0.0
74	0x00000000	0.0
75	0x00000000	0.0
76	0x00000000	0.0
77	0x00000000	0.0
78	0x00000000	0.0
79	0x00000000	0.0
80	0x00000000	0.0
81	0x00000000	0.0
82	0x00000000	0.0
83	0x00000000	0.0
84	0x00000000	0.0
85	0x00000000	0.0
86	0x00000000	0.0
87	0x00000000	0.0
88	0x00000000	0.0
89	0x00000000	0.0
90	0x00000000	0.0
91	0x00000000	0.0
92	0x00000000	0.0
93	0x00000000	0.0
94	0x00000000	0.0
95	0x00000000	0.0
96	0x00000000	0.0
97	0x00000000	0.0
98	0x00000000	0.0
99	0x00000000	0.0
100	0x00000000	0.0
101	0x00000000	0.0
102	0x00000000	0.0
103	0x00000000	0.0
104	0x00000000	0.0
105	0x00000000	0.0
106	0x00000000	0.0
107	0x00000000	0.0
108	0x00000000	0.0
109	0x00000000	0.0
110	0x00000000	0.0
111	0x00000000	0.0
112	0x00000000	0.0
113	0x00000000	0.0
114	0x00000000	0.0
115	0x00000000	0.0
116	0x00000000	0.0
117	0x00000000	0.0
118	0x00000000	0.0
119	0x00000000	0.0
120	0x00000000	0.0
121	0x00000000	0.0
122	0x00000000	0.0
123	0x00000000	0.0
124	0x00000000	0.0
125	0x00000000	0.0
126	0x00000000	0.0
127	0x00000000	0.0

value_heads.value_heads.extrinsic.weight f4 [1, 128]
0	0xbe2a7022	-0.16644338
1	0x3d733d54	0.05938466
2	0xbe34fb0e	-0.17673895
3	0xbd879552	-0.066202775
4	0x3d848a8e	0.0647174
5	0xbd22e00d	-0.039764453
6	0xbd33499b	-0.043771368
7	0xbe206cda	-0.15666524
8	0x3db25d8f	0.08709251
9	0x3e54f566	0.20796737
10	0x3d6c2116	0.05764874
11	0x3d69168f	0.05690628
12	0xbe48a094	-0.19592506
13	0xbe2d5530	-0.16927028
14	0x3d1c1080	0.038101673
15	0x3d5406c9	0.051764283
16	0x3e0c977e	0.13729665
17	0x39ecd073	0.00045168735
18	0xbdc615f7	-0.09672158
19	0x3e55299b	0.20816652
20	0x3d89d7f7	0.06730645
21	0x3dcf96dd	0.10136197
22	0x3de2da87	0.11076837
23	0x3e2f1b28	0.17100203
24	0x3d75250f	0.059849795
25	0x3ce89ba1	0.028394522
26	0x3e0e4367	0.138929
27	0x3e497798	0.19674528
28	0x3dc9f225	0.098606385
29	0xbe525b53	-0.2054265
30	0xbc664086	-0.0140534695
31	0x3e590589	0.21193518
32	0x3dd3e959	0.10347242
33	0x3ccab763	0.024745649
34	0x3d72a4bf	0.059239145
35	0x3e2ace83	0.1668034
36	0xbe4adc60	-0.19810629
37	0xbc764f00	-0.0150334835
38	0xba140d10	-0.00056476984
39	0xbde74c46	-0.11293845
40	0xbe34313f	-0.17596911
41	0xbd6ab863	-0.05730475
42	0xbe443f8e	-0.19164869
43	0xbe44eb53	-0.19230394
44	0x3dee2f9f	0.11630177
45	0x3e16fec3	0.14745621
46	0xbcff6ac0	-0.031178832
47	0x3de03221	0.10947061
48	0x3d97efb3	0.07418766
49	0xbe34754a	-0.17622867
50	0xbd45c537	-0.04828378
51	0x3df01cd2	0.11724247
52	0xbe2722b4	-0.16321832
53	0xbe465a6e	-0.19370434
54	0xbcb2746f	-0.021784035
55	0xbe5c8fb4	-0.21539193
56	0x3dbccf2a	0.09219201
57	0xbc4e6af7	-0.012598745
58	0x3e3913d7	0.18073975
59	0xbe2cb3f8	-0.16865528
60	0x3dbb464e	0.09144269
61	0x3e3a9d5b	0.18224089
62	0xbe4c0c38	-0.19926536
63	0x3e00f2cf	0.12592624
64	0x3ddf4d3a	0.10903402
65	0x3d9e1d7c	0.077204674
66	0x3d6f62be	0.058443777
67	0x3af06048	0.0018339241
68	0x3e078410	0.13233972
69	0x3d65922f	0.056047615
70	0xbda84e47	-0.08218055
71	0xbe0afb0a	-0.13572326
72	0x3dd5995e	0.10429643
73	0x3d902166	0.0703762
74	0x3dbcbd8c	0.09215841
75	0xbe174e46	-0.14775953
76	0x3dad4aff	0.0846157
77	0x3de53ea7	0.111935906
78	0x3df51187	0.11966234
79	0xbdbd3b6a	-0.09239848
80	0x3e2aa164	0.16663128
81	0x3e0e22b0	0.1388042
82	0xbdfa38b6	-0.12217848
83	0x3d80779c	0.06272814
84	0xbcaee027	-0.021347119
85	0xbe398ce9	-0.18120159
86	0x3dfda4e8	0.12384969
87	0xbc04f610	-0.0081153065
88	0x3e2644f2	0.16237238
89	0x3d514e0d	0.051099826
90	0x3e300430	0.17189097
91	0x3d0de71c	0.03464423
92	0xbdc9b2c6	-0.098485515
93	0x3db2d2bf	0.08731603
94	0x3e41df97	0.18932949
95	0xbe070e68	-0.1318909
96	0xbdfe80a8	-0.12426883
97	0x3d93070b	0.07179078
98	0x3d61823e	0.05505585
99	0xbda1e2be	-0.07904576
100	0xbdfa6e09	-0.12228019
101	0x3e35fdfb	0.17772667
102	0x3dc7f174	0.097628504
103	0x3e32caba	0.17460147
104	0x3e14e9b7	0.1454228
105	0x3cbb8c0f	0.022893934
106	0x3e2f069a	0.17092362
107	0x3df2500f	0.11831676
108	0xbe05b5f1	-0.13057686
109	0x3e52a860	0.20572042
110	0x3c06c802	0.0082263965
111	0xbdb77cf3	-0.08959379
112	0xbd934957	-0.07191723
113	0x3e24935b	0.16071837
114	0xbdaaaaf1	-0.08333386
115	0xbd9a3d54	-0.07531229
116	0x3e48e064	0.19616848
117	0xbe1f6c3a	-0.15568629
118	0xbdc45d88	-0.09588152
119	0x3e0a4980	0.135046
120	0xbe07a7df	-0.13247631
121	0x3dacefe4	0.08444193
122	0xbe4c362c	-0.1994254
123	0xbd350537	-0.044194426
124	0x3e4726f9	0.1944846
125	0xbca1c5f5	-0.019747714
126	0xbd28a727	-0.041175034
127	0xbe2c3a63	-0.16819148
