CubeTest/results/ppo/MoveToGoal/MoveToGoal-1024.pt (torch, 149519 bytes, 12 tensors)

network_body._body_endoder.seq_layers.0.weight f4 [128, 6]
-0.89625967 -0.14292896 -0.39135218 -0.2931983 -0.18446873 -0.10130833 0.49367172 -0.2562251
0.17217211 0.3119277 0.2551978 -0.46086064 0.2333679 -0.4746062 0.6737615 1.0663172
0.4620917 0.3546039 -0.68806493 0.46060026 0.013761839 -0.37849483 -0.6147565 -0.27422163
0.10615543 0.2946002 -0.42804468 0.35392576 0.031867124 -0.034238923 0.5747344 -0.047953457
-0.019249007 -0.116194315 0.23986305 -0.33422732 -0.3998857 -0.18954693 0.4849783 -0.5689805
0.10942696 -0.56421804 -0.5425857 0.22161752 -0.0050125346 0.23479594 -0.7366015 -0.6280795
-0.21726076 -0.64642143 0.39156896 0.30553645 -0.2963365 -0.33508435 0.2591529 -0.19310272
-0.48502088 -0.45057675 -1.0191419 0.29986086 -0.0812685 -0.6156313 -0.88949543 -0.58982825
-0.31871918 -0.5073094 0.19967443 0.40010962 -0.4564482 -0.11886882 -0.1432688 -0.011120742
-0.6613954 0.51333326 -0.0005610023 1.0362636 -0.54397273 -0.5580388 0.599178 -0.2890986
0.10730014 -0.15017472 -0.5475622 0.04439254 -0.57108337 -0.11844311 0.15947251 0.23352367
-0.41294152 0.6635863 0.023392279 -0.27844897 0.39528832 0.59471476 -0.48048398 -0.28916934
-0.32258716 -0.22668631 0.069808505 0.11000195 -0.018332986 0.24637863 -0.43246827 0.12868358
-0.60716295 -0.34159717 -0.38407496 -0.15823306 0.37835753 0.33852375 -0.04352753 -0.03561487
0.30764946 -0.3671822 0.42679548 -0.37047046 0.7410096 -0.31729966 -0.34703305 -0.23321411
0.0009807065 0.20666155 0.33256298 0.22449581 0.19992904 -0.8698438 0.16767377 -0.19293101
0.91880137 0.4819292 0.39640722 -0.07322691 -0.6655986 0.3118947 0.5762664 -0.42440584
1.111702 0.36906826 0.4625861 0.48972985 0.70735025 -0.17756534 0.38441724 0.33933648
-0.19704346 -0.05415368 0.21952273 0.011613388 0.0081259385 -0.28163555 -0.29628652 0.7500439
0.17852521 0.19695416 0.11156495 0.038131103 0.3099255 -1.236227 0.5836275 0.3358467
-0.2826299 0.4420192 -0.58397317 -0.27520782 0.4015765 0.1030926 -0.022784341 0.34520456
-0.17212898 0.025675505 -0.19862965 -0.9413167 -0.2537347 -0.04432104 0.32654655 0.1626382
-0.24726707 -0.022663 -0.21746458 0.095647685 0.43611336 0.5510037 -1.0400193 0.19136949
-0.539392 0.38314843 -0.45446074 0.39523768 0.03309156 -0.070706934 0.5889574 0.061809972
-0.60604566 0.89092964 0.7297295 0.45420587 0.1221325 -0.11501692 -0.017517226 -0.10671296
0.15506244 -0.1181773 -0.4017145 0.5927126 -0.084117204 -0.06656328 -0.049313657 0.012067658
-0.4048564 0.3586391 0.36253032 0.17587867 -0.2501441 -0.57709056 0.79319215 0.11341152
0.061080717 1.1843393 -0.30873165 0.19607235 -0.03669018 -0.2817396 0.8164617 -0.61047876
0.38476795 0.19587548 0.039133813 -0.3570205 -0.30456114 -0.308335 0.72213733 -0.5116586
-0.32550198 -0.6975584 -0.17994855 -0.09909815 -0.80758613 -0.02423474 0.5777142 -0.7422581
0.3143027 0.006919106 0.76071197 0.35709727 -0.4374958 -0.018319787 -0.4725494 0.54264313
0.11402424 0.54957426 0.06497041 0.09300552 0.0706958 0.06898809 -0.0029851715 -0.016899243
00000000: 4671 65bf f85b 12be 505f c8be 161e 96be
00000010: 5fe5 3cbe be7a cfbd 8ac2 fc3e f02f 83be
00000020: e34d 303e fdb4 9f3e 49a9 823e edf5 ebbe
00000030: fff7 6e3e 95ff f2be a27b 2c3f 157d 883f
00000040: 4997 ec3e a48e b53e 0625 30bf ccd3 eb3e
00000050: 5679 613c 13ca c1be af60 1dbf c766 8cbe
00000060: 0568 d93d d6d5 963e ac28 dbbe c235 b53e
00000070: 1a87 023d 1d3e 0cbd cb21 133f d86a 44bd
00000080: 18b0 9dbc 49f7 edbd a99e 753e d81f abbe
00000090: d2bd ccbe 9718 42be 134f f83e b5a8 11bf
000000a0: 3e1b e03d 9870 10bf e5e6 0abf b4ef 623e
000000b0: 3040 a4bb 596e 703e ea91 3cbf d1c9 20bf
000000c0: 9b79 5ebe e07b 25bf ba7b c83e 466f 9c3e
000000d0: 6bb9 97be 2d90 abbe b0af 843e b8bc 45be
000000e0: a854 f8be ffb1 e6be 3e73 82bf 5d87 993e
000000f0: 1970 a6bd 039a 1dbf f9b5 63bf fcfe 16bf
00000100: 292f a3be 07df 01bf 7477 4c3e 2bdb cc3e
00000110: 94b3 e9be 7f71 f3bd 0eb5 12be c633 36bc
00000120: 3551 29bf cf69 033f 3a10 13ba 49a4 843f
00000130: cc41 0bbf a1db 0ebf bb63 193f bb04 94be
00000140: 2dc0 db3d 67c7 19be 092d 0cbf f4d4 353d
00000150: 8532 12bf 4d92 f2bd c34c 233e d420 6f3e
00000160: 126d d3be cbe0 293f 2aa1 bf3c dd90 8ebe
00000170: 3b63 ca3e 3a3f 183f ff01 f6be 010e 94be
00000180: 252a a5be 7520 68be c3f7 8e3d b448 e13d
00000190: 0f2f 96bc ae4a 7c3e 7b6c ddbe a1c5 033e
000001a0: 086f 1bbf d3e5 aebe 79a5 c4be d907 22be
000001b0: 14b8 c13e fc52 ad3e ec49 32bd e6e0 11bd
000001c0: 3b84 9d3e 4eff bbbe f084 da3e 4eae bdbe
000001d0: ceb2 3d3f 1a75 a2be 51ae b1be aecf 6ebe
000001e0: 0d8b 803a 169f 533e b245 aa3e 3be2 653e
000001f0: 33ba 4c3e 15ae 5ebf acb2 2b3e b58f 45be
00000200: 9136 6b3f 6dbf f63e e3f5 ca3e fdf7 95bd
00000210: ab64 2abf aab0 9f3e 3286 133f b94b d9be
00000220: 404c 8e3f 84f6 bc3e 16d8 ec3e dfbd fa3e
00000230: e814 353f b0d3 35be 56d2 c43e 83bd ad3e
00000240: c3c5 49be 40d0 5dbd 91ca 603e 1446 3e3c
00000250: a822 053c 8932 90be deb2 97be e102 403f
00000260: 50cf 363e 5aae 493e 2a7c e43d 5c2f 1c3d
00000270: 8eae 9e3e b03c 9ebf 9d68 153f 19f4 ab3e
00000280: deb4 90be 5750 e23e 447f 15bf 0ae8 8cbe
00000290: 6f9b cd3e 3722 d33d 3aa6 babc a7be b03e
000002a0: 9442 30be 7055 d23c 9265 4bbe 22fa 70bf
000002b0: 84e9 81be fb89 35bd 1c31 a73e a18a 263e
000002c0: 9433 7dbe c1a7 b9bc 09af 5ebe efe2 c33d
000002d0: 404a df3e 940e 0d3f 5a1f 85bf 5df6 433e
000002e0: 9815 0abf 082c c43e 14af e8be 985c ca3e
000002f0: 048b 073d ccce 90bd eac5 163f 742c 7d3d
00000300: cf25 1bbf f713 643f 8dcf 3a3f ac8d e83e
00000310: 9b20 fa3d fe8d ebbd 4980 8fbc 538c dabd
00000320: b0c8 1e3e f106 f2bd 86ad cdbe 03bc 173f
00000330: a445 acbd 5452 88bd 1efd 49bd 6db7 453c
00000340: 5749 cfbe 8b9f b73e 939d b93e 8a19 343e
00000350: e312 80be 35bc 13bf a40e 4b3f 4d44 e83d
00000360: c62f 7a3d 6e98 973f 1312 9ebe 31c7 483e
00000370: 7148 16bd 2c40 90be a203 513f 5648 1cbf
00000380: 4e00 c53e 9593 483e c74a 203d 64cb b6be
00000390: 70ef 9bbe 16de 9dbe fedd 383f 0ffc 02bf
000003a0: 32a8 a6be 3093 32bf 6f44 38be f9f3 cabd
000003b0: f7bd 4ebf ef87 c6bc 14e5 133f a004 3ebf
000003c0: 49ec a03e abb9 e23b 05be 423f 74d5 b63e
000003d0: 73ff dfbe 6113 96bc fff1 f1be a9ea 0a3f
000003e0: 8a85 e93d e6b0 0c3f 350f 853d ae79 be3d
000003f0: f6c8 903d a149 8d3d dea2 43bb 4870 8abc

network_body._body_endoder.seq_layers.0.bias f4 [128]
0.0 0.0 0.0 0.0 0.0 0.0 0.0 0.0
0.0 0.0 0.0 0.0 0.0 0.0 0.0 0.0
0.0 0.0 0.0 0.0 0.0 0.0 0.0 0.0
0.0 0.0 0.0 0.0 0.0 0.0 0.0 0.0
0.0 0.0 0.0 0.0 0.0 0.0 0.0 0.0
0.0 0.0 0.0 0.0 0.0 0.0 0.0 0.0
0.0 0.0 0.0 0.0 0.0 0.0 0.0 0.0
0.0 0.0 0.0 0.0 0.0 0.0 0.0 0.0
0.0 0.0 0.0 0.0 0.0 0.0 0.0 0.0
0.0 0.0 0.0 0.0 0.0 0.0 0.0 0.0
0.0 0.0 0.0 0.0 0.0 0.0 0.0 0.0
0.0 0.0 0.0 0.0 0.0 0.0 0.0 0.0
0.0 0.0 0.0 0.0 0.0 0.0 0.0 0.0
0.0 0.0 0.0 0.0 0.0 0.0 0.0 0.0
0.0 0.0 0.0 0.0 0.0 0.0 0.0 0.0
0.0 0.0 0.0 0.0 0.0 0.0 0.0 0.0
00000000: 0000 0000 0000 0000 0000 0000 0000 0000
00000010: 0000 0000 0000 0000 0000 0000 0000 0000
00000020: 0000 0000 0000 0000 0000 0000 0000 0000
00000030: 0000 0000 0000 0000 0000 0000 0000 0000
00000040: 0000 0000 0000 0000 0000 0000 0000 0000
00000050: 0000 0000 0000 0000 0000 0000 0000 0000
00000060: 0000 0000 0000 0000 0000 0000 0000 0000
00000070: 0000 0000 0000 0000 0000 0000 0000 0000
00000080: 0000 0000 0000 0000 0000 0000 0000 0000
00000090: 0000 0000 0000 0000 0000 0000 0000 0000
000000a0: 0000 0000 0000 0000 0000 0000 0000 0000
000000b0: 0000 0000 0000 0000 0000 0000 0000 0000
000000c0: 0000 0000 0000 0000 0000 0000 0000 0000
000000d0: 0000 0000 0000 0000 0000 0000 0000 0000
000000e0: 0000 0000 0000 0000 0000 0000 0000 0000
000000f0: 0000 0000 0000 0000 0000 0000 0000 0000
00000100: 0000 0000 0000 0000 0000 0000 0000 0000
00000110: 0000 0000 0000 0000 0000 0000 0000 0000
00000120: 0000 0000 0000 0000 0000 0000 0000 0000
00000130: 0000 0000 0000 0000 0000 0000 0000 0000
00000140: 0000 0000 0000 0000 0000 0000 0000 0000
00000150: 0000 0000 0000 0000 0000 0000 0000 0000
00000160: 0000 0000 0000 0000 0000 0000 0000 0000
00000170: 0000 0000 0000 0000 0000 0000 0000 0000
00000180: 0000 0000 0000 0000 0000 0000 0000 0000
00000190: 0000 0000 0000 0000 0000 0000 0000 0000
000001a0: 0000 0000 0000 0000 0000 0000 0000 0000
000001b0: 0000 0000 0000 0000 0000 0000 0000 0000
000001c0: 0000 0000 0000 0000 0000 0000 0000 0000
000001d0: 0000 0000 0000 0000 0000 0000 0000 0000
000001e0: 0000 0000 0000 0000 0000 0000 0000 0000
000001f0: 0000 0000 0000 0000 0000 0000 0000 0000

network_body._body_endoder.seq_layers.2.weight f4 [128, 128]
-0.025664559 -0.09035319 -0.014403676 0.017524395 -0.15910201 0.14614022 0.017886875 -0.15659355
0.07549742 0.004816231 -0.056288105 0.06724032 0.16343349 0.0095514115 -0.11072272 -0.03846083
-0.025828741 0.030877454 -0.035304263 -0.09310221 0.06056898 0.026315786 0.0047472287 0.1286778
0.061736446 0.07285933 -0.095346086 -0.0056980564 0.032298535 0.029273633 0.09042387 -0.041994043
0.12379116 -0.14542152 0.07167287 -0.12813313 -0.0016496271 0.14378516 -0.04882827 0.16269387
0.08951613 0.15572762 0.019952124 0.1034375 -0.091413565 -0.11192266 -0.016377455 -0.24926776
0.039121024 0.025753811 0.05728362 0.011993122 0.14867912 0.018985594 0.027534377 -0.10519452
0.1728196 -0.004722234 -0.09959042 0.07247295 -0.045366097 -0.09805687 -0.009379317 -0.06169313
-0.006379106 -0.025317235 0.05490377 0.002661169 0.0066793403 0.13047035 0.13011186 0.117693365
0.08322649 0.091406226 0.13310708 0.20135406 0.13461374 0.02029626 0.2105881 0.031233443
-0.023202732 0.12440183 0.021267142 0.07627836 0.079299405 -0.034572873 -0.02770009 -0.08943936
-0.111554615 0.1070561 -0.072250955 -0.096234396 0.0449219 -0.058857158 0.087690085 -0.07119277
0.026505325 -0.0019032889 0.1610797 0.041110765 -0.104662664 0.04422131 -0.056007355 -0.12326443
-0.06497576 0.06056974 0.058292825 -0.098883756 -0.03661667 -0.068147525 -0.11720795 0.037205704
0.16194223 0.08213349 0.067515045 -0.19139472 0.033036355 0.004717646 -0.060888328 -0.09067175
0.07370204 0.07533868 0.09991418 0.28678274 0.043367926 -0.0029871925 -0.029940335 -0.05348351
-0.027474564 -0.23034723 0.12998475 0.103097945 -0.044325538 -0.045173835 0.008420844 -0.0051750257
-0.020264369 0.005892709 0.0051028207 0.085423455 -0.0005480992 -0.11294861 0.024784235 9.355978e-07
-0.0018343355 0.0370595 0.045209397 -0.10804828 0.10880535 0.027289223 -0.18037885 0.06738188
-0.0761593 0.14052732 -0.054179814 -0.004387709 -0.11870757 0.04551366 -0.022017874 0.070724204
0.19519682 -0.117782846 -0.045009676 -0.07669133 -0.028794695 -0.12525931 -0.012845248 -0.05827283
-0.026497712 0.13852474 -0.09525942 -0.09945308 0.15386675 0.026654072 0.07149911 0.11194517
-0.018911498 -0.06669013 0.04596662 0.11376731 -0.018667415 0.015305543 -0.05327473 0.09813688
-0.05461779 -0.06260039 -0.099685155 -0.02196971 0.069527194 0.0602253 0.09550951 -0.042904735
0.06773797 0.09443412 0.032021403 -0.033115085 -0.036361128 0.0912904 -0.026419662 -0.20246539
0.15650295 -0.13987142 -0.10316579 -0.13724355 0.04795384 -0.08291035 -0.025004458 0.20625788
-0.051313728 -0.068710186 0.18389009 0.06542595 0.0040659406 0.1111328 0.006509439 -0.025427045
-0.21932895 0.0064938064 0.0072736926 0.08289673 0.15410315 0.04582829 0.0041478374 0.13335575
-0.086886376 0.17814572 -0.032048672 0.030838288 0.040335238 -0.09138637 -0.055975225 -0.22466736
-0.030064274 -0.067107104 -0.019695861 -0.04700237 -0.10780113 -0.09741211 -0.005360543 -0.036853973
0.00023560828 -0.008326192 -0.16373913 0.07530615 0.03846428 -0.09459919 -0.038915478 0.009594282
0.03946597 0.016260935 0.06556664 -0.06033367 -0.08713097 0.016163299 0.006086048 0.06332607
00000000: 7b3e d2bc 180b b9bd 65fd 6bbc 528f 8f3c
00000010: a3eb 22be c8a5 153e 7f87 923c 0f5a 20be
00000020: 649e 9a3d 79d1 9d3b 5b8e 66bd 4bb5 893d
00000030: 1c5b 273e 867d 1c3c 98c2 e2bd 1a89 1dbd
00000040: cc96 d3bc b7f2 fc3c 349b 10bd 5fac bebd
00000050: 2e17 783d 3494 d73c a48e 9b3b 1dc4 033e
00000060: 5bdf 7c3d 4637 953d cf44 c3bd c3b6 babb
00000070: 784b 043d 42cf ef3c 2630 b93d f201 2cbd
00000080: 3886 fd3d 61e9 14be 3ac9 923d 5535 03be
00000090: 4d38 d8ba 6b3c 133e 2700 48bd 3999 263e
000000a0: 3c54 b73d 1077 1f3e a372 a33c 0ad7 d33d
000000b0: 0937 bbbd b537 e5bd 032a 86bc 0c40 7fbe
000000c0: 5e3d 203d a8f9 d23c 3ba2 6a3d cd7e 443c
000000d0: 573f 183e ad87 9b3c c68f e13c 3970 d7bd
000000e0: 9ff7 303e f8bc 9abb 10f6 cbbd b36c 943d
000000f0: cdd1 39bd 0ad2 c8bd b5ab 19bc efb1 7cbd
00000100: d207 d1bb 1766 cfbc c7e2 603d 0267 2e3b
00000110: 5ede da3b 059a 053e 0b3c 053e 3809 f13d
00000120: a672 aa3d 3033 bb3d 394d 083e c22f 4e3e
00000130: 2fd8 093e 5844 a63c 68a4 573e 47dd ff3c
00000140: a813 bebc 63c6 fe3d 6e38 ae3c d437 9c3d
00000150: ba67 a23d 499c 0dbd 4deb e2bc fc2b b7bd
00000160: bf76 e4bd 3b40 db3d 4ff8 93bd 8a16 c5bd
00000170: 0700 383d 3414 71bd dc96 b33d 84cd 91bd
00000180: b221 d93c c777 f9ba 14f2 243e c363 283d
00000190: 6159 d6bd 6821 353d f867 65bd 1072 fcbd
000001a0: 0312 85bd fa17 783d 75c4 6e3d 9183 cabd
000001b0: 5dfb 15bd ee90 8bbd b90a f0bd 0265 183d
000001c0: 2fd4 253e 9a35 a83d 5445 8a3d fafc 43be
000001d0: 2151 073d 7c96 9a3b 0a66 79bd 1cb2 b9bd
000001e0: 18f1 963d 2a4b 9a3d ce9f cc3d 30d5 923e
000001f0: 91a2 313d c6c4 43bb 6f45 f5bc 8611 5bbd
00000200: 5612 e1bc 25e0 6bbe b91a 053e 0425 d33d
00000210: b28e 35bd 3308 39bd 94f7 093c 4393 a9bb
00000220: 7601 a6bc a017 c13b 9035 a73b 7ef2 ae3d
00000230: 51ae 0fba 9a51 e7bd 4f08 cb3c cb25 7b35
00000240: 166e f0ba b4cb 173d 7d2d 393d 6b48 ddbd
00000250: 57d5 de3d a68d df3c 3cb5 38be 83ff 893d
00000260: 68f9 9bbd 65e6 0f3e a7eb 5dbd c5c6 8fbb
00000270: f41c f3bd 886c 3a3d d45e b4bc dad7 903d
00000280: ade1 473e 2238 f1bd 115c 38bd 5810 9dbd
00000290: dae2 ebbc fa43 00be e074 52bc 7eaf 6ebd
000002a0: bb11 d9bc 6ed9 0d3e 5f17 c3bd 0eae cbbd
000002b0: 3f8f 1d3e a459 da3c 206e 923d 8243 e53d
000002c0: 49ec 9abc d694 88bd 7f47 3c3d d6fe e83d
000002d0: 68ec 98bc 1ac4 7a3c 9a36 5abd fdfb c83d
000002e0: e7b6 5fbd a234 80bd bb27 ccbd d2f9 b3bc
000002f0: 4664 8e3d ceae 763d 7d9a c33d e0bc 2fbd
00000300: 34ba 8a3d ad66 c13d e028 033d afa3 07bd
00000310: 68ef 14bd 76f6 ba3d 0c6e d8bc 1653 4fbe
00000320: 4f42 203e 743a 0fbe 9648 d3bd 9389 0cbe
00000330: 3f6b 443d e7cc a9bd 26d6 ccbc 4435 533e
00000340: 582e 52bd edb7 8cbd af4d 3c3e 0afe 853d
00000350: 953b 853b 9899 e33d 224d d53b 614c d0bc
00000360: c597 60be ffc9 d43b 2858 ee3b c3c5 a93d
00000370: 37cd 1d3e 72b6 3b3d 95ea 873b 698e 083e
00000380: 7cf1 b1bd d56b 363e 7845 03bd 94a0 fc3c
00000390: 9036 253d c728 bbbd 4746 65bd 330f 66be
000003a0: 5a49 f6bc 736f 89bd 3759 a1bc 8f85 40bd
000003b0: d7c6 dcbd 0080 c7bd 7ea7 afbb 31f4 16bd
000003c0: 9e0d 7739 956a 08bc 3bab 27be 1c3a 9a3d
000003d0: b98c 1d3d 38bd c1bd d665 1fbd 5631 1d3c
000003e0: 12a7 213d a735 853c cd47 863d 7020 77bd
000003f0: b971 b2bd e568 843c 796d c73b 19b1 813d

network_body._body_endoder.seq_layers.2.bias f4 [128]
0.0 0.0 0.0 0.0 0.0 0.0 0.0 0.0
0.0 0.0 0.0 0.0 0.0 0.0 0.0 0.0
0.0 0.0 0.0 0.0 0.0 0.0 0.0 0.0
0.0 0.0 0.0 0.0 0.0 0.0 0.0 0.0
0.0 0.0 0.0 0.0 0.0 0.0 0.0 0.0
0.0 0.0 0.0 0.0 0.0 0.0 0.0 0.0
0.0 0.0 0.0 0.0 0.0 0.0 0.0 0.0
0.0 0.0 0.0 0.0 0.0 0.0 0.0 0.0
0.0 0.0 0.0 0.0 0.0 0.0 0.0 0.0
0.0 0.0 0.0 0.0 0.0 0.0 0.0 0.0
0.0 0.0 0.0 0.0 0.0 0.0 0.0 0.0
0.0 0.0 0.0 0.0 0.0 0.0 0.0 0.0
0.0 0.0 0.0 0.0 0.0 0.0 0.0 0.0
0.0 0.0 0.0 0.0 0.0 0.0 0.0 0.0
0.0 0.0 0.0 0.0 0.0 0.0 0.0 0.0
0.0 0.0 0.0 0.0 0.0 0.0 0.0 0.0
00000000: 0000 0000 0000 0000 0000 0000 0000 0000
00000010: 0000 0000 0000 0000 0000 0000 0000 0000
00000020: 0000 0000 0000 0000 0000 0000 0000 0000
00000030: 0000 0000 0000 0000 0000 0000 0000 0000
00000040: 0000 0000 0000 0000 0000 0000 0000 0000
00000050: 0000 0000 0000 0000 0000 0000 0000 0000
00000060: 0000 0000 0000 0000 0000 0000 0000 0000
00000070: 0000 0000 0000 0000 0000 0000 0000 0000
00000080: 0000 0000 0000 0000 0000 0000 0000 0000
00000090: 0000 0000 0000 0000 0000 0000 0000 0000
000000a0: 0000 0000 0000 0000 0000 0000 0000 0000
000000b0: 0000 0000 0000 0000 0000 0000 0000 0000
000000c0: 0000 0000 0000 0000 0000 0000 0000 0000
000000d0: 0000 0000 0000 0000 0000 0000 0000 0000
000000e0: 0000 0000 0000 0000 0000 0000 0000 0000
000000f0: 0000 0000 0000 0000 0000 0000 0000 0000
00000100: 0000 0000 0000 0000 0000 0000 0000 0000
00000110: 0000 0000 0000 0000 0000 0000 0000 0000
00000120: 0000 0000 0000 0000 0000 0000 0000 0000
00000130: 0000 0000 0000 0000 0000 0000 0000 0000
00000140: 0000 0000 0000 0000 0000 0000 0000 0000
00000150: 0000 0000 0000 0000 0000 0000 0000 0000
00000160: 0000 0000 0000 0000 0000 0000 0000 0000
00000170: 0000 0000 0000 0000 0000 0000 0000 0000
00000180: 0000 0000 0000 0000 0000 0000 0000 0000
00000190: 0000 0000 0000 0000 0000 0000 0000 0000
000001a0: 0000 0000 0000 0000 0000 0000 0000 0000
000001b0: 0000 0000 0000 0000 0000 0000 0000 0000
000001c0: 0000 0000 0000 0000 0000 0000 0000 0000
000001d0: 0000 0000 0000 0000 0000 0000 0000 0000
000001e0: 0000 0000 0000 0000 0000 0000 0000 0000
000001f0: 0000 0000 0000 0000 0000 0000 0000 0000

action_model._continuous_distribution.log_sigma f4 [1, 2]
0.0 0.0
00000000: 0000 0000 0000 0000

action_model._continuous_distribution.mu.weight f4 [2, 128]
0.0059260367 -0.0057354863 -0.004321937 0.004764518 0.004492437 0.0097550135 -0.0003604205 0.0022163957
0.026240727 -0.014898739 0.006385608 -0.009568101 -0.015133764 0.004210613 0.0067879013 -0.012044291
-0.010196222 -0.015256581 0.013080991 -0.026709152 -0.010138697 0.0085649 -0.011284699 0.0073445686
0.027730314 0.00980261 -0.0017880615 -0.0104984045 -0.007952298 -0.0050043915 0.023667825 0.007055887
0.0121453665 0.0017661272 -0.0108182365 0.012455645 0.03438323 0.04046631 0.0016313428 -0.00016327243
0.023970125 -0.0046169553 0.009461607 -0.00050931645 0.011218066 -0.007143669 0.026950598 0.009021561
0.0034083717 -0.03774536 -0.013676906 -0.019829454 -0.00015682749 -0.021371927 -0.001971536 -0.007426828
0.0012618535 0.024736874 -0.0137219895 0.012563239 0.016547138 -0.019901613 0.009143206 -0.0020188366
-0.017096808 0.011664606 0.010704528 -0.0069427863 -0.007395934 0.022082563 0.03111505 -0.0046944437
-0.0012446508 -0.011814515 0.02311989 -0.00032881854 0.025081873 0.005257276 0.0025805777 0.003449506
-0.02358117 0.022124335 -0.005550956 -0.006902759 0.0039567202 -0.0045008897 0.0026765615 -0.001690843
0.017314767 0.015518124 -0.012414233 0.015930146 -0.0027565525 0.022521026 0.04775194 0.003263263
-0.0057639168 0.020066312 -0.026483074 0.005746005 -0.0021878283 -0.0067750695 -0.005533642 0.0064727217
-0.021068916 0.0021869417 0.029632077 -0.0014971206 0.033802323 -0.009425174 -0.01760476 0.021334192
-0.008060566 -0.03362092 -0.0133727295 0.007083805 -0.0035298895 -0.003236398 -0.021012386 -0.013686738
-0.01179989 -0.010754702 -0.007672456 0.019889815 0.031790268 -0.003764619 -0.002720581 -0.0029465267
0.010070908 0.01091627 -0.01746184 -0.0074846195 -0.0013604271 0.010102087 0.010034433 0.02663422
-0.014352058 0.0066131926 -0.009423009 0.017439118 -0.0067867823 0.028145595 0.008565447 0.0009303621
0.0026441505 -0.0037050613 0.035596468 0.008215896 0.008066058 -0.0090918 0.008232284 -0.023023764
-0.005476707 0.019304996 -0.028387194 0.024364747 0.009712727 -0.019952828 0.019822799 0.0134990215
0.0057167844 -0.012896477 -0.00686894 0.004917973 0.0065093483 0.028613618 0.025267273 -0.019580012
0.0020167944 -0.014070759 -0.021946663 -0.0036545363 0.0035260927 -0.02577701 -0.031124268 -0.014049822
-0.010999604 0.009692914 0.022173008 0.0072093196 -0.023597425 -0.008903828 0.00030634084 0.002502011
-0.004642345 -0.03709924 -0.008054229 -0.027008181 0.008084129 -0.015573953 -0.019139243 -0.004886597
0.037183844 0.029901762 -0.009539142 -0.010752912 0.00930306 0.005357604 0.0048264554 0.0014906621
0.00505557 -0.009957422 -0.03039357 0.014138854 -0.01588275 -0.010971811 0.018925017 0.010748295
0.013710694 -0.019076223 -0.018740805 -0.0118087465 -0.0052321865 -0.021069363 0.02649037 -0.0069042663
-0.0026589665 -0.008410766 -0.0026447976 -0.026107093 0.017717639 -0.017200826 0.0109893745 0.04236594
0.014361319 -0.0031668672 0.026740551 0.0076987557 0.037842166 0.025893662 0.023861704 0.014057166
0.02649962 -0.0061838087 -0.0065198294 -0.011217029 0.021337584 -0.0015100196 0.0039359345 -0.010146982
0.025187407 -0.015605924 0.013217871 -0.026578829 0.027924841 0.01697957 0.00850696 -0.024956984
0.009367644 0.015752424 0.013842623 0.010596821 0.01907633 0.0016759249 -0.026903525 0.026720373
00000000: 332f c23b bff0 bbbb 099f 8dbb ac1f 9c3b
00000010: 4b35 933b 7ed3 1f3c d2f6 bcb9 f340 113b
00000020: cbf6 d63c d719 74bc 5d3e d13b 86c3 1cbc
00000030: 9bf3 77bc 2ff9 893b 0b6d de3b 6b55 45bc
00000040: 0e0e 27bc bdf6 79bc a751 563c 27cd dabc
00000050: c71c 26bc cb53 0c3c 75e3 38bc b5aa f03b
00000060: af2a e33c 209b 203c 635d eaba 8001 2cbc
00000070: 5b4a 02bc e1fb a3bb 07e3 c13c 1235 e73b
00000080: 5cfd 463c 657d e73a f93e 31bc c312 4c3c
00000090: 6ed5 0c3d 00c0 253d c8d2 d53a 1c34 2bb9
000000a0: ff5c c43c d449 97bb db04 1b3c a683 05ba
000000b0: fbcb 373c 7015 eabb 80c7 dc3c 2bcf 133c
000000c0: fd5e 5f3b e19a 1abd 1a15 60bc 6171 a2bc
000000d0: 0f72 24b9 2e14 afbc e334 01bb c05c f3bb
000000e0: c764 a53a fca4 ca3c 32d2 60bc 0bd6 4d3c
000000f0: dd8d 873c b508 a3bc 63cd 153c 754e 04bb
00000100: 9b0e 8cbc e71c 3f3c 0b62 2f3c 5080 e3bb
00000110: 9759 f2bb 7ee6 b43c fde4 fe3c d9d3 99bb
00000120: 8d23 a3ba ab91 41bc ec65 bd3c 4765 acb9
00000130: 8078 cd3c 3a45 ac3b e91e 293b 1b11 623b
00000140: 4c2d c1bc 183e b53c cbe4 b5bb 8a30 e2bb
00000150: 60a7 813b 337c 93bb 4069 2f3b 479f ddba
00000160: b3d7 8d3c bb3f 7e3c 1165 4bbc f07f 823c
00000170: 47a7 34bb 047e b83c 8a97 433d 78dc 553b
00000180: 3ddf bcbb 1b62 a43c 08f3 d8bc fc48 bc3b
00000190: ab61 0fbb 6701 debb 8e53 b5bb 2019 d43b
000001a0: b898 acbc cb52 0f3b f8be f23c 083b c4ba
000001b0: 4e74 0a3d 0c6c 1abc dc37 90bc 0bc5 ae3c
000001c0: 7710 04bc 17b6 09bd 4b19 5bbc 431f e83b
000001d0: b855 67bb c019 54bb 2b22 acbc 573e 60bc
000001e0: 5354 41bc 7d34 30bc 3a69 fbbb f7ef a23c
000001f0: 8336 023d d3b7 76bb c64b 32bb 841a 41bb
00000200: 7300 253c 28da 323c 220c 8fbc 8a41 f5bb
00000210: 5c50 b2ba 3983 253c 7667 243c 0230 da3c
00000220: e524 6bbc 7bb3 d83b f762 1abc 7bdc 8e3c
00000230: a863 debb 9791 e63c 1756 0c3c 8be3 733a
00000240: 7c49 2d3b 9dd0 72bb 9acd 113d f79b 063c
00000250: 8027 043c c6f5 14bc b4e0 063c 559c bcbc
00000260: f375 b3bb 8325 9e3c 438c e8bc 9498 c73c
00000270: 2122 1f3c 1d74 a3bc 6c63 a23c 002b 5d3c
00000280: dd53 bb3b bf4b 53bc d814 e1bb f326 a13b
00000290: 5f4c d53b 1b67 ea3c 50fd ce3c 4366 a0bc
000002a0: 322c 043b 0a89 66bc 7dc9 b3bc f280 6fbb
000002b0: 0516 673b 4f2a d3bc 52f8 febc 3a31 66bc
000002c0: af37 34bc 07cf 1e3c 2ba4 b53c 283c ec3b
000002d0: 634f c1bc 5de1 11bc 5f9c a039 c7f8 233b
000002e0: d01e 98bb 5ff5 17bd e3f5 03bc 4340 ddbc
000002f0: 4b73 043c e529 7fbc e7c9 9cbc bf1f a0bb
00000300: 164e 183d 8af4 f43c 104a 1cbc fb2c 30bc
00000310: dd6b 183c d78e af3b 3e27 9e3b 5262 c33a
00000320: 32a9 a53b 7424 23bc f0fb f8bc a7a6 673c
00000330: 8a1c 82bc 1cc3 33bc a308 9b3c 9e19 303c
00000340: d2a2 603c bd45 9cbc 5186 99bc 7979 41bc
00000350: c372 abbb a899 acbc 5502 d93c 2f3d e2bb
00000360: 0e42 2ebb 4fcd 09bc 5754 2dbb 8bde d5bc
00000370: 9524 913c bfe8 8cbc c70c 343c e887 2d3d
00000380: bd4b 6b3c 378b 4fbb 000f db3c d845 fc3b
00000390: 6300 1b3d f21e d43c 9f79 c33c 0750 663c
000003a0: bb15 d93c 8ca1 cabb 4ba4 d5bb a1c7 37bc
000003b0: 28cc ae3c daeb c5ba 03f9 803b 873f 26bc
000003c0: d255 ce3c fdaf 7fbc c58f 583c d8bb d9bc
000003d0: a3c2 e43c bd18 8b3c c760 0b3c 9772 ccbc
000003e0: bf7a 193c 3a0b 813c 2bcc 623c 4a9e 2d3c
000003f0: f745 9c3c b5aa db3a c864 dcbc afe4 da3c

action_model._continuous_distribution.mu.bias f4 [2]
0.0 0.0
00000000: 0000 0000 0000 0000

network_body._body_endoder.seq_layers.0.weight f4 [128, 6]
0.105922416 -0.03210386 -0.21211989 -0.37770206 -0.2374196 -0.075880475 0.35237396 -0.60445005
0.32542375 -0.4785332 -0.15965556 0.29467553 0.16677445 -0.16065662 0.31251287 0.46880746
0.091661036 0.14148282 -0.16431041 0.45880514 0.45293838 0.09590429 0.27706987 -0.085852906
-0.01578386 -0.08631552 0.32651082 0.06789141 -0.22612086 0.18073398 -0.24686868 -0.75002337
0.009682892 0.14531732 0.1810119 -0.6618744 -0.00349955 0.20414527 -0.9154186 -0.23009159
0.03296374 0.055255964 0.14286843 -1.2278347 -0.22257952 0.09552657 -0.18098034 0.014225214
-0.48157173 0.088380225 -0.07408229 -0.38005212 0.19029872 -0.86001533 0.35507488 0.10596655
0.53434944 0.2104399 0.27968308 -0.2798403 -0.28243282 0.021936662 0.4288465 0.51349354
0.8551851 -0.0575978 -0.25741643 0.3091517 0.75984424 -0.13273248 -0.4430015 -0.6436055
-0.8078495 0.4220565 0.098665535 -0.22321753 0.2475744 -0.33452034 -0.05887802 -0.41937694
-0.44942087 -0.14596277 -0.05717221 -0.83692515 -0.11160216 -0.21059129 0.072829 -0.07538505
0.35587063 0.14429043 0.05849859 -0.011397328 0.6642676 -0.2076174 0.118422106 0.10377244
0.08418083 -0.69488513 0.1421503 -0.4344288 -0.634807 0.37513912 0.6906171 -0.88885546
-0.46596798 -0.2438387 -0.2406996 -0.07694374 -0.14459224 0.297314 0.31107044 0.34733453
-0.23363526 -0.31654617 0.01381073 -0.21257743 0.48535755 -0.15451156 -0.18858577 0.07754313
-0.37612903 0.07470325 -0.92471594 0.62186605 -0.03683508 -0.42409316 -0.58768296 -0.24563973
-0.59701604 -0.37523872 -0.079577744 0.24565294 -0.42854804 -0.2256663 -0.33173478 -0.18241705
0.031531278 0.68426776 0.17079736 0.081944264 0.36856404 -0.5235661 -0.83584833 0.79902697
-1.2845547 0.5009553 0.22798577 0.29779854 0.0946231 -0.40972123 0.034448124 0.5068148
0.28685197 0.053365685 -0.5921286 0.11569427 -7.106324e-05 0.5116681 -0.4102909 0.801402
-0.17093603 0.050459452 -0.10172342 -0.66185206 0.50086105 -0.26774246 -0.44211757 0.55659825
0.42323223 -0.16403958 0.26773915 -0.2657505 -0.26269075 0.024827393 0.20738888 -0.8770575
0.20367299 -0.081398636 0.009364591 0.0975251 -0.5864703 -0.7639804 0.62667906 -0.1892435
-0.23047587 -0.55028605 -0.40718785 0.058293935 0.25265944 0.548291 0.9679325 0.21524797
0.29181656 -0.14053972 -0.82603234 -0.4042663 -0.22755626 0.10208912 -0.33465573 0.018630387
0.6058009 -0.009031671 0.16076641 0.2578789 -0.48473457 -0.1743664 0.1273951 -0.2262423
-0.3858306 -0.667587 0.016202057 0.66042745 0.35248566 0.057006214 0.332972 0.25125787
-0.0007862131 -0.03493679 -0.73622584 0.16128185 -0.3473072 -0.14460874 -0.081708774 -0.14412273
-0.12639928 0.8033034 -0.80100906 0.59614515 -0.12973608 0.56024605 0.1136911 -0.06581958
0.13758358 0.30468053 -0.15747038 0.09243869 0.19217254 -0.57395834 -0.13446917 0.20519385
-0.563783 0.31942096 -0.11689537 0.15342449 0.32947937 -0.042780563 0.10114513 0.7017694
0.20708892 -0.17261164 0.12889536 0.03988288 -0.0805854 -0.37595388 -0.25043446 -0.24753036
00000000: daed d83d 567f 03bd f535 59be 2a62 c1be
00000010: 201e 73be 3967 9bbd 5c6a b43e 3dbd 1abf
00000020: f19d a63e 4e02 f5be bf7c 23be b6df 963e
00000030: ecc6 2a3e 2b83 24be b001 a03e 8807 f03e
00000040: c8b8 bb3d dfe0 103e fd40 28be 82e8 ea3e
00000050: 8ae7 e73e 7869 c43d 1adc 8d3e a6d3 afbd
00000060: 274d 81bc 31c6 b0bd 6d2c a73e a70a 8b3d
00000070: 3a8c 67be 5412 393e 25cb 7cbe 8801 40bf
00000080: fea4 1e3c 10ce 143e 2f5b 393e 9a70 29bf
00000090: b558 65bb 750b 513e e058 6abf 219d 6bbe
000000a0: fd04 073d 1454 623d 1a4c 123e b029 9dbf
000000b0: e3eb 63be 6fa3 c33d e952 39be df10 693c
000000c0: 9290 f6be b100 b53d 75b8 97bd 3196 c2be
000000d0: abdd 423e f729 5cbf 60cc b53e fe04 d93d
000000e0: 20cb 083f 8f7d 573e 9f32 8f3e 3a47 8fbe
000000f0: 099b 90be 84b4 b33c c591 db3e 5074 033f
00000100: 69ed 5a3f aceb 6bbd 16cc 83be 2249 9e3e
00000110: 2785 423f 06eb 07be 18d1 e2be 54c3 24bf
00000120: 3acf 4ebf ca17 d83e 2811 ca3d 2393 64be
00000130: 2584 7d3e 4046 abbe 142a 71bd 93b8 d6be
00000140: 7e1a e6be 4477 15be 682d 6abd ba40 56bf
00000150: ac8f e4bd 3ea5 57be 5f27 953d 7a63 9abd
00000160: ad34 b63e dfc0 133e 389c 6f3d dcbb 3abc
00000170: 710d 2a3f a899 54be 4a87 f23d a586 d43d
00000180: 0067 ac3d fee3 31bf d98f 113e 746d debe
00000190: b682 22bf 3c12 c03e 48cc 303f 088c 63bf
000001a0: 5b93 eebe dab0 79be f579 76be ae94 9dbd
000001b0: fd0f 14be 8a39 983e a044 9f3e d5d5 b13e
000001c0: 153e 6fbe 5712 a2be 6646 623c e6ad 59be
000001d0: c980 f83e 4738 1ebe a11c 41be efce 9e3d
000001e0: fc93 c0be 04fe 983d 2fba 6cbf 9d32 1f3f
000001f0: 61e0 16bd bd22 d9be 6472 16bf fb88 7bbe
00000200: 0bd6 18bf 4a1f c0be a8f9 a2bd 728c 7b3e
00000210: a66a dbbe 1115 67be 24d9 a9be 89cb 3abe
00000220: f126 013d 2c2c 2f3f 81e5 2e3e 65d2 a73d
00000230: 6db4 bc3e 6e08 06bf 28fa 55bf 088d 4c3f
00000240: 4a6c a4bf 9b3e 003f 1a75 693e 0d79 983e
00000250: c1c9 c13d fbc6 d1be 7a19 0d3d 9dbe 013f
00000260: 43de 923e fa95 5a3d bd95 17bf 1ef1 ec3d
00000270: c907 95b8 aefc 023f a611 d2be ae28 4d3f
00000280: db09 2fbe 92ae 4e3d 5e54 d0bd 236f 29bf
00000290: 6e38 003f 8a15 89be 3c5d e2be 397d 0e3f
000002a0: e5b1 d83e fef9 27be 1b15 893e 7310 88be
000002b0: 677f 86be d162 cb3c c05d 543e d786 60bf
000002c0: a78f 503e 54b4 a6bd f16d 193c 3dbb c73d
000002d0: eb22 16bf 3894 43bf 0a6e 203f 0cc9 41be
000002e0: de01 6cbe 8cdf 0cbf ed7a d0be 9fc5 6e3d
000002f0: 945c 813e cd5c 0c3f 6dca 773f f769 5c3e
00000300: fb68 953e a5e9 0fbe db76 53bf fefb cebe
00000310: 8204 69be 1a14 d13d ff57 abbe c19e 983c
00000320: c515 1b3f 93f9 13bc f39f 243e b408 843e
00000330: 212f f8be 1b8d 32be dc73 023e 10ac 67be
00000340: 978b c5be fbe6 2abf 2dba 843c c611 293f
00000350: 0079 b43e 597f 693d 4e7b aa3e dfa4 803e
00000360: de19 4eba e119 0fbd 4c79 3cbf 1227 253e
00000370: 40d2 b1be 5014 14be ee56 a7bd e994 13be
00000380: d06e 01be 4ba5 4d3f ee0e 4dbf f89c 183f
00000390: 89d9 04be 496c 0f3f e1d6 e83d 6acc 86bd
000003a0: b6e2 0c3e 16ff 9b3e ea3f 21be 7f50 bd3d
000003b0: e1c8 443e efee 12bf 49b2 09be 561e 523e
000003c0: 1554 10bf 258b a33e d766 efbd 4f1b 1d3e
000003d0: 85b1 a83e ac3a 2fbd 2e25 cf3d 29a7 333f
000003e0: 1e0f 543e 1bc1 30be 25fd 033e 3b5c 233d
000003f0: f509 a5bd 077d c0be f238 80be 9978 7dbe

network_body._body_endoder.seq_layers.0.bias f4 [128]
0.0 0.0 0.0 0.0 0.0 0.0 0.0 0.0
0.0 0.0 0.0 0.0 0.0 0.0 0.0 0.0
0.0 0.0 0.0 0.0 0.0 0.0 0.0 0.0
0.0 0.0 0.0 0.0 0.0 0.0 0.0 0.0
0.0 0.0 0.0 0.0 0.0 0.0 0.0 0.0
0.0 0.0 0.0 0.0 0.0 0.0 0.0 0.0
0.0 0.0 0.0 0.0 0.0 0.0 0.0 0.0
0.0 0.0 0.0 0.0 0.0 0.0 0.0 0.0
0.0 0.0 0.0 0.0 0.0 0.0 0.0 0.0
0.0 0.0 0.0 0.0 0.0 0.0 0.0 0.0
0.0 0.0 0.0 0.0 0.0 0.0 0.0 0.0
0.0 0.0 0.0 0.0 0.0 0.0 0.0 0.0
0.0 0.0 0.0 0.0 0.0 0.0 0.0 0.0
0.0 0.0 0.0 0.0 0.0 0.0 0.0 0.0
0.0 0.0 0.0 0.0 0.0 0.0 0.0 0.0
0.0 0.0 0.0 0.0 0.0 0.0 0.0 0.0
00000000: 0000 0000 0000 0000 0000 0000 0000 0000
00000010: 0000 0000 0000 0000 0000 0000 0000 0000
00000020: 0000 0000 0000 0000 0000 0000 0000 0000
00000030: 0000 0000 0000 0000 0000 0000 0000 0000
00000040: 0000 0000 0000 0000 0000 0000 0000 0000
00000050: 0000 0000 0000 0000 0000 0000 0000 0000
00000060: 0000 0000 0000 0000 0000 0000 0000 0000
00000070: 0000 0000 0000 0000 0000 0000 0000 0000
00000080: 0000 0000 0000 0000 0000 0000 0000 0000
00000090: 0000 0000 0000 0000 0000 0000 0000 0000
000000a0: 0000 0000 0000 0000 0000 0000 0000 0000
000000b0: 0000 0000 0000 0000 0000 0000 0000 0000
000000c0: 0000 0000 0000 0000 0000 0000 0000 0000
000000d0: 0000 0000 0000 0000 0000 0000 0000 0000
000000e0: 0000 0000 0000 0000 0000 0000 0000 0000
000000f0: 0000 0000 0000 0000 0000 0000 0000 0000
00000100: 0000 0000 0000 0000 0000 0000 0000 0000
00000110: 0000 0000 0000 0000 0000 0000 0000 0000
00000120: 0000 0000 0000 0000 0000 0000 0000 0000
00000130: 0000 0000 0000 0000 0000 0000 0000 0000
00000140: 0000 0000 0000 0000 0000 0000 0000 0000
00000150: 0000 0000 0000 0000 0000 0000 0000 0000
00000160: 0000 0000 0000 0000 0000 0000 0000 0000
00000170: 0000 0000 0000 0000 0000 0000 0000 0000
00000180: 0000 0000 0000 0000 0000 0000 0000 0000
00000190: 0000 0000 0000 0000 0000 0000 0000 0000
000001a0: 0000 0000 0000 0000 0000 0000 0000 0000
000001b0: 0000 0000 0000 0000 0000 0000 0000 0000
000001c0: 0000 0000 0000 0000 0000 0000 0000 0000
000001d0: 0000 0000 0000 0000 0000 0000 0000 0000
000001e0: 0000 0000 0000 0000 0000 0000 0000 0000
000001f0: 0000 0000 0000 0000 0000 0000 0000 0000

network_body._body_endoder.seq_layers.2.weight f4 [128, 128]
0.03372007 -0.06008972 -0.03150375 0.2350511 -0.019448828 0.10335225 -0.033123873 0.01892095
-0.069485135 -0.051168833 0.15203364 -0.17909193 0.074860886 -0.00026561556 -0.15611343 0.1153712
0.0417833 -0.09140329 -0.05948942 -0.04906135 0.050679415 -0.039060723 -0.056196064 0.07868947
-0.056352496 0.019408017 0.042633697 0.10513545 -0.12464905 -0.0074955304 0.16157773 -0.0053912066
-0.11200197 -0.013947633 0.01615194 -0.11899741 0.026070856 0.1954608 0.04761526 0.13752322
-0.022932358 -0.07147789 0.0069059506 -0.10048861 0.11733248 0.007974184 -0.06687376 -0.0224494
-0.10650515 0.055158503 0.12616004 0.086698614 -0.05170866 0.01622042 -0.07494692 -0.087991536
0.037008885 0.09294519 0.036544975 -0.0819323 -0.015211432 0.10908267 -0.16082372 0.017183805
-0.04712215 0.10402136 0.07447623 0.025947196 -0.100998744 -0.118196085 -0.006203687 0.002010797
-0.13784494 0.11634709 0.11749469 -0.041011725 -0.0011221833 -0.06634495 0.17102242 0.014400289
0.05471265 -0.021829685 -0.015827578 0.1378771 -0.0020596695 0.027636414 0.14232332 -0.0725098
-0.043127213 0.06495384 -0.024043657 -0.081989996 0.034763888 0.06872874 0.0054028593 0.10728557
0.021889044 -0.11518584 0.026242755 -0.24674265 0.15598413 0.10326701 0.1068641 -0.10920913
-0.00023859937 -0.13916725 -0.07826561 0.04747657 -0.074683726 0.064805895 -0.059015855 0.14409815
0.002818401 0.12051453 0.050803483 0.020324234 0.040297404 0.093071334 0.005634373 0.077079676
0.0064257965 -0.014039735 0.018143024 0.014464178 0.100824974 -0.21671481 -0.1573623 -0.04734285
0.05369343 -0.018687943 -0.10001976 -0.121504895 -0.03053548 -0.1089504 -0.09146834 0.10779698
0.0602554 -0.099674106 -0.09338216 -0.035902817 -0.013425547 -0.19533648 -0.058642365 -0.018501105
-0.1344882 0.011097845 -0.13110715 0.06194948 -0.10435788 0.03794353 -0.06297098 -0.20589055
-0.025279665 -0.06426063 -0.17249979 -0.05177485 -0.10504759 -0.07505445 -0.15089253 -0.10148033
-0.019114304 0.14021547 0.07863999 0.035157073 0.090424374 0.033012763 -0.06510312 -0.059451748
-0.025672324 -0.01793943 -0.032470196 0.05995605 0.16247325 0.07122101 -0.010859504 0.031137815
-0.15545706 -0.050579775 -0.047253814 -0.068165064 0.048338484 -0.100019656 0.047515333 0.01415721
0.012793632 0.1309897 0.040166315 0.10468754 0.01917634 0.03388019 0.026553975 -0.039570708
-0.15177985 0.03133261 0.03181146 0.09400892 -0.017022677 -0.18854089 0.012444962 0.107807696
-0.057820413 0.044970676 -0.07604684 0.10400458 -0.12588935 0.019455228 -0.09685553 0.19835809
-0.030504925 0.11057254 0.001993378 -0.1522778 -0.04324245 0.015345912 0.18407333 0.034897707
0.05677085 -0.07106071 0.20896813 -0.024250424 -0.06382091 0.08748888 -0.019674104 0.010209106
-0.07260695 -0.051923614 -0.06579862 0.11952201 -0.04643179 -0.08806725 0.025607469 0.13238327
-0.044931263 0.13428234 -0.13203932 -0.10054816 0.13955194 -0.11116908 -0.09043351 -0.046513636
-0.10992611 0.04610246 -0.026723767 -0.045383874 0.03754034 0.03045405 0.025429148 0.14108211
-0.023133978 0.1739483 -0.0130604245 -0.021407608 0.1585871 -0.05509472 0.15003014 0.067461304
00000000: 0e1e 0a3d a320 76bd 130a 01bd 3cb1 703e
00000010: 2653 9fbc 58aa d33d e6ac 07bd 1c00 9b3c
00000020: 394e 8ebd 6996 51bd b5ae 1b3e e063 37be
00000030: aa50 993d 5142 8bb9 33dc 1fbe bc47 ec3d
00000040: f724 2b3d a631 bbbd 2eab 73bd 8ef4 48bd
00000050: 3895 4f3d 23fe 1fbd d82d 66bd f227 a13d
00000060: e0d1 66bd 90fd 9e3c aca0 2e3d 4151 d73d
00000070: 0048 ffbd 119d f5bb a274 253e b8a8 b0bb
00000080: 4a61 e5bd 9d84 64bc 1351 843c eab4 f3bd
00000090: 8c92 d53c e026 483e 3808 433d e3d2 0c3e
000000a0: a4dc bbbc 0063 92bd 504b e23b f9cc cdbd
000000b0: 034c f03d 27a6 023c 1cf5 88bd cee7 b7bc
000000c0: 5f1f dabd e2ed 613d 1930 013e 0b8f b13d
000000d0: 76cc 53bd b0e0 843c c57d 99bd e834 b4bd
000000e0: a196 173d 0c5a be3d 2fb0 153d 1fcc a7bd
000000f0: 5f39 79bc bc66 df3d f9ae 24be 0dc5 8c3c
00000100: 2803 41bd 2709 d53d fe86 983d 378f d43c
00000110: 6ed8 cebd ca10 f2bd 4c48 cbbb 93c7 033b
00000120: 3927 0dbe 6247 ee3d 0ea1 f03d e9fb 27bd
00000130: 3916 93ba dcdf 87bd 8020 2f3e 31ef 6b3c
00000140: 5f1a 603d 2bd4 b2bc d6a8 81bc a82f 0d3e
00000150: 85fb 06bb c365 e23c 34bd 113e 0580 94bd
00000160: 29a6 30bd 8506 853d 34f7 c4bc 5fea a7bd
00000170: 9464 0e3d a7c1 8c3d 780a b13b 89b8 db3d
00000180: a750 b33c 8ee6 ebbd 0cfb d63c 1baa 7cbe
00000190: 4eba 1f3e a77d d33d 91db da3d 09a9 dfbd
000001a0: 8830 7ab9 dc81 0ebe b849 a0bd cb76 423d
000001b0: c8f3 98bd f4b8 843d 9cba 71bd 778e 133e
000001c0: ecb4 383b 52d0 f63d 5017 503d 027f a63c
000001d0: e40e 253d 2f9c be3d 8ca0 b83b f3db 9d3d
000001e0: 7d8f d23b eb06 66bc aea0 943c 29fb 6c3c
000001f0: 537d ce3d 7dea 5dbe 9523 21be 94ea 41bd
00000200: a4ed 5b3d 7517 99bc 29d7 ccbd 8fd7 f8bd
00000210: 8b25 fabc 6321 dfbd c153 bbbd aac4 dc3d
00000220: 5ece 763d f021 ccbd 253f bfbd d50e 13bd
00000230: d3f6 5bbc 4906 48be fa32 70bd a18f 97bc
00000240: 46b7 09be bcd3 353c f440 06be bdbe 7d3d
00000250: 96b9 d5bd ad6a 1b3d eef6 80bd f9d4 52be
00000260: 4d17 cfbc 149b 83bd c9a3 30be dd11 54bd
00000270: 3123 d7bd 26b6 99bd 9283 1abe ebd4 cfbd
00000280: 9a95 9cbc a594 0f3e 010e a13d dd00 103d
00000290: 6a30 b93d 6438 073d c954 85bd ad83 73bd
000002a0: c44e d2bc b6f5 92bc 78ff 04bd 7a94 753d
000002b0: 635f 263e 52dc 913d 10ec 31bc bb14 ff3c
000002c0: 2330 1fbe bd2c 4fbd 378d 41bd 209a 8bbd
000002d0: 93fe 453d 1bd7 ccbd 709f 423d a4f3 673c
000002e0: 629c 513c 2a22 063e 6f85 243d 6c66 d63d
000002f0: b317 9d3c f4c5 0a3d b987 d93c e514 22bd
00000300: 2d6c 1bbe 9f56 003d bc4c 023d c087 c03d
00000310: 2473 8bbc dd10 41be f4e5 4b3c 48ca dc3d
00000320: 19d5 6cbd 2c33 383d 72be 9bbd 5a00 d53d
00000330: 23e9 00be 9260 9f3c 315c c6bd 621e 4b3e
00000340: 77e5 f9bc db73 e23d 55a3 023b b6ee 1bbe
00000350: ff1e 31bd 6c6d 7b3c b87d 3c3e e6f0 0e3d
00000360: 8d88 683d 4788 91bd befb 553e d3a8 c6bc
00000370: 8ab4 82bd 5f2d b33d 962b a1bc 1844 273c
00000380: f4b2 94bd dbad 54bd 6dc1 86bd f5c7 f43d
00000390: 432f 3ebd 9a5c b4bd c1c6 d13c 7b8f 073e
000003a0: d809 38bd 4f81 093e 5135 07be 32ec cdbd
000003b0: b4e6 0e3e 9dac e3bd 3435 b9bd 1585 3ebd
000003c0: f120 e1bd efd5 3c3d cdeb dabc 71e4 39bd
000003d0: e6c3 193d c67a f93c ca50 d03c d477 103e
000003e0: 7883 bdbc 811f 323e 64fb 55bc 025f afbc
000003f0: a864 223e 00ab 61bd 80a1 193e 2729 8a3d

network_body._body_endoder.seq_layers.2.bias f4 [128]
0.0 0.0 0.0 0.0 0.0 0.0 0.0 0.0
0.0 0.0 0.0 0.0 0.0 0.0 0.0 0.0
0.0 0.0 0.0 0.0 0.0 0.0 0.0 0.0
0.0 0.0 0.0 0.0 0.0 0.0 0.0 0.0
0.0 0.0 0.0 0.0 0.0 0.0 0.0 0.0
0.0 0.0 0.0 0.0 0.0 0.0 0.0 0.0
0.0 0.0 0.0 0.0 0.0 0.0 0.0 0.0
0.0 0.0 0.0 0.0 0.0 0.0 0.0 0.0
0.0 0.0 0.0 0.0 0.0 0.0 0.0 0.0
0.0 0.0 0.0 0.0 0.0 0.0 0.0 0.0
0.0 0.0 0.0 0.0 0.0 0.0 0.0 0.0
0.0 0.0 0.0 0.0 0.0 0.0 0.0 0.0
0.0 0.0 0.0 0.0 0.0 0.0 0.0 0.0
0.0 0.0 0.0 0.0 0.0 0.0 0.0 0.0
0.0 0.0 0.0 0.0 0.0 0.0 0.0 0.0
0.0 0.0 0.0 0.0 0.0 0.0 0.0 0.0
00000000: 0000 0000 0000 0000 0000 0000 0000 0000
00000010: 0000 0000 0000 0000 0000 0000 0000 0000
00000020: 0000 0000 0000 0000 0000 0000 0000 0000
00000030: 0000 0000 0000 0000 0000 0000 0000 0000
00000040: 0000 0000 0000 0000 0000 0000 0000 0000
00000050: 0000 0000 0000 0000 0000 0000 0000 0000
00000060: 0000 0000 0000 0000 0000 0000 0000 0000
00000070: 0000 0000 0000 0000 0000 0000 0000 0000
00000080: 0000 0000 0000 0000 0000 0000 0000 0000
00000090: 0000 0000 0000 0000 0000 0000 0000 0000
000000a0: 0000 0000 0000 0000 0000 0000 0000 0000
000000b0: 0000 0000 0000 0000 0000 0000 0000 0000
000000c0: 0000 0000 0000 0000 0000 0000 0000 0000
000000d0: 0000 0000 0000 0000 0000 0000 0000 0000
000000e0: 0000 0000 0000 0000 0000 0000 0000 0000
000000f0: 0000 0000 0000 0000 0000 0000 0000 0000
00000100: 0000 0000 0000 0000 0000 0000 0000 0000
00000110: 0000 0000 0000 0000 0000 0000 0000 0000
00000120: 0000 0000 0000 0000 0000 0000 0000 0000
00000130: 0000 0000 0000 0000 0000 0000 0000 0000
00000140: 0000 0000 0000 0000 0000 0000 0000 0000
00000150: 0000 0000 0000 0000 0000 0000 0000 0000
00000160: 0000 0000 0000 0000 0000 0000 0000 0000
00000170: 0000 0000 0000 0000 0000 0000 0000 0000
00000180: 0000 0000 0000 0000 0000 0000 0000 0000
00000190: 0000 0000 0000 0000 0000 0000 0000 0000
000001a0: 0000 0000 0000 0000 0000 0000 0000 0000
000001b0: 0000 0000 0000 0000 0000 0000 0000 0000
000001c0: 0000 0000 0000 0000 0000 0000 0000 0000
000001d0: 0000 0000 0000 0000 0000 0000 0000 0000
000001e0: 0000 0000 0000 0000 0000 0000 0000 0000
000001f0: 0000 0000 0000 0000 0000 0000 0000 0000

value_heads.value_heads.extrinsic.weight f4 [1, 128]
-0.06965463 0.19266598 0.18673077 0.050047852 0.21393532 -0.16258432 0.103484504 0.10378343
0.092937194 0.03385709 -0.17366932 0.15380411 0.1512612 -0.1642973 -0.19452585 0.17784688
0.15390913 -0.12280187 -0.016501512 -0.032596406 0.003625325 -0.1051149 0.13524811 -0.038432166
0.185544 0.0058289496 -0.023153212 -0.12795797 -0.21261275 -0.19446883 0.0983315 0.170079
0.068831734 0.18900938 -0.08777778 -0.12262114 0.14977874 -0.11658956 0.028432315 0.19971447
-0.10250292 0.17583936 -0.07476468 -0.106180295 0.09418669 -0.13778424 0.18300837 0.10404415
-0.055058844 0.20916381 -0.07189219 0.18005238 -0.04462007 0.044808134 0.1314513 0.023307443
0.18502735 0.072494544 -0.20278242 -0.16318756 -0.09425772 -0.06821965 -0.055767678 -0.12561627
0.009123318 -0.09359466 -0.02233167 -0.09830308 -0.043812465 -0.06554927 0.20692307 0.036481496
-0.076522954 -0.052988112 0.17158642 0.14659522 0.20154212 0.021217247 -0.19147246 0.13432424
0.035222307 -0.19811165 0.07789598 -0.12862942 -0.057805117 -0.08114392 0.095405065 0.042781778
0.20675935 -0.049615253 0.118318304 0.020751549 0.08441093 0.10066046 0.06830742 -0.038026024
-0.19632769 -0.11836537 0.014610307 -0.16153012 0.07137986 -0.06648495 -0.009167217 0.1659475
0.17044656 -0.033582292 -0.03259318 -0.034770876 -0.14110033 0.009497183 0.12137704 -0.19511679
0.08494229 -0.10557128 -0.08896326 -0.10328653 0.18252912 -0.19802108 0.027944867 0.105904676
-0.16761175 0.06242785 -0.057251327 -0.09583419 0.089665964 0.030021744 -0.14745867 0.001970775
00000000: 16a7 8ebd 3b4a 453e 5a36 3f3e fafe 4c3d
00000010: dc11 5b3e 817c 26be afef d33d 688c d43d
00000020: db55 be3d bbad 0a3d 5fd6 31be d37e 1d3e
00000030: 37e4 1a3e 8d3d 28be c931 47be 7e1d 363e
00000040: 5b9a 1d3e 8c7f fbbd 2e2e 87bc cf83 05bd
00000050: dc96 6d3b 7b46 d7bd 7b7e 0a3e 0c6b 1dbd
00000060: 3fff 3d3e c600 bf3b ceab bdbc 6a07 03be
00000070: 28b7 59be d622 47be 0762 c93d 3029 2e3e
00000080: a7f7 8c3d ad8b 413e d6c4 b3bd cb20 fbbd
00000090: 995f 193e 82c6 eebd e3ea e83c f381 4c3e
000000a0: 0ded d1bd 3c0f 343e 391e 99bd 0e75 d9bd
000000b0: f4e4 c03d 5017 0dbe 8c66 3b3e 1915 d53d
000000c0: 6285 61bd 0a2f 563e 363c 93bd a75f 383e
000000d0: 89c3 36bd bc88 373d 2b9b 063e 40ef be3c
000000e0: cf77 3d3e 0578 943d 32a6 4fbe a41a 27be
000000f0: 310a c1bd beb6 8bbd a66c 64bd 8da1 00be
00000100: f879 153c 8fae bfbd e8f0 b6bc 2053 c9bd
00000110: b374 33bd b23e 86bd a4e3 533e 9f6d 153d
00000120: 11b8 9cbd 100a 59bd 5ab4 2f3e 0f1d 163e
00000130: 0f61 4e3e cbcf ad3c 5b11 44be 4b8c 093e
00000140: 4445 103d c8dd 4abe ed87 9f3d 6eb7 03be
00000150: 0fc5 6cbd c92e a6bd bb63 c33d f23b 2f3d
00000160: b9b8 533e 5d39 4bbd de50 f23d 27ff a93c
00000170: a3df ac3d 1227 ce3d c3e4 8b3d 2dc1 1bbd
00000180: 200a 49be 8b69 f2bd 1260 6f3c 2768 25be
00000190: 9b2f 923d 4329 88bd 1832 16bc 24ee 293e
000001a0: 8b89 2e3e 968d 09bd 6d80 05bd e86b 0ebd
000001b0: 9b7c 10be 139a 1b3c 8794 f83d b2cc 47be
000001c0: 39f6 ad3d c135 d8bd 5f32 b6bd e387 d3bd
000001d0: eae8 3a3e 0ac6 4abe a2ec e43c 8de4 d83d
000001e0: 6aa2 2bbe 58b4 7f3d 5e80 6abd b744 c4bd
000001f0: caa2 b73d 29f0 f53c 68ff 16be 1e28 013b
