CubeTest/results/ppo/MoveToGoal/MoveToGoal-6268.pt (torch, 149519 bytes, 12 tensors)

network_body._body_endoder.seq_layers.0.weight f4 [128, 6]
0.002683287 -0.33375794 -0.8983706 0.13883953 -0.35193968 -0.33348054 -0.88292634 0.24537641
-0.02668983 0.9116464 0.44724345 0.18156968 0.2508922 -0.4069592 -0.29838437 -0.41522476
0.028923027 -0.46730274 0.6379575 0.6279501 -0.3730099 -0.42435518 -0.196952 -0.46454746
0.7909952 0.31474513 0.09319731 0.06890829 0.19889674 -0.5006637 0.34090832 0.41777477
0.28499013 -0.30184072 -0.02272536 0.303894 0.32945055 0.08427049 0.23326838 -0.38249186
0.44202918 0.56519324 0.28728658 0.08236864 0.18165281 0.27256396 -0.21606548 0.4448153
-0.21110071 0.2364341 -0.45940953 0.020477384 0.0012665457 0.071769215 -0.24059469 -0.16638595
0.17681488 -0.3451971 -0.11760118 -0.1839317 0.4654521 0.7270167 -0.1344949 -0.39791206
0.52507806 0.12026015 0.5154813 -0.27368653 0.2511384 -0.08789489 0.3182197 0.021817753
0.4979606 -0.12442622 -0.3739811 0.18701439 -0.3290284 -0.7192277 -0.28202555 -0.34587926
-0.35859233 0.50228673 -0.38987225 -0.5090639 -0.42375296 0.051191133 0.14778537 -0.14248471
-0.6941972 0.025735205 0.050604086 -0.48101154 0.090258494 0.45394364 -0.22379778 -0.33847946
-0.2989653 -0.35367793 -0.12492556 0.46606532 -0.44344428 -0.4240112 -0.30520192 0.01573733
0.042423163 -0.23180027 -0.4461024 -0.023367634 0.00068410364 -0.19652936 -0.3144196 -0.2071354
0.2308729 -0.27868637 0.01889586 -0.13151878 -0.8528087 0.30260608 -0.10083782 -0.038886808
-0.28601807 0.60472065 -0.14414617 -0.625902 0.19603328 0.31177256 0.47462466 -0.31361458
0.09808669 0.08938553 -0.5389907 -0.535787 0.63510585 -0.26104993 -0.054356065 0.05933962
0.47399682 -0.10963491 -0.14882706 0.70097387 -0.18999544 0.38534984 -0.47066474 -0.41136095
0.32459083 -0.034287117 -0.08808999 0.7575388 -0.07512218 0.12955374 0.081456006 -0.081751205
-0.41785318 0.49291885 0.09884045 -0.49994457 -0.51491714 0.052908916 -1.1814703 -0.16327915
0.68836904 -0.23857372 -0.1932428 -0.021587681 -0.36939576 0.10022652 -0.65324193 0.35382277
0.41871443 0.36394507 -0.06410563 -0.13380587 0.61394453 -0.03075585 0.12625869 -0.35555705
-0.45992774 0.4937291 -0.20800136 -0.3633894 0.4321734 -0.27549788 -0.37904567 0.46289217
0.49703616 0.0319246 -0.11223118 0.43820307 -0.21771184 0.79425555 -0.52175915 0.59262705
-0.30496505 0.30136788 0.30145708 0.1877524 -0.19491072 -0.21973896 -0.0366696 -0.024277069
0.98843735 -0.33192393 -0.3288578 -0.32831943 0.46701366 0.078901626 -0.22247018 -0.46080312
-0.19028598 -0.056730233 0.45136124 0.023431428 0.20744509 -0.4565889 0.273845 0.5636614
0.8344733 -0.39619583 0.4791185 0.12005138 0.4463043 0.6266868 -0.073943764 -0.13260573
0.20739125 0.16684006 0.5347702 0.35089946 0.47311893 0.08835795 0.42108685 -0.33696824
0.12162165 0.4368485 -0.22926846 -0.25999674 0.12889026 0.014725903 -0.13900281 -0.20431432
0.23393767 0.3068001 -0.26497662 -0.2800523 -0.42421272 -0.11235208 0.87149507 -0.36890677
-0.29308358 -0.08642112 0.043757834 -0.4781151 -0.118870296 -0.33574796 0.45699432 -0.14147733
00000000: 16da 2f3b 52e2 aabe 9efb 65bf f32b 0e3e
00000010: 7031 b4be f6bd aabe 7607 62bf f443 7b3e
00000020: a1a4 dabc a961 693f 18fd e43e 67ed 393e
00000030: f174 803e f55c d0be d6c5 98be 5798 d4be
00000040: fcef ec3c 4e42 efbe 2f51 233f 56c1 203f
00000050: 27fb bebe 1545 d9be c9ad 49be 2ad9 edbe
00000060: a97e 4a3f 4626 a13e 3bde be3d ca1f 8d3d
00000070: 96ab 4b3e 7f2b 00bf 898b ae3e 93e6 d53e
00000080: 3aea 913e de8a 9abe 892a babc ff97 9b3e
00000090: bead a83e 0296 ac3d e8dd 6e3e f9d5 c3be
000000a0: a651 e23e 81b0 103f 3a17 933e e4b0 a83d
000000b0: 3203 3a3e 818d 8b3e 4540 5dbe d5be e33e
000000c0: c92a 58be c81b 723e ba37 ebbe 30c0 a73c
000000d0: 3902 a63a bdfb 923d 745e 76be 1461 2abe
000000e0: f60e 353e adbd b0be e3d8 f0bd 9758 3cbe
000000f0: bd4f ee3e c41d 3a3f 08b9 09be 21bb cbbe
00000100: 846b 063f f44a f63d 95f6 033f a420 8cbe
00000110: 3695 803e 3c02 b4bd b1ed a23e 25bb b23c
00000120: b1f4 fe3e 2dd3 febd 737a bfbe b380 3f3e
00000130: 6976 a8be 4e1f 38bf a765 90be 1617 b1be
00000140: 6a99 b7be dd95 003f 569d c7be 0352 02bf
00000150: 26f6 d8be cbad 513d 0c55 173e 83e7 11be
00000160: e8b6 31bf a3d2 d23c 3b46 4f3d 2547 f6be
00000170: 72d9 b83d 4d6b e83e 3f2b 65be 2e4d adbe
00000180: fb11 99be 4615 b5be f9d8 ffbd 1da0 ee3e
00000190: 210b e3be ff17 d9be 6d43 9cbe 93eb 803c
000001a0: e9c3 2d3d 0d5d 6dbe 8967 e4be 7b6d bfbc
000001b0: 6b55 333a fe3e 49be 9bfb a0be 4d1b 54be
000001c0: f269 6c3e fbaf 8ebe 7ecb 9a3c dcac 06be
000001d0: ac51 5abf 2fef 9a3e 0f84 cebd c647 1fbd
000001e0: f670 92be f9ce 1a3f 0e9b 13be 1d3b 20bf
000001f0: f3bc 483e a7a0 9f3e 0102 f33e 1792 a0be
00000200: ade1 c83d c30f b73d 4bfb 09bf 5629 09bf
00000210: 4c96 223f 56a8 85be 77a4 5ebd 1a0e 733d
00000220: b6af f23e 4588 e0bd 1f66 18be 0673 333f
00000230: 2a8e 42be 934c c53e f8fa f0be e79d d2be
00000240: c530 a63e a670 0cbd 8668 b4bd 10ee 413f
00000250: a8d9 99bd bca9 043e 68d2 a63d 2d6d a7bd
00000260: daf0 d5be dc5f fc3e dd6c ca3d bcf8 ffbe
00000270: 9cd1 03bf 05b7 583d 6b3a 97bf a632 27be
00000280: f438 303f ab4c 74be 71e1 45be a6d8 b0bc
00000290: 7121 bdbe 9043 cd3d dd3a 27bf 4228 b53e
000002a0: bd61 d63e 0257 ba3e d049 83bd 6804 09be
000002b0: 782b 1d3f b1f3 fbbc f549 013e 930b b6be
000002c0: a67b ebbe 10ca fc3e 4ffe 54be 2d0e babe
000002d0: d545 dd3e 0f0e 8dbe 4612 c2be 3400 ed3e
000002e0: 867b fe3e 5fc3 023d 76d9 e5bd 275c e03e
000002f0: daef 5ebe 5554 4b3f 0292 05bf 68b6 173f
00000300: 6124 9cbe e44c 9a3e 9558 9a3e 2a42 403e
00000310: ad96 47be 4003 61be dd32 16bd b4e0 c6bc
00000320: 3b0a 7d3f eff1 a9be 0d60 a8be 7c19 a8be
00000330: 6a1c ef3e 2d97 a13d 39cf 63be 63ee ebbe
00000340: 54da 42be f65d 68bd d218 e73e 44f3 bf3c
00000350: 7c6c 543e 05c6 e9be 6935 8c3e 1d4c 103f
00000360: 0ba0 553f 2eda cabe 054f f53e 7fdd f53d
00000370: ff81 e43e 8c6e 203f d46f 97bd ccc9 07be
00000380: 5f5e 543e 1fd8 2a3e b3e6 083f 18a9 b33e
00000390: a53c f23e 03f5 b43d b298 d73e 1a87 acbe
000003a0: c614 f93d 9baa df3e 5ac5 6abe 4b1e 85be
000003b0: cffb 033e ea44 713c c156 0ebe c637 51be
000003c0: 5b8d 6f3e e714 9d3e 04ab 87be 0463 8fbe
000003d0: 6932 d9be d918 e6bd 4d1a 5f3f 59e1 bcbe
000003e0: 0d0f 96be 8efd b0bd 6a3b 333d 81cb f4be
000003f0: 4572 f3bd 28e7 abbe 29fb e93e 6fdf 10be

network_body._body_endoder.seq_layers.0.bias f4 [128]
0.0 0.0 0.0 0.0 0.0 0.0 0.0 0.0
0.0 0.0 0.0 0.0 0.0 0.0 0.0 0.0
0.0 0.0 0.0 0.0 0.0 0.0 0.0 0.0
0.0 0.0 0.0 0.0 0.0 0.0 0.0 0.0
0.0 0.0 0.0 0.0 0.0 0.0 0.0 0.0
0.0 0.0 0.0 0.0 0.0 0.0 0.0 0.0
0.0 0.0 0.0 0.0 0.0 0.0 0.0 0.0
0.0 0.0 0.0 0.0 0.0 0.0 0.0 0.0
0.0 0.0 0.0 0.0 0.0 0.0 0.0 0.0
0.0 0.0 0.0 0.0 0.0 0.0 0.0 0.0
0.0 0.0 0.0 0.0 0.0 0.0 0.0 0.0
0.0 0.0 0.0 0.0 0.0 0.0 0.0 0.0
0.0 0.0 0.0 0.0 0.0 0.0 0.0 0.0
0.0 0.0 0.0 0.0 0.0 0.0 0.0 0.0
0.0 0.0 0.0 0.0 0.0 0.0 0.0 0.0
0.0 0.0 0.0 0.0 0.0 0.0 0.0 0.0
00000000: 0000 0000 0000 0000 0000 0000 0000 0000
00000010: 0000 0000 0000 0000 0000 0000 0000 0000
00000020: 0000 0000 0000 0000 0000 0000 0000 0000
00000030: 0000 0000 0000 0000 0000 0000 0000 0000
00000040: 0000 0000 0000 0000 0000 0000 0000 0000
00000050: 0000 0000 0000 0000 0000 0000 0000 0000
00000060: 0000 0000 0000 0000 0000 0000 0000 0000
00000070: 0000 0000 0000 0000 0000 0000 0000 0000
00000080: 0000 0000 0000 0000 0000 0000 0000 0000
00000090: 0000 0000 0000 0000 0000 0000 0000 0000
000000a0: 0000 0000 0000 0000 0000 0000 0000 0000
000000b0: 0000 0000 0000 0000 0000 0000 0000 0000
000000c0: 0000 0000 0000 0000 0000 0000 0000 0000
000000d0: 0000 0000 0000 0000 0000 0000 0000 0000
000000e0: 0000 0000 0000 0000 0000 0000 0000 0000
000000f0: 0000 0000 0000 0000 0000 0000 0000 0000
00000100: 0000 0000 0000 0000 0000 0000 0000 0000
00000110: 0000 0000 0000 0000 0000 0000 0000 0000
00000120: 0000 0000 0000 0000 0000 0000 0000 0000
00000130: 0000 0000 0000 0000 0000 0000 0000 0000
00000140: 0000 0000 0000 0000 0000 0000 0000 0000
00000150: 0000 0000 0000 0000 0000 0000 0000 0000
00000160: 0000 0000 0000 0000 0000 0000 0000 0000
00000170: 0000 0000 0000 0000 0000 0000 0000 0000
00000180: 0000 0000 0000 0000 0000 0000 0000 0000
00000190: 0000 0000 0000 0000 0000 0000 0000 0000
000001a0: 0000 0000 0000 0000 0000 0000 0000 0000
000001b0: 0000 0000 0000 0000 0000 0000 0000 0000
000001c0: 0000 0000 0000 0000 0000 0000 0000 0000
000001d0: 0000 0000 0000 0000 0000 0000 0000 0000
000001e0: 0000 0000 0000 0000 0000 0000 0000 0000
000001f0: 0000 0000 0000 0000 0000 0000 0000 0000

network_body._body_endoder.seq_layers.2.weight f4 [128, 128]
-0.03563011 -0.15082239 0.11978519 -0.0737176 0.09101457 0.042926174 0.09294455 0.094626255
0.040935844 0.042792365 0.08371617 0.014796483 -0.040216237 -0.09298851 0.10217972 0.09375864
-0.074025884 -0.06927125 0.09867563 -0.02529296 0.1150654 0.099730365 -0.13253675 0.013104102
-0.038281873 0.15225722 0.022215148 0.06785834 -0.039619137 0.05760615 -0.07693197 -0.040026397
0.054896213 -0.19211502 -0.21033344 0.086396635 -0.059878163 -0.107779086 -0.009018197 0.02563184
0.024576353 0.029748507 -0.0099356575 -0.030978369 0.047561184 -0.05616028 0.13376357 0.024575943
0.06545453 -0.087556325 0.044439092 -0.010875975 -0.14371546 -0.015708353 0.19512759 0.15238795
-0.094103776 0.069909036 0.046544433 -0.08756778 0.013624723 -0.16537787 -0.05765801 -0.017453996
0.040669467 -0.105257794 0.061029237 -0.08231572 0.00803594 0.04928643 -0.021745136 -0.07449373
-0.098444246 0.015419359 0.038729392 0.0045223944 -0.09309156 -0.05962203 0.091319144 0.04279922
-0.095643386 -0.15235671 0.038430214 -0.06602947 0.009452843 0.036961302 0.21783109 0.011810299
-0.13888164 0.0867098 0.048440814 0.045953125 -0.05584733 0.11170086 0.0012586067 -0.04070381
0.13503227 -0.005025466 -0.09872416 0.010893933 0.001565256 0.07528932 0.17741498 -0.034260448
-0.05280411 -0.01917533 -0.0312769 0.14177027 0.049047388 -0.11719349 -0.031574003 -0.00916897
0.04840204 -0.12146819 -0.030102367 0.090217285 0.08702557 0.08273239 0.024923379 0.01164905
-0.049975514 0.10680562 -0.009857796 -0.04577184 -0.08173477 -0.026979944 -0.051804572 0.12084024
0.051603 -0.113327965 -0.066871814 -0.14822036 0.0802371 0.05885617 0.06215195 0.05822563
0.0150270965 -0.0041995537 -0.016571905 0.086553864 -0.019279437 -0.008835239 -0.17682369 0.033604447
-0.007299493 0.014755468 -0.25589117 -0.05280253 -0.033131897 0.1086113 0.03386479 -0.024837907
0.14927676 0.04950425 -0.017811783 0.21161321 -0.13671827 -0.06726314 0.0215639 -0.17088467
0.08540209 0.00954679 -0.16312581 -0.00042362697 -0.07203579 -0.06391209 -0.090082966 -0.03349809
-0.059128135 0.10067095 -0.10450614 0.075914554 0.012859053 -0.027285872 -0.0050519956 -0.00793778
-0.23454678 0.10220314 0.061108887 -0.20997979 -0.020455947 -0.12475889 -0.14917035 0.12812321
0.14451149 -0.0338143 0.06569138 0.04102575 0.0006166797 -0.044395577 0.04468659 0.1607091
0.02856803 -0.18829669 -0.059536606 0.09709871 -0.0057312706 -0.038960982 -0.040869594 0.1272385
-0.11614523 0.06711953 -0.10684994 -0.056083623 0.011884489 0.044751465 -0.0032638588 0.13370918
-0.030439863 0.063658446 -0.13266529 0.0065472936 0.12072146 -0.11584429 -0.09882494 -0.109249845
-0.084908634 -0.084644124 -0.06555529 -0.052919768 -0.19504094 0.04804504 0.04702091 -0.019826137
-0.040208824 0.004634678 -0.04390166 -0.10866719 0.04445724 0.09556297 -0.12446625 -0.10247345
0.05811879 -0.07543924 -0.044262834 -0.010744115 0.053015813 -0.101780295 -0.06916438 -0.0015816817
0.027750751 -0.07843735 0.12624408 0.12236971 0.13034104 -0.109750316 0.053927798 -0.13675995
-0.110997304 -0.03598023 -0.017608803 0.000317787 -0.13323829 0.015566779 0.015500248 0.076038174
00000000: e1f0 11bd 2f71 1abe f051 f53d 41f9 96bd
00000010: d965 ba3d 5bd3 2f3d b659 be3d 69cb c13d
00000020: 58ac 273d 0c47 2f3d 6273 ab3d f36c 723c
00000030: c8b9 24bd c370 bebd 9a43 d13d 8804 c03d
00000040: e29a 97bd 16de 8dbd 7316 ca3d 2f33 cfbc
00000050: 69a7 eb3d 6f3f cc3d b7b7 07be 96b2 563c
00000060: 74cd 1cbd 51e9 1b3e 8bfc b53c 50f9 8a3d
00000070: ad47 22bd 6df4 6b3d 828e 9dbd b8f2 23bd
00000080: dada 603d cdb9 44be a661 57be b8f0 b03d
00000090: ce42 75bd 48bb dcbd 0fc1 13bc ddf9 d13c
000000a0: 5954 c93c 24b3 f33c 2bc9 22bc 59c6 fdbc
000000b0: 84cf 423d 5208 66bd 51f9 083e 7d53 c93c
000000c0: 060d 863d bb50 b3bd c405 363d 2531 32bc
000000d0: 252a 13be ceae 80bc 87cf 473e 960b 1c3e
000000e0: 7bb9 c0bd 782c 8f3d 60a5 3e3d bc56 b3bd
000000f0: 3b3a 5f3c d158 29be ce2a 6cbd affb 8ebc
00000100: 0795 263d 6691 d7bd cbf9 793d 2595 a8bd
00000110: 2da9 033c 91e0 493d db22 b2bc 2b90 98bd
00000120: 239d c9bd 7ba1 7c3c b6a2 1e3d 9830 943b
00000130: caa6 bebd 3b36 74bd 8805 bb3d 3c4e 2f3d
00000140: aee0 c3bd 6603 1cbe 0069 1d3d 753a 87bd
00000150: 19e0 1a3c bc64 173d 1d0f 5f3e fc7f 413c
00000160: fd36 0ebe e894 b13d e069 463d 5839 3c3d
00000170: 2bc0 64bd 6cc3 e43d d5f7 a43a 0ab9 26bd
00000180: e645 0a3e aaac a4bb e42f cabd 777c 323c
00000190: 4729 cd3a 4931 9a3d 46ac 353e af54 0cbd
000001a0: 1f49 58bd 9515 9dbc 351c 00bd 3a2c 113e
000001b0: eae5 483d 2403 f0bd be53 01bd 7339 16bc
000001c0: 3841 463d 50c4 f8bd 3d99 f6bc d7c3 b83d
000001d0: 763a b23d 996f a93d 1d2c cc3c a8db 3e3c
000001e0: 20b3 4cbd e8bc da3d 9882 21bc 417b 3bbd
000001f0: 8f64 a7bd 0b05 ddbc 0831 54bd 167b f73d
00000200: ab5d 533d 7e18 e8bd 17f4 88bd 14c7 17be
00000210: 5953 a43d 2b13 713d 0b93 7e3d 007e 6e3d
00000220: 3634 763c 699c 89bb cec1 87bc 2743 b13d
00000230: e9ef 9dbc aec1 10bc 4511 35be d1a4 093d
00000240: 9630 efbb ebc0 713c 2b04 83be 7747 58bd
00000250: 50b5 07bd 9a6f de3d ceb5 0a3d de78 cbbc
00000260: 02dc 183e f8c4 4a3d 04ea 91bc 22b1 583e
00000270: e0ff 0bbe 42c1 89bd c7a6 b03c 64fc 2ebe
00000280: 4ae7 ae3d 246a 1c3c 740a 27be 401a deb9
00000290: 8087 93bd 58e4 82bd 6b7d b8bd 4b35 09bd
000002a0: 5830 72bd 922c ce3d 5107 d6bd 1779 9b3d
000002b0: c7ae 523c 9f86 dfbc 368b a5bb 760d 02bc
000002c0: 082d 70be e14f d13d 504d 7a3d f104 57be
000002d0: 3b93 a7bc 9781 ffbd 1dc0 18be bb32 033e
000002e0: d2fa 133e dd80 0abd 3489 863d 9e0a 283d
000002f0: ada8 213a 23d8 35bd 4909 373d ed90 243e
00000300: 8007 ea3c d9d0 40be a8dc 73bd b0db c63d
00000310: 62cd bbbb 8d95 1fbd e066 27bd cf4a 023e
00000320: 8ddd edbd f775 893d 24d4 dabd f1b7 65bd
00000330: 29b7 423c 504d 373d 77e6 55bb 0feb 083e
00000340: 055d f9bc 5c5f 823d 69d9 07be ae8a d63b
00000350: d03c f73d c53f edbd bb64 cabd 62be dfbd
00000360: 94e4 adbd e659 adbd da41 86bd 66c2 58bd
00000370: d0b8 47be e0ca 443d ff98 403d 6c6a a2bc
00000380: 02b2 24bd 7fde 973b 3ad2 33bd e78c debd
00000390: cb18 363d 85b6 c33d 29e8 febd 9add d1bd
000003a0: f80d 6e3d e37f 9abd f24c 35bd 1608 30bc
000003b0: 1c27 593d 3072 d0bd 0ea6 8dbd 6e50 cfba
000003c0: 8b55 e33c c3a3 a0bd 2146 013e f89c fa3d
000003d0: 1f78 053e c6c4 e0bd 65e3 5c3d cd0a 0cbe
000003e0: 8e52 e3bd 0160 13bd 5640 90bc a69c a639
000003f0: 9e6f 08be ce0b 7f3c c1f4 7d3c e7b9 9b3d

network_body._body_endoder.seq_layers.2.bias f4 [128]
0.0 0.0 0.0 0.0 0.0 0.0 0.0 0.0
0.0 0.0 0.0 0.0 0.0 0.0 0.0 0.0
0.0 0.0 0.0 0.0 0.0 0.0 0.0 0.0
0.0 0.0 0.0 0.0 0.0 0.0 0.0 0.0
0.0 0.0 0.0 0.0 0.0 0.0 0.0 0.0
0.0 0.0 0.0 0.0 0.0 0.0 0.0 0.0
0.0 0.0 0.0 0.0 0.0 0.0 0.0 0.0
0.0 0.0 0.0 0.0 0.0 0.0 0.0 0.0
0.0 0.0 0.0 0.0 0.0 0.0 0.0 0.0
0.0 0.0 0.0 0.0 0.0 0.0 0.0 0.0
0.0 0.0 0.0 0.0 0.0 0.0 0.0 0.0
0.0 0.0 0.0 0.0 0.0 0.0 0.0 0.0
0.0 0.0 0.0 0.0 0.0 0.0 0.0 0.0
0.0 0.0 0.0 0.0 0.0 0.0 0.0 0.0
0.0 0.0 0.0 0.0 0.0 0.0 0.0 0.0
0.0 0.0 0.0 0.0 0.0 0.0 0.0 0.0
00000000: 0000 0000 0000 0000 0000 0000 0000 0000
00000010: 0000 0000 0000 0000 0000 0000 0000 0000
00000020: 0000 0000 0000 0000 0000 0000 0000 0000
00000030: 0000 0000 0000 0000 0000 0000 0000 0000
00000040: 0000 0000 0000 0000 0000 0000 0000 0000
00000050: 0000 0000 0000 0000 0000 0000 0000 0000
00000060: 0000 0000 0000 0000 0000 0000 0000 0000
00000070: 0000 0000 0000 0000 0000 0000 0000 0000
00000080: 0000 0000 0000 0000 0000 0000 0000 0000
00000090: 0000 0000 0000 0000 0000 0000 0000 0000
000000a0: 0000 0000 0000 0000 0000 0000 0000 0000
000000b0: 0000 0000 0000 0000 0000 0000 0000 0000
000000c0: 0000 0000 0000 0000 0000 0000 0000 0000
000000d0: 0000 0000 0000 0000 0000 0000 0000 0000
000000e0: 0000 0000 0000 0000 0000 0000 0000 0000
000000f0: 0000 0000 0000 0000 0000 0000 0000 0000
00000100: 0000 0000 0000 0000 0000 0000 0000 0000
00000110: 0000 0000 0000 0000 0000 0000 0000 0000
00000120: 0000 0000 0000 0000 0000 0000 0000 0000
00000130: 0000 0000 0000 0000 0000 0000 0000 0000
00000140: 0000 0000 0000 0000 0000 0000 0000 0000
00000150: 0000 0000 0000 0000 0000 0000 0000 0000
00000160: 0000 0000 0000 0000 0000 0000 0000 0000
00000170: 0000 0000 0000 0000 0000 0000 0000 0000
00000180: 0000 0000 0000 0000 0000 0000 0000 0000
00000190: 0000 0000 0000 0000 0000 0000 0000 0000
000001a0: 0000 0000 0000 0000 0000 0000 0000 0000
000001b0: 0000 0000 0000 0000 0000 0000 0000 0000
000001c0: 0000 0000 0000 0000 0000 0000 0000 0000
000001d0: 0000 0000 0000 0000 0000 0000 0000 0000
000001e0: 0000 0000 0000 0000 0000 0000 0000 0000
000001f0: 0000 0000 0000 0000 0000 0000 0000 0000

action_model._continuous_distribution.log_sigma f4 [1, 2]
0.0 0.0
00000000: 0000 0000 0000 0000

action_model._continuous_distribution.mu.weight f4 [2, 128]
0.0015325407 0.021970505 0.0007721432 0.017801847 0.009793576 0.010706283 -0.0035867745 -0.013852862
0.041529853 -0.011290675 -0.014326068 0.0075920853 -0.0147992 0.0024640844 -0.03788772 -0.0047646402
0.022084368 -0.014664568 0.002312701 -0.0031012218 -0.018693646 0.002002929 -0.001912631 -0.022127358
-6.185324e-05 0.027807802 -0.0105062155 -0.009642364 0.0048469487 0.03869345 0.022940522 -0.018676719
-0.013424975 0.014527529 -0.009587265 -0.008919847 -0.022390118 -0.011805358 0.010254729 0.009871697
-0.007863865 0.024230476 -0.0030849483 0.039018482 0.02977256 0.015143478 0.009650562 0.034903247
0.02846442 0.016260033 0.0195021 0.007149078 0.016335813 -0.013589366 0.0031651973 0.019161394
0.008992276 0.02728664 -0.011999064 0.019360637 0.0038056076 0.013081625 -0.0022673798 0.009772834
-0.011964318 -0.010370666 0.0066890228 0.011807515 -0.02554591 -0.025653759 0.024331816 0.0050570024
-0.015619901 0.004742518 0.011559173 0.015003234 0.0050705876 -0.017778153 0.020843113 0.004042849
0.032852948 0.006538605 -0.015906544 0.0092858 -0.0044243303 0.0065258965 -0.021921178 0.0058786445
-0.008699393 0.022937622 0.016878394 0.009780972 -0.02740248 0.0016454017 -0.015595028 0.018308539
0.03432901 -0.006908465 -0.010802018 0.026389524 0.0409245 -0.03858341 -0.0009909653 -0.002789053
-0.01820433 0.016989574 0.031202981 0.023598056 0.038172476 -0.018073188 -0.004440828 0.0057542175
0.01200614 -0.0124423 0.024808122 0.0005017395 -0.0014554044 0.021107636 0.0223594 -0.032373585
-0.00071617524 -0.011517196 -0.00429284 0.009888316 -0.021814305 0.00596884 0.0049672406 0.0044814106
0.018027337 -0.0006834342 0.010411765 0.0129797 -0.0115284 -0.0034998485 -0.039140396 0.038064238
-0.011158304 0.015305909 -0.017526537 -0.01999596 -0.011433986 0.020808946 -0.02250442 0.032355044
-0.014468642 -0.008130115 -0.0030882163 0.0041619777 0.012968378 0.0246177 0.027297769 0.006848238
0.009674227 0.00923116 0.01336543 -0.03182077 -0.0011179339 -0.0023792477 0.0054363357 0.007426217
-0.0031133904 0.00179295 0.018095084 0.0005526459 0.002981601 -0.038127955 0.0035557188 -0.006046093
-0.000402147 0.014377971 -0.01687357 0.029264381 0.012750588 0.018351177 -0.008728368 -0.022658605
-0.008066981 0.0050967634 -0.019757785 -0.009621757 -0.015935628 -0.02518009 0.0096715875 -0.015887655
-0.007155637 0.026347442 0.0052927057 -0.004785701 0.0038405948 0.012872621 0.0044912705 -0.013163124
-0.015548599 -0.019652989 -0.007897019 -0.01394667 0.018309103 -0.033358958 -0.004760127 -0.013358587
0.014884225 -0.023520164 -0.00048634424 -0.007482793 -0.006934795 -0.009601295 0.0061416924 -0.0201433
0.0011423939 -0.026297376 0.009226422 0.02635931 0.02634699 -0.024101583 0.005065383 -0.024045944
-0.0018620276 -0.01976662 -0.02278564 -0.022395678 0.0019135723 0.010929782 -0.0049729063 -0.008178129
0.0038559516 0.009234969 0.011480701 0.010903705 0.013351365 0.0107615 -0.0114628 0.0058217947
0.009562763 -0.005869921 -0.035195787 -0.02336087 0.0012865616 0.0038465702 -0.0011684949 -0.0049499115
-0.015368262 0.013962773 -0.015853021 0.0073078806 0.008541881 -0.013004935 0.00035731067 -0.032746434
0.011655437 -0.017797088 0.0068941424 0.009340345 0.0019819688 0.0063381344 -0.0008482691 0.005804892
00000000: 88df c83a 7dfb b33c a769 4a3a 2ed5 913c
00000010: 3c75 203c 6869 2f3c 1710 6bbb 1df7 62bc
00000020: 351b 2a3d 86fc 38bc e2b7 6abc 07c7 f83b
00000030: 5878 72bc 7a7c 213b 2730 1bbd b320 9cbb
00000040: 47ea b43c a843 70bc af90 173b de3d 4bbb
00000050: 6b23 99bc 9343 033b 3fb1 faba 6f44 b5bc
00000060: 35b7 81b8 30cd e33c 4322 2cbc 02fb 1dbc
00000070: 27d3 9e3b 067d 1e3d c3ed bb3c ebff 98bc
00000080: 6df4 5bbc df04 6e3c e713 1dbc 8d24 12bc
00000090: 7b6b b7bc 436b 41bc 7303 283c e6bc 213c
000000a0: 71d7 00bc fe7e c63c d82c 4abb d8d1 1f3d
000000b0: 95e5 f33c 5a1c 783c 641d 1e3c b5f6 0e3d
000000c0: 372e e93c c333 853c dec2 9f3c d042 ea3b
000000d0: afd2 853c efa5 5ebc 336f 4f3b 5bf8 9c3c
000000e0: 5754 133c 3b88 df3c b997 44bc 339a 9e3c
000000f0: 8067 793b 5054 563c 5298 14bb 3d1e 203c
00000100: fd05 44bc bae9 29bc 972f db3b 4f74 413c
00000110: a845 d1bc d527 d2bc 8453 c73c 36b5 a53b
00000120: 9dea 7fbc 2067 9b3b b062 3d3c 20d0 753c
00000130: 2c27 a63b 7da3 91bc 2dbf aa3c e079 843b
00000140: d090 063d cb41 d63b 714e 82bc 7823 183c
00000150: f9f9 90bb 30d7 d53b 0b94 b3bc a5a1 c03b
00000160: e687 0ebc aee7 bb3c 8f44 8a3c 5f40 203c
00000170: 2a7b e0bc 85aa d73a 4a82 7fbc cafb 953c
00000180: 939c 0c3d 6860 e2bb f3fa 30bc d82e d83c
00000190: 73a0 273d a309 1ebd 47e3 81ba 8bc8 36bb
000001a0: 3f21 95bc b82d 8b3c 659d ff3c b650 c13c
000001b0: be5a 1c3d 390e 94bc 5e84 91bb e08d bc3b
000001c0: 67b5 443c cada 4bbc 673a cb3c 2b87 033a
000001d0: 45c3 beba ece9 ac3c 0f2b b73c 2a9a 04bd
000001e0: b5bd 3bba 9fb2 3cbc f4aa 8cbb 9a02 223c
000001f0: eab3 b2bc 4296 c33b 3cc4 a23b ccd8 923b
00000200: 11ae 933c 7e28 33ba 1c96 2a3c cfa8 543c
00000210: 9de1 3cbc b75d 65bb ae51 20bd 3fe9 1b3d
00000220: 52d1 36bc a3c5 7a3c d093 8fbc 91ce a3bc
00000230: 9d55 3bbc 8677 aa3c 305b b8bc b986 043d
00000240: e20d 6dbc 2d34 05bc ac63 4abb 3361 883b
00000250: 5279 543c 0fab c93c 929f df3c 2f67 e03b
00000260: a680 1e3c 4b3e 173c adfa 5a3c 7f56 02bd
00000270: a387 92ba 27ed 1bbb 4a23 b23b a057 f33b
00000280: 060a 4cbb 6b01 eb3a 243c 943c 70df 103a
00000290: f766 433b 0f2c 1cbd 1007 693b 4e1e c6bb
000002a0: 42d7 d2b9 9591 6b3c 713a 8abc dbbb ef3c
000002b0: d8e7 503c 3555 963c 6e01 0fbc 8a9e b9bc
000002c0: 5f2b 04bc c002 a73b 14db a1bc 93a4 1dbc
000002d0: 6f8b 82bc 7a46 cebc 9475 1e3c d426 82bc
000002e0: d579 eabb 97d6 d73c 6f6e ad3b 5fd1 9cbb
000002f0: 7db2 7b3b b0e7 523c 822b 933b 25aa 57bc
00000300: 8dbf 7ebc 4eff a0bc 8062 01bc 9380 64bc
00000310: f9fc 953c 67a3 08bd d7fa 9bbb fadd 5abc
00000320: f7dc 733c 5cad c0bc 05fc feb9 3832 f5bb
00000330: 473d e3bb c04e 1dbc 4040 c93b 9003 a5bc
00000340: 61bc 953a 986d d7bc 6b2a 173c 7bef d73c
00000350: a5d5 d73c af70 c5bc 83fb a53b 00fc c4bc
00000360: 470f f4ba 9bed a1bc f3a8 babc 2477 b7bc
00000370: d5d0 fa3a d412 333c c3f3 a2bb 8ffd 05bc
00000380: 22b4 7c3b 444e 173c 8d19 3c3c 74a5 323c
00000390: afbf 5a3c 0151 303c 78ce 3bbc c1c4 be3b
000003a0: 23ad 1c3c 7758 c0bb 7529 10bd 4c5f bfbc
000003b0: d8a1 a83a bd16 7c3b 2f28 99ba de32 a2bb
000003c0: 2acb 7bbc 1dc4 643c 32de 81bc f276 ef3b
000003d0: 3ff3 0b3c a712 55bc 6d55 bb39 2021 06bd
000003e0: 72f6 3e3c 33cb 91bc 42e8 e13b 3f08 193c
000003f0: ebe3 013b 20b0 cf3b 605e 5eba f736 be3b

action_model._continuous_distribution.mu.bias f4 [2]
0.0 0.0
00000000: 0000 0000 0000 0000

network_body._body_endoder.seq_layers.0.weight f4 [128, 6]
-0.32109013 -0.098550454 -0.007931845 0.07752581 -0.33627647 -0.5376982 -0.10474375 0.37150514
-0.099891216 -0.71652967 -0.5365638 0.110913955 0.6138439 -0.5775386 -0.54331976 0.1041646
-0.039084554 0.4298125 -0.6240108 -0.041342344 0.48253894 -0.52740294 1.0458269 -0.0084077595
-0.10110667 -0.22207408 -0.39236704 -0.6310304 -0.7377499 0.26551023 -0.5326695 0.029848538
-0.1696906 -0.13326165 0.3266972 0.33864146 -0.46790606 0.19850723 0.84630746 -0.49268267
-0.27837068 0.14807235 -0.20805034 -0.64205056 -0.20522998 0.73872334 -1.0821835 -0.4513674
-0.13340312 0.014843259 -0.0624569 -0.31537336 -0.5256303 -0.29642266 -0.6348386 0.4885702
0.46873719 -0.5109822 -0.56726444 0.54868466 0.35619143 -0.14687702 -0.16337197 -0.20965822
0.9140723 0.19655304 -0.4512111 0.73546326 -0.47072285 -0.24229 -0.092804424 0.15412302
-0.08232672 -0.1073263 -0.30859607 -0.49346736 0.53990555 0.19990249 0.21742745 0.630545
0.021145007 -0.0900053 -0.6348067 0.43947372 0.20169444 -0.25486758 -0.08033689 -0.17741455
-0.05261997 0.16784957 0.13621825 0.46346012 1.1533401 -0.31843624 -0.000604433 0.35388517
-0.16756938 0.5573151 -0.28299826 0.19736114 -0.32422915 -0.20111404 -0.71814275 0.08561325
0.04298808 0.2852886 -0.46051404 0.18387747 -0.21926175 -0.7881209 0.24842863 -0.19047537
0.26500776 0.46717328 0.62984926 -0.515485 -0.3700945 0.48420814 0.033871006 -0.0048132217
-0.627277 -0.10417098 0.58528006 0.1433316 -0.17129181 -0.0877337 -0.025942652 -0.042763352
0.5358896 0.24218239 0.8279157 0.3119783 0.7486089 -0.101093575 -0.11239055 -0.10555559
-0.25280872 0.14944074 0.3190996 -0.020127192 0.124254 0.10094543 0.07603449 0.5208165
0.15673114 0.45213458 0.3177577 0.7963925 0.01627258 0.22567518 0.49359912 0.5366264
1.1503643 -0.2787805 0.58686256 0.2976747 0.021526976 0.26885992 -0.1437651 -0.7531024
0.17712106 -0.0023108022 -0.11951227 0.31128407 0.55236393 0.2750059 -0.16800986 -0.7225549
0.12132817 -0.58084714 -0.20703071 0.42625058 0.05883831 0.25035244 -0.28677273 0.06848277
-0.37328318 0.31532153 0.09393704 -0.5840441 -0.40227136 -0.35093564 0.09342126 0.22662489
-0.15170024 -0.23920977 -0.5501434 0.6063295 -0.0671702 -0.6384429 0.087425314 0.14133815
0.2765391 0.28184152 -0.108722955 -0.21969482 0.1958809 0.045729965 0.016332997 -0.8858087
0.17033367 0.22521406 -0.29431367 -0.3877281 0.54397935 -0.29055852 -0.39344457 -0.19631273
-0.29479378 0.51585615 -0.6194001 -0.38155976 -0.42021927 -0.027794622 0.48026013 -0.026486361
0.75203806 -0.4318204 0.97180766 -0.32272258 0.5205827 0.20710967 0.54211825 0.084357575
0.089652866 0.115253486 -0.20118143 0.22480774 0.021511756 0.098271504 -0.17202319 0.20413168
0.108265795 0.09850873 -0.32283485 0.018645028 0.31926137 -0.20104982 -0.25764638 -0.1030012
-0.055723723 -0.8906642 0.61968565 0.83624655 0.23588888 -1.2717588 0.012358499 -0.61993295
-0.17014822 0.01375181 0.3866611 0.41668126 -0.4421811 -0.43659842 0.19801961 0.053746846
00000000: ed65 a4be d2d4 c9bd 92f4 01bc dac5 9e3d
00000010: 6e2c acbe 97a6 09bf e483 d6bd ec35 be3e
00000020: c493 ccbd 7d6e 37bf 3f5c 09bf db26 e33d
00000030: e024 1d3f 92d9 13bf 0117 0bbf 4054 d53d
00000040: 2017 20bd 6210 dc3e 2cbf 1fbf 9756 29bd
00000050: 580f f73e e103 07bf a8dd 853f b3c0 09bc
00000060: 0411 cfbd 6367 63be 55e4 c8be 358b 21bf
00000070: 2ddd 3cbf f5f0 873e 075d 08bf ec84 f43c
00000080: 5fc3 2dbe be75 08be db44 a73e 6a62 ad3e
00000090: 6291 efbe 7b45 4b3e 9ba7 583f e740 fcbe
000000a0: 9a86 8ebe 47a0 173e 260b 55be 6d5d 24bf
000000b0: cf27 52be f91c 3d3f fd84 8abf a119 e7be
000000c0: d49a 08be 2431 733c ced2 7fbd 9e78 a1be
000000d0: b58f 06bf b6c4 97be c884 22bf e025 fa3e
000000e0: 52fe ef3e bbcf 02bf 3e38 11bf 9976 0c3f
000000f0: b95e b63e ee66 16be fb4a 27be a5b0 56be
00000100: a400 6a3f 3345 493e 2405 e7be 5247 3c3f
00000110: 9602 f1be df1a 78be 3f10 bebd 6dd2 1d3e
00000120: e99a a8bd e4cd dbbd 4e00 9ebe c1a7 fcbe
00000130: 4037 0a3f 3db3 4c3e 4da5 5e3e 666b 213f
00000140: 4b38 ad3c b354 b8bd b182 22bf b302 e13e
00000150: fd88 4e3e 017e 82be ab87 a4bd 29ac 35be
00000160: 0a88 57bd c2e0 2b3e cc7c 0b3e a54a ed3e
00000170: a6a0 933f 130a a3be d072 1eba 7030 b53e
00000180: 4f97 2bbe 34ac 0e3f 26e5 90be 0a19 4a3e
00000190: 5d01 a6be d7f0 4dbe 34d8 37bf 0056 af3d
000001a0: 4514 303d 5911 923e 7fc8 ebbe 604a 3c3e
000001b0: 2786 60be 4bc2 49bf 1364 7e3e fa0b 43be
000001c0: 19af 873e 5631 ef3e cd3d 213f d3f6 03bf
000001d0: 077d bdbe 21ea f73e 53bc 0a3d 3bb8 9dbb
000001e0: 3a95 20bf 9857 d5bd ead4 153f 85c5 123e
000001f0: 1f67 2fbe baad b3bd af85 d4bc a028 2fbd
00000200: 1030 093f a9fe 773e 49f2 533f 9fbb 9f3e
00000210: d5a4 3f3f 260a cfbd 042d e6bd 872d d8bd
00000220: 2570 81be fe06 193e 0661 a33e c8e1 a4bc
00000230: e278 fe3d 7abc ce3d f8b7 9b3d 3b54 053f
00000240: 217e 203e 2f7e e73e 23b1 a23e 61e0 4b3f
00000250: 134e 853c 6517 673e 06b9 fc3e 5960 093f
00000260: 233f 933f 51bc 8ebe a03c 163f d168 983e
00000270: 5759 b03c 02a8 893e 2937 13be 52cb 40bf
00000280: 395f 353e d470 17bb d9c2 f4bd a060 9f3e
00000290: b967 0d3f 93cd 8c3e c70a 2cbe 5cf9 38bf
000002a0: e77a f83d 66b2 14bf dcff 53be 843d da3e
000002b0: 7100 713d 322e 803e e0d3 92be b240 8c3d
000002c0: f91e bfbe d371 a13e 1062 c03d ea83 15bf
000002d0: 83f6 cdbe d6ad b3be a553 bf3d 5b10 683e
000002e0: 4f57 1bbe 68f3 74be 33d6 0cbf 6938 1b3f
000002f0: 8890 89bd fe70 23bf 0b0c b33d f3ba 103e
00000300: 8896 8d3e 884d 903e 24aa debd aef7 60be
00000310: 0195 483e 584f 3b3d c7cc 853c 5cc4 62bf
00000320: f36b 2e3e 849e 663e 48b0 96be 4c84 c6be
00000330: 3b42 0b3f 16c4 94be 9171 c9be 3406 49be
00000340: 36ef 96be 260f 043f 0191 1ebf cd5b c3be
00000350: fb26 d7be 8cb1 e3bc a8e4 f53e edf9 d8bc
00000360: 9185 403f 9017 ddbe 63c8 783f e53b a5be
00000370: e844 053f 8f14 543e 43c8 0a3f aac3 ac3d
00000380: ec9b b73d 050a ec3d 8102 4ebe 0034 663e
00000390: 6c39 b03c 9242 c93d d926 30be e507 513e
000003a0: 75ba dd3d f2be c93d 9c4a a5be 75bd 983c
000003b0: 3a76 a33e 01e0 4dbe 3aea 83be 4bf2 d2bd
000003c0: 8f3e 64bd 9202 64bf b8a3 1e3f 4114 563f
000003d0: db8c 713e fec8 a2bf 4d7b 4a3c edb3 1ebf
000003e0: 563b 2ebe 464f 613c 72f8 c53e 3f57 d53e
000003f0: 9065 e2be d489 dfbe a7c5 4a3e a725 5c3d

network_body._body_endoder.seq_layers.0.bias f4 [128]
0.0 0.0 0.0 0.0 0.0 0.0 0.0 0.0
0.0 0.0 0.0 0.0 0.0 0.0 0.0 0.0
0.0 0.0 0.0 0.0 0.0 0.0 0.0 0.0
0.0 0.0 0.0 0.0 0.0 0.0 0.0 0.0
0.0 0.0 0.0 0.0 0.0 0.0 0.0 0.0
0.0 0.0 0.0 0.0 0.0 0.0 0.0 0.0
0.0 0.0 0.0 0.0 0.0 0.0 0.0 0.0
0.0 0.0 0.0 0.0 0.0 0.0 0.0 0.0
0.0 0.0 0.0 0.0 0.0 0.0 0.0 0.0
0.0 0.0 0.0 0.0 0.0 0.0 0.0 0.0
0.0 0.0 0.0 0.0 0.0 0.0 0.0 0.0
0.0 0.0 0.0 0.0 0.0 0.0 0.0 0.0
0.0 0.0 0.0 0.0 0.0 0.0 0.0 0.0
0.0 0.0 0.0 0.0 0.0 0.0 0.0 0.0
0.0 0.0 0.0 0.0 0.0 0.0 0.0 0.0
0.0 0.0 0.0 0.0 0.0 0.0 0.0 0.0
00000000: 0000 0000 0000 0000 0000 0000 0000 0000
00000010: 0000 0000 0000 0000 0000 0000 0000 0000
00000020: 0000 0000 0000 0000 0000 0000 0000 0000
00000030: 0000 0000 0000 0000 0000 0000 0000 0000
00000040: 0000 0000 0000 0000 0000 0000 0000 0000
00000050: 0000 0000 0000 0000 0000 0000 0000 0000
00000060: 0000 0000 0000 0000 0000 0000 0000 0000
00000070: 0000 0000 0000 0000 0000 0000 0000 0000
00000080: 0000 0000 0000 0000 0000 0000 0000 0000
00000090: 0000 0000 0000 0000 0000 0000 0000 0000
000000a0: 0000 0000 0000 0000 0000 0000 0000 0000
000000b0: 0000 0000 0000 0000 0000 0000 0000 0000
000000c0: 0000 0000 0000 0000 0000 0000 0000 0000
000000d0: 0000 0000 0000 0000 0000 0000 0000 0000
000000e0: 0000 0000 0000 0000 0000 0000 0000 0000
000000f0: 0000 0000 0000 0000 0000 0000 0000 0000
00000100: 0000 0000 0000 0000 0000 0000 0000 0000
00000110: 0000 0000 0000 0000 0000 0000 0000 0000
00000120: 0000 0000 0000 0000 0000 0000 0000 0000
00000130: 0000 0000 0000 0000 0000 0000 0000 0000
00000140: 0000 0000 0000 0000 0000 0000 0000 0000
00000150: 0000 0000 0000 0000 0000 0000 0000 0000
00000160: 0000 0000 0000 0000 0000 0000 0000 0000
00000170: 0000 0000 0000 0000 0000 0000 0000 0000
00000180: 0000 0000 0000 0000 0000 0000 0000 0000
00000190: 0000 0000 0000 0000 0000 0000 0000 0000
000001a0: 0000 0000 0000 0000 0000 0000 0000 0000
000001b0: 0000 0000 0000 0000 0000 0000 0000 0000
000001c0: 0000 0000 0000 0000 0000 0000 0000 0000
000001d0: 0000 0000 0000 0000 0000 0000 0000 0000
000001e0: 0000 0000 0000 0000 0000 0000 0000 0000
000001f0: 0000 0000 0000 0000 0000 0000 0000 0000

network_body._body_endoder.seq_layers.2.weight f4 [128, 128]
-0.052437015 0.076821126 0.091116 0.015391179 0.101348996 -0.0048655 0.16709311 0.18614282
-0.04448568 0.042957827 0.08667049 0.0797018 -0.0030844347 -0.044510018 0.004984152 0.2031898
0.024061698 -0.035263382 0.07133025 0.103865355 0.14795771 0.011536832 0.016278846 -0.099218726
-0.06350799 0.023527058 0.08398452 0.026622707 0.04719004 0.053938307 -0.06896215 0.002978559
0.12511906 0.11663874 -0.09890941 0.11645726 0.13085939 0.0037510695 0.16649558 0.053025056
-0.03694054 0.043201443 -0.037756544 -0.055697687 0.012810284 -0.077742 -0.0826748 -0.05518683
-0.037156757 -0.09917082 0.17234905 -0.02138781 -0.00045313677 0.012330352 0.051136903 -0.12989539
0.13845432 -0.033200264 -0.2127618 -0.005900292 0.030752743 -0.0803242 -0.19313633 -0.0070414864
0.06946308 0.02191199 0.03937304 0.04145394 -0.056163356 -0.021945793 -0.057926856 0.054007314
0.020478597 0.16782685 -0.06881588 -0.099317774 0.022109022 -0.07025103 0.18966803 -0.032535445
0.010893004 -0.0026040473 0.011293729 0.0027608555 -0.073871866 0.07381469 0.2579072 -0.06286755
-0.055868883 0.05417643 -0.18021685 0.002670477 0.15558353 -0.08321944 -0.07550821 0.024511758
0.14998938 -0.12587833 0.022395575 0.0154558085 -0.025815474 0.19006331 0.01733162 0.13077496
0.0017857432 0.12937759 0.17616306 -0.18273878 0.07126945 -0.006369814 -0.0452205 0.06155899
-0.024472851 0.049904224 -0.041030053 -0.15760522 -0.04547136 0.018156653 0.11993881 -0.06568562
-0.044370953 -0.025715154 -0.008431556 0.05435042 -0.13162741 -0.0797706 0.19935088 -0.029028693
-0.08937454 0.037402555 -0.015592164 0.109622 0.04990677 0.15696482 -0.04976437 -0.03085583
-0.012887677 0.057161596 0.039698217 -0.045530416 -0.05650834 -0.08042157 -0.0023146202 -0.09654293
-0.017598648 0.026953375 0.035480246 -0.09299191 0.08412411 0.19542204 0.055233587 -0.020542936
-0.043146685 -0.07267895 -0.1044195 0.058554035 0.08244239 -0.04508567 0.082139485 -0.07908166
0.049069356 -0.06504567 0.08159312 -0.06655747 -0.02874748 0.13084468 0.08031963 0.04564282
0.01837962 -0.12819807 -0.10012513 -0.009279529 -0.017459264 0.0038213476 -0.012048407 0.085648604
-0.006100078 0.19205217 0.06010584 -0.046109006 -0.014859328 0.011735349 0.010365371 0.0319768
0.04738453 -0.021251941 -0.09975882 -0.036094658 -0.004434209 0.019756595 -0.046462737 0.12434827
-0.11884229 0.074992865 0.07748503 -0.013428785 -0.06236072 0.05406456 0.033262756 0.041349243
-0.04585224 -0.023862801 -0.020624932 -0.13311489 -0.06362748 0.10570249 -0.04759489 -0.042174306
-0.12324955 -0.0065821134 -0.095733024 -0.040835276 0.19134846 -0.13527006 0.03370852 0.14315264
-0.00049522123 -0.00051559624 -0.021938931 -0.00093940744 -0.01926487 -0.055930123 -0.08076676 -0.03710543
0.07871908 -0.025817655 0.02959667 0.023721784 -0.11665766 -0.15294686 -0.00052048574 0.1365649
0.13211438 -0.011781974 0.16502528 0.0049916483 -0.18064095 0.02227425 -0.032773327 0.11667226
0.016608847 0.17074446 0.10216297 -0.09259445 -0.049959995 -0.07602607 -0.05603808 0.00335775
-0.0249184 0.10113026 0.055137534 0.04569414 0.040872633 0.015149532 0.015652327 -0.060694586
00000000: 32c8 56bd 6554 9d3d 079b ba3d 492b 7c3c
00000010: 1090 cf3d c66e 9fbb 751a 2b3e 399c 3e3e
00000020: 9e36 36bd 8cf4 2f3d 4c80 b13d b33a a33d
00000030: 3a24 4abb 2350 36bd 1952 a33b fd10 503e
00000040: 0a1d c53c 5670 10bd 9815 923d 5cb7 d43d
00000050: 3a82 173e fb04 3d3c 375b 853c 3033 cbbd
00000060: 7a10 82bd d1bb c03c 1300 ac3d dd17 da3c
00000070: 584a 413d 6aee 5c3d 073c 8dbd ed33 433b
00000080: 361f 003e 4be0 ee3d 0491 cabd 2581 ee3d
00000090: 0100 063e 81d4 753b d17d 2a3e cd30 593d
000000a0: f74e 17bd fff3 303d 9ba6 1abd 4223 64bd
000000b0: 3ae2 513c 3337 9fbd 6851 a9bd 960b 62bd
000000c0: af31 18bd 121a cbbd 457c 303e 7d35 afbc
000000d0: fd92 edb9 3f05 4a3c ee74 513d 4c03 05be
000000e0: f8c6 0d3e 00fd 07bd 3bde 59be 3d57 c1bb
000000f0: 2ded fb3c 0481 a4bd 88c5 45be 45bc e6bb
00000100: a942 8e3d c680 b33c a045 213d 9bcb 293d
00000110: 8c0b 66bd aac7 b3bc b644 6dbd c636 5d3d
00000120: bbc2 a73c cdda 2b3e 57ef 8cbd 1e67 cbbd
00000130: fb1d b53c c6df 8fbd 5638 423e e343 05bd
00000140: 9278 323c aaa8 2abb 5509 393c 78ef 343b
00000150: 224a 97bd 282c 973d 6a0c 843e b4c0 80bd
00000160: c5d6 64bd 1be8 5d3d c48a 38be 2b03 2f3b
00000170: 4a51 1f3e f46e aabd 0ca4 9abd e2cc c83c
00000180: d196 193e 40e6 00be ed76 b73c 5c3a 7d3c
00000190: f97a d3bc f59f 423e 0bfb 8d3c dfe9 053e
000001a0: 990f ea3a 8f7b 043e 1764 343e e01f 3bbe
000001b0: b8f5 913d dfb9 d0bb 2239 39bd 4825 7c3d
000001c0: 4a7b c8bc 5f68 4c3d 210f 28bd 4363 21be
000001d0: 2d40 3abd 43bd 943c 7ba2 f53d 2f86 86bd
000001e0: 51be 35bd 96a8 d2bc 8224 0abc 8c9e 5e3d
000001f0: 56c9 06be c55e a3bd a322 4c3e 95cd edbc
00000200: 000a b7bd 6c33 193d 4776 7fbc 8081 e03d
00000210: 0b6b 4c3d 63bb 203e b9d5 4bbd 5ec5 fcbc
00000220: d626 53bc 4722 6a3d 999a 223d 1a7e 3abd
00000230: 4a75 67bd 10b4 a4bd e2b0 17bb 4db8 c5bd
00000240: 0a2b 90bc 53cd dc3c bc53 113d 8b72 bebd
00000250: 4349 ac3d b71c 483e 9d3c 623d a949 a8bc
00000260: 94ba 30bd b4d8 94bd e4d9 d5bd 5bd6 6f3d
00000270: 8ed7 a83d c0ab 38bd bf38 a83d 91f5 a1bd
00000280: f3fc 483d aa36 85bd 4b1a a73d 484f 88bd
00000290: d67f ebbc 26fc 053e 9e7e a43d f7f3 3a3d
000002a0: db90 963c 5b46 03be 670e cdbd 2a09 18bc
000002b0: bb06 8fbc 936f 7a3b af66 45bc 8968 af3d
000002c0: 2ae3 c7bb 53a9 443e 8b31 763d ccdc 3cbd
000002d0: 8a74 73bc 9f45 403c 84d3 293c 1bfa 023d
000002e0: 4816 423d 8d18 aebc 5a4e ccbd fed7 13bd
000002f0: d74c 91bb 95d8 a13c b64f 3ebd 4eaa fe3d
00000300: 9663 f3bd dc95 993d 79b0 9e3d 6804 5cbc
00000310: f46d 7fbd cd72 5d3d 873e 083d d35d 293d
00000320: 8fcf 3bbd ec7b c3bc 9ef5 a8bc 454f 08be
00000330: 204f 82bd 8c7a d83d dcf2 42bd f7be 2cbd
00000340: 436a fcbd c5ae d7bb ad0f c4bd e442 27bd
00000350: daf0 433e 3c84 0abe f211 0a3d 9b96 123e
00000360: bcd1 01ba 1429 07ba 46b9 b3bc 9142 76ba
00000370: 5cd1 9dbc fc16 65bd 0b69 a5bd ddfb 17bd
00000380: 7837 a13d 8c7f d3bc b774 f23c 3054 c23c
00000390: 36ea eebd 1a9e 1cbe 3571 08ba abd7 0b3e
000003a0: fe48 073e 2e09 41bc 63fc 283e fb90 a33b
000003b0: f1f9 38be 7d78 b63c 533d 06bd def1 ee3d
000003c0: 470f 883c a3d7 2e3e d23a d13d 29a2 bdbd
000003d0: daa2 4cbd 8eb3 9bbd 3088 65bd b20d 5c3b
000003e0: ac21 ccbc 621d cf3d e5d7 613d c729 3b3d
000003f0: 106a 273d be35 783c 4f39 803c e39a 78bd

network_body._body_endoder.seq_layers.2.bias f4 [128]
0.0 0.0 0.0 0.0 0.0 0.0 0.0 0.0
0.0 0.0 0.0 0.0 0.0 0.0 0.0 0.0
0.0 0.0 0.0 0.0 0.0 0.0 0.0 0.0
0.0 0.0 0.0 0.0 0.0 0.0 0.0 0.0
0.0 0.0 0.0 0.0 0.0 0.0 0.0 0.0
0.0 0.0 0.0 0.0 0.0 0.0 0.0 0.0
0.0 0.0 0.0 0.0 0.0 0.0 0.0 0.0
0.0 0.0 0.0 0.0 0.0 0.0 0.0 0.0
0.0 0.0 0.0 0.0 0.0 0.0 0.0 0.0
0.0 0.0 0.0 0.0 0.0 0.0 0.0 0.0
0.0 0.0 0.0 0.0 0.0 0.0 0.0 0.0
0.0 0.0 0.0 0.0 0.0 0.0 0.0 0.0
0.0 0.0 0.0 0.0 0.0 0.0 0.0 0.0
0.0 0.0 0.0 0.0 0.0 0.0 0.0 0.0
0.0 0.0 0.0 0.0 0.0 0.0 0.0 0.0
0.0 0.0 0.0 0.0 0.0 0.0 0.0 0.0
00000000: 0000 0000 0000 0000 0000 0000 0000 0000
00000010: 0000 0000 0000 0000 0000 0000 0000 0000
00000020: 0000 0000 0000 0000 0000 0000 0000 0000
00000030: 0000 0000 0000 0000 0000 0000 0000 0000
00000040: 0000 0000 0000 0000 0000 0000 0000 0000
00000050: 0000 0000 0000 0000 0000 0000 0000 0000
00000060: 0000 0000 0000 0000 0000 0000 0000 0000
00000070: 0000 0000 0000 0000 0000 0000 0000 0000
00000080: 0000 0000 0000 0000 0000 0000 0000 0000
00000090: 0000 0000 0000 0000 0000 0000 0000 0000
000000a0: 0000 0000 0000 0000 0000 0000 0000 0000
000000b0: 0000 0000 0000 0000 0000 0000 0000 0000
000000c0: 0000 0000 0000 0000 0000 0000 0000 0000
000000d0: 0000 0000 0000 0000 0000 0000 0000 0000
000000e0: 0000 0000 0000 0000 0000 0000 0000 0000
000000f0: 0000 0000 0000 0000 0000 0000 0000 0000
00000100: 0000 0000 0000 0000 0000 0000 0000 0000
00000110: 0000 0000 0000 0000 0000 0000 0000 0000
00000120: 0000 0000 0000 0000 0000 0000 0000 0000
00000130: 0000 0000 0000 0000 0000 0000 0000 0000
00000140: 0000 0000 0000 0000 0000 0000 0000 0000
00000150: 0000 0000 0000 0000 0000 0000 0000 0000
00000160: 0000 0000 0000 0000 0000 0000 0000 0000
00000170: 0000 0000 0000 0000 0000 0000 0000 0000
00000180: 0000 0000 0000 0000 0000 0000 0000 0000
00000190: 0000 0000 0000 0000 0000 0000 0000 0000
000001a0: 0000 0000 0000 0000 0000 0000 0000 0000
000001b0: 0000 0000 0000 0000 0000 0000 0000 0000
000001c0: 0000 0000 0000 0000 0000 0000 0000 0000
000001d0: 0000 0000 0000 0000 0000 0000 0000 0000
000001e0: 0000 0000 0000 0000 0000 0000 0000 0000
000001f0: 0000 0000 0000 0000 0000 0000 0000 0000

value_heads.value_heads.extrinsic.weight f4 [1, 128]
0.06485543 -0.026383024 0.08608355 -0.15406209 0.03663421 -0.20195541 -0.057792276 -0.0776867
0.21357712 -0.04816963 -0.06979855 -0.012849385 -0.16997688 -0.034525402 0.19642705 0.18561858
-0.0057098507 -0.05866354 -0.06957736 -0.023151245 -0.09075933 -0.07745336 -0.13833988 -0.12058967
-0.16271812 -0.20194188 -0.1741925 -0.05523317 0.110004544 0.17708403 -0.08043989 -0.13746807
0.1281085 0.06543019 -0.096227616 0.14271134 -0.17646864 0.038168132 -0.050111584 -0.20431273
0.014863905 -0.11079297 -0.06551425 -0.19405715 -0.017909998 0.077920295 0.19981271 -0.06802094
-0.11438647 -0.2037598 -0.07694764 0.09612971 0.048179273 -0.0653249 -0.1682329 0.17931561
-0.11665486 -0.12670885 0.023748742 -0.18129899 0.0862384 -0.13185829 -0.17304555 -0.12286975
-0.116874576 -0.18774214 0.05038958 0.16838916 0.08528023 0.08326527 -0.13486184 0.017385066
0.20002691 0.20414563 -0.1323318 -0.17885835 -0.14697467 0.17456304 -0.067581475 0.21032037
-0.07006478 0.020469183 0.16771 0.14721164 -0.16446371 0.16638355 0.01941037 0.19869569
0.10242654 -0.0022847245 0.02487787 0.05488239 0.16066034 0.21530862 0.13414612 -0.15173079
0.12778103 0.0706671 -0.07743994 -0.03691933 -0.18266897 0.16251105 -0.05630355 0.15942627
-0.16327065 -0.14881057 -0.045136996 0.1623644 0.17781012 0.17596781 0.17407681 0.03865918
-0.048779674 0.057242017 -0.09709321 0.07470866 0.10643017 0.09035601 0.057972882 -0.17113093
-0.17024203 0.035124894 -0.055679984 -0.15044658 -0.17800716 -0.018742029 -0.15461425 -0.19996749
00000000: ecd2 843d 3621 d8bc 924c b03d 74c2 1dbe
00000010: c10d 163d 66cd 4ebe 98b7 6cbd 341a 9fbd
00000020: f6b3 5a3e 854d 45bd 8bf2 8ebd 3a86 52bc
00000030: 6b0e 2ebe 826a 0dbd 2c24 493e cc12 3e3e
00000040: b319 bbbb 2e49 70bd 937e 8ebd aea7 bdbc
00000050: 07e0 b9bd de9f 9ebd f8a8 0dbe b8f7 f6bd
00000060: 949f 26be dac9 4ebe 855f 32be 2d3c 62bd
00000070: 104a e13d 8455 353e abbd a4bd 6ec4 0cbe
00000080: e02e 033e 4300 863d fc12 c5bd ec22 123e
00000090: 32b4 34be 3056 1c3d ce41 4dbd 5b37 51be
000000a0: bc87 733c 6de7 e2bd 562c 86bd ebb6 46be
000000b0: fdb7 92bc ad94 9f3d b49b 4c3e 904e 8bbd
000000c0: 7443 eabd 69a6 50be b996 9dbd a7df c43d
000000d0: a157 453d 10c9 85bd 3f45 2cbe 839e 373e
000000e0: bee8 eebd f7bf 01be b98c c23c 71a6 39be
000000f0: c29d b03d dc05 07be da32 31be 23a3 fbbd
00000100: f05b efbd 7a3f 40be 4e65 4e3d 356e 2c3e
00000110: 67a7 ae3d fb86 aa3d 3919 0abe 206b 8e3c
00000120: dbd3 4c3e 8d0b 513e fd81 07be a526 37be
00000130: 8780 16be a7c0 323e 2868 8abd 395e 573e
00000140: 207e 8fbd fdae a73c 2cbc 2b3e a6be 163e
00000150: 2d69 28be 7360 2a3e 7f02 9f3c e276 4b3e
00000160: 01c5 d13d 51bb 15bb adcc cb3c 5bcc 603d
00000170: 2584 243e dd79 5c3e 9a5d 093e 515f 1bbe
00000180: 08d9 023e eab9 903d d598 9ebd b938 17bd
00000190: 930d 3bbe 4c69 263e 8d9e 66bd a440 233e
000001a0: 6c30 27be cc61 18be 92e1 38bd da42 263e
000001b0: db13 363e e830 343e 3141 323e 1759 1e3d
000001c0: 32cd 47bd 9b76 6a3d ced8 c6bd db00 993d
000001d0: 10f8 d93d 920c b93d f974 6d3d f23c 2fbe
000001e0: ed53 2ebe 1fdf 0f3d b210 64bd ab0e 1abe
000001f0: 8247 36be e288 99bc 3353 1ebe 47c4 4cbe
