CubeTest/results/Test2/MoveToGoal.onnx (onnx, 72461 bytes, 7 tensors)

action_model._continuous_distribution.log_sigma f4 [1, 2]
-0.19180326 -0.18405858
00000000: 1368 44be da79 3cbe

action_model._continuous_distribution.mu.bias f4 [2]
0.029457103 0.025243478
00000000: 0650 f13c 69cb ce3c

action_model._continuous_distribution.mu.weight f4 [2, 128]
0.016581839 -0.010452591 -0.013951831 0.010921819 0.016577223 0.0017407619 0.059811883 -0.016358413
0.053339038 -0.036676846 0.024100702 0.009751808 0.05254229 0.02994236 -0.024225455 -0.029024549
0.021810161 -0.00018349967 -0.040468033 0.0015019899 0.042242136 0.056040283 -0.041689098 -0.023010345
0.0020648525 -0.06704482 0.0044366014 0.03847823 -0.094705924 0.06033819 0.07029724 0.021594519
0.015282159 0.036611274 0.04455354 -0.036551535 -0.018283395 0.045613967 0.045283657 0.023514766
-0.008321373 0.051564354 0.055309683 0.049554642 0.03001792 -0.020585826 -0.052092664 0.013371497
-0.0014994465 -0.01922517 -0.06532995 -0.008707829 0.020329759 0.04079629 -0.022224326 -0.02136148
-0.04531647 0.00327041 -0.03486702 -0.026300646 -0.04054213 0.012592975 -0.04643287 -0.039185397
-0.04377252 0.04851932 -0.013831478 -0.044496223 0.04091125 -0.04812118 -0.037606794 0.032471508
0.054264687 0.012380554 0.062012825 -0.043680433 -0.018493598 0.037764635 -0.031697087 0.04290312
-0.061683044 -0.012984095 -0.011802445 0.018966377 0.0630394 0.034217965 -0.042933993 -0.052281436
-0.0047109616 -0.026409384 0.030271724 -0.032420598 -0.025555607 0.05214989 -0.037837856 0.027152132
-0.030618606 0.04497077 0.007294014 0.02655354 0.020407235 -0.012860315 -0.016969595 -0.044898614
0.0409982 -0.030784456 0.055692747 -0.029247697 0.058465563 -0.033785015 -0.023019932 -0.014473317
0.030802347 0.012106292 0.02799406 0.044596758 -0.036842607 -0.015646646 -0.04263938 0.013308179
-0.026542196 0.03925658 -0.08214377 -0.034680802 0.007524402 -0.030704526 -0.02935934 0.03098447
0.042476 -0.04094831 -0.021551833 0.04475153 -0.0005716273 0.048930284 0.005978276 -0.043421987
0.06633218 -0.01964672 0.044373583 0.022998901 0.024569806 0.028493559 0.016339839 -0.027991997
0.021317597 -0.0098028425 -0.047122743 -0.034333345 0.061836455 0.06647777 0.011155972 -0.036815528
0.054756876 -0.035160966 0.039765183 0.04085734 0.032792766 0.009316951 0.0046384824 0.06330413
0.041002415 -0.01238303 0.008662747 -0.032202225 -0.026031692 0.008702971 -0.010695624 0.009523206
-0.028804831 0.027285116 -0.021440782 -0.009922716 0.037292533 -0.052438445 -0.039832756 0.037592974
-0.0328906 0.0031880704 0.08001584 0.096916564 0.046697024 0.0012158327 -0.029588487 -0.0016895555
-0.018156065 0.03927467 -0.023376891 -0.039832573 -0.016669545 0.02575844 -0.0053933566 -0.011448855
-0.02297586 -0.004345998 -0.01844587 -0.033718843 0.022460572 -0.035124477 -0.008598574 -0.009732081
0.057708625 0.04421394 0.010363731 0.012324 -0.03891717 0.013592057 -0.00078971544 0.04166851
-0.03728947 0.04214618 -0.00914143 0.06551227 0.034546796 0.04033449 -0.051837996 -0.002449582
-0.036167573 -0.05665536 0.030948993 0.022305338 -0.03401701 0.038076926 -0.0034433934 0.0631273
-0.03082715 0.017166782 0.04657784 0.048279855 0.036301374 -0.035905268 0.029566186 -0.031865105
0.052621238 -0.03490055 0.0302696 -0.024728652 0.0028997008 -0.024481587 -0.035600465 -0.04441417
0.030296065 0.058276083 0.020956358 0.031195026 -0.02223879 -0.04695539 -0.038341038 0.010995454
-0.030010376 0.016220374 0.017175792 -0.00873921 -0.023070877 -0.06204934 -0.025271846 0.02300691
00000000: a3d6 873c 5841 2bbc 3896 64bc 6ef1 323c
00000010: f5cc 873c 472a e43a 4efd 743d 1402 86bc
00000020: 097a 5a3d 763a 16bd d66e c53c 0cc6 1f3c
00000030: 9636 573d ae49 f53c 7674 c6bc e4c4 edbc
00000040: 39ab b23c d169 40b9 cfc1 25bd 6bde c43a
00000050: 1706 2d3d 7f8a 653d 30c2 2abd 3180 bcbc
00000060: 7a52 073b cb4e 89bd e960 913b 599b 1d3d
00000070: 2ef5 c1bd 2e25 773d 00f8 8f3d fde6 b03c
00000080: 0562 7a3c b4f5 153d c67d 363d 10b7 15bd
00000090: 0fc7 95bc b6d5 3a3d 5b7b 393d 0aa2 c03c
000000a0: 5e56 08bc 2535 533d 688c 623d cff9 4a3d
000000b0: 24e8 f53c 9ba3 a8bc 1e5f 55bd 2014 5b3c
000000c0: 1389 c4ba 1b7e 9dbc b5cb 85bd 48ab 0ebc
000000d0: 988a a63c 031a 273d ca0f b6bc 45fe aebc
000000e0: c39d 39bd 6054 563b b8d0 0ebd 7474 d7bc
000000f0: 810f 26bd c452 4e3c 6530 3ebd de80 20bd
00000100: d04a 33bd 32bc 463d 6c9d 62bc ac41 36bd
00000110: 8e92 273d b71a 45bd 9509 1abd d800 053d
00000120: a644 5e3d cfd7 4a3c 2901 7e3d 41ea 32bd
00000130: e37f 97bc 17af 1a3d ced4 01bd 2fbb 2f3d
00000140: 5ca7 7cbd 3ebb 54bc 0b5f 41bc 605f 9b3c
00000150: cd1a 813d 2328 0c3d 8edb 2fbd 0f25 56bd
00000160: 695e 9abb 7e58 d8bc 68fc f73c 76cb 04bd
00000170: fe59 d1bc 209b 553d defb 1abd 266e de3c
00000180: dfd3 fabc 4533 383d a002 ef3b cf86 d93c
00000190: 132d a73c 12b4 52bc d203 8bbc 9ce7 37bd
000001a0: bbed 273d af2f fcbc 141e 643d de98 efbc
000001b0: 9679 6f3d 2862 0abd 4c94 bcbc 7e21 6dbc
000001c0: 3455 fc3c 7859 463c cd53 e53c 17ab 363d
000001d0: 46e8 16bd 652d 80bc a1a6 2ebd 8c0a 5a3c
000001e0: 056f d9bc 82cb 203d fe3a a8bd 750d 0ebd
000001f0: 428f f63b 0f88 fbbc 0083 f0bc 25d3 fd3c
00000200: 50fb 2d3d 6ab9 27bd 788d b0bc 614d 373d
00000210: 42d9 15ba 1f6b 483d 6ae5 c33b 41db 31bd
00000220: 2ad9 873d 28f2 a0bc 13c1 353d 3168 bc3c
00000230: 9e46 c93c 536b e93c 20db 853c 794f e5bc
00000240: 3ea2 ae3c 1a9c 20bc c703 41bd 1fa1 0cbd
00000250: 3948 7d3d 7f25 883d 8ac7 363c e1cb 16bd
00000260: bf48 603d f204 10bd d1e0 223d 075a 273d
00000270: b551 063d 20a6 183c 69fe 973b 99a5 813d
00000280: 26f2 273d 31e2 4abc 32ee 0d3c 7be6 03bd
00000290: 6a40 d5bc e896 0e3c b33c 2fbc 3907 1c3c
000002a0: 1cf8 ebbc 0985 df3c 94a4 afbc e392 22bc
000002b0: 0ec0 183d b2c9 56bd ac27 23bd 17fb 193d
000002c0: 4bb8 06bd f2ee 503b 58df a33d 317c c63d
000002d0: 6145 3f3d 935c 9f3a 8e63 f2bc 1374 ddba
000002e0: 07bc 94bc 7ade 203d e580 bfbc 7b27 23bd
000002f0: 928e 88bc 5d03 d33c c1ba b0bb fa93 3bbc
00000300: df37 bcbc e068 8ebb cb1b 97bc c51c 0abd
00000310: 3cff b73c afde 0fbd 09e1 0cbc 4e73 1fbc
00000320: e15f 6c3d ad19 353d a3cc 293c 9aea 493c
00000330: 9c67 1fbd 38b1 5e3c e804 4fba 99ac 2a3d
00000340: d8bc 18bd 79a1 2c3d f0c5 15bc 4c2b 863d
00000350: f180 0d3d c735 253d 1454 54bd 2b89 20bb
00000360: 7324 14bd 730f 68bd be88 fd3c afb9 b63c
00000370: 6c55 0bbd 8df6 1b3d 8eaa 61bb e348 813d
00000380: 3889 fcbc 5aa1 8c3c 68c8 3e3d 19c1 453d
00000390: c0b0 143d 6711 13bd c934 f23c fc84 02bd
000003a0: 5e89 573d e1f3 0ebd f4f7 f73c be93 cabc
000003b0: e808 3e3b 9c8d c8bc cbd1 11bd a2eb 35bd
000003c0: 742f f83c e7b2 6e3d abac ab3c b68c ff3c
000003d0: 1f2e b6bc 4c54 40bd 7e0b 1dbd 4726 343c
000003e0: 52d8 f5bc 97e0 843c 3fb4 8c3c e72e 0fbc
000003f0: 23ff bcbc 7327 7ebd e706 cfbc fd78 bc3c

network_body._body_endoder.seq_layers.0.bias f4 [128]
0.029381702 0.007303382 -0.007900966 0.016856275 -0.005566353 0.0033477584 0.028803367 0.013437375
0.019677406 0.017567609 0.043414973 0.026973454 0.02945413 0.024099423 -0.016295714 -0.026257534
-0.018382238 0.0019278447 -0.026379395 0.006970348 -0.013573103 0.0013486268 0.0033738369 -0.0042455625
0.03757642 0.037966162 0.028059736 -0.030652922 0.035191745 0.026328892 -0.02670493 -0.013754772
0.021776803 -0.02758284 0.0027629978 0.025253057 -0.02386356 -0.024754304 -0.0012562905 0.035724632
-0.028871274 -0.0051226993 0.02964804 -0.00294052 -0.034686424 0.031939004 -0.018135002 -0.017566822
-0.011125868 -0.024947096 -0.009394967 0.034987226 0.02888165 -0.006582836 -0.014169679 0.00608134
0.029537583 0.026359005 0.032338977 0.018088099 -0.043909315 0.023467584 -0.019496825 0.008969102
0.026043512 0.032171275 0.029366208 0.024038592 0.011240706 -0.015561269 0.040817127 -0.02367224
-0.011371225 -0.023407552 -0.0002081117 0.031544928 -0.009935827 0.029332481 0.02494881 0.020490283
-0.0008239842 0.0069283876 -0.0137122 0.014166584 -0.01937014 -0.028466737 0.02710319 0.02683258
-0.022988383 0.013815388 -0.0006694531 -0.013668956 0.017633077 -0.02607245 -0.03548216 -0.021047251
-0.014120531 0.031997725 0.028620943 0.005014611 0.029447604 0.021534374 -0.024403011 0.03007858
0.032062076 -0.03088724 0.02367553 -0.029791018 0.028877174 0.035607103 -0.0069349427 0.0071396395
0.029141353 0.028059896 -0.0049305526 -0.008773677 0.004187519 -0.019036224 -0.0119499015 0.02958291
-0.009231061 0.027964966 -0.02318245 -0.013536454 -0.00035788547 -0.016868573 0.020166578 0.011916117
00000000: e5b1 f03c 3551 ef3b 0e73 01bc 2c16 8a3c
00000010: f465 b6bb 1166 5b3b 0af5 eb3c 7028 5c3c
00000020: 8332 a13c f2e9 8f3c e6d3 313d 6ff7 dc3c
00000030: ca49 f13c 276c c53c 977e 85bc 0a1a d7bc
00000040: 5996 96bc bcaf fc3a 9a19 d8bc 8467 e43b
00000050: b861 5ebc 68c4 b03a 971b 5d3b 5c1e 8bbb
00000060: bbe9 193d 6882 1b3d 88dd e53c d61b fbbc
00000070: 3825 103d b0af d73c 4cc4 dabc b25b 61bc
00000080: 4465 b23c 68f5 e1bc 6913 353b 80df ce3c
00000090: 837d c3bc 8ac9 cabc 1daa a4ba fe53 123d
000000a0: 7383 ecbc 51dc a7bb 72e0 f23c bdb5 40bb
000000b0: 5a13 0ebd 79d2 023d db8f 94bc 4ce8 8fbc
000000c0: 4649 36bc da5d ccbc 59ed 19bc c44e 0f3d
000000d0: 3699 ec3c d5b4 d7bb f127 68bc fa45 c73b
000000e0: cdf8 f13c d7ee d73c e075 043d 7e2d 943c
000000f0: 41da 33bd 173f c03c ceb7 9fbc 24f3 123c
00000100: 3459 d53c 07c6 033d 6791 f03c 95ec c43c
00000110: f02a 383c b1f4 7ebc dc2f 273d 49ec c1bc
00000120: 604e 3abc 32c1 bfbc 8f38 5ab9 4135 013d
00000130: e1c9 22bc ac4a f03c 7261 cc3c 3ddb a73c
00000140: a500 58ba 8707 e33b 23a9 60bc f61a 683c
00000150: 21ae 9ebc 1333 e9bc 8207 de3c 00d0 db3c
00000160: 2252 bcbc f059 623c 3d7e 2fba c2f3 5fbc
00000170: 3e73 903c e495 d5bc be55 11bd 496b acbc
00000180: cd59 67bc 0c10 033d 7876 ea3c 9b51 a43b
00000190: 1a3c f13c db68 b03c d3e8 c7bc 5b67 f63c
000001a0: 8653 033d 3d07 fdbc 2ff3 c13c 4b0c f4bc
000001b0: d38f ec3c c1d8 113d 843e e3bb a3f3 e93b
000001c0: d9b9 ee3c dedd e53c 7990 a1bb 78bf 0fbc
000001d0: 7537 893b dbf1 9bbc 85c9 43bc dc57 f23c
000001e0: e03d 17bc c916 e53c 1fe9 bdbc 01c8 5dbc
000001f0: 93a2 bbb9 f62f 8abc 6134 a53c d13b 433c

network_body._body_endoder.seq_layers.0.weight f4 [128, 6]
0.513695 -0.13406292 -0.09486807 0.3763758 0.05496282 0.45241565 -0.45064425 -0.17639834
0.16904934 0.4066577 0.11128424 0.3631694 -0.37550396 0.41943538 0.053893045 0.39908978
-0.084678754 -0.19266963 0.3742836 0.02192956 0.09499607 -0.75543046 0.32580206 -0.33376855
0.32062474 -0.8160059 0.1331534 0.061696615 0.68661493 -0.34890336 -0.29067397 -0.21741006
-0.21969807 -0.34727973 -0.24330921 -0.22883208 -0.30731216 0.15130435 0.3087566 -0.17117125
-0.036242142 0.33184406 0.9721253 -0.22461076 -0.009092287 0.2564173 0.29116383 -0.41820833
-0.4679717 -0.20681076 0.48736575 0.29801384 -0.40373203 0.0052014347 0.47228056 -0.15353534
-0.24155825 0.35727978 -0.031231584 -0.040607095 0.61283046 -0.46656024 0.35680765 -0.5782417
-0.06502796 -0.30246583 -0.09381722 0.17211165 0.039473955 0.30473003 -0.16807997 0.20108512
1.0437266 -0.08895687 0.1265555 -0.05458105 -0.37429363 -0.052253794 -0.05039129 0.45186314
-0.4739409 -0.26911327 -0.02375932 -0.29281354 0.14425367 -0.4746036 0.55262357 -0.3573963
0.677567 0.1016061 -0.16829632 -0.02182669 -0.029579297 0.06673272 -0.5284074 -0.44174805
-0.1457857 0.49740052 -0.65057313 -0.07113162 -0.2608393 0.3417853 0.45163316 0.10097208
-0.035030685 0.042718917 -0.3729666 -0.118609846 -0.43077576 -0.28376287 -0.1051664 -0.3399648
0.01799987 0.18520246 -0.6249815 0.14558466 0.16645162 -0.2964428 -0.10051567 -0.37209156
-0.7628623 -0.6084455 -0.21982078 0.086817175 -0.64774674 -0.41981116 -0.61808497 0.036132894
0.051792122 0.44611156 0.1370311 0.18507533 0.2837851 -0.53707236 -0.8087617 0.5081515
-0.7331348 0.67774415 -0.33610687 0.17229937 0.25529322 0.3669877 -0.56039006 -0.035121515
0.22249942 -0.47617722 -0.066831306 0.17348766 -0.4289274 0.57356656 0.47894526 -0.048151653
0.17577043 -0.27088696 0.05168487 -0.60622925 0.45580003 -0.34031177 -0.49503624 0.09275321
0.12082859 -0.93229747 -0.43783697 0.13085836 -0.2152524 0.122542225 0.8725569 -0.025700277
-0.23394549 -0.32556197 -0.41641492 0.014411101 -0.2393126 0.17063262 -1.0751798 -0.027184876
0.06762184 -0.08064701 -0.3117305 -0.46779954 -0.3718785 0.4030401 -0.064315796 0.67231226
0.42897218 -0.907179 -0.60073674 0.09666286 -0.049842104 0.057423145 -0.42596683 -0.48918107
-0.33824795 -0.16305901 -0.321003 0.22126977 -0.37982845 0.40167016 0.7443398 -0.09645061
-0.5594085 -0.10646544 -0.07969705 -0.47721383 -0.12878077 -0.75297254 -1.4316175 0.15136784
-0.08992325 0.056712463 0.21074477 -0.16930142 0.077048324 0.4728495 -0.14314015 -0.23790032
-0.2981641 -0.14827307 -0.11739413 -0.4340755 -0.47059947 0.23638475 -0.54867494 -0.16155216
-0.07266421 0.14080817 0.54657555 -0.40665764 0.26251003 0.66429126 -0.3023243 -0.044320144
-0.056866635 -0.30279607 0.81269354 0.17103982 -0.6790533 0.06863878 -0.13042115 0.2238567
0.0061313463 0.34034103 -0.2377196 -0.5298662 0.107346304 0.050273202 0.30072227 0.1146737
-0.026811905 -0.024530388 -0.2929295 -0.1528216 0.3548802 -0.47405365 -0.8474101 -0.6318587
00000000: 8481 033f ca47 09be 314a c2bd 54b4 c03e
00000010: b220 613d 06a3 e73e d8ba e6be c4a1 34be
00000020: 451b 2d3e 7035 d03e fee8 e33d 57f1 b93e
00000030: 0e42 c0be 3cc0 d63e f4be 5c3d 7f55 cc3e
00000040: 0e6c adbd 304b 45be 1aa2 bf3e 9fa5 b33c
00000050: 4d8d c23d e463 41bf 87cf a63e b6e3 aabe
00000060: ed28 a43e c3e5 50bf 5d59 083e 97b5 7c3d
00000070: ffc5 2f3f 76a3 b2be 38d3 94be bea0 5ebe
00000080: 88f8 60be a6ce b1be 0d26 79be f552 6abe
00000090: 0558 9dbe 87ef 1a3e 5815 9e3e 8447 2fbe
000000a0: a472 14bd 77e7 a93e 34dd 783f 5d00 66be
000000b0: d1f7 14bc 2149 833e 6d13 953e 671f d6be
000000c0: fd99 efbe 33c6 53be 0188 f93e 4595 983e
000000d0: f7b5 cebe cc70 aa3b c2ce f13e 5e38 1dbe
000000e0: 0c5b 77be 60ed b63e 61d9 ffbc a053 26bd
000000f0: 75e2 1c3f fce0 eebe 7eaf b63e a607 14bf
00000100: 612d 85bd cddc 9abe 3e23 c0bd 093e 303e
00000110: 71af 213d 9305 9c3e 281d 2cbe 42e9 4d3e
00000120: d598 853f 052f b6bd c497 013e 6190 5fbd
00000130: 6aa3 bfbe 1308 56bd 1967 4ebd 9b5a e73e
00000140: 62a8 f2be 37c9 89be e8a2 c2bc a8eb 95be
00000150: 3cb7 133e 3eff f2be bd78 0d3f a6fc b6be
00000160: 0875 2d3f dc16 d03d df55 2cbe e3cd b2bc
00000170: 4850 f2bc 2aab 883d b545 07bf cd2c e2be
00000180: d948 15be 48ab fe3e f68b 26bf 74ad 91bd
00000190: bb8c 85be 7cfe ae3e 763c e73e 73ca ce3d
000001a0: 567c 0fbd 08fa 2e3d 7af5 bebe b8e9 f2bd
000001b0: a48e dcbe 5e49 91be 7b61 d7bd de0f aebe
000001c0: 7774 933c b7a5 3d3e cafe 1fbf 2514 153e
000001d0: 4b72 2a3e 5ac7 97be 29db cdbd c982 bebe
000001e0: f24a 43bf 16c3 1bbf b318 61be 34cd b13d
000001f0: bbd2 25bf 7df1 d6be d13a 1ebf 1600 143d
00000200: fa23 543d bc68 e43e e151 0c3e 6384 3d3e
00000210: 484c 913e 937d 09bf 020b 4fbf 3716 023f
00000220: b9ae 3bbf a480 2d3f 3316 acbe 3f6f 303e
00000230: cbb5 823e d0e5 bb3e b975 0fbf 94db 0fbd
00000240: e3d6 633e 80cd f3be dade 88bd c0a6 313e
00000250: 5f9c dbbe 42d5 123f 5038 f53e ab3a 45bd
00000260: 2afd 333e b2b1 8abe 84b3 533d d731 1bbf
00000270: 9f5e e93e 583d aebe 6475 fdbe 65f5 bd3d
00000280: fb74 f73d 0cab 6ebf 2b2c e0be bcff 053e
00000290: 206b 5cbe 6bf7 fa3d e45f 5f3f 6389 d2bc
000002a0: 688f 6fbe 0fb0 a6be 5634 d5be 8a1c 6c3c
000002b0: 5d0e 75be 51ba 2e3e 7e9f 89bf d1b2 debc
000002c0: 527d 8a3d 422a a5bd 249b 9fbe 6c83 efbe
000002d0: dc66 bebe 465b ce3e 00b8 83bd a81c 2c3f
000002e0: 3ea2 db3e e23c 68bf e2c9 19bf 2df7 c53d
000002f0: 3c27 4cbd 8834 6b3d 5318 dabe f175 fabe
00000300: d62e adbe f1f8 26be 815a a4be 8b94 623e
00000310: e078 c2be b6a7 cd3e 0e8d 3e3f e687 c5bd
00000320: 6535 0fbf 8d0a dabd 3538 a3bd 5f55 f4be
00000330: 1bdf 03be cfc2 40bf 3e3f b7bf 2c00 1b3e
00000340: ae29 b8bd 544b 683d 7acd 573e 5a5d 2dbe
00000350: 83cb 9d3d 5419 f23e 5593 12be 249c 73be
00000360: f7a8 98be e5d4 17be 556c f0bd 253f debe
00000370: 6af2 f0be d80e 723e f675 0cbf ee6d 25be
00000380: f9d0 94bd 0430 103e 60ec 0b3f 6e35 d0be
00000390: b767 863e fe0e 2a3f 40ca 9abe 0a89 35bd
000003a0: fdec 68bd 1608 9bbe af0c 503f 1025 2f3e
000003b0: 70d6 2dbf 7d92 8c3d 1f8d 05be b13a 653e
000003c0: 76e9 c83b 2e41 ae3e c46c 73be 50a5 07bf
000003d0: 61d8 db3d 46eb 4d3d 45f8 993e 0bda ea3d
000003e0: a4a4 dbbc f4f3 c8bc dbfa 95be 447d 1cbe
000003f0: dcb2 b53e 29b7 f2be deef 58bf 7ec1 21bf

network_body._body_endoder.seq_layers.2.bias f4 [128]
0.0204997 -0.012854528 -0.023383504 0.018370915 0.022177476 0.024017505 0.030914014 -0.01565981
0.030743798 -0.01586426 0.02086736 0.008428257 0.02845695 0.029815948 -0.014320729 -0.021714477
0.019541843 -0.018919857 -0.0058647036 -0.019962518 0.029379942 0.029359521 0.0004599706 -0.013812948
0.018530736 -0.009374373 0.018606246 0.02920622 -0.007069626 0.029910382 0.031946953 0.026233992
0.027029749 -0.0018326703 0.026492696 -0.012069829 -0.019684676 0.028293202 0.015465187 0.0038523828
-0.021846365 0.028519846 0.029705195 0.019791158 0.028127892 -0.01363965 -0.012009073 0.019582875
-0.007411314 -0.023231573 0.0036213752 0.030649671 0.023798075 0.023335822 -0.009073092 -0.02019344
-0.01705821 0.022098636 -0.00858761 -0.008989996 -0.019001205 0.026093103 -0.008503213 -0.0076241265
-0.0075540324 0.027404154 -0.0060636825 -0.016563337 0.025592308 -0.014370687 -0.0077674305 0.027464299
0.0277965 0.020010414 0.026305744 -0.00029332357 -0.011339791 0.029296327 -0.017097294 0.02825132
-0.0048118653 0.0022819361 -0.016589828 0.027044171 0.030758912 0.026011785 -0.02351806 -0.006638453
-0.0093373675 -0.013035368 0.029831976 0.0038216445 -0.002059695 0.03024938 -0.013062576 0.02941584
-0.02288956 0.029688662 0.011245523 0.026876215 0.022939786 -0.019854013 0.017627507 -0.019239808
0.028642923 -0.010672428 0.031556252 -0.014476249 0.028798975 -0.022868361 -0.022967225 -0.020331996
0.031319153 0.021185488 0.012778334 0.029319623 0.0024920115 -0.023767563 -0.021564962 0.0054241233
-0.023042127 0.027435884 0.007627288 -0.026773365 0.01187546 -0.013301256 -0.02632108 0.026289102
00000000: fdee a73c cc9b 52bc c38e bfbc 9a7e 963c
00000010: 8aad b53c 5cc0 c43c 633f fd3c 0049 80bc
00000020: 6bda fb3c c4f5 81bc 07f2 aa3c ac16 0a3c
00000030: 8d1e e93c 9340 f43c 7ea1 6abc 8fe2 b1bc
00000040: 3716 a03c d1fd 9abc b32c c0bb 6f88 a3bc
00000050: 34ae f03c 6183 f03c 3528 f139 b44f 62bc
00000060: c5cd 973c f896 19bc 206c 983c e241 ef3c
00000070: 52a8 e7bb 9e06 f53c cfda 023d abe8 d63c
00000080: 7e6d dd3c 3636 f0ba 3607 d93c 88c0 45bc
00000090: c241 a1bc 25c7 e73c b261 7d3c 4278 7c3b
000000a0: 26f7 b2bc 74a2 e93c 4f58 f33c 1121 a23c
000000b0: 776c e63c d778 5fbc b4c1 44bc 446c a03c
000000c0: 9cda f2bb 2450 bebc 9854 6d3b 0515 fb3c
000000d0: 2ef4 c23c c42a bf3c 4ea7 14bc b76c a5bc
000000e0: a9bd 8bbc 3308 b53c 0cb3 0cbc c74a 13bc
000000f0: 6aa8 9bbc 34c1 d53c 0f51 0bbc cfd3 f9bb
00000100: d187 f7bb ad7e e03c dbb1 c6bb d6af 87bc
00000110: f6a6 d13c 0873 6bbc ee85 febb cffc e03c
00000120: 7cb5 e33c e1ec a33c 257f d73c 39c9 99b9
00000130: 88ca 39bc dafe ef3c a00f 8cbc 506f e73c
00000140: daac 9dbb 898c 153b 64e7 87bc bd8b dd3c
00000150: 1dfa fb3c ab16 d53c f2a8 c0bc 6187 d9bb
00000160: c2fb 18bc 4c92 55bc 3062 f43c 8e74 7a3b
00000170: f3fb 06bb 8ccd f73c 6a04 56bc 7df9 f03c
00000180: e382 bbbc a335 f33c 243f 383c 822b dc3c
00000190: 38ec bb3c e2a4 a2bc 9067 903c cd9c 9dbc
000001a0: 90a4 ea3c 68db 2ebc 2141 013d ca2d 6dbc
000001b0: d4eb eb3c 6e56 bbbc c325 bcbc 498f a6bc
000001c0: 8348 003d 308d ad3c 385c 513c b52f f03c
000001d0: 0451 233b 31b4 c2bc 01a9 b0bc d8bc b13b
000001e0: d8c2 bcbc 38c1 e03c 54ee f93b d153 dbbc
000001f0: 4a91 423c 83ed 59bc 4e9f d7bc 3e5c d73c

network_body._body_endoder.seq_layers.2.weight f4 [128, 128]
0.040115286 -0.018418193 0.0314704 -0.05170891 -0.0956084 -0.044117294 0.020411037 0.121683344
0.09738436 0.0033053965 -0.10599736 0.04068723 0.03483414 0.075426884 -0.15647955 -0.07285895
0.042309355 0.009404763 -0.034024168 0.02150117 0.016812187 -0.017336324 0.009112395 0.07865265
0.08108358 -0.0589352 -0.02938641 -0.00040313613 0.04507612 0.07718019 -0.15177467 -0.11882823
0.08224838 -0.13960749 -0.1003388 0.22466096 0.06504079 0.0855659 -0.014326385 0.062406924
0.017758295 0.0012286109 -0.049448803 -0.13917115 -0.11436774 0.10217178 -0.23865424 -0.0912872
0.04434102 0.060400784 -0.050521985 0.13859715 0.020771304 0.042148758 -0.05228718 -0.12520334
0.0039114365 0.08400085 -0.09672316 -0.052644145 -0.011469356 -0.14286903 -0.050408646 0.049029727
0.14627674 0.060861394 0.03243671 -0.19450773 -0.010210997 -0.06717331 0.119891256 -0.022097945
-0.049287025 -0.038997713 0.15393324 -0.05340952 0.015327206 0.008361383 0.12763172 -0.15412377
0.011222429 -0.1163879 0.11401397 -0.102691814 -0.041508287 0.085151486 -0.029715221 0.071664065
-0.008393146 -0.06600453 -0.29873377 -0.04738117 0.090388745 -0.09124577 -0.05639035 -0.047337763
-0.12046473 0.05061171 0.04967733 -0.13286783 -0.2152868 -0.1256826 -0.016499097 0.07469137
0.04969262 -0.020873757 0.022974232 0.06839966 0.1412121 0.1283982 0.12087681 0.06856705
-0.07145874 -0.015364892 -0.0019373451 0.053131316 -0.0921994 -0.11188441 0.105357744 0.21106867
-0.048353177 0.077555306 0.106957816 -0.08527395 0.073194765 0.00711036 -0.052314293 0.032262992
-0.07707269 -6.9661895e-05 -0.0715195 -0.16089733 -0.20074843 -0.096400805 0.066382594 -0.07022605
0.07106638 0.016495889 0.109340616 -0.112451024 -0.07881111 0.033226214 0.09740378 0.03641663
-0.023856904 -0.09086902 -0.052874517 0.009869919 -0.09710756 -0.13191351 -0.19205284 0.11264549
0.07610709 -0.17830597 -0.037466787 0.007178407 -0.0065722726 0.11186191 0.18972538 0.0211964
-0.033233624 -0.15810412 0.058902215 -0.023420697 0.15664396 -0.050890904 0.019874137 0.087603316
-0.05165004 0.14093947 -0.1581041 0.06857285 -0.028884295 -0.16241398 -0.07365874 0.015006819
0.25585973 -0.04501577 0.05719204 0.017074684 -0.06138957 -0.088237345 0.05338246 -0.005300804
-0.0575911 -0.15298069 -0.0076987823 -0.040837772 0.18528265 0.09610126 0.08511484 0.08978635
-0.16050215 0.041229095 -0.013130544 -0.20945974 0.046103176 -0.05886668 -0.03527972 0.014658892
0.010626773 -0.11917249 -0.21317288 0.00435775 -0.1250661 0.15089068 -0.08306119 0.14793456
0.039523914 0.018585395 -0.026283706 0.20544526 0.031604078 0.068266355 0.120382175 -0.057789028
0.27270204 -0.039076366 -0.016059576 0.094317116 0.05383569 -0.07562235 -0.0055997544 -0.008930491
0.17497012 -0.10082556 0.02038222 0.034059245 -0.17160372 0.101351306 -0.015782673 0.049391553
-0.051119737 0.18799011 -0.070014164 -0.16223942 0.1083041 0.022269115 -0.043182496 -0.0010091834
0.04441032 -0.06410395 -0.0007038046 -0.014657604 -0.044627998 0.1523428 -0.1435407 0.13341856
0.03947239 -0.13241808 0.09540165 0.07552328 -0.010089622 -0.15000762 -0.012265476 0.050281994
00000000: ed4f 243d c0e1 96bc 1be7 003d b9cc 53bd
00000010: 56ce c3bd 56b4 34bd 0c35 a73c 1e35 f93d
00000020: 7471 c73d 5a9f 583b 2515 d9bd a7a7 263d
00000030: 3eae 0e3d 6979 9a3d 2d3c 20be 1337 95bd
00000040: 934c 2d3d 6f16 1a3c ed5c 0bbd 3923 b03c
00000050: b6b9 893c e804 8ebc 284c 153c a414 a13d
00000060: 260f a63d 0966 71bd c5bb f0bc 045c d3b9
00000070: bda1 383d a610 9e3d d26a 1bbe 375c f3bd
00000080: d771 a83d 44f5 0ebe 6e7e cdbd 860d 663e
00000090: 1b34 853d 2d3d af3d 37b9 6abc 679e 7f3d
000000a0: d879 913c 5709 a13a d48a 4abd e282 0ebe
000000b0: a239 eabd 703f d13d c761 74be c9f4 babd
000000c0: ee9e 353d d066 773d 24f0 4ebd 69ec 0d3e
000000d0: 9528 aa3c 2da4 2c3d 152b 56bd 4e35 00be
000000e0: 822b 803b a308 ac3d cb16 c6bd 63a1 57bd
000000f0: f7e9 3bbc 424c 12be 4c79 4ebd 65d3 483d
00000100: 92c9 153e cc49 793d 5bdc 043d 092d 47be
00000110: 074c 27bc 2992 89bd 8c89 f53d c006 b5bc
00000120: 31e1 49bd 11bc 1fbd ada0 1d3e f1c3 5abd
00000130: f61e 7b3c 2ffe 083c e4b1 023e 9fd2 1dbe
00000140: 47de 373c c85c eebd 2880 e93d 1650 d2bd
00000150: 9804 2abd e763 ae3d 566d f3bc 9cc4 923d
00000160: 6883 09bc 622d 87bd a2f3 98be c212 42bd
00000170: bc1d b93d 10df babd 91f9 66bd 3ee5 41bd
00000180: 36b6 f6bd 394e 4f3d 757a 4b3d 810e 08be
00000190: 2574 5cbe f1b2 00be 1d29 87bc caf7 983d
000001a0: 7d8a 4b3d 71ff aabc 7534 bc3c 1f15 8c3d
000001b0: e899 103e d17a 033e 438e f73d e26c 8c3d
000001c0: f658 92bd 07bd 7bbc 84ee fdba 39a0 593d
000001d0: 0ad3 bcbd a723 e5bd cdc5 d73d 6322 583e
000001e0: fb0d 46bd 51d5 9e3d b30c db3d 1ca4 aebd
000001f0: 23e7 953d 06fe e83b 8347 56bd 3326 043d
00000200: 49d8 9dbd 7217 92b8 d178 92bd 45c2 24be
00000210: ff90 4dbe c96d c5bd 99f3 873d add2 8fbd
00000220: 408b 913d 6322 873c f9ed df3d b94c e6bd
00000230: b867 a1bd 3618 083d a27b c73d 9b29 153d
00000240: 8e6f c3bc 8919 babd f392 58bd 71b5 213c
00000250: 54e0 c6bd 5614 07be 80a9 44be aeb2 e63d
00000260: 09de 9b3d d795 36be c676 19bd d838 eb3b
00000270: 385c d7bb db17 e53d 5f47 423e 13a4 ad3c
00000280: fb1f 08bd 0ce6 21be 7343 713d c3dc bfbc
00000290: 4667 203e fb72 50bd 16cf a23c 5e69 b33d
000002a0: fe8e 53bd 7052 103e 0be6 21be ec6f 8c3d
000002b0: c29e ecbc da4f 26be 65da 96bd 29df 753c
000002c0: 0c00 833e 7562 38bd 3342 6a3d 35e0 8b3c
000002d0: a173 7bbd c8b5 b4bd 91a7 5a3d 5eb2 adbb
000002e0: a5e4 6bbd f8a6 1cbe 1146 fcbb 8245 27bd
000002f0: bcba 3d3e bdd0 c43d b050 ae3d e8e1 b73d
00000300: ad5a 24be d7df 283d 7e21 57bc 9d7c 56be
00000310: afd6 3c3d 301e 71bd 7881 10bd d92b 703c
00000320: eb1b 2e3c b510 f4bd fe49 5abe 75cb 8e3b
00000330: 5411 00be 1683 1a3e fc1b aabd 287c 173e
00000340: d4e3 213d 6640 983c ed50 d7bc 3e60 523e
00000350: 4773 013d 3bcf 8b3d ee8a f63d 30b4 6cbd
00000360: 9a9f 8b3e 8a0e 20bd 5f8f 83bc 5529 c13d
00000370: d082 5c3d e4df 9abd 257e b7bb 3251 12bc
00000380: 5e2b 333e a27d cebd 9df8 a63c b581 0b3d
00000390: e3b8 2fbe 4691 cf3d aa4a 81bc cc4e 4a3d
000003a0: ee62 51bd 7b80 403e 9663 8fbd 1722 26be
000003b0: 8ace dd3d b86d b63c 21e0 30bd 9346 84ba
000003c0: 99e7 353d ef48 83bd 877f 38ba 7226 70bc
000003d0: d9cb 36bd c0ff 1b3e 55fc 12be e09e 083e
000003e0: cdad 213d 9b98 07be f161 c33d f3ab 9a3d
000003f0: f14e 25bc 999b 19be 23f5 48bc 7ef4 4d3d
