CubeTest/results/ppo/MoveToGoal.onnx (onnx, 72461 bytes, 7 tensors)

action_model._continuous_distribution.log_sigma f4 [1, 2]
0	0xbdc91495	-0.09818379
1	0xbdb4f0ad	-0.08834968

action_model._continuous_distribution.mu.bias f4 [2]
0	0xbaacdf26	-0.0013189062
1	0xbbe0f232	-0.0068648094

action_model._continuous_distribution.mu.weight f4 [2, 128]
0	0x3b17b541	0.0023148807
1	0xbd966eec	-0.073453754
2	0xbcf43bc3	-0.029813653
3	0x3c6560ec	0.014000159
4	0x3c3d4764	0.011552665
5	0x3d39cc8c	0.045361087
6	0x3d982b70	0.0743016
7	0x3d2bc726	0.04193797
8	0x3ce300f8	0.027710423
9	0x3b5d985a	0.0033812732
10	0xbc79a67b	-0.015237446
11	0x3db35130	0.0875572
12	0xba16646f	-0.00057370117
13	0x3dc6a169	0.09698755
14	0x3d083125	0.033249993
15	0xbc71f1ee	-0.014767153
16	0xbd94f5a1	-0.072734125
17	0x3ce53c86	0.027982961
18	0x3afd4608	0.0019323239
19	0x3c282491	0.010262624
20	0x3d92ff6d	0.07177625
21	0x3c151314	0.009098787
22	0x3c9d489b	0.01919966
23	0xbc54ab00	-0.012980223
24	0xbda51f94	-0.08062664
25	0xbc8557df	-0.016277252
26	0x3a7f9966	0.0009750336
27	0xbc11e982	-0.00890577
28	0xbd8aaf66	-0.06771736
29	0x3d8c55b4	0.06852284
30	0xbd30d9c0	-0.043176413
31	0xbd643d9f	-0.05572283
32	0x3bb7f69c	0.005614115
33	0x3d9f94a8	0.07792026
34	0x3d7a3b66	0.061091803
35	0x3d16227b	0.036653977
36	0x3d8a0566	0.06739311
37	0xbd8881b0	-0.06665361
38	0xbd10b331	-0.03532714
39	0x3d9876dd	0.07444546
40	0xbbe0ded1	-0.0068624993
41	0x3ce41d99	0.027846145
42	0x3c871ce9	0.016493278
43	0xbd4d3dc5	-0.050107736
44	0xbd2856a3	-0.04109825
45	0xbd10ac3d	-0.03532051
46	0x3d28ef0b	0.041243594
47	0x3d01b0b2	0.03166265
48	0xbd2b19bc	-0.04177259
49	0x3c38054e	0.0112317335
50	0x3da1fb9d	0.079093195
51	0xbdc8fe96	-0.098141834
52	0x3d9e862e	0.077404365
53	0x3d956fb0	0.07296693
54	0x3c98d177	0.018654568
55	0xbc4fb88d	-0.012678278
56	0xbccfba6b	-0.025357446
57	0x3b536e54	0.0032261806
58	0x3d28d6dc	0.04122053
59	0xbda6684b	-0.08125361
60	0x3ceda593	0.029009616
61	0x3da28b08	0.07936674
62	0x3d14432b	0.03619687
63	0x3cbac18c	0.022797368
64	0x3d33563e	0.04378342
65	0x3d0f91fe	0.03505134
66	0xbdaa4f2d	-0.08315883
67	0xbdf1df5e	-0.11810182
68	0xbdaa20bb	-0.08307024
69	0x3cc69dfd	0.024245257
70	0x3d4ad498	0.04951915
71	0x3c8e1ba4	0.017347164
72	0xbc252f57	-0.0100820875
73	0x3ce52c7d	0.027975315
74	0xbd8a5fca	-0.067565516
75	0xbdab02a5	-0.08350114
76	0xba92831a	-0.0011177987
77	0x3cfb0746	0.030643117
78	0x3d07bfde	0.033141963
79	0x3c00efcf	0.007869675
80	0x3c1f99a9	0.009741225
81	0xbd94c064	-0.07263258
82	0xbd682815	-0.05667885
83	0xbc8cd9d7	-0.017193718
84	0x3ca5d491	0.020242961
85	0x3ccb6292	0.024827275
86	0x3d7fbef7	0.062437978
87	0xbce0c9ae	-0.027439918
88	0xbd7a8240	-0.061159372
89	0x3d154e5d	0.036451686
90	0xbda19a8a	-0.07890804
91	0x3ce819e3	0.028332656
92	0x3dae15e3	0.08500268
93	0xbd9fbe2b	-0.077999435
94	0x3d4e1917	0.050316896
95	0x3d54ba80	0.051935673
96	0x3c8f860a	0.01751997
97	0xbc87f535	-0.016596416
98	0xbccf78a2	-0.025326077
99	0x3d4c3c5a	0.049862243
100	0x3db14bd7	0.086570434
101	0x3cd5d044	0.026100285
102	0x3a97c00b	0.0011577619
103	0xbc69ec0b	-0.014277468
104	0x3aa8a87e	0.0012867597
105	0x3d1e0faf	0.038589176
106	0x3cd11949	0.025524752
107	0xbcc81a5d	-0.024426633
108	0xbdaa7ba1	-0.083243616
109	0xbd7425fb	-0.059606533
110	0xbd8e8062	-0.06958081
111	0x3c817684	0.015803583
112	0x3d352d37	0.044232573
113	0x3d21c4e5	0.039494414
114	0xbc2bf782	-0.010496022
115	0x3c057e86	0.008147841
116	0xbcf4c98d	-0.029881263
117	0x3d14b6a7	0.036307003
118	0xbd0f8b60	-0.035045028
119	0x3d84376e	0.06455885
120	0x3cad6fb9	0.021171438
121	0x3d9f6ffc	0.07785031
122	0xbd07c6fb	-0.033148747
123	0xbc35cec9	-0.011096665
124	0xbccf18f5	-0.025280455
125	0xbda05c4a	-0.07830103
126	0xbd812064	-0.06305006
127	0x3be50f0a	0.006990318
128	0x3da3ac0b	0.07991799
129	0xbc8f9f65	-0.01753206
130	0xbd270eaa	-0.04078547
131	0xbb4a18d6	-0.0030837557
132	0xbb884274	-0.0041583125
133	0xbcc92217	-0.024552388
134	0x3c206c45	0.0097914385
135	0xbd7a83df	-0.06116092
136	0x3dac239d	0.0840523
137	0xbd3d02f7	-0.046145406
138	0xbd6cd64d	-0.05782156
139	0xbd09c2f0	-0.033633173
140	0xbcb23d81	-0.021757843
141	0x3c8d93a9	0.017282324
142	0xbd3ded34	-0.046368793
143	0xbcf01faa	-0.029311974
144	0xbd1bef94	-0.038070276
145	0x3d369200	0.04457283
146	0x3d9618f9	0.07328982
147	0x3d2c870a	0.04212097
148	0x3d812a16	0.063068554
149	0x3c7803fb	0.015137668
150	0x3c82a206	0.0159464
151	0x3bc2b589	0.005942051
152	0x3c308210	0.010773197
153	0x3c7b6fd0	0.015346482
154	0xbda404ab	-0.08008703
155	0xbcc8e046	-0.024521004
156	0x3d92161b	0.071331225
157	0xbbfcb0c3	-0.0077115013
158	0x3cf08093	0.029358184
159	0xbd3e002d	-0.046386886
160	0xba9d7cbd	-0.0012015324
161	0x3c866000	0.016403198
162	0x3d7ac29f	0.06122076
163	0x3d9eba86	0.0775042
164	0x3d54c45d	0.05194508
165	0xbcc75e87	-0.024337066
166	0xbd75bbca	-0.059993543
167	0x3c93cd12	0.018042121
168	0xbc8ea6b6	-0.017413478
169	0xbcf55833	-0.029949283
170	0xbc2676c2	-0.01016015
171	0xbca14ce6	-0.019689988
172	0xbcf4ac60	-0.029867351
173	0x3ce8001e	0.028320368
174	0x3c92a577	0.017901165
175	0xbd143a59	-0.036188457
176	0x3c5782e4	0.013153765
177	0xbd603936	-0.05474206
178	0x3bdee350	0.006802
179	0xbcf710de	-0.03015941
180	0x3c680372	0.014160978
181	0x3ced2790	0.028949529
182	0x3dbeddca	0.09319647
183	0x3cedc9e9	0.029026942
184	0xbd6a3cf4	-0.057187036
185	0xbb5803b4	-0.0032961192
186	0xbca7d1f2	-0.020485852
187	0x3d8cf823	0.06883266
188	0x3dab19c8	0.08354527
189	0x3cbba640	0.022906423
190	0xbb2c52fc	-0.002629458
191	0xbc4f6025	-0.0126572
192	0xbce238b5	-0.02761493
193	0xbb7e904c	-0.0038843332
194	0xbc9dffce	-0.019287016
195	0x3cd9c4c1	0.026583077
196	0x3c463b99	0.01209917
197	0x3b717239	0.0036841764
198	0x3d800c4f	0.06252348
199	0xbd3b6945	-0.04575469
200	0x3d1fdd47	0.039029386
201	0x3dabbe2d	0.083858825
202	0x3b40667c	0.002935796
203	0x3ccff61a	0.025385905
204	0xbdc2e16c	-0.09515652
205	0xbcbbea43	-0.022938853
206	0x3c97f48b	0.018549224
207	0x3c57c217	0.013168833
208	0x3cd05f6b	0.025436124
209	0x3b26a5fa	0.002542852
210	0x3d9f3f46	0.0777574
211	0xbca4bc81	-0.020109417
212	0xbd4ff25e	-0.05076825
213	0xbb55cca3	-0.0032623194
214	0x3beb4262	0.0071795443
215	0xbd9731ae	-0.073825225
216	0x3d1dbdef	0.038511213
217	0xbcdb6483	-0.026781326
218	0x3baabca0	0.005210474
219	0x3cb5834e	0.022157338
220	0x3d21cbad	0.03950088
221	0x3cabd4a0	0.020975411
222	0x3b8b741a	0.0042557837
223	0x3cee8f89	0.029121177
224	0xbdb30819	-0.08741779
225	0x3d2fc27e	0.04291009
226	0xbc320fed	-0.010868055
227	0xbd9f76db	-0.07786342
228	0x3d0458bc	0.032311186
229	0x3d2ae184	0.041718975
230	0xbcd8c9b4	-0.026463367
231	0x3ce8fe38	0.028441533
232	0x3c17cf1b	0.009265686
233	0xbda1295e	-0.07869218
234	0x3cde1bda	0.02711289
235	0xbd79c94d	-0.06098299
236	0x3a9a4139	0.0011768705
237	0x3cf34b91	0.029699119
238	0xbd0fab78	-0.035075635
239	0x3d208279	0.03918693
240	0x3c64fbb1	0.0139760235
241	0x3c932e72	0.017966483
242	0xbb8c554e	-0.00428263
243	0xbcc31c73	-0.023817277
244	0x3d1aa9ec	0.037759706
245	0x3d9cf8e3	0.07664659
246	0x3ad6f75c	0.0016400623
247	0x3d8f0321	0.06983019
248	0x3db4c733	0.08827057
249	0x3c957aca	0.018247027
250	0x3d71547d	0.058918465
251	0x3c115537	0.008870414
252	0x3cb64cda	0.022253443
253	0xbd148e79	-0.036268685
254	0xbd1106da	-0.035406925
255	0x3dd6d85a	0.104904845

network_body._body_endoder.seq_layers.0.bias f4 [128]
0	0xbc1a041c	-0.009400394
1	0x3b7617b4	0.003755075
2	0x3d0a4ab9	0.033762667
3	0xbd2d42fc	-0.04230021
4	0x3d2c8700	0.042120934
5	0xbb4d4e08	-0.0031327028
6	0x3c1ad961	0.009451241
7	0xbcc0d689	-0.023539798
8	0x3cc3301c	0.023826651
9	0x3ccc978f	0.024974613
10	0x3cf1d04d	0.02951827
11	0x3c89a548	0.016802445
12	0xbcc7bd49	-0.02438225
13	0x3c8e2488	0.017351404
14	0xbb1e7718	-0.0024179872
15	0x3cebdbc2	0.028791312
16	0x3d28bde5	0.041196723
17	0x3c0859e0	0.008322209
18	0x3c71ab38	0.014750294
19	0x3d66036d	0.05615561
20	0x3cda417b	0.026642552
21	0xbc1b4f48	-0.009479351
22	0x3c5f4594	0.013627429
23	0x3d1466e6	0.036230944
24	0x3d1985e6	0.03748121
25	0xbc929f4e	-0.017898228
26	0x3d4256fb	0.047446232
27	0x3cb04371	0.021516534
28	0x3ce9ef79	0.028556572
29	0x3cc96da2	0.02458841
30	0x3c196954	0.009363491
31	0x3c29201f	0.0103226
32	0x3d3ee412	0.046604224
33	0x3d1c9afe	0.03823375
34	0x3ce53bc1	0.027982594
35	0x3b873c7b	0.004127083
36	0xbce18a79	-0.02753185
37	0x3ccb105e	0.024788078
38	0x3ca94807	0.020664228
39	0x3d8b7edc	0.06811306
40	0x3d74ba98	0.059748262
41	0x3d02c9f7	0.03193089
42	0x3b0a5931	0.002111029
43	0x3b484bb6	0.0030562705
44	0x3d83e9d5	0.06441084
45	0x3c717bd2	0.014738994
46	0x3cfb898d	0.030705238
47	0x3c79d2e6	0.015248036
48	0x3aeb56f2	0.0017954989
49	0xbb47d022	-0.0030489047
50	0x3c51c6f5	0.012803783
51	0x3c96605d	0.018356496
52	0xbd0b7ac4	-0.034052625
53	0x3bfe875f	0.0077676023
54	0x3bc28809	0.005936627
55	0xbc39477d	-0.011308548
56	0xbc90c393	-0.017671382
57	0x3d9b2b33	0.07576599
58	0xbc6cb3cc	-0.014447164
59	0x3ccf5e4d	0.02531352
60	0x3c5eabe1	0.013590784
61	0x3ae51ffa	0.0017480843
62	0x3d3d28a4	0.046181336
63	0xbb510876	-0.0031895912
64	0xbcd4945a	-0.025949646
65	0x3c892d67	0.016745282
66	0x3c800ac8	0.01563014
67	0x3d3e7348	0.04649666
68	0xbc8fae0e	-0.01753905
69	0x3bf83f5c	0.0075759124
70	0xbb9a37ff	-0.0047063823
71	0x3c0d0b1d	0.008608607
72	0x3cdaf540	0.026728272
73	0x3cc16a61	0.023610296
74	0x3c44ddc2	0.012015762
75	0x3bd85cac	0.006602844
76	0x3c595e61	0.013267131
77	0xbcdec6da	-0.02719443
78	0x3cd5a33c	0.026078813
79	0x3d7720c8	0.060333997
80	0x3b8bf9f3	0.0042717396
81	0x3d568464	0.05237235
82	0x3c6aeb1b	0.01433828
83	0x3d17d9f3	0.037073087
84	0x3ca282ca	0.019837756
85	0x3c1ef43c	0.009701785
86	0x3cbcc88f	0.023044853
87	0x3c9b5ebc	0.018966071
88	0x3cad63db	0.021165779
89	0x3bfd971c	0.007738961
90	0x3d14bd16	0.03631314
91	0x3c361ff3	0.011116016
92	0xbc9316e1	-0.017955245
93	0xbd6f0ead	-0.058363605
94	0x3d034c4c	0.032055184
95	0x3d1e0662	0.038580306
96	0x3c365458	0.011128508
97	0x3d0c8a6e	0.034311704
98	0xbc79551b	-0.015218045
99	0x3cd71b00	0.026257992
100	0x3c2c171f	0.010503559
101	0xba9c1baa	-0.00119101
102	0x3c7d185c	0.015447702
103	0x3c3fc217	0.0117039895
104	0xbb6beaa2	-0.0035998006
105	0x3cad4fe6	0.021156263
106	0x3ca43a08	0.020047203
107	0x3ca121c0	0.019669414
108	0x3c8282dd	0.015931541
109	0x3d17afd8	0.037032932
110	0xbc515cad	-0.012778443
111	0xbcc1127f	-0.02356839
112	0xbd5c6a4e	-0.053812318
113	0xbcf8a010	-0.030349761
114	0x3d35082f	0.044197258
115	0xbcc188ab	-0.023624739
116	0x3d8b5876	0.06803982
117	0x3b1c2141	0.0023823532
118	0x3c9bf024	0.019035406
119	0x3d3bec39	0.045879576
120	0x3c6932d4	0.01423331
121	0x3ba50837	0.0050363797
122	0x3d38c529	0.0451099
123	0x3a739d39	0.00092931424
124	0x3d2710d7	0.040787544
125	0x3c2d805d	0.010589686
126	0xbc67075c	-0.014100876
127	0x3d088c25	0.033336777

network_body._body_endoder.seq_layers.0.weight f4 [128, 6]
0	0x3e0787a0	0.1323533
1	0xbd1e744e	-0.038685136
2	0x3eec2f8f	0.46130034
3	0x3d92c542	0.0716653
4	0x3ef09bc4	0.4699384
5	0xbf2b15a8	-0.6682992
6	0x3ea50cfb	0.32236466
7	0xbed9027b	-0.42384705
8	0x3cff4140	0.031159043
9	0x3ea97918	0.331002
10	0xbed4318f	-0.4144406
11	0x3effe5cf	0.49980018
12	0x3e707e90	0.2348578
13	0x3ce34681	0.02774358
14	0x3ea9b6f6	0.331474
15	0xbe603f7a	-0.21899214
16	0xbe37032e	-0.17872307
17	0xbf39c0bf	-0.7255973
18	0xbd1f3ac3	-0.0388744
19	0x3f22bcac	0.6356914
20	0x3f2f30be	0.6843375
21	0xbefa12f7	-0.48842594
22	0xbe83bbca	-0.2572921
23	0x3f0ce5a9	0.55037934
24	0xbe911156	-0.2833354
25	0x3d03112e	0.031998806
26	0x3e8bfffd	0.2734374
27	0x3da54f5e	0.08071779
28	0x3ea7bf15	0.32762972
29	0xbd4aa9b3	-0.049478244
30	0x3e9ec5b2	0.31010205
31	0xbc4d64ac	-0.012536209
32	0x3e912065	0.28345028
33	0xbe3b2c9a	-0.18278733
34	0x3d08e07a	0.033417203
35	0xbe913b6c	-0.28365648
36	0xbef8c06c	-0.48584306
37	0x3f0308c2	0.5118524
38	0xbeaa4f70	-0.3326373
39	0x3cbfeb55	0.023427645
40	0xbefe175a	-0.4962719
41	0x3f8a6d02	1.0814517
42	0x3ec37617	0.38176033
43	0xbee2dc9c	-0.44308937
44	0x3f2b951d	0.67024404
45	0xbedfd236	-0.43715066
46	0x3ec7f110	0.39051104
47	0xbe8dce88	-0.27696633
48	0x3f1302c6	0.57426107
49	0xbc4a8c3e	-0.012362538
50	0xbd2ebe2f	-0.042661842
51	0xbb8c2792	-0.004277178
52	0x3e50775b	0.2035803
53	0xbdb58a44	-0.08864263
54	0xbf51e648	-0.81992006
55	0xbf6b9e2b	-0.9203822
56	0xbee5a4fb	-0.44852433
57	0x3f3fd4a0	0.74933815
58	0xbef83511	-0.48477986
59	0xbe03f694	-0.12887031
60	0x3ef76fe0	0.4832754
61	0xbeccc766	-0.3999588
62	0xbf1b86bf	-0.6075248
63	0x3daca89b	0.084305964
64	0xbed62895	-0.41827837
65	0xbf022131	-0.50831896
66	0xbea1ad67	-0.31577608
67	0xbeae5a29	-0.34053162
68	0xbf2d56a9	-0.6771036
69	0x3e41fbee	0.1894376
70	0xbf1befa5	-0.60912544
71	0xbe9ec599	-0.3101013
72	0x3ea7aea2	0.32750422
73	0x3ef0710b	0.46961245
74	0x3dd2283d	0.10261581
75	0xbf05c48f	-0.5225305
76	0x3e14931a	0.1450924
77	0xbee22bf5	-0.44174162
78	0x3ee6b87a	0.4506262
79	0x3ce3de62	0.027816001
80	0x3e945079	0.28967646
81	0xbd1a8069	-0.037720118
82	0x3ef7e16c	0.4841417
83	0x3e7f648d	0.24940701
84	0x3e253ee3	0.1613727
85	0x3d1169d7	0.035501327
86	0x3ef32ede	0.47496694
87	0x3edcd1ed	0.4312891
88	0x3daa2daa	0.08309491
89	0x3e3fc1b0	0.1872623
90	0x3e83a7f5	0.2571408
91	0xbf2947f5	-0.6612542
92	0xbf27f81a	-0.6561295
93	0xbe0c1d3d	-0.13683029
94	0x3e6f8cd7	0.2339357
95	0x3ec981ff	0.39356992
96	0x3dff9a8a	0.12480648
97	0x3f3e4bed	0.74334604
98	0xbea7b4a8	-0.32755017
99	0x3a6cb660	0.00090298615
100	0xbe8c3ff5	-0.27392545
101	0x3d570efb	0.05250452
102	0x3eff0c1f	0.49813935
103	0xbe497737	-0.19674383
104	0x3e736689	0.23769583
105	0xbe41eb62	-0.18937448
106	0xbee0a413	-0.4387518
107	0x3f433afa	0.76261866
108	0xbea4cc63	-0.32187185
109	0x3e8c0b62	0.27352434
110	0x3ec09c4e	0.3761925
111	0x3eb561e0	0.35426235
112	0x3eed3216	0.46327275
113	0xbd99299a	-0.07478638
114	0x3f00f6fd	0.50376874
115	0x3ec6d11b	0.3883141
116	0xbeaa21d0	-0.33228922
117	0xbc886754	-0.016650833
118	0x3effcf05	0.4996263
119	0xbf3dea77	-0.7418589
120	0xbe1ea07b	-0.15490906
121	0x3e8e048d	0.27737847
122	0x3efc2d02	0.49253088
123	0x3e1a84b6	0.15089688
124	0x3e15bb4e	0.14622232
125	0xbbe868e2	-0.007092581
126	0xbe911a8f	-0.28340575
127	0xbf6e6e10	-0.9313669
128	0xbe3eb350	-0.1862309
129	0x3f4c1a88	0.79727983
130	0x3e9de02f	0.308351
131	0x3ed2a071	0.41138032
132	0x3f4c736d	0.79863626
133	0x3e91dd28	0.2848904
134	0xbed151a2	-0.40882593
135	0x3e8d11e6	0.27552718
136	0xbed80326	-0.42189902
137	0xbe4bfd52	-0.19920853
138	0x3ee82393	0.4533964
139	0x3f281bf0	0.6566763
140	0xbf320f83	-0.6955492
141	0x39d8e20d	0.0004136715
142	0xbe973da7	-0.29539225
143	0xbedd340b	-0.43203768
144	0xbf50e434	-0.8159821
145	0xbbf89f3a	-0.0075873407
146	0xbea9f414	-0.3319403
147	0x3e0f4ad0	0.13993382
148	0x3e036b60	0.12833929
149	0x3c23bb14	0.009993333
150	0x3edaea59	0.42756918
151	0xbed8d2b7	-0.42348263
152	0xbe37e566	-0.17958602
153	0x3f35f0b9	0.7107044
154	0xbd9ee45e	-0.07758401
155	0xbe134f99	-0.14385833
156	0xbf0ac84f	-0.54211897
157	0x3dc08ba9	0.09401638
158	0xbe5b4abd	-0.21415229
159	0xbf63340b	-0.88751286
160	0xbefa1e94	-0.48851454
161	0x3e1d6a34	0.15372545
162	0x3bc580f8	0.006027337
163	0x3e1f462b	0.1555411
164	0x3e4b8e5f	0.19878529
165	0xbee082ec	-0.43849885
166	0xbda1d72e	-0.079023704
167	0xbeaea98f	-0.34113738
168	0xba6c1772	-0.0009006179
169	0x3f0c3d15	0.54780704
170	0x3dbd1adb	0.09233638
171	0xbe36d851	-0.17855956
172	0x3f1b3ffb	0.606445
173	0xbf3c9372	-0.73662484
174	0x3ee10d53	0.43955478
175	0xbdd3cd66	-0.10341911
176	0xbf416e7a	-0.755592
177	0x3e1ab151	0.15106703
178	0xbd018ab7	-0.03162643
179	0xbf181794	-0.5941098
180	0xbe28d6dc	-0.16488212
181	0x3ad9fddc	0.0016631442
182	0x3d4bbecd	0.04974251
183	0xbf05c381	-0.5225144
184	0x3d35fade	0.0444287
185	0x3f07791a	0.5291916
186	0x3f3c9f2c	0.73680377
187	0xbf3eb86c	-0.74500155
188	0x3f2ea5a6	0.6822151
189	0x3f1de243	0.61673373
190	0x3f300afc	0.6876676
191	0x3e4e70a1	0.20160152
192	0xbf37021a	-0.7148758
193	0xbd3eb799	-0.04656181
194	0xbf16c74b	-0.58897847
195	0xbeae8108	-0.34082818
196	0xbbc5e77a	-0.006039557
197	0x3ed0f34d	0.40810624
198	0x3e68cfaa	0.22735468
199	0x3dca02b2	0.09863795
200	0xbee76237	-0.4519212
201	0xbe365e89	-0.178095
202	0x3f2bcc32	0.6710845
203	0xbe94d83b	-0.2907122
204	0x3f077247	0.5290875
205	0x3dc7021b	0.097171985
206	0x3db3860f	0.08765804
207	0x3dc7adec	0.0974997
208	0xbe073d9d	-0.13207097
209	0xbe57ee54	-0.21087009
210	0x3e9c670f	0.30547377
211	0xbebbb7a9	-0.3666356
212	0xbe7eefda	-0.24896184
213	0xbf02e546	-0.51131094
214	0x3ea98ed9	0.33116797
215	0x3c861955	0.016369501
216	0xbeb053f6	-0.34439057
217	0x3ea6503e	0.32483095
218	0xbf2a605b	-0.66553277
219	0xbf584ec6	-0.844952
220	0xbf8c23ed	-1.0948464
221	0xbe51e88d	-0.20498867
222	0xbe53500a	-0.20636001
223	0xbdded598	-0.108805835
224	0xbfa5032e	-1.2891595
225	0x3e195045	0.14972027
226	0xbe6f3957	-0.23361717
227	0x3cbce9b3	0.023060655
228	0xbe9e6131	-0.30933526
229	0xbe6af5d2	-0.22945336
230	0xbf1fb5cf	-0.6238679
231	0xbe50a699	-0.20376052
232	0x3ec7395b	0.38910946
233	0x3e47844b	0.1948406
234	0xbf6120c4	-0.8794062
235	0xbf74986a	-0.95545065
236	0x3ea98474	0.33108866
237	0x3e317bf6	0.17332444
238	0x3efa1794	0.48846114
239	0x3e76eb27	0.24113141
240	0xbece9326	-0.4034664
241	0xbe3d38f6	-0.1847876
242	0xbf15ec75	-0.5856393
243	0xbebbbc4c	-0.36667097
244	0x3e45ced5	0.19317181
245	0xbf2c541a	-0.6731583
246	0xbcbcb3e5	-0.023035
247	0xbd8096a3	-0.06278732
248	0x3f2c86c1	0.6739312
249	0x3f0c83fc	0.5488889
250	0x3f100b01	0.5626679
251	0x3eccfdb0	0.40037298
252	0x3f0baa41	0.5455666
253	0xbda015e0	-0.07816672
254	0xbed220a4	-0.41040528
255	0x3e415753	0.18880968

network_body._body_endoder.seq_layers.2.bias f4 [128]
0	0x3cbeedee	0.023306813
1	0x3c4b62b4	0.012413669
2	0x3c683009	0.014171609
3	0xbbc7343a	-0.006079224
4	0xbbe34f5b	-0.00693695
5	0x3c56e8dd	0.013117042
6	0x3bdc5aca	0.00672469
7	0x3cee3b16	0.029080909
8	0x3c879109	0.01654865
9	0x3b54784e	0.003242034
10	0x3c55935c	0.0130356215
11	0x3c9ea5e7	0.019366218
12	0x3aaa37ee	0.0012986639
13	0x3c6645f2	0.014054762
14	0x3c6e2c7b	0.014536972
15	0x3bb72b38	0.005589869
16	0x3d233d48	0.039853364
17	0x395ce302	0.00021065402
18	0x3cbfe00e	0.023422267
19	0x3a145633	0.00056585966
20	0x3c725e56	0.014792999
21	0xbc971c8b	-0.018446228
22	0x3bd32035	0.0064430484
23	0xbce2f77d	-0.027705902
24	0x3d26f555	0.04076131
25	0xbb4fc3db	-0.0031702432
26	0x3c924f10	0.017859966
27	0xbc6ef24d	-0.014584136
28	0x3c2e8a9c	0.010653164
29	0x3c9cf95f	0.019161878
30	0x3b7b6374	0.003835884
31	0x3c4d28e7	0.012521959
32	0xbb3fb0f4	-0.002924976
33	0x3c43cb59	0.011950337
34	0x3c3f3407	0.011670119
35	0x3c97e5d6	0.018542212
36	0x3cf9df41	0.030501964
37	0x3ce2af58	0.027671501
38	0x3d0426dc	0.03226362
39	0x3c71763c	0.014737662
40	0x3ca2442a	0.019807894
41	0x3c0908b9	0.008363896
42	0xbbd06e7b	-0.0063608265
43	0x3c40726c	0.01174603
44	0x3c2ed40d	0.010670674
45	0x3b8178e6	0.00395118
46	0xbb9818c7	-0.0046416256
47	0x3bee2b47	0.0072683427
48	0x3c0c80ee	0.008575661
49	0x3cb491c4	0.022042163
50	0x3c6c8ff9	0.014438623
51	0x3cab3d0a	0.02090313
52	0x3c8f7eae	0.01751646
53	0x3d3620ab	0.04446475
54	0x3c4f0501	0.01263547
55	0xbba35fdf	-0.004985794
56	0x3c6825bb	0.014169152
57	0xbbd1b06f	-0.0063992064
58	0x3b502952	0.003176291
59	0x3c6f084b	0.01458938
60	0x3c8acd10	0.016943485
61	0x3c59ae8a	0.013286242
62	0xbb4c3445	-0.0031159085
63	0x3b112660	0.0022148117
64	0x3bffec71	0.0078101684
65	0xbb875b9b	-0.0041307933
66	0x3cdca83c	0.02693569
67	0x3ccc8d6f	0.024969785
68	0x3cc9350f	0.024561433
69	0x3bb4b433	0.0055146455
70	0x3c3a528d	0.011372221
71	0x3c21d696	0.009877821
72	0x3c76d3d8	0.015065156
73	0x3c61bb5a	0.013777578
74	0x3be13681	0.0068729525
75	0x3cacdb83	0.021100765
76	0x3cca6c46	0.024709832
77	0x3c0588fa	0.008150334
78	0xbc81a24b	-0.015824458
79	0xbc89190f	-0.016735582
80	0xbc47b72b	-0.012189667
81	0x3c24fe65	0.010070418
82	0x3c459fbf	0.012062012
83	0x3c46046f	0.012086018
84	0x3cc0f020	0.023552
85	0xbb0f36b0	-0.0021852665
86	0x3ad846e3	0.0016500618
87	0x3d0b2fe5	0.033981223
88	0x3cba8fc7	0.022773637
89	0x3be507e1	0.0069894646
90	0x3c6ff7ed	0.014646512
91	0xbae69015	-0.0017590547
92	0x3c4b5f82	0.012412908
93	0x3c82f739	0.015987026
94	0x3bf130e5	0.007360565
95	0xbb16830b	-0.0022966291
96	0x3ce0684f	0.027393488
97	0x3c57154a	0.013127634
98	0x3b7fb5c0	0.0039018244
99	0x3ca868dd	0.020557815
100	0x3c90a404	0.017656334
101	0x3af30531	0.0018540976
102	0x3b35b693	0.002772723
103	0xba89d121	-0.0010514596
104	0xbba8f7a4	-0.005156474
105	0x3c8d5eeb	0.017257174
106	0xbc6740ce	-0.014114572
107	0x3c47e70d	0.012201083
108	0x3c5d54db	0.013509001
109	0x3c1793f0	0.00925158
110	0x3d09e836	0.03366872
111	0xbc389276	-0.011265388
112	0x3b112d1f	0.0022152138
113	0x3c019c05	0.007910733
114	0xbbe949a0	-0.0071193725
115	0x3aa28f23	0.0012402277
116	0x3b8d4a74	0.004311854
117	0x3d2a08e3	0.04151238
118	0x3bed3650	0.0072391406
119	0x3c35852b	0.011079113
120	0x3d17f161	0.03709543
121	0x3c274665	0.010209654
122	0xbc4cdeea	-0.012504319
123	0xbb0aabd2	-0.0021159542
124	0x3bbc8a07	0.005753759
125	0x3cef6147	0.02922119
126	0x3c8a9f92	0.016921792
127	0x3c801609	0.015635507

network_body._body_endoder.seq_layers.2.weight f4 [128, 128]
0	0xbd9cadcd	-0.07650337
1	0xbd99c9a7	-0.07509165
2	0xbc4edda4	-0.012626085
3	0xbdae3077	-0.08505338
4	0xbe39a13d	-0.18127914
5	0x3d5326cf	0.051550683
6	0xbd2f00e8	-0.042725474
7	0xbd987c20	-0.0744555
8	0xbd0ae264	-0.03390731
9	0x3d74f4f6	0.059803925
10	0x3de79005	0.113067664
11	0x3e0a29c3	0.13492493
12	0x3de8b2cc	0.11362228
13	0xbdbf5dc2	-0.09344055
14	0xbdf2573c	-0.11833045
15	0x3e15ee23	0.14641623
16	0x3c2ec02b	0.010665934
17	0xbde50358	-0.111822784
18	0xbda7424d	-0.08166943
19	0x3d2b3043	0.041794073
20	0xbe43fef8	-0.19140232
21	0xbd96ad1b	-0.07357236
22	0x3e1b02fb	0.15137856
23	0x3db99e35	0.09063379
24	0x3db23a6d	0.0870255
25	0x3e0410a6	0.12896976
26	0x3da8bedc	0.082395285
27	0x3d51c7c7	0.051215913
28	0xbdb11d61	-0.08648182
29	0x3bd4ca66	0.0064938543
30	0xbdad74b4	-0.08469525
31	0xbd622ccc	-0.055218503
32	0x3e2d487c	0.16922182
33	0x3e34b528	0.1764723
34	0xbda83c5d	-0.082146384
35	0xbce08ca6	-0.027410816
36	0x3da57f31	0.080809005
37	0x3e36d4fc	0.17854685
38	0x3d6665f5	0.056249578
39	0x3d6309bc	0.055429205
40	0x3d817924	0.06321934
41	0xbc85b02b	-0.016319355
42	0xbc68ac57	-0.014201245
43	0xbdd7d433	-0.10538521
44	0x3cd00056	0.025390785
45	0x3d95d3f4	0.073158175
46	0x3cc0c4c0	0.023531318
47	0x3d411916	0.047143064
48	0xbcde3c07	-0.027128233
49	0x3cfa49d3	0.03055278
50	0x3b81a583	0.003956498
51	0x3c3bf4d2	0.011471944
52	0xbc37a560	-0.011208862
53	0x3d83e6f4	0.06440535
54	0xbc19a141	-0.009376825
55	0xbca638c6	-0.020290744
56	0xbda0c93b	-0.07850882
57	0xbe08a8ab	-0.13345592
58	0x3cdbde4a	0.026839394
59	0x3d852191	0.06500543
60	0xbb7b1caa	-0.0038316646
61	0xbc4855cd	-0.012227488
62	0xbdae9c49	-0.08525903
63	0x3d353ab6	0.044245444
64	0x3d825eb8	0.063657224
65	0xbdda2851	-0.10652221
66	0x3dfafed9	0.122556396
67	0x3cc3ccd3	0.023901379
68	0xbb976a16	-0.0046208007
69	0x3d499e14	0.04922302
70	0xbd736f49	-0.0594323
71	0xbe1c884a	-0.15286365
72	0xbdf54cd3	-0.11977544
73	0xbccca0ec	-0.024979077
74	0x3d5df8af	0.05419224
75	0x3d1327ea	0.035926737
76	0xbdd30ae2	-0.1030481
77	0xbd8d42ea	-0.068975285
78	0xbc1d5e0c	-0.009604942
79	0xbd0b34b9	-0.033985827
80	0xbda87e87	-0.08227258
81	0xbe5d7cec	-0.21629685
82	0xbb641d29	-0.003480742
83	0x3df7f00b	0.121063314
84	0xbe373d7c	-0.17894548
85	0xbcca30b4	-0.024681427
86	0xbcd41714	-0.02588991
87	0x3e4b1105	0.19830711
88	0xbdbe7745	-0.093000926
89	0x3e08273a	0.13296214
90	0x3d4ce6ab	0.05002467
91	0xbcea3269	-0.02858849
92	0x3dca74e8	0.09885579
93	0x3dd2f215	0.1030008
94	0x3e04e7c0	0.1297903
95	0x3dd1cd7e	0.10244273
96	0xbb99a73e	-0.0046891263
97	0x3d8bfaaa	0.0683492
98	0xbd5e79c8	-0.05431536
99	0x3bc1af14	0.0059107635
100	0x3e228916	0.15872607
101	0xbd2b90fa	-0.041886307
102	0x3dfc9fc4	0.123351604
103	0x3e151ca7	0.14561711
104	0x3d96b383	0.07358458
105	0xbca76f66	-0.020438861
106	0x3d34aade	0.044108264
107	0x3baa921f	0.0052054073
108	0xbc47f7f8	-0.012205116
109	0x3e019def	0.12657903
110	0xbdd05d95	-0.10174099
111	0xbcd9baf1	-0.026578398
112	0x3dbef711	0.09324468
113	0x3d4d16ce	0.050070576
114	0x3dc13d2a	0.09435494
115	0x3d0fff20	0.035155416
116	0x3e9d4a72	0.3072086
117	0x3d92fac1	0.07176734
118	0x3c958e69	0.018256383
119	0xbd19aef1	-0.037520353
120	0x3e11628d	0.1419775
121	0x3d014863	0.031563174
122	0xbde045e9	-0.10950834
123	0x3c941e72	0.018080924
124	0xbe77979d	-0.2417893
125	0xbd028474	-0.0318646
126	0x3dd236ba	0.102643445
127	0xbe323724	-0.17403847
128	0xbc8f6fc3	-0.017509347
129	0x3dad2e1a	0.08456059
130	0x3d0c03d5	0.034183342
131	0x3dadd935	0.084886946
132	0x3db8d9d4	0.090259224
133	0xbd481d31	-0.048855964
134	0x3cfdddfc	0.03098964
135	0xbdd9a594	-0.10627285
136	0x3ce52104	0.027969845
137	0x3dfc3c60	0.12316203
138	0x3e1751dd	0.14777322
139	0xbd0947e5	-0.03351583
140	0xbdb86f1a	-0.09005566
141	0x3df85abc	0.12126681
142	0xbd4c117d	-0.049821366
143	0xbac24c22	-0.0014823715
144	0xbd17dd2c	-0.03707616
145	0x3de4d99f	0.111743204
146	0xbdc430f3	-0.09579649
147	0x3db91048	0.090363085
148	0xbd3aa38a	-0.04556612
149	0xbd046339	-0.03232119
150	0xbd75523c	-0.059892878
151	0x3d852d49	0.06502778
152	0xbda0d482	-0.07853033
153	0x3d82e09b	0.06390496
154	0xbe1df91d	-0.1542706
155	0x3dfb5f25	0.12274007
156	0xbe19e63e	-0.15029237
157	0x3e35652d	0.17714377
158	0x3d9e7c55	0.07738558
159	0xbdb6847d	-0.08911989
160	0xbe410ad7	-0.18851791
161	0xbd8c2af1	-0.06844128
162	0x3e3a522f	0.18195413
163	0xbdec33dc	-0.11533329
164	0xbe538c6a	-0.20659032
165	0x3d0bc71b	0.03412543
166	0x3e1fb9b1	0.1559818
167	0xbd213989	-0.03936151
168	0x3d2a6225	0.041597504
169	0x3cbfc6ff	0.023410318
170	0x3e05fd01	0.13084795
171	0x3e138a1c	0.14408153
172	0xbe6decbb	-0.23234837
173	0xbb2c7de0	-0.0026320145
174	0x3dabf001	0.083953865
175	0x3cff1a65	0.031140516
176	0xbdc35da3	-0.09539344
177	0x3d7d2d96	0.061811052
178	0x3d41342b	0.047168892
179	0xbe0297f4	-0.12753278
180	0xbca291ec	-0.019844972
181	0xbdd4f498	-0.10398215
182	0x3d6ef0bd	0.058335055
183	0xbcd863c9	-0.026414769
184	0x3e18a655	0.149072
185	0xbe6e2163	-0.23254924
186	0x3d2f4d6b	0.04279844
187	0x3e099c47	0.13438521
188	0xbe2bd5f9	-0.16780843
189	0x3d9c3e80	0.076291084
190	0x3cd98d90	0.02655676
191	0x3dd8bcfd	0.10582922
192	0xbe3d08f5	-0.18460448
193	0xbd856d49	-0.06514985
194	0xbd249b94	-0.040187433
195	0xbd509729	-0.050925408
196	0x3e1d23bf	0.15345667
197	0xbdeffb8b	-0.117179
198	0x3de1fba6	0.11034326
199	0x3deecef3	0.11660566
200	0xbcb87d03	-0.022520548
201	0xbda18a79	-0.0788774
202	0x3dcdc88b	0.10048016
203	0x3b4319e5	0.0029770073
204	0xbdaac3ab	-0.08338102
205	0x3d6c1afe	0.05764293
206	0xbbddda4d	-0.0067704082
207	0xbe83b616	-0.25724858
208	0x3dc3a5eb	0.09553131
209	0xbdf5bad4	-0.11998525
210	0x3cfe8ce1	0.031073036
211	0xbd1178b2	-0.035515495
212	0x3dbbb6cc	0.09165725
213	0xbe093dbf	-0.1340246
214	0xbe3c919f	-0.18414925
215	0xbe2367f0	-0.15957618
216	0x3daad7c3	0.083419345
217	0xbd67b1d7	-0.056566086
218	0x3dfb87f0	0.122817874
219	0xbe55efb9	-0.20892228
220	0xbcee3043	-0.029075747
221	0x3d3fb8fb	0.04680727
222	0xbd213260	-0.039354682
223	0xbb00fd44	-0.0019682208
224	0x3e175357	0.14777885
225	0xbd7427bc	-0.059608206
226	0x3d294678	0.04132697
227	0x3da45385	0.080237426
228	0x3d907dd4	0.0705525
229	0xbda94ef4	-0.08267012
230	0xbd2dd01a	-0.04243479
231	0xbe186a21	-0.14884235
232	0xbc3a9a20	-0.011389285
233	0x3e137322	0.14399388
234	0x3c9ed935	0.019390682
235	0xbe0d86ad	-0.13820906
236	0xbd8d8a4d	-0.069111444
237	0x3e128a7d	0.14310642
238	0xbb8d1e7a	-0.0043066116
239	0xbd02b828	-0.031913906
240	0xbd7cec5d	-0.06174885
241	0xbd54ee38	-0.051984996
242	0xbdb8d22e	-0.090244636
243	0x3bc936a4	0.006140547
244	0xbde531dc	-0.111911505
245	0x3bde3e0e	0.0067823
246	0x3c247b63	0.010039183
247	0x3d422fe3	0.04740895
248	0x3db48399	0.08814163
249	0xbe173c3a	-0.14769068
250	0x3dcb9519	0.099405475
251	0xbd8063a0	-0.06269002
252	0xbd990c71	-0.07473076
253	0x3caf0676	0.021365386
254	0x3e1b26f7	0.15151583
255	0xbd4abce0	-0.04949653
